QIENetV1_0_0/QIENet_Conv7.pth (torch, 219137 bytes, 11 tensors)

net_list.0.cell_list.0.conv2d.weight f4 [64, 22, 3, 3]
000000 0f e0 79 bc 79 38 4d bc b2 89 f6 bd 5b 92 d2 bd
       -0.015251174 -0.012525671 -0.12037982 -0.10281821
000010 0c ea 23 bd a8 bd 65 bc 5c 97 77 bd b0 4c 3f bc
       -0.040018126 -0.014022268 -0.060447082 -0.011675999
000020 22 51 f3 ba 5c c4 d0 3b 5c bb 14 bc f3 f0 ef bc
       -0.0018563608 0.006371064 -0.009077873 -0.029289698
000030 9d 86 a5 3d ad d3 ca 3a 4c 11 8a 3d b1 9d d1 bc
       0.08082316 0.0015474461 0.0674158 -0.025587888
000040 51 22 29 3b 31 12 be 3c 9e 66 f6 bc da b3 f8 bd
       0.0025807808 0.023202034 -0.030078229 -0.12143679
000050 a2 2a 5b bd 5f b5 06 3d 36 c7 a3 3c 61 9b 87 bc
       -0.053507455 0.032887813 0.019992452 -0.016553583
000060 fb 5a 85 bc e5 f0 16 bd da e2 7c 3b 34 bf bc 3d
       -0.016278734 -0.03685083 0.0038587363 0.092161566
000070 75 f9 58 3c 31 30 1d 3c 51 bb 03 bc 4e f5 01 3e
       0.013243069 0.009594009 -0.008040265 0.12691233
000080 65 9f 06 bc 87 65 b5 3c 9b 75 3e bd b1 fb f4 b9
       -0.008216714 0.022143139 -0.046498876 -0.0004672683
000090 f1 2b ac 3d 3d ae f6 3c 8c 54 a8 3d 75 a3 d7 3d
       0.08406819 0.03011238 0.08219251 0.10529224
0000a0 7f de 09 3e 8a e2 e2 3d c3 12 80 bd 00 78 b7 bc
       0.13463782 0.11078365 -0.062535785 -0.022396088
0000b0 39 40 27 bd 07 af 80 ba 98 d2 1c 3d 11 e1 60 3d
       -0.040832732 -0.0009817787 0.038286775 0.05490214
0000c0 1c 87 eb 3d ab 53 eb 3c 17 c7 8f 3d ab 99 96 bd
       0.115003794 0.02872642 0.07020395 -0.073535286
0000d0 07 4d 30 bb 3a 23 be 3d 43 d7 ef 3d 04 3c f8 bb
       -0.002690138 0.09284063 0.1171098 -0.007575514
0000e0 2c 74 d9 3d 3c 10 bb 3d dd e3 7f 3d 47 1a 1b 3d
       0.10617861 0.09133956 0.062473167 0.037866857
0000f0 c1 0c 2b 3e c5 44 47 3d 50 57 75 bd 51 be da 3c
       0.16704084 0.048649568 -0.05989772 0.026702078
000100 a8 35 fc bd 4d b1 2f bd a1 48 ec bd d4 a5 b4 bd
       -0.123149216 -0.042893697 -0.1153729 -0.08820692
000110 1d ee a2 bd 98 64 fc bd 96 6d e0 bd c6 94 9f 3c
       -0.07955573 -0.12323874 -0.10958402 0.01948012
000120 91 92 ee bc d7 85 98 bd 1b fc 05 bd 1e d7 1d bd
       -0.029122623 -0.07447403 -0.03271113 -0.03853523
000130 2b cc 85 bd e6 8a 03 be c2 16 a4 bd 55 77 d4 bd
       -0.065330826 -0.12845954 -0.08012153 -0.10374323
000140 22 1e 99 bd d2 c3 86 3c 24 97 95 3d 89 a0 fe 3c
       -0.074764505 0.016450796 0.073042184 0.031082409
000150 bc 93 13 bb 3d 3a 5c bb 7a f5 13 bd f2 c8 0f 3d
       -0.0022518476 -0.0033604049 -0.036122777 0.035103746
000160 2c c5 c2 3d 59 45 48 3c 32 6b a2 3d 19 10 b2 3d
       0.09510264 0.012223565 0.07930602 0.08694477
000170 58 5e 0a bd b7 a2 6d 3e d9 51 dc 3d f7 bb 1d bd
       -0.03378138 0.23206602 0.10757799 -0.038509335
000180 e5 c6 43 3e 5c 07 17 3e b8 84 92 bd 3a cf a5 3d
       0.19118841 0.14748901 -0.0715422 0.08096166
000190 39 0e 36 3e a7 ff da 3d 5b 28 c5 3d 8c 71 f2 3d
       0.17778863 0.10693293 0.09626838 0.118380636
0001a0 68 93 43 3c 27 2f 67 3e ab 7a 5b 3e fc a0 bf 3d
       0.011937 0.22576581 0.21433513 0.09356877
0001b0 79 f6 55 3d 08 45 13 be c8 48 13 3d 29 57 22 3e
       0.052237008 -0.14381802 0.03595808 0.15853561
0001c0 de 11 03 3d 44 47 d2 3c c7 fc 42 3e dd cf ae 3c
       0.03199946 0.025668748 0.1904174 0.021339351
0001d0 46 1d d1 3c 18 6c 2e be ce 3e 74 be b9 a5 87 be
       0.025526654 -0.17033422 -0.23852083 -0.26493624
0001e0 6b b9 33 be 7a ce 57 be 82 e2 01 be 6f ce 09 be
       -0.175512 -0.21074858 -0.12684062 -0.13457654
0001f0 c1 b1 98 bd 2a e2 27 be 83 54 9b bd 44 8c db bd
       -0.07455779 -0.16394868 -0.07584479 -0.10720113
000200 18 7e ce ba 56 02 b9 bd aa e8 d2 bd 5f 03 94 bd
       -0.0015754132 -0.09033649 -0.102982834 -0.072272055
000210 bb 40 35 be 01 29 9e 3b 67 c3 96 3d c5 aa d7 3d
       -0.17700474 0.0048266654 0.07361489 0.105306186
000220 14 23 cb 3d 1f ed 9f 3d fc 37 ea 3c 81 41 16 3e
       0.099188 0.07808899 0.028591149 0.14673425
000230 fd 32 25 3e cf f7 07 3e b6 7c 0b 3e 4e b9 d8 3d
       0.16132732 0.13278125 0.13621792 0.10582219
000240 dd 85 36 3d e4 fe bf 3d 94 72 05 3e 07 17 a1 3c
       0.044561256 0.093747884 0.1303199 0.0196643
000250 92 61 94 3d a2 9e 02 3e 9a b5 8b 3d f3 f5 75 3d
       0.072451726 0.12755826 0.06821747 0.06004901
000260 7f c3 3f 3e d7 71 91 3d 4d 50 27 be 46 b3 25 be
       0.1872692 0.07101791 -0.16339226 -0.16181669
000270 49 e0 8b 3d 39 d2 0d be 18 84 94 bd 58 cc 0d 3e
       0.068298884 -0.13849725 -0.072517574 0.13847482
000280 51 54 9d bc a0 54 f0 3c f7 eb 97 3d 67 e1 3a bd
       -0.019205244 0.029337227 0.074180536 -0.045625117
000290 f0 4c 17 3d ca f1 e6 3d e0 81 02 3e 66 a4 b0 bd
       0.036938608 0.11276586 0.12744856 -0.086251065
0002a0 fd a6 5b 3e 4d 0b ef 3c 5d e6 de 3c 56 f4 7f 3e
       0.2145042 0.029180193 0.027209455 0.2499555
0002b0 5f 80 0f 3e 44 6b 6d 3e 87 03 36 3e dc 35 4f 3e
       0.14013813 0.2318545 0.17774783 0.2023539
0002c0 e4 90 86 ba ce 26 18 3e d7 c2 c9 bc dc 3c e7 bd
       -0.001026657 0.14858553 -0.02462904 -0.11290905
0002d0 a5 18 8e 3b 1d f6 2a 3c b2 09 62 bd 94 67 2c 3d
       0.004336434 0.010434655 -0.055185027 0.042090967
0002e0 42 52 40 3d c2 7e 92 3d 45 fb 9c 3c 45 39 2a 3d
       0.046953447 0.071530834 0.019162783 0.041558523
0002f0 8c 34 23 bc e2 0e 46 bc 27 6e e7 ba 6e ba ac 3d
       -0.009961259 -0.012088509 -0.0017656729 0.08433996
000300 26 36 4a bd da 1b 45 3d 27 d8 3d 3d c8 3f e1 bb
       -0.049368046 0.048122264 0.046348717 -0.0068740584
000310 99 32 f6 3d 46 ee 1c 3e cf f3 44 bd 7b 28 97 bd
       0.120213695 0.15325269 -0.048084076 -0.07380768
000320 ea a2 c4 bd 92 de 83 bc 14 70 31 bd d1 4e 78 bc
       -0.09601386 -0.01609734 -0.043319777 -0.01515551
000330 b5 95 da 39 67 61 6d 3c 46 c5 65 bb 96 68 59 bd
       0.0004169174 0.014488555 -0.003506021 -0.053078257
000340 81 8d 23 3b 76 45 01 be 85 c6 b2 bd aa 45 b5 bd
       0.002495617 -0.12624153 -0.08729271 -0.08851178
000350 77 88 96 bd 42 ed 1c bd 88 b0 d5 bd dd b8 9b bd
       -0.07350247 -0.038312204 -0.10434061 -0.07603619
000360 cc 6d 89 3d fa c6 30 3d bd 75 aa bd ea 5d 1f bb
       0.06710395 0.04315851 -0.08323238 -0.0024317452
000370 99 7a 7f bd e6 1a 8a bd c8 24 a3 3c d1 af e4 bb
       -0.062372778 -0.06743412 0.019915 -0.0069789668
000380 f4 75 ad bc a8 42 ad bc af e2 96 bd f0 f3 ba bd
       -0.021174408 -0.021149948 -0.07367455 -0.09128559
000390 90 11 1a bd db 12 6a bb 3f 26 19 bd bf c3 e8 bb
       -0.037614405 -0.0035716805 -0.03738999 -0.007103413
0003a0 86 cb 65 bd a7 d7 26 3d 3f a8 fd 3d bb 73 dc 3c
       -0.0561023 0.040733006 0.12385606 0.026910653
0003b0 ad 65 c0 3d ef b5 ad 3d c1 8d de 3d 16 1d c0 3b
       0.09394393 0.08481967 0.10866881 0.0058628423
0003c0 9c e6 b8 3d 7d 32 27 3d b9 1c 02 3d 4c 69 43 3d
       0.0902836 0.040819634 0.031765673 0.04770784
0003d0 aa b1 5c bd 44 9a c0 bd 83 26 6b 3c a4 be aa 3c
       -0.05388037 -0.09404424 0.014352444 0.020842858
0003e0 a3 8d 6b bd c6 c8 73 b9 a2 3b e5 bc f0 82 31 bd
       -0.057508122 -0.0002324908 -0.027982537 -0.043337762
0003f0 22 26 44 3e 29 5f 7b 3b e4 80 23 3d 5b 9f 2b 3d
       0.19155172 0.003835628 0.03991784 0.04190002

net_list.0.cell_list.0.conv2d.bias f4 [64]
000000 e8 e9 80 bd 4f dc 2d 3c 18 be b2 bc 2b b8 9b 3a
       -0.06294614 0.010611608 -0.02181916 0.0011880448
000010 28 2f 8c bd f8 c1 99 3d 39 f7 c7 3c ee 5a f0 bc
       -0.06844932 0.075077 0.024409877 -0.029340234
000020 c9 eb 3a 3b 5c 7f 8d 3d 0a 2b 20 3d 58 2e da 3d
       0.0028521887 0.069090575 0.039103545 0.106533706
000030 f3 79 5d bd 19 af 95 bc e2 78 08 3e d9 4d 45 bd
       -0.054071378 -0.01827197 0.13327363 -0.048169944
000040 17 7f df bd df 31 13 3e 3c c0 cd 3d 49 1f bf bd
       -0.10912912 0.14374493 0.100464314 -0.09332139
000050 25 f3 a4 3d b7 02 3a 3e a9 f9 23 3e 9a 56 3e 3e
       0.08054189 0.18165098 0.16013207 0.18587723
000060 51 fc b4 bc f1 59 60 3d 58 e4 18 3c 22 b8 71 3e
       -0.02209297 0.054773275 0.009331785 0.23605397
000070 5a 30 e3 bb 31 ba 11 3d 2d 20 3e bc 96 ba 10 bd
       -0.006933254 0.035577957 -0.011604351 -0.035334192
000080 29 ab a4 3d e4 84 4a bc 9d 25 a5 3c 4e 24 f0 3b
       0.08040459 -0.012360785 0.020159537 0.0073285466
000090 9f 1d 88 3d 39 ea 1b 3e 5b 20 3a 3d 69 bf ad bd
       0.06646275 0.15226068 0.045441013 -0.08483774
0000a0 b9 e6 29 3d cd 77 85 bc f1 e3 12 3e b4 e3 81 bd
       0.0414798 -0.016292477 0.14344765 -0.06342259
0000b0 c1 10 fd bd 2a 35 5d 3d a9 05 62 bd 2f 9a 31 be
       -0.12356711 0.05400578 -0.05518118 -0.17343973
0000c0 a6 22 29 3e 65 71 be 3d 2e e3 81 bc e9 b1 13 be
       0.16517124 0.09298972 -0.015855398 -0.14423336
0000d0 0e 97 18 3e e3 dc 67 3e f7 a6 e5 3d fb 72 1b 3e
       0.14901373 0.22642855 0.11213487 0.1518058
0000e0 0a 4c 79 3d fa c7 2b bc 3b be 33 3d 74 9f 08 3e
       0.060863532 -0.01048469 0.04388259 0.13342077
0000f0 ad f6 af bb 7a c5 f5 3c 34 25 20 3d 5c f4 83 3e
       -0.005369982 0.03000139 0.03909798 0.2577237

net_list.0.cell_list.1.conv2d.weight f4 [64, 32, 3, 3]
000000 58 ba fa 3b 1b c8 e4 3c c2 3b 0d bd 5a c1 97 bd
       0.0076516084 0.027927449 -0.034480818 -0.07409926
000010 02 8b 8b bd 08 30 f3 bd 82 04 ba 3d 09 a9 4e 3d
       -0.06813623 -0.118743956 0.09082891 0.050454173
000020 83 b1 ac bc 08 86 64 3c 31 91 82 bd 48 65 ac bd
       -0.021080738 0.013947971 -0.06375349 -0.08417755
000030 c2 7c 88 3d 86 be fb bc 77 b5 0a be 47 88 aa 3d
       0.06664421 -0.030730497 -0.13545786 0.08326774
000040 c9 14 9b bd ce ff cc bb 02 7f 0f be c4 49 0c be
       -0.07572324 -0.00625608 -0.14013293 -0.13700014
000050 44 70 e0 bd 72 fd 39 bd 28 04 1e bd 38 16 84 bd
       -0.10958913 -0.04540772 -0.038578182 -0.064495504
000060 d3 bc 4d 3d 25 d2 5c 3d cf 7d 3e 3c 41 16 fb bc
       0.050228905 0.053911347 0.011626675 -0.03065026
000070 40 30 91 bd e4 50 27 3c 92 8a ba 3d 57 36 90 3d
       -0.07089281 0.010212157 0.091084614 0.070416145
000080 2e 59 74 3d 6f 49 a1 3d 90 7d 18 3d d2 bd a5 3d
       0.05965536 0.078753345 0.03722912 0.08092846
000090 08 8f c3 be 05 0e 43 be 89 16 c7 bd bf 1b b9 be
       -0.38195062 -0.19048317 -0.09721095 -0.3615398
0000a0 2b bb 72 be b3 32 09 be 81 24 a2 be 99 9e 59 be
       -0.23704211 -0.13398246 -0.31668475 -0.21251906
0000b0 37 2a e8 bd 06 2a 7a bd 95 43 b3 bc 6e 3c 2f 3d
       -0.11336177 -0.061075233 -0.021882812 0.04278224
0000c0 cd 2b 86 bd 88 75 04 bd 12 9b b3 bd 2a d9 44 bd
       -0.06551323 -0.03233865 -0.08769812 -0.048058666
0000d0 af 40 6a 3d 9f 61 df bc ff 65 65 3e 3d b0 1a 3e
       0.057190593 -0.027268229 0.2240219 0.15106292
0000e0 d9 af 2a 3e 24 a7 1a 3e 3b be 84 3d 23 40 40 3d
       0.16668643 0.15102822 0.06481596 0.046936166
0000f0 b2 3e 3e 3e 47 c5 fb 3d 13 d4 25 3e e3 f6 13 bd
       0.18578604 0.12293487 0.16194181 -0.03612412
000100 42 66 31 3e 5c 13 46 bd 24 66 a4 bd f6 80 99 3c
       0.17324165 -0.048358306 -0.08027294 0.018738251
000110 b4 2c 7f bd bb 24 02 3d 07 9d 09 3e 3c c3 1e bc
       -0.06229849 0.03177331 0.13438807 -0.009690102
000120 24 87 aa bb 8a 0d 3c 3d 27 5d 0f bd 1f 65 04 3c
       -0.0052040983 0.04591135 -0.035000946 0.00808075
000130 06 d7 d1 bb 82 53 00 3c a1 5e c8 3c d7 47 ad 3d
       -0.0064038066 0.00783241 0.024459185 0.08460968
000140 bb 06 9b 3d 1c 7d 0e 3c 72 50 5f 3b 1a 13 da ba
       0.07569643 0.008696821 0.0034075049 -0.0016637773
000150 d7 28 88 3d 25 18 88 bd 9f 9a a6 bb 7a d8 b4 3c
       0.066484146 -0.0664523 -0.0050843502 0.02207588
000160 64 2d 3a 3b c7 e9 c3 3c 13 95 4e 3c ca 75 db bd
       0.0028408403 0.023915185 0.012608784 -0.10715826
000170 82 42 13 be 0b ba d8 3d ad d5 50 3c 39 84 b2 bd
       -0.1438084 0.1058236 0.012746257 -0.08716626
000180 dd 5e f2 3c b6 01 5f 3d 3e 67 12 bd dd 90 b2 bd
       0.02958625 0.05444499 -0.03574299 -0.08719037
000190 84 67 b4 3c 67 9d 30 3e 29 93 24 bc ff e3 27 bd
       0.022022016 0.17247544 -0.010044851 -0.04098892
0001a0 4a d0 ab 3d bb 20 17 be d8 3a ac bc e9 1e 83 bd
       0.08389337 -0.1475858 -0.021024153 -0.0640238
0001b0 1a 3a ba 3d 02 3b 6f 3e 9b 0f 75 3e 4f e3 cb 3c
       0.09093113 0.23362353 0.23931734 0.024888663
0001c0 27 d5 39 3e c2 5b 50 3e 33 fe 09 bd 8d 0f b0 3d
       0.18147717 0.20347503 -0.03368969 0.08596716
0001d0 27 23 f9 3d 12 12 68 3e a7 fc e5 3c 28 59 3b 3d
       0.12164908 0.22663143 0.028074576 0.045739323
0001e0 2a 10 bf 3c 9e 8b c9 bd 41 e6 62 3b dd 3e ac 3d
       0.023323137 -0.09841083 0.0034622105 0.08410428
0001f0 ba 94 b7 3b e4 cb 35 bc f1 06 50 3d 0b eb 25 bd
       0.0056024464 -0.011095975 0.05078787 -0.040507358
000200 48 9f 89 3d f5 8c 1e bc 05 70 3d 3d 66 f5 00 bd
       0.067198336 -0.009677161 0.04624941 -0.03148403
000210 94 30 7d 3c d8 60 25 3d ee 1c fd 3c 8c 6c b2 bc
       0.015453476 0.04037556 0.030897584 -0.021780275
000220 79 14 dd 3c c9 dd 31 bc 6d 87 39 3d 2e cf 99 3d
       0.026987301 -0.0108561 0.045295168 0.075102195
000230 7f ef 07 3d cf b3 e6 bc 86 7f 6b bd b2 6b 10 bd
       0.033187386 -0.028161911 -0.057494663 -0.035258956
000240 f6 a1 06 3d f8 b5 3d bc 97 2c ec bd 0d 24 c9 bc
       0.0328693 -0.011579029 -0.11531942 -0.024553323
000250 11 35 d8 bc 4a 42 8d bd 82 37 55 bd df 9a 48 bd
       -0.026392492 -0.06897409 -0.05205489 -0.04897582
000260 ff 41 a3 bd 17 ca 32 bc 21 67 25 bc 0d fb a8 bc
       -0.07971572 -0.01091244 -0.010095389 -0.020627523
000270 2d 7a ac bc aa 3b 87 bb 43 94 a7 3d 69 8d 9e bd
       -0.021054352 -0.0041269856 0.081825756 -0.077418156
000280 b0 3c aa bd 3c 0d 0d bd df 96 be bd d9 a5 75 bc
       -0.083123565 -0.03443645 -0.0930612 -0.014993154
000290 a7 ee be bb 36 bd 16 bc 59 01 bb bd 70 04 f7 3c
       -0.0058267894 -0.009200385 -0.091311164 0.030153483
0002a0 a7 a8 42 bb 16 ff 84 3c f7 2d d3 3d 95 d7 ff 3c
       -0.0029702575 0.016234916 0.103115015 0.031230727
0002b0 b1 ff 09 3e c8 19 0f 3e a0 fa b8 3d e4 02 cc 3d
       0.13476445 0.13974679 0.09032178 0.09961489
0002c0 3a 83 be 3d be bd 41 3d 88 c5 fe 3d 0c 16 7c 3d
       0.09302373 0.047300093 0.1244002 0.061544463
0002d0 74 8b e7 3b 1b da 3f 3d c0 7a 7e 3d 57 3f 1f 3b
       0.0070661847 0.04683886 0.062128782 0.0024299228
0002e0 2a da 07 3d e1 d3 32 3c 7f 37 91 bd 57 57 2b 3c
       0.03316704 0.010914774 -0.07090663 0.010457835
0002f0 32 1a 9b 3c 36 49 f5 3d 58 e4 1e 3e 49 5c cf 3d
       0.01893339 0.119768545 0.15516794 0.10125024
000300 56 71 89 3d a2 81 41 bb b0 c5 34 3d 06 6b 99 bd
       0.0671107 -0.002952673 0.044133842 -0.07491116
000310 46 73 cd bd 23 39 74 bd f3 1b 24 3d a6 90 a8 3d
       -0.10031752 -0.059624802 0.040065717 0.082307145
000320 aa eb 83 3d d5 86 46 3d b8 4a 93 3d 2d d2 25 bc
       0.06441434 0.04846843 0.07191986 -0.010120911
000330 8f 6a c9 bd b8 1c fc bd 65 e5 47 be 74 cc 71 be
       -0.098347776 -0.12310165 -0.19521101 -0.23613149
000340 eb 34 5a bd e5 51 97 bd e7 c8 e5 bd 27 db 24 bd
       -0.053273123 -0.07388667 -0.1121996 -0.040248062
000350 f8 3f 35 3d 37 41 55 be 6d 9f 99 bd ed d1 ad bd
       0.04425046 -0.20825659 -0.07501111 -0.08487306
000360 46 cb 43 3d ab 62 78 3d 8e 35 95 bc 22 7f 8d 3c
       0.04780128 0.060640972 -0.018214013 0.017272536
000370 95 95 7f 3d 0b 2e d4 bc 56 50 8b 3d 87 0d 0b bd
       0.062398512 -0.025900861 0.06802432 -0.033948448
000380 53 23 88 3c d4 ac 0c be dd f9 eb bc c2 a4 a6 bd
       0.016618406 -0.13737804 -0.028805668 -0.08136894
000390 b8 b0 16 be df 8d 0f bd fd eb 51 bd c1 7c 61 be
       -0.1471585 -0.03504741 -0.051250447 -0.22020246
0003a0 0c 18 28 bd 23 41 10 bd 78 d6 93 3c 92 03 28 bc
       -0.041038558 -0.03521837 0.018046603 -0.0102547575
0003b0 77 7b ba 3d dd 21 50 3d 82 51 9f bd f8 af 51 3d
       0.0910558 0.050813545 -0.07779218 0.051193208
0003c0 83 2b 16 bd ca 6d b6 bd 73 22 8b bd 3f 01 4c 3d
       -0.03666259 -0.08907659 -0.0679368 0.049805876
0003d0 7b b3 99 3d ce 8d f9 3c 95 44 29 bc bc c0 ab bc
       0.07504936 0.030463126 -0.010331293 -0.020965926
0003e0 fc 3d be bd 50 de 08 bd 36 8e 11 3d c4 ba 93 bd
       -0.09289166 -0.03341514 0.035536014 -0.07213357
0003f0 ab 23 cf bc 05 b2 3f 3d 2a c1 b7 bc 53 51 0e bd
       -0.025285563 0.046800632 -0.022430975 -0.034745526

net_list.0.cell_list.1.conv2d.bias f4 [64]
000000 40 98 60 3d c4 4a 64 3d 2a 64 46 3d af b2 08 3b
       0.054832697 0.055735365 0.048435368 0.0020858457
000010 cc 9e cd 3d 6f df 46 3d f1 72 16 3e 1d dc 1a 3d
       0.10040054 0.048552927 0.14692284 0.037807573
000020 7d c5 77 bd 1f 09 9f 3c 34 25 98 bc 77 44 03 bd
       -0.060491074 0.019413529 -0.018572427 -0.032047715
000030 e6 ac d0 bc 57 07 ac 3d d2 d4 1e 3e 58 ed 40 3d
       -0.02547307 0.083998375 0.15510872 0.04710135
000040 ad 7d bc 3d 37 d6 ad 3d a2 63 be 3c d3 92 80 3d
       0.09203658 0.08488124 0.023240868 0.062780045
000050 b2 f6 da 3d ae de 1c 3d e2 e9 2e 3b 3c a3 86 3d
       0.10691585 0.0382983 0.0026689698 0.06574103
000060 8b a3 c3 3c 51 cd 0b 3e f5 74 2a bc 3b a3 6f 3d
       0.023881694 0.1365254 -0.010403861 0.058505278
000070 12 08 ab bc a1 b3 58 3e 7f 5a ce 3d d2 96 89 bc
       -0.020877872 0.21162273 0.100758545 -0.01679555
000080 0d 77 aa 3d 4b 99 29 bd e3 4b e8 bc 37 a4 6b bd
       0.083234884 -0.041405957 -0.028356498 -0.057529654
000090 1d 66 67 3d 45 09 98 bd cf 4a 55 bd 61 34 2a be
       0.056493867 -0.07423643 -0.052073296 -0.16621543
0000a0 f6 4c 99 bc ab 85 5c bd 8f 79 b9 3d 21 c0 7a bd
       -0.018713456 -0.053838413 0.090563886 -0.061218385
0000b0 5c ca ca bc 2d 54 51 bd 12 a5 c5 3d 1b b4 a5 3c
       -0.024754696 -0.051105667 0.09650625 0.020227483
0000c0 ff df fc 3d 9d 77 40 3e 87 ca 83 3d 49 c2 7d 3d
       0.12347411 0.18795629 0.064351134 0.061952863
0000d0 bd 1e 8a bb 18 3a f5 3d 38 0d c6 3d 2d 0a 07 3e
       -0.00421509 0.11973971 0.0967049 0.13187476
0000e0 39 c8 e2 bc 97 7f 04 3e 4d 40 f4 3d 1c ed f5 3d
       -0.027683364 0.12939297 0.11926327 0.12008116
0000f0 22 05 16 3c f4 f6 0e 3e 79 7e 0d 3e f3 29 9d 3d
       0.009156497 0.13961393 0.13817777 0.07674017

net_list.0.cell_list.2.conv2d.weight f4 [64, 32, 3, 3]
000000 6b db e7 bc df 50 4c bd a2 1a 5f bd c6 f5 b7 3c
       -0.028302869 -0.049881812 -0.05446876 0.022456061
000010 20 1d 10 be 2d 3c 45 be e0 fb 0c 3e c0 cd 80 3d
       -0.1407361 -0.19261236 0.13767958 0.06289244
000020 49 33 61 be f8 94 e7 bd c4 a2 01 be b4 b1 b4 3d
       -0.2199222 -0.113077104 -0.12659746 0.08822957
000030 79 65 97 bd 8b 1d 3b 3d a8 a5 a3 3d d2 16 0a 3c
       -0.07392401 0.04568247 0.07990581 0.008428292
000040 98 e2 11 3e e4 93 a3 3e 61 8d 63 3a a9 f9 a2 bc
       0.14246595 0.3194877 0.000868043 -0.019894438
000050 5b 40 f8 bd 57 d5 8f 3d 9a ed f3 bb 1a a2 2b bd
       -0.1212165 0.07023113 -0.007444096 -0.04190264
000060 aa 7b cf 3d 92 fd ee 3d 3f 9f fe 3d 19 8a 3c bd
       0.10131009 0.116694584 0.124327175 -0.046030138
000070 80 25 f1 3c df 49 ea bc 2d 69 b1 bd a4 7d 4e bd
       0.029436827 -0.028599678 -0.08662639 -0.05041279
000080 e8 40 fd bd 9f 9b ad bd 67 67 b1 bd 34 99 24 be
       -0.123658955 -0.08476948 -0.086623006 -0.16074067
000090 d6 29 dd 3d c4 cb c3 3d 44 32 a2 3c 73 8a 76 3c
       0.10798995 0.095603496 0.01979936 0.015047657
0000a0 83 c0 a2 3d 84 93 aa 3b 77 46 63 bd ee 17 e1 bd
       0.07946875 0.0052055735 -0.055487122 -0.10990892
0000b0 6e 9b 40 bc bd f0 9f be d8 a7 39 be 83 33 92 3d
       -0.011755807 -0.31238356 -0.18130434 0.07138731
0000c0 cb 61 bd bd 67 da 54 3d 1e a4 89 3e e5 39 95 3d
       -0.09247168 0.051966097 0.26883024 0.07286433
0000d0 3e b8 14 3e 16 8f 00 3e 2f b8 66 be 16 59 bc be
       0.14523408 0.12554583 -0.22531198 -0.36786717
0000e0 6b 50 e2 be 05 bc 3a be fd 62 f1 bd b1 3a 1f be
       -0.4420198 -0.18235786 -0.11786459 -0.15549733
0000f0 62 66 a5 bd 4b f7 77 be 52 70 ad be fa 8f 16 3d
       -0.080761686 -0.24215429 -0.33874756 0.0367584
000100 cf b1 96 3d 6b d3 03 3e 68 00 4d 3e 2b 90 a2 3d
       0.07358133 0.12873618 0.20019686 0.07937654
000110 df d6 00 3e 76 d7 ac 3d 5b 48 ab 3d bd 39 c4 3d
       0.12581967 0.084395334 0.0836341 0.09581325
000120 36 a4 0a 3d 9d a2 96 3c ab 3c 90 bd 9d 8c 90 3d
       0.03384801 0.018388087 -0.070428215 0.0705807
000130 4b 36 a3 3c 66 e4 95 bd 43 1d 35 3e 14 c0 4c 3d
       0.01992335 -0.07318954 0.17686944 0.049987867
000140 af a8 61 bc 96 1f 94 bc 4e 95 20 bc 38 49 8c bd
       -0.013773127 -0.018081468 -0.009801222 -0.06849903
000150 1d d2 8e bc 61 cd 93 bd 47 31 2c 3c e5 b4 64 be
       -0.017434174 -0.07216907 0.0105097955 -0.22334631
000160 17 b6 bf bd c1 8a 2c bd 65 35 35 be e2 99 aa bd
       -0.09360903 -0.042124514 -0.1769615 -0.08330132
000170 c6 08 76 be c1 2f 08 be b1 ec 47 bd d4 f3 29 be
       -0.24026784 -0.13299467 -0.04880971 -0.1659692
000180 4f 0c ea bd 8e b3 51 3d 4a f3 ad bc 6d 07 c8 bd
       -0.11428129 0.051196627 -0.021234173 -0.09767041
000190 73 15 21 bd 3c 54 80 3d ba fb ae 3d bf 16 88 3d
       -0.039327096 0.062660664 0.08544107 0.066449635
0001a0 70 a2 2d 3d 7d 0b 44 3e 1a ea 24 3e cb 70 66 3b
       0.04239124 0.19145007 0.16104928 0.0035162445
0001b0 a5 85 b2 3d 0c 25 1f 3e 2f d9 56 3d d9 b6 d6 3d
       0.08716897 0.15541476 0.052453216 0.10484094
0001c0 5a 44 cc 3d f0 c1 e5 bb 26 db ec 3c 83 85 07 bd
       0.099739745 -0.0070116445 0.028913092 -0.03308631
0001d0 e6 77 37 bd 7e ee 89 bd 6c 29 1e bd d3 68 e7 bd
       -0.04479208 -0.06734942 -0.03861372 -0.112992905
0001e0 58 9d a5 bd c8 b7 7b bd 6e 25 00 be 8a d2 c6 3c
       -0.080866516 -0.061454564 -0.12514278 0.024270315
0001f0 0c 7d b2 bd b7 a2 46 be 0a 9e 3d be a7 a4 44 be
       -0.08715257 -0.19398008 -0.18517318 -0.19203435
000200 87 46 a4 bd b5 00 65 bd 5c f0 1a be bf 87 c1 bd
       -0.080212645 -0.055908877 -0.15130752 -0.0944972
000210 cc 56 27 bd 4b 62 93 bd 2b 71 78 bd 73 16 d9 bd
       -0.04085426 -0.07196482 -0.0606548 -0.10599985
000220 04 d3 3b bd 45 57 84 bd c5 f4 8d bd 57 77 aa 3b
       -0.045855537 -0.06461958 -0.06931452 0.0052022147
000230 78 8b 96 bd 57 53 9d bd 0f 60 0d be c1 bb 15 be
       -0.0735082 -0.076819114 -0.13806175 -0.14622404
000240 58 c9 ec 3c 09 c0 13 3b 31 2c 92 3d 51 f2 bd bc
       0.028904602 0.0022544882 0.07137335 -0.023186835
000250 be db 23 3c 31 fe 2a bc a9 ec 04 bd e6 ac 00 3d
       0.010001121 -0.0104365805 -0.03245226 0.03141489
000260 49 b5 b1 3c 7b 0b 1b bd 14 98 84 3d aa 8c 11 3e
       0.021692889 -0.037852746 0.06474319 0.14213815
000270 33 bf 93 ba 0d 07 d7 3c 78 00 e2 3c 3e e2 f6 bd
       -0.0011272192 0.02624848 0.027588114 -0.12054871
000280 79 be 85 bd 94 e2 66 bc 5a 7f 77 3d 9e d0 2e 3c
       -0.065304704 -0.014092106 0.060424186 0.010669855
000290 97 a1 cf bc e8 7d f7 bc 24 5d 4e bd 07 6b be bd
       -0.025345607 -0.030211404 -0.050381795 -0.092977576
0002a0 5c f7 bf bc 43 14 d1 bd 9d ce b2 bd 5c b4 cf 3b
       -0.02343338 -0.10208943 -0.087308146 0.006338639
0002b0 ac 3e c1 3d 6f de 15 bc 34 9a 97 3c ba 3b 19 3c
       0.09435782 -0.009147271 0.018506147 0.009352619
0002c0 57 9a df bc a2 55 d0 bd 57 c0 ff 39 17 17 00 bd
       -0.027295275 -0.10172583 0.00048780694 -0.03127202
0002d0 1f d4 ba bd 20 30 bf bd 7f 2f 15 bd 99 b8 db bd
       -0.0912249 -0.09335351 -0.03642225 -0.107285686
0002e0 1a ea 4a bd 25 a3 2d be d6 cf e3 bd bb 52 20 be
       -0.049539663 -0.16956766 -0.11123626 -0.15656559
0002f0 d8 9e 55 be 7b 4d 94 3e 75 e9 51 3d ef c3 3e be
       -0.20861375 0.28965363 0.051248033 -0.1862943
000300 da 07 74 3d ca dc d7 bc 19 70 18 be 53 a5 86 bd
       0.0595778 -0.026350398 -0.14886512 -0.06574502
000310 ff fc e6 bc 2b 33 d1 bd f4 53 cd 3d ee 5d d7 bc
       -0.02819681 -0.10214838 0.100257784 -0.026289906
000320 b5 c1 94 3d 2f c1 8a bc c4 f5 45 bd df 11 27 3d
       0.07263509 -0.01693782 -0.048330083 0.040788528
000330 7c c5 30 bd 73 fe 14 bd bc 21 cf bc 69 91 0a 3e
       -0.043157086 -0.036375474 -0.02528464 0.13532032
000340 dc 29 59 3d d0 6f 43 3e 83 5e 0d 3e db 84 f5 3d
       0.053018436 0.19085622 0.13805585 0.11988231
000350 ae 82 1b 3e 65 aa 37 3e 42 fb d1 3d 68 1c 07 3e
       0.15186569 0.17936094 0.10253002 0.1319443
000360 36 aa 12 be e4 2d 59 be 59 8e 33 be e0 0b 72 be
       -0.14322743 -0.21208912 -0.1753477 -0.23637342
000370 3e 08 a3 be a7 b7 37 be 40 4d bb be 02 93 88 be
       -0.31842226 -0.17941152 -0.36582375 -0.26674658
000380 fa 92 a0 be c7 5f c4 3c 82 53 56 3c 5a aa b0 3d
       -0.31362134 0.023971451 0.013081433 0.08626242
000390 1b 7c c7 bd 2c 47 97 b8 3c 53 07 3e 21 50 a0 bd
       -0.09740468 -7.213498e-05 0.13215345 -0.078277834
0003a0 d9 12 22 3c fe a9 75 3c 9e bd d5 bc 16 2c b8 3d
       0.009892189 0.014994143 -0.026091393 0.08992784
0003b0 5e 96 06 3e 5b 86 46 3d d6 68 24 3e 0a ee 49 3e
       0.13143298 0.048467975 0.16055617 0.19719711
0003c0 5c ed e6 3d e6 e5 07 3e a6 77 4b 3e 60 d2 7e 3d
       0.112757415 0.13271293 0.19869861 0.062212348
0003d0 b2 e9 03 3e 86 1f 21 3d 25 fa 98 bc a8 6a 5f 3b
       0.12882116 0.039336704 -0.018673966 0.0034090672
0003e0 d1 1a d6 3c 42 f5 7c 3c 4f 2b c6 bd ab b5 86 bd
       0.026135834 0.015439333 -0.09676229 -0.06577619
0003f0 dd 81 d8 bd 9b 22 21 be af 62 5c 3d a7 f5 92 bd
       -0.105716445 -0.15735857 0.05380505 -0.07175761

net_list.0.cell_list.2.conv2d.bias f4 [64]
000000 30 2e 80 3d f7 19 3f be e8 61 c8 3d 5c 12 e7 3d
       0.062588096 -0.18662249 0.09784299 0.11282799
000010 4b 88 f0 3d 88 0d cb bc 9c b1 56 3d 62 53 51 3d
       0.11744746 -0.024786726 0.052415475 0.05110491
000020 72 be 8c 3d ff b9 0a 3c cd 66 22 be d9 8b 1d bd
       0.06872262 0.0084671965 -0.15859528 -0.038463447
000030 7f 88 e4 3c 2e 5c 02 3d c9 73 ac bc 76 4b 33 3d
       0.027897118 0.03182619 -0.021051304 0.043773137
000040 61 ef 8f 3e dd 7a c2 3d 15 ac 1b 3e 5c 3c bf 3d
       0.2811232 0.094960906 0.15202363 0.093376845
000050 38 0a ac 3d 04 dc 72 3d 9b 5c 48 3e 00 14 ee 3d
       0.084003866 0.059291855 0.19566576 0.116249084
000060 0b 17 c2 3d b2 80 a0 3d 3a 15 84 3d 9d 46 11 3e
       0.09477051 0.07837047 0.06449361 0.14187093
000070 f2 9c 0a 3d 4e a7 7e 3d 74 a8 da 3c 4b 51 2b 3d
       0.03384108 0.062171273 0.026691653 0.041825574
000080 57 45 78 3c 62 8b f5 3d 2b d8 81 3d f6 6f 6b bd
       0.015153251 0.11989476 0.06340059 -0.05747982
000090 73 54 c2 bc da d2 32 bd 9c bc a5 bd b5 fa 0f be
       -0.02372191 -0.043658115 -0.08092615 -0.14060481
0000a0 c9 c4 0e 3c 23 75 3a bd 54 d1 d6 3d 5e e6 3b 3e
       0.008713909 -0.045521867 0.10489145 0.18349597
0000b0 49 9f 23 be bb c0 6e bd 60 79 8e 3c a7 27 63 bd
       -0.15978731 -0.05828927 0.01739186 -0.055457737
0000c0 4b 05 af 3e 85 9e 09 3e 88 20 f2 3d 17 b0 03 3e
       0.34183726 0.13439377 0.11822611 0.12860142
0000d0 ee 4e 07 3e 5e 20 b4 3d 7e 1e ad 3d 97 0f 07 3d
       0.13213703 0.08795236 0.084530815 0.032973852
0000e0 71 77 5f 3d 84 9d 08 bc 93 55 28 3d c7 e9 7b 3e
       0.054557268 -0.008338336 0.041097235 0.24600898
0000f0 21 05 c5 3c d2 fc 03 3e a9 6a b4 3d 44 b1 bf 3d
       0.024050297 0.12889412 0.08809406 0.093599826

net_list.3.weight f4 [16, 19, 3, 3]
000000 9a 97 46 3e 04 b3 aa 3d 21 b7 c0 3c 46 a4 05 3e
       0.19393769 0.08334926 0.023524823 0.13050947
000010 21 1c 3f 3d db 01 ff 3c a4 22 e8 3c 13 84 93 3d
       0.046657685 0.031128814 0.02833683 0.072029255
000020 bc 40 27 3e 23 c0 5b 3d 28 80 d1 38 1a 1f 7e 3d
       0.16333288 0.053650033 9.9897676e-05 0.06204138
000030 8a f0 d5 3b dc bf e6 3d ec 60 40 3d bb 9e 9b 3d
       0.0065289186 0.11267063 0.046967432 0.07598635
000040 03 51 9a 3d d4 c0 f9 bc c5 e3 35 3d 5e 3d 14 3d
       0.07534983 -0.030487455 0.04440667 0.036191337
000050 3e ec 10 3d ac 9c ad 3d 4b 78 19 3d 2c 5d fc 3d
       0.035381548 0.084771484 0.037468236 0.123224586
000060 52 69 1a 3e 80 a3 3f 3c 8f 5a fd 3d f7 17 9f 3c
       0.15079239 0.011696696 0.12370788 0.019420607
000070 dd 97 28 bc 0e 5d 18 bd 4b a0 1e 3c 8c 78 84 3d
       -0.010290113 -0.03719812 0.0096817715 0.06468305
000080 dd 83 d2 bc e6 44 f7 3c b2 9e 80 bd 85 c5 72 bd
       -0.025697643 0.03018422 -0.06280269 -0.0592704
000090 10 cf fa bd bc a8 ef bd 14 7c e0 bd 46 c0 45 bc
       -0.12246525 -0.117021054 -0.10961166 -0.012069767
0000a0 42 9a 43 bd ed d3 ba bd d8 4a 01 be 0d b4 9b bd
       -0.047754534 -0.09122453 -0.12626207 -0.07602701
0000b0 57 38 25 bd e0 4f 12 bc ba 63 94 3d 92 a8 f2 3d
       -0.040336933 -0.0089301765 0.07245584 0.118485585
0000c0 a9 a9 d7 bc b1 73 bc 3d 22 3b 5b 3d d1 2c df 3c
       -0.026326017 0.09201754 0.05352319 0.02724305
0000d0 55 e3 46 3c 7f a9 ec ba e5 fe 98 3d 3e 5e 95 3d
       0.012139161 -0.0018055885 0.07470492 0.07293366
0000e0 cc 53 ac 3d ce e5 10 bd 39 91 d1 3d 36 71 d2 3d
       0.084144205 -0.03537541 0.10232777 0.102754995
0000f0 cd ad b2 bb 89 85 b7 3c e6 56 a7 3d 10 66 fd bd
       -0.0054528476 0.022402542 0.081708714 -0.123729825
000100 e6 e6 f0 bd 4a a7 d8 3c d4 80 c3 bd bd 1b 1d 3d
       -0.117627904 0.026446957 -0.095460564 0.03835653
000110 17 88 7e 3d a1 a0 b1 3b ca 87 88 3d 35 81 13 3e
       0.062141504 0.00542076 0.06666525 0.14404757
000120 3b df 41 bd 46 94 82 bd bb 1b 23 be ed 4f e1 bc
       -0.04733203 -0.06375937 -0.15928547 -0.027503932
000130 a3 1b 87 bd 04 1f f7 3c 83 64 16 3d ae 71 b0 bd
       -0.06597068 0.030166157 0.03671695 -0.08615433
000140 e2 32 55 bd e8 8e a3 3d ab e7 c9 bc 62 e4 9d bc
       -0.05205048 0.079862416 -0.0246466 -0.01927394
000150 b4 12 af 3d f0 dd b3 3d 2b c0 ae 3d 86 46 18 bd
       0.08548489 0.087825656 0.08532747 -0.03717663
000160 79 02 ac 3d 0d 44 0f 3e 63 5c 07 3b 03 d9 c3 bc
       0.08398909 0.13990803 0.0020654432 -0.02390719
000170 fa d1 ab 3d 02 4e b0 bd 88 e4 2f bd 76 de 6c 3d
       0.08389659 -0.08608629 -0.042942554 0.057829343
000180 ec a3 f4 3d 32 6b 73 bd 6d 88 1e 3c 08 68 92 3c
       0.11945328 -0.0594284 0.009676081 0.017871872
000190 f8 f3 3e bd 2f 6a 5e 3d 3f 23 b3 bb b6 bc 1f 3d
       -0.046619385 0.054300483 -0.005466848 0.03899833
0001a0 82 fc 0d bd d5 82 99 3d bc 5f 77 bc f9 db fb bd
       -0.03466464 0.07495657 -0.015098508 -0.12297816
0001b0 e4 0d 87 bc 4a a6 6b bd a3 ec 5e bd f6 32 d4 3d
       -0.016486116 -0.057531632 -0.054424893 0.103612825
0001c0 ca c0 ca 3d f8 d3 8e bd d1 42 89 3d 0c 93 8d bd
       0.09900053 -0.069740236 0.06702197 -0.069128126
0001d0 50 6c 22 bc 81 39 62 3d c9 e6 0a 3e b0 59 ce 3d
       -0.009913519 0.05523062 0.135646 0.100757
0001e0 86 8a 07 bd aa 1c d6 3d 62 30 ed 3d 07 b1 f1 bc
       -0.03309109 0.10454686 0.11581494 -0.029503359
0001f0 aa f1 be 3b dc 75 e5 bb 05 f1 b7 3c a3 20 9e bd
       0.0058271484 -0.0070025753 0.022453794 -0.07721069
000200 8b a5 9f bd fd 69 2b 3d d8 cf 45 3b f1 12 3b bd
       -0.07795247 0.041849125 0.00301837 -0.04567236
000210 ce ab 1f bb 89 10 52 3d 6c a0 c3 3d 5b d1 2e bd
       -0.0024363878 0.0512853 0.095520824 -0.042680126
000220 f7 c2 9b bc c7 d2 8a bc 38 e0 2e 3d 29 75 97 3d
       -0.019013865 -0.01694621 0.0426943 0.073953934
000230 d2 91 d5 3d 3a 62 44 3d 89 9d a5 3b 98 de 93 3d
       0.10428204 0.04794524 0.00505418 0.07220191
000240 2b 1c 5b 3c bd b5 2a 3d f0 35 10 bd 85 e1 41 3d
       0.013373415 0.041677225 -0.03520769 0.047334213
000250 41 11 b3 3d a8 54 a5 3d 4f 01 75 3d 33 7b 7f bc
       0.08743525 0.080727875 0.0598157 -0.015593338
000260 3d 73 89 3c 1f 7a fe bb 66 5e 67 bc 9f d1 58 3d
       0.016778583 -0.007766023 -0.014121627 0.052934285
000270 09 e3 6f 3d 78 33 bd 3c bd 34 76 3d 31 34 6b bd
       0.058566127 0.023095831 0.06010889 -0.05742282
000280 8b c5 81 bd 5b 92 7f bc ae 5c 68 3d 21 22 de 3d
       -0.063365065 -0.015598859 0.05672901 0.10846353
000290 70 25 b5 3d 01 33 e6 3d d4 78 30 3d b5 d1 6f 3d
       0.08845031 0.11240197 0.04308398 0.0585496
0002a0 9a 62 7d 3d b2 09 df 3c bd 70 fe bc ae 12 e8 3c
       0.061861612 0.027226303 -0.031059617 0.02832922
0002b0 41 d9 d8 bc ba 51 77 bd 19 4f 31 bd 49 e2 11 3d
       -0.026470782 -0.060380675 -0.043288324 0.035616193
0002c0 37 18 21 3d 97 2f 81 bb e8 3e 85 3d a3 ec 20 3d
       0.039329734 -0.0039424407 0.06506139 0.039288174
0002d0 37 cb 15 bd af 2f d5 bc 3e 20 68 bd 11 b2 4b bc
       -0.036570754 -0.026023714 -0.056671374 -0.012432591
0002e0 48 89 0d bd 27 99 9d bc 09 5d aa bc 4e a7 63 3d
       -0.03455475 -0.019238068 -0.020796316 0.055579476
0002f0 cb 32 44 bc b2 24 2e 3d d1 47 ac bd 52 ff 0b be
       -0.011975001 0.042515464 -0.084121354 -0.13671616
000300 e7 7e e1 bb 1d 9a e9 3c 4e 76 db bd 53 38 af bd
       -0.006881583 0.02851587 -0.10715924 -0.08555665
000310 fc 0e 23 bc 77 c4 a8 bc c4 3c 8b bc 00 06 07 bd
       -0.009952303 -0.020601494 -0.016996749 -0.032964706
000320 63 ae 44 ba 33 0a d5 bc 06 79 29 3d 17 4b 2f bd
       -0.0007502792 -0.02600584 0.041375183 -0.04279622
000330 2c 31 69 bd a9 71 a7 3d 94 62 b7 3c 8d e9 07 3b
       -0.05693166 0.08175976 0.022385873 0.0020738572
000340 a4 f0 73 3d 1a 47 c6 bc b6 28 58 bd 53 ed 1b 3d
       0.059555665 -0.024203826 -0.0527732 0.038068127
000350 04 69 6b bd b1 0b ba 3c 51 b3 17 bd ec f9 51 3d
       -0.057473198 0.022710653 -0.037036244 0.051263735
000360 26 0e 80 bc 4c 24 4d 3d 98 54 3d 3d 0e f6 18 3c
       -0.015631747 0.050083444 0.046223253 0.009336008
000370 b3 8c c2 3c 01 0d 96 3d a9 79 db bb bd d6 39 bc
       0.023748731 0.07326699 -0.0066978526 -0.0113427015
000380 84 a7 3c 3d 06 b1 d4 bd b4 d8 51 3d 99 d3 8f bd
       0.046058193 -0.10385327 0.051232055 -0.07022781
000390 5d e5 ea 3c 9c 66 c0 bd 59 03 30 bd 4a 9a ba bd
       0.028673822 -0.09394571 -0.042971943 -0.091114596
0003a0 7a 0a a2 bd c0 62 5e 3c 80 2d be 3d 36 1a 6c 3d
       -0.079121545 0.0135733485 0.09286022 0.057642184
0003b0 62 dd de 3d b6 55 f8 3d f4 c2 94 3d 43 1b 40 bb
       0.10882069 0.12125723 0.07263747 -0.0029313124
0003c0 c3 99 75 3c fd 24 d1 3c 32 52 ed 3d 1d fd 65 3d
       0.014990273 0.025530333 0.11587943 0.05614959
0003d0 64 df 0b 3d 01 20 99 bb 25 a5 f4 3d 32 10 29 3c
       0.03414859 -0.0046730046 0.11945561 0.010318803
0003e0 28 72 a5 bc 58 53 f2 3a df 83 28 3c a4 f0 4f 3d
       -0.020196036 0.0018487973 0.010285347 0.050766602
0003f0 7e 10 94 bd 6a c1 21 3d 35 2b 5a 3d 5a e0 9f bd
       -0.07229708 0.039491095 0.05326386 -0.078064635

net_list.3.bias f4 [16]
000000 c6 4e f1 bc e6 79 d9 bd be 25 cb 3b 6e 46 51 3c
       -0.029456507 -0.106189534 0.0061995676 0.012773139
000010 60 ed e7 3c 6e 91 bb 3d 0e 25 f8 3d 74 f2 05 bc
       0.028311431 0.09158598 0.121164426 -0.008175481
000020 bd 8e 9c 3d e6 48 11 be 2d d8 b0 bd ea 5a 0a be
       0.07644413 -0.14187965 -0.08634982 -0.13511243
000030 f8 2d c5 3d 12 6e 27 3c 3b 97 0f bb fb 1c a5 bc
       0.096279085 0.010219114 -0.0021910209 -0.02015542

net_list.5.weight f4 [8, 16, 3, 3]
000000 39 e8 cc 3c cd da 84 3d 76 89 2e 3d 88 b2 aa 3d
       0.025013076 0.064870454 0.04261156 0.083348334
000010 77 2e 04 3c 60 65 3a 3d 91 0e d5 bc 84 1d 82 3b
       0.008067719 0.045506835 -0.026007922 0.0039708037
000020 5e 0e 1a 3d 05 d1 a0 3d a2 81 2f bd 8b 25 a3 3c
       0.037611358 0.07852367 -0.042848237 0.019915363
000030 a0 9c 46 3b b1 c6 83 bd 29 d2 91 bd 20 bc 50 bd
       0.0030305758 -0.06434382 -0.07120163 -0.05096066
000040 4b 55 07 3c c9 f4 bf 3b c5 87 36 3c cf f1 9c 3d
       0.0082600815 0.005858038 0.011140768 0.07663309
000050 a6 a1 d4 3c 44 f7 ea 3d 8d c7 1a 3d a6 06 4c bd
       0.025955986 0.114729434 0.037787963 -0.049811028
000060 d1 fc 0d 3c 48 db 13 3d 06 a9 23 3d 99 75 9b 3d
       0.008666233 0.036097795 0.039956115 0.07590789
000070 41 0c 75 3d a0 e8 b8 3d 97 00 52 3c ef 26 f3 bc
       0.05982614 0.09028745 0.012817523 -0.02968165
000080 1e a8 5d 3c 1c 08 d7 3d ea 94 5b 3d 7a 88 41 3d
       0.013528852 0.104995936 0.053608812 0.047249295
000090 d8 0b e2 bc d0 08 01 3e 63 db 28 bd 66 9f 19 be
       -0.027593538 0.12601018 -0.04122485 -0.15002212
0000a0 e8 48 fd bd bd 31 4c bd 8b 6b 05 be 35 12 1a be
       -0.123674214 -0.04985212 -0.13029306 -0.15046008
0000b0 66 19 ca bd 1c 79 db bd 5c df 65 3c c7 3f a5 3b
       -0.098681256 -0.10716459 0.014030304 0.0050430032
0000c0 9d b5 6f 3d cd a3 87 bd a8 8f c2 bc 5f 91 d2 bd
       0.05852281 -0.066230394 -0.023750141 -0.102816336
0000d0 02 cc 32 3c 31 26 da bd 71 ca ae bd 2e c0 23 3b
       0.010912897 -0.10651816 -0.085347064 0.0024986374
0000e0 62 4c 6c bd a7 98 32 3c 55 67 86 bd 3f 39 a4 3c
       -0.05769003 0.010900653 -0.06562678 0.020046828
0000f0 5e e3 b8 bc d3 70 7d bc a1 27 af 3c 92 6f 8e bb
       -0.022569355 -0.015468794 0.021381201 -0.0043467963
000100 66 23 01 3d a0 ba ce 3d 30 31 dd bd 86 cc 17 3c
       0.0315279 0.1009419 -0.108003974 0.009265071
000110 16 13 f4 bd d1 bd d3 3b 2d 7f ac bd 1c 00 20 bd
       -0.11917703 0.006461837 -0.08422694 -0.039062604
000120 3c f6 5e 3d ff 93 1f 3e 48 ae aa 3d 0c 96 c4 3d
       0.054434046 0.155838 0.08334023 0.09598932
000130 1c 5d 92 3d 44 67 00 3e 46 bd 33 3d 66 58 00 3e
       0.071466655 0.12539393 0.043881677 0.12533721
000140 19 91 92 3d db 2d f2 bc 61 5b 8a 3d d7 7a e9 3d
       0.071565814 -0.029562881 0.067557104 0.11400383
000150 f6 7f 68 3c cf 79 48 3e b4 05 8c 3d 51 60 c4 3c
       0.0141906645 0.19577716 0.06837025 0.023971708
000160 6f e0 1f 3e ed 21 dc bb ea 7d 2a 3e 4e 72 86 3e
       0.15612958 -0.0067179115 0.16649595 0.26259083
000170 01 f2 82 3d 13 78 51 bc d7 4a 9b 3d b4 88 44 3d
       0.06393815 -0.012784976 0.07582634 0.047981933
000180 22 dd c5 3c 31 f4 97 bd 80 34 a9 bd c6 8f 67 be
       0.024153296 -0.07419623 -0.08261967 -0.22613439
000190 f5 60 7e 3d 22 be f5 3d 23 26 2a bd 14 1e 12 3c
       0.062104184 0.119991556 -0.041540276 0.008918304
0001a0 8d 52 3f bd 5e 06 d2 3d e6 78 7a 3e 49 cd 1e bd
       -0.046709586 0.10255121 0.24460182 -0.038769994
0001b0 e5 99 93 bd c1 ac 6f bb 61 f4 00 3d 05 fe 48 bd
       -0.072070874 -0.0036571475 0.031483058 -0.049070377
0001c0 7f 79 2c 3c 8f 52 b2 3d d0 ab 0a bd 0b 11 bb 3d
       0.010527014 0.08707153 -0.03385526 0.0913411
0001d0 8a be 9c 3d e3 80 1a bb 1b 53 77 bd c4 ac b7 3d
       0.0765353 -0.0023575358 -0.06038199 0.08968499
0001e0 6a 34 12 3d fb 08 cc bd 61 dc 91 bd 0a 9c 53 3d
       0.035694517 -0.099626504 -0.07122112 0.051662482
0001f0 ab 54 17 3d 4c e5 2f bc f4 36 d7 3d b7 cf a5 b9
       0.03694598 -0.010735821 0.10508528 -0.00031626012
000200 f1 d8 0c be aa d4 c1 3d b4 37 61 bc b1 23 9c bd
       -0.13754632 0.094643906 -0.013746191 -0.07623995
000210 81 ad 26 bd 20 a8 d7 3c be f5 22 3d 89 03 c8 3e
       -0.04069281 0.026325285 0.03978514 0.39065197
000220 3c a2 57 3e ba 68 97 3e 72 44 30 3e b6 13 b4 3d
       0.21057981 0.29572088 0.1721361 0.08792822
000230 af 32 10 be 22 51 18 3e d5 13 eb 3c 1a 4f 87 3d
       -0.14081834 0.148747 0.02869598 0.06606884
000240 ef d7 b6 3d 44 9c 9e 3d d3 9a b4 3c 9e 91 2a bd
       0.08927905 0.07744649 0.022046482 -0.041642778
000250 54 47 04 bd 2f f3 ee 3d 4e cb 8b bc 3a a0 0b 3d
       -0.032294586 0.11667477 -0.017064717 0.03408835
000260 1f 9d 03 3e 9f 12 a7 3c ba 93 13 bd 10 eb a3 bc
       0.12852906 0.020394621 -0.036029555 -0.020009547
000270 d7 8f 30 3c a0 14 17 bc 02 29 79 3c dd f8 5b 3d
       0.010776482 -0.009221226 0.015207531 0.05370413
000280 20 bb c6 3d b8 a7 0e bc 6c 8b 5f bd 0d fa 93 3c
       0.0970366 -0.008706979 -0.054576322 0.01806357
000290 62 fe ef bb 58 fa 36 bc 16 44 20 bd 90 1b 32 3d
       -0.007324026 -0.011168085 -0.03912743 0.043483317
0002a0 b8 aa 96 bd 29 10 4d bc 48 c6 f4 bd a1 2f 8d 3d
       -0.07356781 -0.01251606 -0.11951882 0.0689385
0002b0 4e b5 94 3d 63 76 ec 3d 69 23 05 bd 5c 2a 0d be
       0.072611436 0.11546018 -0.032504473 -0.1378569
0002c0 aa 55 c5 3b 5c 8d a3 bd 54 20 2c 3c 81 be 9d 3d
       0.006022175 -0.079859465 0.0105057545 0.07702351
0002d0 cd fb 3f bd 3c d7 26 3d f7 b6 43 3d 25 50 b8 3d
       -0.046870995 0.040732607 0.04778191 0.08999661
0002e0 ca 2f 00 3e 37 f2 ed 3d c1 06 d6 3d d6 58 36 bd
       0.1251823 0.116184644 0.10450507 -0.044518314
0002f0 8c fe b3 3d 54 39 98 bc cc 02 a9 bd 76 8a 77 bd
       0.08788785 -0.018582024 -0.082524866 -0.06043478
000300 80 ac 1f be 83 cb 74 bb 8c 8d db bc 26 8b 06 be
       -0.15593147 -0.0037352748 -0.026800893 -0.13139018
000310 9c 23 10 bd ba d4 83 3d 61 96 dc bd 31 ba 6c bc
       -0.03519021 0.06437059 -0.1077087 -0.014448688
000320 da 8c 38 bd 96 01 ea 3c 03 c8 94 bc 8e 5e 32 bd
       -0.0450562 0.02856521 -0.01816178 -0.043547206
000330 1f 0c 19 bd 11 b2 9c 3d 33 f3 57 3d a9 32 ac bc
       -0.037365075 0.07651151 0.052722167 -0.02102025
000340 da a1 2a 3e e6 12 31 3d 09 cf b0 3d 4a c6 bf bd
       0.16663304 0.043230914 0.08633239 -0.093639925
000350 49 9a a5 bd 33 ad b4 bd b1 8e b6 bd 0f 19 34 be
       -0.08086068 -0.08822098 -0.08913935 -0.17587684
000360 59 68 04 3e fd 9d 82 3d 79 23 6c 3d 19 26 5d bc
       0.1293043 0.0637779 0.057651017 -0.013497853
000370 d2 3a ad 3d 34 dd 41 3d 59 3d 8a 3d d5 46 af 3d
       0.08458485 0.047330096 0.067499824 0.08558432
000380 7b f6 bc 3d 27 74 da be ec 8a c7 be 36 f9 12 be
       0.092267 -0.42666742 -0.38973176 -0.14352879
000390 6e 4c 9a 3d 3f 11 ae bd b5 45 e6 bc 01 a7 87 3e
       0.07534109 -0.08499383 -0.02810941 0.264946
0003a0 33 6c c2 3c d8 03 8e 3c fa db 12 3d b1 6b cf bd
       0.023733234 0.017335817 0.035854317 -0.101279624
0003b0 3d 1f 54 3b eb 4b 04 3e 5b 5d a6 bd c2 de da bc
       0.0032367252 0.12919585 -0.08123275 -0.026717547
0003c0 72 8d 52 3d cc 1e c8 bd b3 66 11 3d d4 00 f5 3e
       0.051404424 -0.09771499 0.035498332 0.47852194
0003d0 e1 96 89 bd b4 04 06 3f b7 67 81 3e 8b cc 40 be
       -0.06718231 0.52350926 0.2527444 -0.18828027
0003e0 ff 49 8e 3e 6f cc a1 be d0 1c 2a be fc ce 8e bd
       0.2779083 -0.31601283 -0.16612554 -0.06973073
0003f0 f6 9b ee bc 5f 1e 36 3d 59 33 56 3d ce 74 3f 3d
       -0.029127102 0.044462558 0.052295063 0.046742253

net_list.5.bias f4 [8]
000000 9d bd 7b be 67 42 df bc 9a e7 fe 3d 98 b6 e2 3c
       -0.2458405 -0.027253343 0.12446518 0.027674958
000010 b3 45 a2 3d fb 0e a5 3d 8a b0 a8 ba 60 77 e6 3d
       0.0792345 0.08059498 -0.0012869996 0.11253238

net_list.7.weight f4 [1, 8, 3, 3]
000000 75 1c b4 bd fa 61 25 3c 86 61 6f 3d be 39 f3 3d
       -0.0879449 0.01009416 0.058442615 0.11876248
000010 1c 03 7e 3e 79 8e 25 3e 32 fd c6 3d b0 c6 df 3d
       0.24805874 0.1616763 0.09716262 0.109265685
000020 ed 35 ef 3d 9b f9 b5 bd c3 ce 35 be 8f 4a 23 be
       0.116802074 -0.08885499 -0.17754655 -0.1594641
000030 f5 14 e8 bd 8e 6a ce 3d cc ff 2e be 7f cf 57 3e
       -0.11332122 0.100789174 -0.17089766 0.21075247
000040 8c 76 66 3e 69 65 26 bc 1c 0d a9 3d b7 ef eb 3e
       0.2250616 -0.010156014 0.082544535 0.46081325
000050 53 f2 5f 3e 56 9b ee 3d c7 ff 3b 3e c4 3d 5e 3e
       0.21869783 0.11650722 0.1835929 0.21703249
000060 fe 31 b2 bd 18 4b 54 3e 58 c4 b9 3e 8e 13 4d 3c
       -0.087009415 0.20731771 0.3628261 0.012516869
000070 69 22 6e bd 36 38 24 bd da 18 9e bd 1a 31 87 bd
       -0.058138285 -0.04009267 -0.07719584 -0.06601162
000080 5a 4c cd bd cd e4 19 be 50 28 a7 bd 58 50 60 be
       -0.100243285 -0.15028687 -0.08161986 -0.21905649
000090 3e 25 ea 3d c6 1c 98 ba 98 28 a5 3c c2 97 d0 bd
       0.11432885 -0.0011605255 0.020160958 -0.101851955
0000a0 92 29 ad 3d f1 38 17 3e 02 a9 6d bd 1c 28 4d 3d
       0.084551945 0.14767815 -0.058022507 0.05008708
0000b0 43 29 4a 3d 80 f3 87 be 05 79 59 bc 7c 07 ea 3a
       0.049355756 -0.26552963 -0.013273482 0.0017855014
0000c0 6b a0 49 be d6 5a 43 3d 96 fd cf 3d ad 63 0e 3e
       -0.19690101 0.04769405 0.101557896 0.13905211
0000d0 68 d1 64 be d1 d5 a4 be 53 f6 88 3e df 9c 15 3e
       -0.22345507 -0.3219438 0.2675043 0.14610623
0000e0 cd 65 74 3e 1a ac 0d 3e 58 47 b6 3d d3 eb 16 3e
       0.23866959 0.13835183 0.089003265 0.14738397
0000f0 fa 24 e3 bc b0 86 1d 3e 00 60 a6 3d b2 62 90 3d
       -0.027727593 0.1538341 0.08123779 0.07050075
000100 e3 83 0c 3d e7 2e 8e 3d 20 b5 0d 3e 10 23 80 3d
       0.034305464 0.0694254 0.13838625 0.06256688
000110 52 d5 67 3d d0 dc 3c 3c 1e c0 22 3e e7 b4 86 bd
       0.056599922 0.011527255 0.158936 -0.06577473
