QIENetV1_0_0/QIENet_FC1.pth (torch, 31507 bytes, 17 tensors)

net_list.0.weight_ih_l0 f4 [64, 16]
-0.1274136 -0.12559704 0.096629664 -0.18486644 0.011154966 -0.3115663 0.9184594 0.014526375
-0.02780802 0.6627517 -0.20017873 -0.5176426 -0.1944503 0.45076627 0.6184123 -0.064599775
-0.31489074 -0.02381019 -0.034966014 0.25877896 -0.207291 -0.059837732 0.058645517 -0.20321387
-0.08401982 0.24376084 0.40865457 -0.09562379 0.30202907 -0.15520804 -0.07323402 0.00934759
0.2141402 0.18250667 0.147862 0.16146886 -0.051568925 0.1619955 0.18291539 -0.23690282
-0.093324654 -0.08704109 0.18689889 0.06902693 -0.0803491 0.24012387 -0.22673437 -0.05062095
0.12808004 0.13245608 -0.018733095 -0.34418654 0.03423325 -0.1904828 0.3193066 -0.23240206
-0.041777182 0.1017502 0.1233558 -0.06841081 0.00070717017 0.49677882 0.27920258 -0.115968935
-0.23075171 -0.28585672 0.038394295 0.30032375 -0.065303326 0.16533044 0.0035081115 -0.05042903
-0.14056872 0.06891936 0.7430279 0.20255513 0.8526379 0.25315496 0.06683412 0.0144178765
0.15132372 0.07444403 0.27653196 -0.07880035 -0.34200913 0.30315515 -0.9046044 0.087716624
-0.24683128 -0.5230923 0.51209223 0.34073913 0.514882 0.28916544 -0.27392897 -0.20745179
-0.19119456 0.023308298 -0.16605161 -0.28305483 0.10151083 0.18322216 0.12986302 -0.07917002
-0.004091531 -0.19493052 0.14067502 0.3132327 0.5007223 -0.17226577 -0.1590657 0.24279398
-0.2796642 -0.25993222 -0.1277845 -0.16239631 0.022267574 0.039584987 0.49264747 0.142383
0.17736061 -0.36375457 0.11281928 -0.1832865 0.15327463 -0.101713024 0.10648852 0.21091133
-0.07662456 -0.12269342 -0.2806343 0.27455622 -0.37850013 -0.24971327 0.022028731 -0.27653292
-0.3461144 -0.8833488 -0.1230856 0.14816664 -0.6988693 -0.17249422 0.017130854 0.10309973
-0.3603314 -0.2885828 -0.2714534 -0.3938133 -0.011736538 0.27397487 0.08860376 0.00019068105
-0.38076526 0.68969417 -0.022013659 0.059840843 -0.07959653 0.24408634 0.5103378 0.03333612
-0.24173339 -0.3288685 -0.30187884 0.034388315 0.034034394 0.124974005 0.22059557 -0.25076053
0.16613261 1.0358735 0.15919651 -0.1867892 0.08196005 0.07600663 0.112197466 -0.23216657
0.23538022 0.074083 -0.05486661 0.068381 0.16497843 -0.12385716 0.382169 0.13238497
0.015144112 0.5694461 0.3333488 0.3216024 0.4420269 0.13253511 0.107953474 0.18252067
0.456389 0.27895594 0.15574509 -0.41088068 0.30398896 0.24063572 0.03283526 0.6107176
0.29031196 -0.38406757 0.24330404 -0.1483026 0.059990704 -0.0034702367 -0.2694005 0.08513566
-0.24463187 -0.010950097 0.014423213 0.20075572 0.0148652475 -0.22798394 0.2860581 0.27400762
0.0702853 -0.7279332 0.2677642 0.029038293 0.058804948 0.17746297 0.30355087 0.3747415
-0.068894394 -0.15324126 0.13988239 0.35924768 0.015219236 -0.17630638 0.3182049 0.07144905
-0.019697241 0.106412165 0.3650396 0.100301705 0.20351924 -0.020563502 -0.02434559 0.14968275
-0.09182832 0.22975153 0.5187975 0.33230728 -0.35015082 -0.23667115 0.102556944 0.5617818
0.11904082 -0.13801321 -0.3839699 -0.124987885 -0.11213299 -0.214331 -0.34322655 0.0124884825
00000000: b678 02be 839c 00be c6e5 c53d a14d 3dbe
00000010: 52c3 363c 9e85 9fbe 2820 6b3f 0800 6e3c
00000020: a5cd e3bc 18aa 293f a7fb 4cbe 3a84 04bf
00000030: fb1d 47be d6ca e63e 4550 1e3f e34c 84bd
00000040: 5c39 a1be 960d c3bc 8638 0fbd ad7e 843e
00000050: 1844 54be 6918 75bd 4836 703d 4c17 50be
00000060: 9512 acbd 719c 793e 2c3b d13e 68d6 c3bd
00000070: 8ea3 9a3e dbee 1ebe b8fb 95bd a226 193c
00000080: 9247 5b3e 07e3 3a3e 2369 173e 1858 253e
00000090: f039 53bd 26e2 253e 2c4e 3b3e a796 72be
000000a0: ff20 bfbd 9942 b2bd 6c62 3f3e fe5d 8d3d
000000b0: 128e a4bd 08e3 753e 0e2d 68be ea57 4fbd
000000c0: 6a27 033e 91a2 073e 2676 99bc 3839 b0be
000000d0: 2a38 0c3d ec0d 43be 287c a33e cefa 6dbe
000000e0: 8d1e 2bbd 6962 d03d f7a1 fc3d f71a 8cbd
000000f0: 6361 393a cb59 fe3e a4f3 8e3e 1f81 edbd
00000100: 2d4a 6cbe d05b 92be 5643 1d3d 09c4 993e
00000110: c0bd 85bd 624c 293e 58e8 653b ac8e 4ebd
00000120: 3ff1 0fbe 9825 8d3d 1437 3e3f 9d6a 4f3e
00000130: 7a46 5a3f 879d 813e 54e0 883d f538 6c3c
00000140: 9bf4 1a3e 1d76 983d 9995 8d3e 1462 a1bd
00000150: d21b afbe 2737 9b3e 2794 67bf c6a4 b33d
00000160: 57c1 7cbe 61e9 05bf 7a18 033f 5c75 ae3e
00000170: 4fcf 033f 7e0d 943e 6b40 8cbe 3e6e 54be
00000180: 82c8 43be 0bf1 be3c 6f09 2abe 90ec 90be
00000190: e9e4 cf3d 979e 3b3e d0fa 043e e423 a2bd
000001a0: 4012 86bb de9b 47be 1d0d 103e 0960 a03e
000001b0: 562f 003f 7066 30be 1ee2 22be fc9e 783e
000001c0: 2530 8fbe d615 85be f1d9 02be 384b 26be
000001d0: 7d6a b63c de23 223d 4a3c fc3e d9cc 113e
000001e0: 059e 353e 0a3e babe cb0d e73d 75af 3bbe
000001f0: 06f4 1c3e eb4e d0bd a716 da3d 24f9 573e
00000200: 56ed 9cbd b046 fbbd 4daf 8fbe a292 8c3e
00000210: c5ca c1be d6b4 7fbe 9975 b43c b995 8dbe
00000220: e835 b1be 2623 62bf 4e14 fcbd ffb8 173e
00000230: 19e9 32bf 53a2 30be 0156 8c3c f425 d33d
00000240: 5b7d b8be 20c1 93be f1fb 8abe e6a1 c9be
00000250: 9c4a 40bc 6f46 8c3e e375 b53d 8ef1 4739
00000260: aaf3 c2be cc8f 303f fd55 b4bc ac1b 753d
00000270: 8103 a3bd c5f1 793e 80a5 023f 758b 083d
00000280: f588 77be 7461 a8be dd8f 9abe c3da 0c3d
00000290: a667 0b3d 5ff2 ff3d cee3 613e af63 80be
000002a0: ab1e 2a3e 8197 843f 6904 233e ab45 3fbe
000002b0: acda a73d 5da9 9b3d c9c7 e53d 13bd 6dbe
000002c0: 8307 713e d4b8 973d cfbb 60bd 560b 8c3d
000002d0: 1bf0 283e d3a8 fdbd a8ab c33e ed8f 073e
000002e0: 021f 783c 38c7 113f b2ac aa3e 12a9 a43e
000002f0: 5a51 e23e 49b7 073e b616 dd3d b3e6 3a3e
00000300: d2ab e93e 50d3 8e3e a47b 1f3e f45e d2be
00000310: 71a4 9b3e 3669 763e 447e 063d fd57 1c3f
00000320: c5a3 943e 81a4 c4be b224 793e a3dc 17be
00000330: d0b8 753d e96c 63bb ddee 89be 9b5b ae3d
00000340: c780 7abe 0968 33bc 574f 6c3c e892 4d3e
00000350: 5e8d 733c 9f74 69be 3576 923e ba4a 8c3e
00000360: bdf1 8f3d d559 3abf 6418 893e b7e1 ed3c
00000370: 75dd 703d dab8 353e 056b 9b3e 1ede bf3e
00000380: 8118 8dbd 47eb 1cbe 543d 0f3e 50ef b73e
00000390: 1a5a 793c a989 34be c1eb a23e e153 923d
000003a0: 1c5c a1bc 9fee d93d 78e6 ba3e fb6a cd3d
000003b0: 5967 503e ca74 a8bc 6770 c7bc 6f46 193e
000003c0: 7c10 bcbd fc43 6b3e eacf 043f 2e24 aa3e
000003d0: f846 b3be ec59 72be 6009 d23d efd0 0f3f
000003e0: accb f33d 5653 0dbe b497 c4be a6f9 ffbd
000003f0: fba5 e5bd 9679 5bbe 64bb afbe 7e9c 4c3c

net_list.0.weight_hh_l0 f4 [64, 16]
-0.006675208 0.23223862 0.5228285 0.08631068 0.4325757 0.35646385 0.36850476 0.20650832
0.49917766 0.27776983 -0.2112811 0.3771579 -0.4351403 0.34084696 -0.2158926 0.33790267
-0.4553823 -0.29425246 -0.09046854 -0.058942463 0.258956 0.08275806 0.10869838 0.2033726
0.121839784 0.26586518 -0.30357608 -0.10194308 -0.29700136 -0.11179919 -0.06072864 0.20092367
-0.35798055 0.0391742 -0.25671417 0.10004163 0.14001027 -0.29313356 0.2660732 0.055580154
0.071590126 0.16703512 -0.23038197 0.14609115 0.06994451 -0.23156106 0.081046 -0.08056169
-0.35020286 -0.14568399 0.020221144 0.04097999 0.4262453 -0.16938424 0.13278928 -0.1076099
-0.0840969 0.20342696 0.23424523 -0.2683014 -0.056296095 -0.2902586 0.077203445 -0.1808179
-0.15426002 -0.047052372 0.12592347 -0.07790225 -0.14697707 -0.016148936 0.22684003 -0.040111452
-0.0318446 0.13230573 -0.103681445 0.0613285 -0.020431861 -0.11211612 0.04630038 0.07976326
0.124791645 -0.23109113 -0.661854 0.33548644 -0.32586187 0.030513281 -0.29155114 -0.070339955
-0.11595412 -0.21739922 0.0966943 -0.5088189 -0.17406525 -0.26690313 -0.12706149 -0.0020895135
-0.26694435 -0.044473562 0.2894 -0.15228513 0.14690515 0.07653418 0.24732107 0.10992185
0.4623009 0.25410149 -0.047723282 0.105551675 -0.19900124 0.19707017 -0.29861292 0.44618893
-0.008512421 0.20430928 0.21843411 -0.08359328 0.12278677 -0.06742486 0.13902721 0.0339433
-0.09890036 -0.09441637 0.049553983 -0.11506403 0.2651446 -0.08719795 -0.06080393 0.17956392
0.1003503 0.4555478 -0.25856572 0.1854825 0.068677984 0.17200716 -0.20571984 -0.22469422
-0.3191952 -0.067764714 0.20576681 -0.2917876 -0.046823084 -0.07230666 0.16184945 -0.010847211
0.18766166 0.056666493 0.06848918 -0.3113297 -0.1643931 -0.30865172 0.41472754 0.088276476
-0.039673515 0.2776273 -0.1717018 -0.02714393 0.06288501 -0.021505786 -0.16848312 -0.08381996
-0.13125059 -0.22418939 0.26538673 0.07528633 0.033455886 0.08551342 0.17747894 0.46075425
-0.105292976 0.43156216 -0.017695097 0.01647783 -0.4136888 0.0888879 -0.3473073 0.52713597
0.062952615 -0.2693843 0.29773656 0.05884328 0.295037 0.13890143 0.36528948 0.1176539
0.4012224 0.25626552 -0.12920196 0.19056807 -0.31556025 -0.055292606 -0.040558096 0.05462399
-0.40072298 0.31007823 0.026642935 -0.07392928 0.0710161 0.2551804 0.35770246 0.15389736
0.35353896 0.3137697 -0.17466539 0.33188143 -0.23621127 0.10443984 -0.25450358 0.20100631
-0.37951505 0.039451856 0.32369494 -0.15018958 0.13578089 0.109783046 0.30954638 0.11281686
-0.024543883 0.48147506 0.046129216 0.30676538 -0.28729725 0.060260974 -0.15360089 -0.16582927
-0.266574 0.0963313 0.03996364 -0.30231073 0.018758068 -0.029239422 0.4316443 0.42248663
0.36212453 -0.0898937 -0.26535997 0.124504425 6.913e-05 0.22273158 -0.101016425 0.15526272
-0.13591567 -0.024838816 0.2290677 -0.060212187 -0.14675777 -0.10347581 0.05553504 0.1888781
0.12684628 -0.010054457 -0.06615112 0.21567996 0.046894826 -0.13004111 -0.074597776 0.18542926
00000000: b4bb dabb f6cf 6d3e 17d8 053f a7c3 b03d
00000010: 907a dd3e 6e82 b63e a8ac bc3e eb76 533e
00000020: 3794 ff3e d937 8e3e 135a 58be d71a c13e
00000030: b6ca debe 7e83 ae3e f312 5dbe 9401 ad3e
00000040: de27 e9be 42a8 96be 9247 b9bd a76d 71bd
00000050: e195 843e 0f7d a93d 429d de3d e840 503e
00000060: 2387 f93d 7b1f 883e 536e 9bbe 89c7 d0bd
00000070: 9010 98be f9f6 e4bd 98be 78bd efbe 4d3e
00000080: 3a49 b7be 2075 203d 0a70 83be a0e2 cc3d
00000090: da5e 0f3e 9a15 96be bf3a 883e 04a8 633d
000000a0: d89d 923d 410b 2b3e 40e9 6bbe eb98 153e
000000b0: 113f 8f3d 581e 6dbe 72fb a53d 87fd a4bd
000000c0: ca4d b3be 2f2e 15be d0a6 a53c a2da 273d
000000d0: d33c da3e 1073 2dbe eaf9 073e 9462 dcbd
000000e0: ff3a acbd 284f 503e fbdd 6f3e cd5e 89be
000000f0: bc96 66bd c69c 94be d71c 9e3d 5428 39be
00000100: 57f6 1dbe fdb9 40bd 15f2 003e 378b 9fbd
00000110: 2881 16be c64a 84bc c148 683e e84b 24bd
00000120: 7c6f 02bd 277b 073e f056 d4bd 9833 7b3d
00000130: b860 a7bc 239d e5bd 78a5 3d3d ec5a a33d
00000140: c392 ff3d 27a3 6cbe 446f 29bf e1c4 ab3e
00000150: 5ed7 a6be fdf6 f93c 3146 95be 650e 90bd
00000160: 5b79 edbd e79d 5ebe a907 c63d f541 02bf
00000170: 293e 32be 87a7 88be 681c 02be 38f0 08bb
00000180: eeac 88be e929 36bd 3d2c 943e a2f0 1bbe
00000190: 4e6e 163e f4bd 9c3d bc41 7d3e b51e e13d
000001a0: b4b2 ec3e 9719 823e 7d79 43bd 7a2b d83d
000001b0: fbc6 4bbe c3cc 493e cbe3 98be e072 e43e
000001c0: ae77 0bbc 7436 513e 31ad 5f3e f432 abbd
000001d0: a177 fb3d 0c16 8abd 265d 0e3e 2108 0b3d
000001e0: 468c cabd 5f5d c1bd 1ef9 4a3d b1a6 ebbd
000001f0: 08c1 873e d794 b2bd 8b0d 79bd 9bdf 373e
00000200: 7584 cd3d 903d e93e ba62 84be 20ef 3d3e
00000210: 0ba7 8c3d a522 303e 39a8 52be 3e16 66be
00000220: 8e6d a3be 3ac8 8abd 89b4 523e 2f65 95be
00000230: 90c9 3fbd 8415 94bd ddbb 253e 80b8 31bc
00000240: 612a 403e 201b 683d 0e44 8c3d 9b66 9fbe
00000250: aa56 28be 9907 9ebe 2b57 d43e 4cca b43d
00000260: b280 22bd 2a25 8e3e 99d2 2fbe f25c debc
00000270: dbc9 803d e72c b0bc d786 2cbe cda9 abbd
00000280: 8e66 06be e791 65be c5e0 873e b82f 9a3d
00000290: 0a09 093d a921 af3d 0abd 353e fbe7 eb3e
000002a0: d8a3 d7bd b7f5 dc3e 4ff5 90bc 84fc 863c
000002b0: 05cf d3be dc0a b63d 43d2 b1be 62f2 063f
000002c0: 4ded 803d bdec 89be ed70 983e a705 713d
000002d0: 170f 973e 2d3c 0e3e 3907 bb3e 87f4 f03d
000002e0: 066d cd3e 3c35 833e 854d 04be 4724 433e
000002f0: 1d91 a1be 807a 62bd 3f20 26bd 68bd 5f3d
00000300: 902b cdbe 93c2 9e3e 4942 da3c 3c68 97bd
00000310: e470 913d 01a7 823e c724 b73e 4597 1d3e
00000320: 0f03 b53e 6ca6 a03e 7cdb 32be 5dec a93e
00000330: 5ee1 71be 8ee4 d53d 4b4e 82be 99d4 4d3e
00000340: cc4f c2be 4598 213d 58bb a53e 4ccb 19be
00000350: 250a 0b3e efd5 e03d dd7c 9e3e 870c e73d
00000360: 4110 c9bc e683 f63e fdf1 3c3d 5a10 9d3e
00000370: a018 93be 36d4 763d 8d49 1dbe 26cf 29be
00000380: 637c 88be 5849 c53d eab0 233d 79c8 9abe
00000390: 85aa 993c 8387 efbc 7b00 dd3e 2b50 d83e
000003a0: 6368 b93e 301a b8bd 43dd 87be 2dfc fe3d
000003b0: e3f9 9038 bf13 643e b3e1 cebd 31fd 1e3e
000003c0: 7a2d 0bbe c67a cbbc b990 6a3e 0ea1 76bd
000003d0: ab47 16be 20eb d3bd b678 633d 4369 413e
000003e0: fee3 013e 73bb 24bc 3d7a 87bd 35db 5c3e
000003f0: ca14 403d 7f29 05be b8c6 98bd 2be1 3d3e

net_list.0.bias_ih_l0 f4 [64]
0.36935928 -0.13548243 0.10841497 0.14233588 -0.08095159 0.03262617 0.4347281 0.29196793
0.14338104 0.17153573 0.35885552 0.7928979 0.27443454 0.35426134 0.073078066 -0.041511778
-0.24865426 -0.4121873 -0.10932149 -0.31729078 -0.07065628 -0.2949127 -0.15983433 -0.2196528
-0.26963773 -0.121854536 -0.24662903 0.52472883 0.12874533 -0.3161442 0.32202125 0.14725178
0.04340821 0.13860549 0.35875407 -0.36108267 -0.13922992 0.21180572 0.28140277 0.23246874
0.2828776 0.15284567 -0.37060958 0.5891367 -0.2076083 -0.016143426 -0.3768811 0.45658216
0.014167279 -0.3085446 -0.038303412 -0.064526506 -0.19642794 0.090179935 0.16672164 0.14529847
0.028780451 0.2622539 -0.13185239 0.36555392 0.32687768 0.07539186 0.2851879 -0.11671621
00000000: a91c bd3e e8bb 0abe ab08 de3d 7fc0 113e
00000010: f2c9 a5bd 05a3 053d ae94 de3e d27c 953e
00000020: 7bd2 123e 10a7 2f3e e9bb b73e 5bfb 4a3f
00000030: af82 8c3e be61 b53e f4a9 953d 4108 2abd
00000040: 399f 7ebe 370a d3be f2e3 dfbd f073 a2be
00000050: 3db4 90bd ccfe 96be 9cab 23be aaec 60be
00000060: f50d 8abe df8e f9bd 528c 7cbe a154 063f
00000070: d1d5 033e a7dd a1be f8df a43e 2cc9 163e
00000080: cfcc 313d 99ee 0d3e 9dae b73e d4df b8be
00000090: 4a92 0ebe 99e3 583e 0614 903e 490c 6e3e
000000a0: 55d5 903e 9383 1c3e 8ac0 bdbe aad1 163f
000000b0: 4597 54be 383f 84bc 8ff6 c0be 23c5 e93e
000000c0: e01d 683c 8ff9 9dbe 0ae4 1cbd 7926 84bd
000000d0: 6824 49be 42b0 b83d 14b9 2a3e 1fc9 143e
000000e0: fbc4 eb3c 2546 863e 5004 07be e229 bb3e
000000f0: 835c a73e 0c67 9a3d 2604 923e e908 efbd

net_list.0.bias_hh_l0 f4 [64]
0.4851674 0.10197857 0.1374361 -0.25339893 -0.21786699 0.14351735 0.44013846 0.22379972
0.12930341 0.013418853 0.0942058 0.6727663 0.09498608 0.35027054 0.024152223 -0.0791519
-0.30809438 -0.3001636 0.14089432 -0.327082 -0.14015576 -0.15944819 0.05899618 -0.05111116
-0.14451341 0.03710518 -0.00035702475 0.2931726 0.015009785 -0.08041861 0.30411628 -0.17337963
-0.16203372 -0.19286741 0.22507836 -0.13716191 0.20218688 -0.08824232 0.30288294 0.117577784
0.29292384 0.03517849 -0.19512263 0.7015972 -0.26195875 -0.06710473 -0.41087195 0.35421702
0.17447351 -0.19524263 0.13283923 -0.21480168 -0.18331027 0.118578754 0.46078768 0.28678635
0.2017874 0.3944029 0.11204816 -0.009463355 0.14760406 0.084737964 0.05437842 0.093873665
00000000: dd67 f83e 24da d03d 0dbc 0c3e 81bd 81be
00000010: 8618 5fbe 36f6 123e d459 e13e c12b 653e
00000020: 1d68 043e c0da 5b3c f8ee c03d 6a3a 2c3f
00000030: 1088 c23d a956 b33e e2da c53c 641a a2bd
00000040: 8cbe 9dbe 0baf 99be 9a46 103e 4b77 a7be
00000050: fe84 0fbe 6346 23be faa5 713d f059 51bd
00000060: 53fb 13be 9afb 173d 0d2f bbb9 b81a 963e
00000070: 9aeb 753c 83b2 a4bd 21b5 9b3e 6e8a 31be
00000080: 2bec 25be 097f 45be f17a 663e 2c74 0cbe
00000090: 140a 4f3e 64b8 b4bd 7913 9b3e 9fcc f03d
000000a0: 1dfa 953e 5217 103d 3ace 47be e09b 333f
000000b0: 751f 86be 346e 89bd cf5d d2be ef5b b53e
000000c0: 2fa9 323e afed 47be 0207 083e f9f4 5bbe
000000d0: b0b5 3bbe 6bd9 f23d 5dec eb3e a9d5 923e
000000e0: 5ba1 4e3e 2def c93e 8179 e53d 300c 1bbc
000000f0: 8525 173e 198b ad3d e8bb 5e3d d640 c03d

net_list.0.weight_ih_l1 f4 [64, 16]
0.064319685 0.13292666 -0.22412485 0.33670974 -0.30887467 0.42023015 0.03230396 0.19097799
0.4491649 0.282637 -0.022666 0.2058781 -0.060290866 0.3037112 -0.15588136 0.15836169
-0.3534531 -1.166297 0.64063007 0.64686835 1.3731656 -0.18908457 0.8169269 0.46102536
0.8011542 0.9558888 -0.70485413 1.5451646 -0.8975772 0.42449382 -1.4913124 0.59852856
0.42025128 -0.62215996 0.25480086 0.40038088 0.3621249 0.26555642 0.27889857 0.16312058
0.30912018 -0.09386633 0.24106535 0.8086709 -0.6811428 -0.4169541 -0.583457 0.4699533
-0.24642324 -0.19070093 -0.00878023 0.09684831 0.20550184 -0.22504085 0.016893985 -0.093650274
0.2278413 0.21571767 0.17249951 0.2085632 -0.39485526 -0.38190278 0.09124659 0.07662897
0.010113514 -0.50042933 0.20561409 0.6012173 0.3116824 -0.5318288 0.044540513 0.55701745
0.40253937 0.0061149397 0.2833197 0.22589229 -0.5006253 -0.4981571 -0.3379691 0.1802675
-0.39891794 -0.48587552 0.9928105 -0.32658595 1.3079429 -0.08822714 1.092688 0.7510859
0.898789 1.3800552 -0.5129906 1.3189833 -0.38047606 0.49263054 -1.15582 0.9137669
-0.12075412 -0.5261168 -0.37588993 0.47502473 0.5789964 -0.38306665 0.2561101 0.4986121
-0.2845712 0.4835892 0.05755534 0.09440449 -0.25649872 -0.0065044365 -0.18483084 0.5150576
-0.37850282 -0.75521845 0.5576198 0.9855743 0.9729515 -0.40089735 0.45400506 0.6217937
0.46716857 0.23905842 -0.06240479 0.5334564 -0.49585992 -0.279318 -0.6263895 0.50166935
-0.61585903 -0.13653702 -0.14307006 0.38183603 0.5254012 -0.06334793 0.20488279 -0.049492892
-0.22605872 0.45327875 0.26821294 -0.18790118 -0.20404464 -0.2186216 -0.35389432 -0.041312642
-0.07575366 -0.22849044 0.07487707 0.4095772 0.15890749 -0.13962965 0.38553607 0.17985235
0.23078118 0.43049678 0.53639066 0.79521495 -0.29318154 0.027872784 -0.45116535 0.2660826
0.5302566 -0.4975293 0.046142116 0.3500504 0.20222144 -0.050913345 0.4598064 1.0238585
0.20174159 0.41220298 0.013025859 0.45404428 -0.62448174 -0.41965595 -0.5600908 0.19018571
-0.7642808 -0.05096156 -0.09206159 0.28867778 0.62816554 -0.015498401 0.18761697 0.27398673
-0.21421921 0.33528486 0.7075836 0.34054452 -0.3746519 -0.14834747 -0.11337328 0.21132201
-0.29419887 -1.0738674 0.685149 0.64439106 1.174885 -0.5317545 1.439375 0.74870694
1.2743404 1.2837367 -0.17705087 1.4442072 -0.90176725 0.07680107 -1.6710019 1.0367849
-0.06607601 -0.09538132 0.06829851 0.073587306 0.29786077 0.38578847 -0.0111140385 -0.3054849
0.23583852 0.56075597 -0.12920141 0.05687055 -0.23916386 0.7535867 -0.1702864 -0.14274728
-0.24351792 0.0015243537 -0.39194512 0.26704273 0.23475255 0.040081766 0.3371549 0.05412893
-0.03531473 0.14695251 0.1458985 0.32721788 -0.42075863 -0.48704734 -0.011623793 0.49831253
-0.062194634 -0.7947131 0.11246141 0.6268557 0.7915176 -0.40739805 0.9583351 0.4398299
0.295308 0.61362994 0.12576544 0.5701726 -0.5192997 -0.015402642 -0.51102954 0.64291495
00000000: 0aba 833d ed1d 083e fc80 65be 3865 ac3e
00000010: d224 9ebe 6828 d73e 2851 043d bc8f 433e
00000020: f1f8 e53e ccb5 903e 0cae b9bc b5d1 523e
00000030: 8ef3 76bd 0980 9b3e 5d9f 1fbe 9129 223e
00000040: cef7 b4be 3849 95bf 5500 243f 2a99 253f
00000050: e4c3 af3f 639f 41be 1f22 513f 840b ec3e
00000060: 7118 4d3f 21b5 743f 5271 34bf f4c7 c53f
00000070: 9fc7 65bf 4157 d93e 53e3 bebf 2b39 193f
00000080: 2d2b d73e e045 1fbf 4275 823e b9fe cc3e
00000090: 6f68 b93e 03f7 873e cbcb 8e3e 1509 273e
000000a0: 0045 9e3e fe3c c0bd d6d9 763e 0e05 4f3f
000000b0: 605f 2ebf 027b d5be 705d 15bf b89d f03e
000000c0: 6056 7cbe 1b47 43be f4da 0fbc 6858 c63d
000000d0: 136f 523e 1c71 66be 4165 8a3c b7cb bfbd
000000e0: 3b4f 693e 18e5 5c3e b6a3 303e 9791 553e
000000f0: 782a cabe c388 c3be 7edf ba3d a6ef 9c3d
00000100: 27b3 253c 231c 00bf 808c 523e 61e9 193f
00000110: d694 9f3e ef25 08bf 1d70 363d b298 0e3f
00000120: a419 ce3e d55f c83b 480f 913e 4f50 673e
00000130: fb28 00bf 730e ffbe 490a adbe 0b98 383e
00000140: f93e ccbe adc4 f8be d428 7e3f 4636 a7be
00000150: ac6a a73f 6eb0 b4bd 33dd 8b3f 2a47 403f
00000160: 0917 663f a6a5 b03f 5a53 03bf 72d4 a83f
00000170: c2cd c2be 123a fc3e e9f1 93bf a1ec 693f
00000180: f04d f7bd 97af 06bf a574 c0be 7136 f33e
00000190: 1c39 143f 5021 c4be dd20 833e 164a ff3e
000001a0: 51b3 91be 0199 f73e 26bf 6b3d 2457 c13d
000001b0: cd53 83be 2b23 d5bb 4c44 3dbe d1da 033f
000001c0: 1fcb c1be ff55 41bf 2cc0 0e3f 994e 7c3f
000001d0: 5913 793f 6b42 cdbe 5a73 e83e df2d 1f3f
000001e0: b830 ef3e bbcb 743e 2a9c 7fbd 9990 083f
000001f0: 5ae1 fdbe c502 8fbe 105b 20bf 676d 003f
00000200: f0a8 1dbf 5cd0 0bbe f580 12be 0380 c33e
00000210: b180 063f 8fbc 81bd cbcc 513e 0fb9 4abd
00000220: f07b 67be 2714 e83e 3553 893e 2b69 40be
00000230: 14f1 50be 57de 5fbe a331 b5be 7237 29bd
00000240: bc24 9bbd 66f9 69be 2659 993d 1ab4 d13e
00000250: a5b8 223e 13fb 0ebe fc64 c53e 372b 383e
00000260: e751 6c3e 136a dc3e e650 093f 3593 4b3f
00000270: e41b 96be 7755 e43c 25ff e6be fb3b 883e
00000280: e6be 073f 29bc febe 84ff 3c3d ce39 b33e
00000290: 2313 4f3e 838a 50bd bf6b eb3e cc0d 833f
000002a0: 5995 4e3e 450c d33e 6a6a 553c 7e78 e83e
000002b0: 09de 1fbf 25dd d6be 1c62 0fbf 0bc0 423e
000002c0: e8a7 43bf 12bd 50bd c98a bcbd 93cd 933e
000002d0: 75cf 203f 01ed 7dbc aa1e 403e fd47 8c3e
000002e0: 485c 5bbe 75aa ab3e 3324 353f da5b ae3e
000002f0: 60d2 bfbe 66e8 17be 4030 e8bd cc64 583e
00000300: 3ca1 96be 7d74 89bf ed65 2f3f d0f6 243f
00000310: a262 963f 1021 08bf 713d b83f 42ab 3f3f
00000320: 961d a33f 7c51 a43f d34c 35be c8db b83f
00000330: 38da 66bf e149 9d3d 64e3 d5bf 5eb5 843f
00000340: dc52 87bd 4857 c3bd 17e0 8b3d f1b4 963d
00000350: 3581 983e 1186 c53e a817 36bc 8468 9cbe
00000360: a77f 713e b48d 0f3f 604d 04be 18f1 683d
00000370: 5fe7 74be 0feb 403f 8f5f 2ebe 582c 12be
00000380: c35c 79be d3cc c73a 08ad c8be d3b9 883e
00000390: f962 703e c72c 243d 919f ac3e 4cb6 5d3d
000003a0: 2ea6 10bd b87a 163e 6b66 153e 1a89 a73e
000003b0: ad6d d7be 455e f9be b971 3ebc d222 ff3e
000003c0: cdbf 7ebd 5172 4bbf 2b52 e63d 9d79 203f
000003d0: e6a0 4a3f 7a96 d0be 7355 753f 6231 e13e
000003e0: 9c32 973e da16 1d3f a8c8 003e d5f6 113f
000003f0: d3f0 04bf 5d5b 7cbc d5d2 02bf 1396 243f

net_list.0.weight_hh_l1 f4 [64, 16]
-0.034509763 -0.051214654 -0.20559736 0.24430496 0.03797676 0.2533319 -0.097440146 0.0704974
0.016168507 -0.031159585 -0.23684178 0.2122359 0.36917242 -0.1225544 0.2556935 -0.29175323
-0.10495767 0.05222571 0.050033335 0.24670006 0.13370146 0.07769613 -0.1955547 -0.39522228
0.18003224 0.50103956 -0.015813056 0.19408754 0.08362038 0.27581704 -0.17198247 -0.073921286
-0.99198633 0.4541277 0.26582193 0.92302084 0.54167616 0.49395952 -0.3951488 -0.594349
0.45906016 0.46873632 0.7602534 0.47745317 0.5144126 0.82064366 0.7524411 -0.19640517
-0.023070851 -0.04878595 -0.05991436 0.045062356 0.020149184 0.04458657 -0.09692795 0.096086055
0.03778467 -0.044216864 0.1321695 0.28530088 0.24308488 -0.15120524 -0.2643316 -0.34893936
0.0508348 0.36698654 0.34384355 0.17591262 0.16506992 0.34764966 -0.03098932 0.05386218
0.05877894 -0.3567688 0.33361265 0.013697049 0.23188786 -0.010092471 -0.105212785 -0.23542824
-0.2884818 0.012059185 -0.11873306 -0.08765767 -0.10001526 -0.051820174 -0.39878348 -0.4100082
0.20073085 0.565132 -0.048467208 0.059787303 0.17838965 0.14516152 0.16143489 0.106279396
-0.07789602 0.23365724 0.14671889 0.011986519 0.36616725 0.08538009 0.08624975 -0.05643026
0.19942562 -0.12027811 0.30017862 0.2913571 0.21645363 -0.022706473 0.42947465 -0.07474041
-0.3667462 0.09365773 0.47880167 0.14611825 0.3429265 0.20577288 -0.07249611 -0.37784946
0.15595509 -0.14599898 0.4049761 0.1975884 0.18238115 0.30857828 -0.019126201 -0.3077331
-0.05286768 -0.122492455 0.075508915 -0.15041585 -0.013713674 0.24863158 0.045692258 0.2550188
0.072835386 0.003541916 -0.014616098 -0.019018192 0.124346256 0.2962088 0.18697757 -0.004736485
-0.3736508 0.3260464 0.22027358 0.5648412 0.42721424 0.2194647 -0.3784653 -0.50855863
0.38785616 -0.017949626 0.3539614 0.45180985 0.3492544 0.37569278 0.40570715 -0.2085213
-0.14299884 0.22109376 -0.09989366 0.12509435 0.090891235 0.3298505 -0.16318972 -0.32478338
0.2933339 0.34832042 0.46584263 0.15717101 0.2073686 0.1405263 0.08586832 -0.10085956
-0.2477821 0.332473 0.07922504 0.37290138 0.0032486029 0.1807028 -0.014988534 -0.23043571
0.14579362 -0.07884496 0.19981003 0.37132117 0.3079241 0.31311926 0.15682583 -0.3612142
-0.1545193 0.31231073 -0.1309068 0.1483634 0.25970873 0.2543582 -0.16132167 -0.29582357
0.3312651 0.47725323 0.0432452 0.09207517 0.4486373 0.03205704 0.16047941 -0.37889266
-0.22688083 0.44813055 0.09771501 0.008644135 0.40651298 -0.021804675 -0.07855562 -0.4033657
0.16234452 0.096694686 0.41483593 0.008788547 0.35675105 0.19267161 0.283019 -0.15586208
0.13165808 0.3634997 0.047390934 0.3253832 0.20785145 0.122343056 -0.23837516 -0.37092555
0.04369752 -0.12675846 0.15902634 0.01628161 0.21608435 0.23887073 -0.020742098 0.07368436
-0.5546591 0.664661 -0.2069457 0.6365066 0.67002577 0.5252412 -0.24933076 -0.6430589
0.45410195 0.3618613 0.27211106 0.56448334 0.30209503 0.4865306 0.6344951 -0.20945416
00000000: 1c5a 0dbd 75c6 51bd 1d88 52be 142b 7a3e
00000010: 858d 1b3d b8b4 813e b38e c7bd f160 903d
00000020: d173 843c 6342 ffbc a786 72be 5e54 593e
00000030: 2b04 bd3e cdfd fabd 42ea 823e ae60 95be
00000040: 0cf4 d6bd a0ea 553d c1ef 4c3d f19e 7c3e
00000050: 09e9 083e 261f 9f3d 7e3f 48be 935a cabe
00000060: 5f5a 383e 2144 003f 628a 81bc e2be 463e
00000070: 2941 ab3d e437 8d3e 2c1c 30be 0b64 97bd
00000080: d1f2 7dbf 6d83 e83e d019 883e 184b 6c3f
00000090: 4aab 0a3f 43e8 fc3e f250 cabe 4227 18bf
000000a0: ef09 eb3e 35fe ef3e f89f 423f be74 f43e
000000b0: 8bb0 033f b415 523f fb9f 403f 701e 49be
000000c0: 15ff bcbc c7d3 47bd c368 75bd 4e93 383d
000000d0: e70f a53c 68a0 363d 2982 c6bd c4c8 c43d
000000e0: 19c4 1a3d be1c 35bd 7157 073e f512 923e
000000f0: 3eeb 783e 8cd5 1abe 7956 87be 2ea8 b2be
00000100: 2738 503d a9e5 bb3e 430c b03e 7022 343e
00000110: 1708 293e 23ff b13e 50dd fdbc 979e 5c3d
00000120: 30c2 703d 66aa b6be 47cf aa3e 9669 603c
00000130: 0374 6d3e e45a 25bc cd79 d7bd 1a14 71be
00000140: e3b3 93be e393 453c 522a f3bd dd85 b3bd
00000150: cdd4 ccbd 6441 54bd 592d ccbe 98ec d1be
00000160: 638c 4d3e 7eac 103f 8d85 46bd 88e3 743d
00000170: c7ab 363e 39a5 143e 304f 253e 03a9 d93d
00000180: f387 9fbd d843 6f3e 7a3d 163e 1b63 443c
00000190: 467a bb3e c2db ae3d b5a3 b03d 6b23 67bd
000001a0: 3b36 4c3e 5f54 f6bd 03b1 993e c22c 953e
000001b0: 05a6 5d3e ed02 babc 1ae4 db3e 8011 99bd
000001c0: 28c6 bbbe a0cf bf3d 7e25 f53e 06a0 153e
000001d0: 1094 af3e 20b6 523e d778 94bd 7c75 c1be
000001e0: b1b2 1f3e c280 15be 0759 cf3e 9d54 4a3e
000001f0: 20c2 3a3e f9fd 9d3e 8dae 9cbc 318f 9dbe
00000200: c88b 58bd 53dd fabd 6ba4 9a3d 9d06 1abe
00000210: 51af 60bc 4799 7e3e ce27 3b3d d391 823e
00000220: b82a 953d 7d1f 683b 5c78 6fbc 0acc 9bbc
00000230: 40a9 fe3d aea8 973e 0c77 3f3e 8434 9bbb
00000240: 284f bfbe 8eef a63e 668f 613e 6f99 103f
00000250: d3bb da3e 5bbb 603e 34c6 c1be e630 02bf
00000260: 1595 c63e 180b 93bc 6e3a b53e 9f53 e73e
00000270: 79d1 b23e ce5a c03e d9b8 cf3e 9c86 55be
00000280: 4a6e 12be 6766 623e 0c95 ccbd bc18 003e
00000290: 2f25 ba3d 2ae2 a83e 351b 27be 024a a6be
000002a0: dc2f 963e 0e57 b23e ed82 ee3e 70f1 203e
000002b0: 6f58 543e 20e6 0f3e bbdb af3d 758f cebd
000002c0: 97ba 7dbe e739 aa3e bd40 a23d eeec be3e
000002d0: 83e6 543b 280a 393e 7892 75bc 57f7 6bbe
000002e0: ec4a 153e 7779 a1bd 009b 4c3e cf1d be3e
000002f0: 3aa8 9d3e 2b51 a03e f396 203e 11f1 b8be
00000300: 4f3a 1ebe 31e7 9f3e 6f0c 06be 93ec 173e
00000310: 8bf8 843e 3d3b 823e 8231 25be 3076 97be
00000320: 949b a93e 895a f43e e121 313d e891 bc3d
00000330: cab3 e53e 3e4e 033d b754 243e 38fe c1be
00000340: 7353 68be 5e71 e53e cf1e c83d 21a0 0d3c
00000350: 7822 d03e b89f b2bc c5e1 a0bd f385 cebe
00000360: a43d 263e dd07 c63d 6065 d43e d6fd 0f3c
00000370: 13a8 b63e b54b 453e dee7 903e 4f9a 1fbe
00000380: 60d1 063e a21c ba3e ff1c 423d a098 a63e
00000390: 03d7 543e ff8e fa3d 9e18 74be f4e9 bdbe
000003a0: 2cfc 323d f8cc 01be cdd7 223e 0361 853c
000003b0: 3745 5d3e 879a 743e 55eb a9bc d3e7 963d
000003c0: 24fe 0dbf 3927 2a3f 93e9 53be 19f2 223f
000003d0: cf86 2b3f 3576 063f 9050 7fbe 829f 24bf
000003e0: 0d80 e83e e245 b93e 2452 8b3e fb81 103f
000003f0: 33ac 9a3e 8a1a f93e 456e 223f 277b 56be

net_list.0.bias_ih_l1 f4 [64]
0.2740593 1.2499276 -0.013866909 0.282567 0.13094136 1.3630196 0.13357544 0.48875055
0.20697229 0.52605677 0.2443867 0.11637696 1.5045625 0.17454296 0.298164 0.6798571
0.12567054 0.5858835 -0.47491962 0.1328571 0.18582204 0.26655337 0.017001152 -0.011206498
-0.13387287 -0.06329812 -0.12271239 0.10357824 0.6373172 0.06268724 -0.06920145 -0.39397436
-0.30596545 0.84559995 -0.20325807 -0.055417586 0.53457946 0.7096487 -0.12464278 -0.5806595
0.37250072 0.24024825 -0.06724523 -0.16469258 0.88156277 -0.094382405 -0.15005766 -0.107580565
0.121893235 -0.056375816 0.13358939 0.18645638 0.09799244 -0.069001384 0.060676146 -0.13119474
0.12465647 0.41352358 0.2948444 0.44222835 0.06921831 0.050196674 -0.018641923 0.8734719
00000000: 8051 8c3e a1fd 9f3f 0832 63bc 9fac 903e
00000010: 7e15 063e 6d77 ae3f 00c8 083e 833d fa3e
00000020: 8bf0 533e a8ab 063f 8240 7a3e 0b57 ee3d
00000030: 8195 c03f 64bb 323e f4a8 983e 1d0b 2e3f
00000040: c7af 003e 76fc 153f aa28 f3be b10b 083e
00000050: 2248 3e3e af79 883e 0046 8b3c 769b 37bc
00000060: f815 09be 72a2 81bd a250 fbbd d420 d43d
00000070: 3827 233f 2b62 803d 7db9 8dbd 02b7 c9be
00000080: 81a7 9cbe 3d79 583f e222 50be 8dfd 62bd
00000090: 33da 083f 8aab 353f b744 ffbd 1aa6 14bf
000000a0: 6ab8 be3e a303 763e deb7 89bd 2ca5 28be
000000b0: 19ae 613f 904b c1bd b7a8 19be 3353 dcbd
000000c0: 29a3 f93d 54ea 66bd a8cb 083e 6cee 3e3e
000000d0: 43b0 c83d 9950 8dbd 8d87 783d ea57 06be
000000e0: e44b ff3d 5db9 d33e d8f5 963e c16b e23e
000000f0: 54c2 8d3d 079b 4d3d f2b6 98bc db9b 5f3f

net_list.0.bias_hh_l1 f4 [64]
0.166305 1.4054219 0.42354673 0.19298597 0.18303785 1.1492385 0.14924683 0.8414336
-0.055892535 0.65203387 0.4590889 0.45602837 1.3285277 0.31585976 0.16763167 0.58097166
0.11779258 0.23999473 -0.25366384 -0.116134405 0.23647608 0.16871567 -0.17280027 0.087786555
0.14839469 -0.18272747 0.018337268 -0.12482715 0.64054394 0.027566751 0.09884996 -0.2798787
-0.38091964 0.42013627 0.26795492 0.23903114 0.16354501 0.7719423 -0.10608296 -0.6251649
0.43374005 0.023076331 -0.015245404 0.14994639 1.0744189 0.08060656 0.057030242 0.13840483
0.43410575 0.2960788 0.021753864 -0.113892555 0.10034378 -0.08681971 0.1538153 0.21950315
-0.036610756 0.2242482 0.45105356 0.34928825 0.2928414 0.28933826 0.18979886 0.82086384
00000000: dc4b 2a3e dde4 b33f 1edb d83e 1d9e 453e
00000010: 466e 3b3e 3f1a 933f 29d4 183e 3168 573f
00000020: 92ef 64bd b1eb 263f b30d eb3e 8d7c e93e
00000030: 320d aa3f 5fb8 a13e a3a7 2b3e 8fba 143f
00000040: 3c3d f13d 2ec1 753e 3ae0 81be e0d7 edbd
00000050: c926 723e cdc3 2c3e 8ef2 30be 70c9 b33d
00000060: c7f4 173e e91c 3bbe 0a38 963c 60a5 ffbd
00000070: b0fa 233f abd3 e13c d971 ca3d 434c 8fbe
00000080: e607 c3be 1a1c d73e 6331 893e 94c4 743e
00000090: 5878 273e 039e 453f 0642 d9bd cf0a 20bf
000000a0: 2d13 de3e 930a bd3c dcc7 79bc 8c8b 193e
000000b0: 8f86 893f 0d15 a53d 8b98 693d ffb9 0d3e
000000c0: 1c43 de3e a497 973e 2935 b23c 8040 e9bd
000000d0: 0a81 cd3d 88ce b1bd c281 1d3e 6fc5 603e
000000e0: 29f5 15bd 52a1 653e 7ef0 e63e e9d5 b23e
000000f0: 4fef 953e 2524 943e a25a 423e 2224 523f

net_list.0.weight_ih_l2 f4 [64, 16]
-0.0016814513 0.13648164 -0.10309155 0.38886926 0.20914385 -0.01672859 -0.37087804 -0.18382084
0.09906628 0.2845391 0.1314917 0.223801 0.3777449 -0.103678904 0.39208743 -0.25317052
-0.52252924 0.56657225 -0.32922974 0.45700875 0.6823361 0.58325285 -0.69377625 -0.44963074
0.4714785 0.798239 -0.19762723 0.109206356 0.47371045 -0.34803772 0.21346506 0.73904496
-0.039975163 0.36969045 -0.6462583 0.33040485 0.17475706 0.04366761 -0.2726272 -0.4072992
0.47277895 0.24507481 -0.56183994 0.48730022 0.18867497 -0.20391005 0.5045394 0.62839574
0.28392527 0.09407132 -0.4991896 -0.096557505 0.14957254 0.04988352 -0.08455303 -0.061186884
0.05817142 0.22886199 -0.35397646 -0.06904754 0.19619127 -0.3938527 0.12890156 0.26954544
-0.47196382 0.4135404 -0.4584158 0.81618375 0.5085232 0.4079178 -0.57631284 -0.3860467
0.41002133 0.75108045 -0.66815495 0.8732807 0.53313833 -0.03948024 0.5001076 0.61391157
-0.019779963 -0.0622172 0.36979735 0.06947836 0.0593616 -0.1629564 0.289205 -0.28009853
0.07272323 -0.13101538 -0.040798314 0.07632038 -0.090307906 0.43328702 0.2575472 -0.6103209
0.04692701 -0.13308614 -0.39854005 0.18326086 -0.17604381 0.19947481 0.02102856 -0.07964656
0.03594633 0.008119663 0.4288707 -0.08073162 -0.0138715925 0.14383574 -0.31262344 -0.18467122
-0.8724417 1.1016061 -0.96261895 1.1205125 1.1416808 0.92339915 -0.9520437 -1.1289799
0.9593589 1.3161073 -0.66306484 1.0574695 1.3052794 -0.40156642 0.39638415 0.8335255
0.4736042 0.25312924 -1.4669192 0.02097592 0.33348083 0.26187375 -0.88386357 -0.13740896
0.13120052 0.87381595 -0.46888024 -0.015636638 0.1501755 -1.2427118 0.091690965 1.7464598
0.024781361 0.42819867 -0.5491642 0.11735062 0.057388995 0.19224979 -0.4283581 -0.14953049
0.12159093 0.3103464 -0.034279823 0.109875694 0.11464542 0.07804167 0.23880756 0.3598032
-0.8937732 1.375615 -1.212368 0.8473028 1.1142588 1.4035972 -0.9622216 -1.4408627
1.240704 1.6006492 -0.9932358 0.38760534 1.2478127 -0.92854357 0.12591898 0.67400783
-1.2357136 1.2742263 -1.0389414 0.6879018 1.2405391 1.3359845 -0.93359715 -1.272357
1.155435 1.9039484 -0.86970365 0.763609 1.3742787 -1.1028625 0.31127194 0.64283794
-0.3172356 0.3058399 -0.2316529 -0.09410407 0.36393073 0.2065724 -0.036452465 -0.36555237
0.09180972 0.12376044 -0.34669778 -0.2896175 0.31346336 -0.011898487 0.115903355 0.13411331
-0.16366874 0.14349914 -0.2259166 0.39281556 0.2903918 0.12638938 -0.4169369 -0.5080136
0.18861376 0.2657372 -0.3643057 0.37919727 0.32087952 0.03426922 0.57907516 0.48389772
-0.2587832 0.20198368 -1.2584894 0.26885453 0.4679665 0.13790677 -0.28037438 -0.038534217
0.44397283 0.6884072 -0.9411728 0.14881936 0.18760529 -0.28668904 0.29572165 1.4513444
-0.7994937 1.2122946 -0.8029674 0.73736405 0.9774306 1.1757157 -0.7700514 -0.90270233
1.1341441 1.8798194 -0.5264013 0.3174616 1.4304683 -0.48297197 0.07073751 0.49866953
00000000: 2564 dcba d8c1 0b3e aa21 d3bd df19 c73e
00000010: ce29 563e 650a 89bc bae3 bdbe 883b 3cbe
00000020: 43e3 ca3d 1caf 913e c3a5 063e 172c 653e
00000030: c867 c13e 9b55 d4bd afbf c83e 919f 81be
00000040: 7ac4 05bf e10a 113f cd90 a8be 0dfd e93e
00000050: 94ad 2e3f 0f50 153f 529b 31bf 0036 e6be
00000060: a165 f13e 6459 4c3f cb5e 4abe 95a7 df3d
00000070: 2d8a f23e 0032 b2be 9696 5a3e 0d32 3d3f
00000080: ffbc 23bd 1148 bd3e 2f71 25bf d32a a93e
00000090: 84f3 323e cfdc 323d cb95 8bbe 8589 d0be
000000a0: 1510 f23e e4f4 7a3e bed4 0fbf 6a7f f93e
000000b0: 0334 413e cccd 50be 7e29 013f 8bde 203f
000000c0: a75e 913e 77a8 c03d c795 ffbe f1bf c5bd
000000d0: 8b29 193e a952 4c3d 242a adbd 199f 7abd
000000e0: 2845 6e3d cc5a 6a3e 673c b5be cc68 8dbd
000000f0: 5de6 483e 10a7 c9be c5fe 033e dc01 8a3e
00000100: 3ea5 f1be 91bb d33e 7ab5 eabe 6bf1 503f
00000110: 942e 023f 9ada d03e 3d89 13bf eaa7 c5be
00000120: 51ee d13e cf46 403f 340c 2bbf 538f 5f3f
00000130: c17b 083f 08b6 21bd 0d07 003f 4f29 1d3f
00000140: 9709 a2bc 76d7 7ebd 1456 bd3e ac4a 8e3d
00000150: 2625 733d 0bde 26be ae12 943e 1369 8fbe
00000160: ebef 943d e528 06be 221c 27bd dc4d 9c3d
00000170: 5af3 b8bd ccd7 dd3e 3add 833e fe3d 1cbf
00000180: 8936 403d bc47 08be 710d ccbe bca8 3b3e
00000190: d444 34be 2043 4c3e 1644 ac3c bc1d a3bd
000001a0: 753c 133d 5608 053c f194 db3e 9f56 a5bd
000001b0: ad45 63bc ad49 133e 2e10 a0be 741a 3dbe
000001c0: 5758 5fbf 6e01 8d3f 326e 76bf f46c 8f3f
000001d0: 9922 923f e363 6c3f 23b9 73bf 6a82 90bf
000001e0: 8b98 753f 3476 a83f 9ebe 29bf 295b 873f
000001f0: 6513 a73f 1d9a cdbe ddf2 ca3e ed61 553f
00000200: 407c f23e 289a 813e 02c4 bbbf b1d5 ab3c
00000210: 00be aa3e 5114 863e e244 62bf efb4 0cbe
00000220: 6e59 063e 67b2 5f3f 1211 f0be 6818 80bc
00000230: 9bc7 193e 2e11 9fbf 79c8 bb3d ff8b df3f
00000240: 4802 cb3c db3c db3e 0696 0cbf 8655 f03d
00000250: b910 6b3d 21dd 443e c151 dbbe 851e 19be
00000260: aa04 f93d b9e5 9e3e 0069 0cbd 8206 e13d
00000270: 38cb ea3d 50d4 9f3d f889 743e 2038 b83e
00000280: 52ce 64bf 2714 b03f e02e 9bbf d6e8 583f
00000290: 08a0 8e3f 13a9 b33f 2854 76bf 306e b8bf
000002a0: 64cf 9e3f 13e2 cc3f b444 7ebf 3574 c63e
000002b0: 54b8 9f3f 08b5 6dbf e8f0 003e c78b 2c3f
000002c0: dd2b 9ebf d919 a33f 08fc 84bf 551a 303f
000002d0: fcc9 9e3f 8a01 ab3f 3900 6fbf 98dc a2bf
000002e0: 4be5 933f 95b4 f33f e6a4 5ebf e17b 433f
000002f0: 5de8 af3f 992a 8dbf 095f 9f3e 0791 243f
00000300: b46c a2be 0c97 9c3e 6b36 6dbe a2b9 c0bd
00000310: 2155 ba3e b787 533e 2e4f 15bd ae29 bbbe
00000320: bc06 bc3d 1d76 fd3d 5f82 b1be bf48 94be
00000330: 457e a03e dff1 42bc bd5e ed3d 0055 093e
00000340: c798 27be 70f1 123e ae56 67be 1f1f c93e
00000350: 3cae 943e 386c 013e c178 d5be 2e0d 02bf
00000360: f723 413e b50e 883e 4786 babe 2526 c23e
00000370: 524a a43e e25d 0c3d 453e 143f 71c1 f73e
00000380: 3b7f 84be cfd4 4e3e 2e16 a1bf 4da7 893e
00000390: 4e99 ef3e 6f37 0d3e 3b8d 8fbe 0ed6 1dbd
000003a0: 6850 e33e 743b 303f b3f0 70bf 1a64 183e
000003b0: 9a1b 403e e8c8 92be d468 973e a7c5 b93f
000003c0: 9eab 4cbf 782c 9b3f 468f 4dbf e4c3 3c3f
000003d0: e438 7a3f da7d 963f 1722 45bf 8017 67bf
000003e0: a22b 913f ec9d f03f 3cc2 06bf 548a a23e
000003f0: 9619 b73f 1a48 f7be d4de 903d 9d51 ff3e

net_list.0.weight_hh_l2 f4 [64, 16]
0.20271388 -0.39640152 0.50531036 0.2775747 0.21989545 0.20353217 -0.030877363 -0.07117186
-0.1510969 -0.057625826 -0.13541701 -0.35571852 -0.056098096 -0.3613503 0.18430504 -0.037963323
-0.5430719 -0.033477552 0.4000659 -0.19137119 0.027637893 0.20450392 -0.07438975 0.075881824
-0.39705846 -0.064397156 -0.25584486 -0.15700169 -0.31140363 -0.3422063 -0.521574 -0.23699398
0.582433 -0.3845336 -0.16355996 0.6860278 -0.009931821 0.11979547 -0.46993905 -0.39093003
0.47666004 -0.16639341 -0.22064063 -0.2159153 0.21288441 -0.1653656 0.6411868 -0.22485043
-0.3187759 -0.2795406 -0.14101903 0.120203756 -0.011003391 0.19101812 0.18723734 0.12994157
-0.24285361 0.28624204 -0.036158014 -0.05401966 0.26429582 -0.09981278 0.13557504 -0.020064343
0.14883938 -0.016254177 -0.09693301 0.20195861 0.41077095 0.19752829 0.1711802 -0.17310137
0.13897786 -0.36940822 -0.078550674 -0.016711151 -0.22402315 -0.22141886 0.16234386 -0.31671417
0.22078133 0.022137057 0.24439502 -0.13423073 0.21950252 -0.11163403 -0.11084121 -0.027457522
0.35518572 0.33160305 -0.24261643 -0.06058106 0.4458674 -0.23376457 -0.042373426 -0.0818771
0.12191537 0.2266503 0.0805411 0.01355728 -0.23911497 -0.04540274 0.16545695 -0.014311537
0.20325914 0.11924654 0.120190546 -0.08026213 0.0776098 0.16513784 0.16245358 -0.14341535
0.3016537 -0.3027656 0.09510679 0.090888016 0.15502878 -0.08735774 0.16656388 -0.029944025
-0.043758035 -0.46412268 -0.04079119 -0.34826773 -0.14199468 -0.122291066 0.17485043 -0.09289078
-0.22944409 0.14399076 0.04739811 0.24306364 0.1698131 0.22823788 0.038332183 0.27971298
-0.36493066 0.11988551 -0.09214783 -0.04952903 -0.08681282 0.1654827 -0.025173293 -0.16314897
-0.0040690326 -0.1454809 0.16371676 0.21792918 0.3950219 0.30923688 0.16899684 -0.27837747
-0.45149752 0.26795635 -0.13753279 -0.21834959 0.038712095 -0.13065048 0.19192849 -0.40080866
0.054905176 -0.16574948 0.25765103 0.109150216 0.40584505 0.25120017 -0.20865916 -0.2574408
-0.24229577 -0.41911417 -0.22177255 -0.30374947 -0.4524105 -0.22345005 -0.1170834 -0.021815747
0.19105951 -0.03339237 0.21782704 0.17337167 0.26943156 0.13049601 0.1269331 -0.21509653
-0.17574614 -0.22605534 -0.42003706 -0.040712558 -0.41881573 -0.37875006 -0.1301999 -0.028371094
-0.062895514 -0.31350937 0.14200887 0.10112699 0.10236315 0.16881263 -0.34074175 -0.20992099
-0.52917844 -0.2542821 -0.3457941 0.027300615 0.35764214 -0.042284414 0.5279004 -0.1373011
0.20271732 -0.13244039 0.2771017 0.12209016 0.47175935 0.2111886 -0.21030283 -0.22127146
0.07343809 -0.096730165 -0.007575078 -0.4271256 0.2078427 -0.24208046 0.18003444 -0.23476079
0.37296176 -0.36594313 0.3130489 0.62174284 0.0152291395 0.33395275 -0.26742315 -0.2957044
-0.0371179 -0.119572066 -0.04557068 -0.21064256 0.28671977 -0.40590918 0.15504976 -0.400621
0.01571415 0.008730122 0.16654344 0.2378986 0.29182416 0.21427545 -0.2043192 -0.32422826
-0.011186053 -0.31775236 0.019210245 -0.310331 -0.295317 -0.06530687 0.16056702 -0.34561163
00000000: 3a94 4f3e 24f5 cabe 055c 013f 451e 8e3e
00000010: 462c 613e bd6a 503e 86f2 fcbc 8dc2 91bd
00000020: 25b9 1abe 0f09 6cbd c2aa 0abe bd20 b6be
00000030: 1ec7 65bd e802 b9be 76ba 3c3e 6e7f 1bbd
00000040: c306 0bbf c21f 09bd 70d5 cc3e cff6 43be
00000050: dd68 e23c 7a69 513e a759 98bd ee67 9b3d
00000060: 3f4b cbbe a8e2 83bd 19fe 82be 0dc5 20be
00000070: 4c70 9fbe aa35 afbe e085 05bf 8dae 72be
00000080: 541a 153f 97e1 c4be 437c 27be 859f 2f3f
00000090: 14b9 22bc 5457 f53d da9b f0be fb27 c8be
000000a0: c90c f43e 0963 2abe 9eef 61be e718 5dbe
000000b0: 5ffe 593e 9a55 29be d124 243f 313f 66be
000000c0: 9836 a3be f21f 8fbe 4b67 10be 632d f63d
000000d0: 9147 34bc 419a 433e 25bb 3f3e 670f 053e
000000e0: 9eae 78be 518e 923e 6d1a 14bd b843 5dbd
000000f0: c851 873e a56a ccbd 2fd4 0a3e fa5d a4bc
00000100: 5a69 183e 7b27 85bc d084 c6bd 3dce 4e3e
00000110: 9250 d23e db44 4a3e dd49 2f3e 7c41 31be
00000120: 3650 0e3e 1323 bdbe 2ddf a0bd d3e5 88bc
00000130: 5366 65be a0bb 62be 783d 263e 5c28 a2be
00000140: 8014 623e c658 b53c b042 7a3e c873 09be
00000150: 45c5 603e 62a0 e4bd b700 e3bd 99ee e0bc
00000160: e7da b53e e0c7 a93e 7170 78be d823 78bd
00000170: bb48 e43e fb5f 6fbe c28f 2dbd 2eaf a7bd
00000180: c4ae f93d 0417 683e bbf2 a43d 5b1f 5e3c
00000190: 8eda 74be 39f8 39bd 8c6d 293e f07a 6abc
000001a0: 2a23 503e 8837 f43d 7626 f63d 7960 a4bd
000001b0: e3f1 9e3d e519 293e 3b5a 263e 79db 12be
000001c0: 5b72 9a3e 1804 9bbe 59c7 c23d 7f23 ba3d
000001d0: ddbf 1e3e 9de8 b2bd b98f 2a3e 2c4d f5bc
000001e0: a03b 33bd 7da1 edbe aa14 27bd 2650 b2be
000001f0: 0e67 11be bd73 fabd fe0b 333e 853d bebd
00000200: 64f3 6abe 5072 133e 8524 423d ade5 783e
00000210: 7ce3 2d3e 31b7 693e 3502 1d3d 8a36 8f3e
00000220: 31d8 babe 8986 f53d 00b8 bcbd f4de 4abd
00000230: ebca b1bd 4c74 293e 3938 cebc 8610 27be
00000240: 8555 85bb f2f8 14be 5ea5 273e d428 5f3e
00000250: 4f40 ca3e 4c54 9e3e 820d 2d3e 7e87 8ebe
00000260: af2a e7be 9331 893e 65d5 0cbe 0997 5fbe
00000270: 9390 1e3d 3dc9 05be e788 443e cb36 cdbe
00000280: 40e4 603d 3bba 29be d6ea 833e 268a df3d
00000290: ecca cf3e 4f9d 803e bfaa 55be 48cf 83be
000002a0: 621c 78be 2296 d6be 5818 63be 0d85 9bbe
000002b0: 59a2 e7be 17d0 64be 6cc9 efbd f0b6 b2bc
000002c0: 1ba5 433e 70c6 08bd 0d0e 5f3e 5888 313e
000002d0: eff2 893e bfa0 053e c0fa 013e 4442 5cbe
000002e0: ccf6 33be 0d7b 67be 190f d7be 36c2 26bd
000002f0: 046f d6be 87eb c1be 1f53 05be 7f6a e8bc
00000300: 5dcf 80bd 4d84 a0be c66a 113e ab1b cf3d
00000310: c5a3 d13d 38dd 2c3e b475 aebe 87f5 56be
00000320: 3d78 07bf 4331 82be ed0b b1be 8aa5 df3c
00000330: df1c b73e 6c32 2dbd 7b24 073f a998 0cbe
00000340: 2195 4f3e 749e 07be 46e0 8d3e 680a fa3d
00000350: 718a f13e d341 583e a059 57be fc94 62be
00000360: b666 963d 771a c6bd 5c38 f8bb 35b0 dabe
00000370: b7d4 543e f1e3 77be f35a 383e 2265 70be
00000380: d8f4 be3e e65c bbbe f247 a03e 8a2a 1f3f
00000390: a483 793c dbfb aa3e b0eb 88be 9166 97be
000003a0: f008 18bd 33e2 f4bd 52a8 3abd afb2 57be
000003b0: efcc 923e 54d3 cfbe 5dc5 1e3e 321e cdbe
000003c0: f6ba 803c c908 0f3c 5d8a 2a3e b19b 733e
000003d0: fa69 953e 066b 5b3e 0d39 51be 3f01 a6be
000003e0: b545 37bc 70b0 a2be ce5e 9d3c b4e3 9ebe
000003f0: ca33 97be 9cbf 85bd ae6b 243e 02f4 b0be

net_list.0.bias_ih_l2 f4 [64]
-0.058446143 0.5784858 0.403735 -0.09669161 0.5226949 0.21856728 0.23364083 0.94226867
0.06305426 0.24298914 1.1904216 1.1391681 -0.013762443 0.29175556 0.5282539 1.2479901
-0.26700994 -0.13407244 0.05399629 -0.3899029 0.24891143 -0.13397141 0.092555165 0.5457568
-0.21535769 -0.29339275 0.44152594 0.37287417 -0.3633664 0.2581404 -0.36952454 0.24410784
0.197867 -0.03224163 -0.09186304 0.06741853 0.4238244 -0.11288669 -0.03686403 -0.36386067
0.069257915 -0.16370504 -0.7211466 -0.53874946 -0.02248024 -0.033476163 0.12970679 -0.57012475
-0.00016293146 0.3657399 0.19036075 -0.121991724 0.20751399 -0.12031543 -0.24291582 -0.11053344
0.013782647 0.25653863 0.41947955 0.202352 -0.0797228 -0.058419943 0.06708085 0.58877075
00000000: 3965 6fbd a517 143f 5bb6 ce3e 4006 c6bd
00000010: 55cf 053f 1ad0 5f3e 8b3f 6f3e 8538 713f
00000020: 9822 813d 25d2 783e bc5f 983f 43d0 913f
00000030: df7b 61bc fc60 953e a63b 073f 24be 9f3f
00000040: 87b5 88be 494a 09be 372b 5d3d 5aa1 c7be
00000050: a3e2 7e3e cd2f 09be 908d bd3d b8b6 0b3f
00000060: ba86 5cbe 9337 96be b00f e23e 5de9 be3e
00000070: 290b babe fa2a 843e 5232 bdbe 68f7 793e
00000080: a69d 4a3e cd0f 04bd b122 bcbd ba12 8a3d
00000090: 83ff d83e 2331 e7bd bdfe 16bd f24b babe
000000a0: 18d7 8d3d 4ba2 27be 109d 38bf 7ceb 09bf
000000b0: 7b28 b8bc 4d1e 09bd dbd1 043e b2f3 11bf
000000c0: 95d8 2ab9 4342 bb3e eeed 423e ccd6 f9bd
000000d0: 8c7e 543e f067 f6bd edbe 78be 5b5f e2bd
000000e0: 9dd0 613c 0859 833e 06c6 d63e 5d35 4f3e
000000f0: b545 a3bd c049 6fbd af61 893d aeb9 163f

net_list.0.bias_hh_l2 f4 [64]
0.17010449 0.85865533 0.3547428 0.08100124 0.7158205 -0.11528446 -0.18216631 1.0769044
0.09388443 0.12410849 1.2946123 1.3280673 0.30999845 0.16177556 0.05968859 1.163137
-0.14781688 0.09317529 -0.100064546 -0.24998178 0.3658325 -0.19184212 0.12427842 0.5804676
-0.2930072 -0.04943017 0.2346987 0.4975647 -0.18397997 0.13510008 -0.07664667 0.21891305
0.24458101 -0.36295182 -0.023305412 -0.02129279 0.48202217 -0.20552547 0.07340741 -0.74713796
-0.24935092 -0.33883995 -0.31858036 -0.44509485 -0.14915346 -0.29670858 -0.15920673 -0.6664732
0.12579998 0.09755033 0.33985347 0.08220144 0.25701 -0.0928765 0.06760243 0.26204184
0.31384763 0.17794019 0.12141095 0.41241845 0.03444259 0.15048623 0.0016714664 0.31109685
00000000: df2f 2e3e d6d0 5b3f d9a0 b53e fae3 a53d
00000010: 0340 373f 421a ecbd ce89 3abe 01d8 893f
00000020: 7b46 c03d 982c fe3d dbb5 a53f 1cfe a93f
00000030: 1eb8 9e3e 7ea8 253e 067c 743d ace1 943f
00000040: 4f5d 17be b0d2 be3d a4ee ccbd 39fb 7fbe
00000050: 664e bb3e 4372 44be af85 fe3d 8699 143f
00000060: 0a05 96be 4a77 4abd db54 703e cdc0 fe3e
00000070: 3f65 3cbe ad57 0a3e eef8 9cbd be2a 603e
00000080: 7273 7a3e d2d4 b9be feea bebc 386e aebc
00000090: 9ccb f63e 4575 52be a056 963d 6f44 3fbf
000000a0: d955 7fbe 6e7c adbe f71c a3be 79e3 e3be
000000b0: afbb 18be 30ea 97be 1707 23be fd9d 2abf
000000c0: b6d1 003e 78c8 c73d 4601 ae3e 3b59 a83d
000000d0: d196 833e 0936 bebd 2573 8a3d 592a 863e
000000e0: a3b0 a03e f435 363e 4ea6 f83d 8328 d33e
000000f0: ac13 0d3d 1019 1a3e 1b15 db3a 1648 9f3e
