QIENetV1_0_0/QIENet_FC6.pth (torch, 28755 bytes, 17 tensors)

net_list.0.weight_ih_l0 f4 [64, 6]
000000 3b 17 52 3d 04 e1 12 3f cf 1f 07 be d3 98 e9 3e
       0.051291686 0.57374597 -0.13195728 0.45624408
000010 8c e7 cd 3e f1 b2 47 be 84 5e d0 bc 64 5f e5 bc
       0.4021572 -0.19501854 -0.025435694 -0.027999587
000020 36 cf 57 3d a6 fa 18 3c fe 3f 29 3d a4 76 cc 3d
       0.052687846 0.009337103 0.041320793 0.099835664
000030 ad e1 2e be b0 9f 1a be 04 1f 2e 3e ce d0 8e 3d
       -0.17078276 -0.15099978 0.17004019 0.0697342
000040 87 99 4b 3c 85 a5 df 3e 86 ea dc 3d 23 dc 52 bd
       0.0124267405 0.4368097 0.10786919 -0.05147947
000050 60 c8 c9 3d 2b ae e0 bd 62 42 b7 3d 90 d1 89 3d
       0.098526716 -0.1097072 0.089482084 0.06729424
000060 74 64 15 bf 70 c6 e5 3e 1f 36 a5 3e ad c5 cc 3e
       -0.58356404 0.44877958 0.32267854 0.39994565
000070 a9 66 bc be 2a 1a 63 bf b3 69 a0 bd d0 39 fb 3e
       -0.36797073 -0.887118 -0.078326605 0.49067545
000080 59 c6 2a 3e 5a 36 c0 3e 77 cc a1 3d 5a 47 08 bf
       0.16677226 0.37541467 0.07900327 -0.53233874
000090 ad 7c 26 be 3e c3 4c be fe 9d 13 3e fd df b3 3d
       -0.16258498 -0.19996354 0.14415738 0.08782957
0000a0 46 47 81 be 89 f5 e4 bc 0a e0 d2 3e fd f4 ba 3e
       -0.2524969 -0.027949112 0.41186553 0.36515036
0000b0 c4 52 20 3e 30 02 92 3e f4 7b b3 3e 80 e0 24 3c
       0.15656573 0.28517294 0.35055506 0.010063291
0000c0 17 21 28 3e ae e4 b6 be 3c fd 38 be 25 86 94 3d
       0.16418873 -0.35721344 -0.18065351 0.072521485
0000d0 93 51 1b be 60 dc a5 be cd b7 3c bc b1 e0 7a 3e
       -0.15167837 -0.32394695 -0.011518431 0.24499775
0000e0 13 22 35 3e 96 e4 5d bd 65 1d bb bd cd bf df 3c
       0.1768878 -0.054173075 -0.09136466 0.027313137
0000f0 dd 43 21 be 23 74 8a 3d f6 ad a8 3e 00 13 92 3d
       -0.15748544 0.067604326 0.32945222 0.0713253
000100 73 ee ad 3e ee 2a 42 3f ae c0 1b 3f 75 4c ab be
       0.33970985 0.75846756 0.6084088 -0.3345677
000110 13 55 61 3e 2b 88 08 bf 7d 96 85 be 6a 3e 38 3e
       0.2200511 -0.53332776 -0.26091376 0.17992559
000120 44 46 59 3e 20 f6 c3 3c 66 38 6b 3d 91 89 11 3e
       0.2121821 0.023921072 0.057426833 0.14212634
000130 df 50 f8 bc b5 54 da 3e a2 f0 79 bd 7d ed 51 bd
       -0.030312 0.4264275 -0.0610205 -0.051251877
000140 2c dc 44 3d 67 70 f2 bc ea 4b 02 be ab 80 5d bd
       0.048061535 -0.029594613 -0.12724271 -0.054077785
000150 8c f4 1d 3e 46 7a 05 bd ce c8 a6 be 7b 9f 11 3e
       0.15425318 -0.032587312 -0.32575077 0.14220993
000160 b1 b6 01 3f 9d 88 e7 3e b8 32 36 be 8d d8 a3 3e
       0.5066939 0.45221415 -0.17792785 0.32001153
000170 48 f7 c5 bc 83 a0 af 3e 47 a8 ec 3d 25 2c db 3c
       -0.024165764 0.34302148 0.11555534 0.026754448
000180 12 64 89 3e 9f ad 5a be 91 70 d3 be 32 8e 85 bd
       0.2683416 -0.21355294 -0.4129682 -0.06521262
000190 73 0f 61 3e a4 03 0a be 2c 07 45 be d2 59 6e bd
       0.2197855 -0.13477951 -0.19241017 -0.058191128
0001a0 5e 36 8c 3e 1c 5f c7 bd 55 60 84 3e 76 d0 95 bd
       0.2738523 -0.097349375 0.25854746 -0.073151514
0001b0 31 4b 09 3d 3a f5 83 be e5 f8 7b 3e 4c 3f b5 be
       0.033518974 -0.2577303 0.24606664 -0.35399854
0001c0 74 07 cd 3d c6 47 37 3e 81 73 97 3e 0d 4e 39 be
       0.10011187 0.17898473 0.2958031 -0.1809618
0001d0 ca 21 1c be 35 5f 35 3d a7 b1 b9 bd d2 fd de 3c
       -0.15247265 0.04428025 -0.090670876 0.02722064
0001e0 9e 14 c5 3d 3c f2 84 3e 14 59 f9 bc 79 23 bd 3e
       0.09623073 0.2596606 -0.030437984 0.36941126
0001f0 3d 90 a0 3d 06 8b 09 be 59 f5 fb bc 89 c8 45 3e
       0.07840011 -0.1343194 -0.03075664 0.1931478
000200 f5 70 45 3e 9e 56 8f 3e 9c 71 a7 3d 07 4f ee bd
       0.19281371 0.2799577 0.08175966 -0.11636167
000210 7b 44 20 3e 40 57 a5 3d 89 8f b5 3d 67 15 98 be
       0.15651123 0.08073282 0.08865268 -0.2970383
000220 1a bb 50 3e 8b 6a 31 bd 90 b1 b5 3e 7d 9a 04 3c
       0.20383874 -0.043314498 0.35487032 0.0080934735
000230 f7 aa 8b be f5 d3 b2 be f0 bb 18 be 5a 51 93 bd
       -0.27278873 -0.34927335 -0.14915442 -0.07193251
000240 ba ed ad 3e 34 86 67 3c eb 8e 2b 3e 88 84 95 be
       0.33970433 0.014131118 0.16753738 -0.29202676
000250 6a b6 70 be f7 e1 6a 3e 56 3f af 3e f0 d1 99 bd
       -0.23507085 0.22937761 0.3422801 -0.075107455
000260 8f 1b 99 be 5c be 3a bc dd 49 f5 3d 45 11 af be
       -0.29903838 -0.011397924 0.11976979 -0.34192863
000270 b4 8e b3 bd 85 7e 21 be ea 3a 1b bd af 54 42 be
       -0.08767453 -0.1577092 -0.03789798 -0.18977617
000280 e1 95 df bd e2 e6 6e 3d 71 9d 40 3e 92 30 8b 3d
       -0.10917259 0.058325656 0.18810059 0.067963734
000290 82 96 64 3e 0d c4 c7 bd 01 0a 94 bd 19 59 00 3e
       0.22323039 -0.097541906 -0.072284706 0.12533988
0002a0 de df 81 be 0b 14 86 3d 36 ca 3f bd e6 01 d5 bd
       -0.2536611 0.06546792 -0.046823703 -0.10400753
0002b0 0e 81 18 3d 7a 22 65 3e b2 e3 71 be 95 2f 61 be
       0.03723245 0.22376433 -0.23622015 -0.21990807
0002c0 5f ea 71 3d b7 31 2c be 20 50 a1 3d 91 17 1a be
       0.059061404 -0.1681584 0.07876611 -0.15048052
0002d0 be d7 67 3d be 4d 30 3d 37 73 85 bd ae 53 03 3e
       0.056602232 0.04304289 -0.06516116 0.1282489
0002e0 22 4f 52 bd ac 2e 8f be 71 7d 02 bf 57 a8 2d be
       -0.051345 -0.27965295 -0.5097266 -0.16958748
0002f0 24 3e 12 3d a6 01 4a 3d 94 4a 21 be 81 02 5d be
       0.035703793 0.04931798 -0.15751106 -0.21582986
000300 81 82 09 bf b7 99 94 3e 21 c7 80 3e 8a 33 b6 3e
       -0.5371476 0.29023525 0.25151923 0.35586196
000310 8c 1b fd bd 55 f9 88 be 24 6d 27 be ce 21 dc 3d
       -0.1235877 -0.26752725 -0.16350228 0.10748635
000320 97 48 41 bc 53 ac 7e bd 96 50 61 bd 4b 9c ae 3d
       -0.011797092 -0.06217606 -0.055008493 0.08525904
000330 53 f5 84 be d3 9c 44 be 55 18 77 3e e7 45 cd 3d
       -0.25968418 -0.19200449 0.24130376 0.100230984
000340 9d 2f b1 bd 11 f1 4f 3d 7f f4 b3 3d de 41 9d bc
       -0.0865166 0.05076701 0.08786868 -0.019196447
000350 27 3c 9d bd 2a cf 1f be 88 a2 16 3e bb 65 e5 3d
       -0.07677489 -0.1560637 0.14710438 0.11201044
000360 c6 14 6b 3e 57 59 bd 3d 40 b0 5d be a2 84 9a be
       0.22957143 0.09245556 -0.21649265 -0.30179316
000370 01 b2 01 3e 2b aa 0d be 67 84 04 3f 65 ea 0c bc
       0.1266556 -0.13834445 0.5176453 -0.008600806
000380 ef 66 62 be 3f a1 74 3e c2 23 51 3e 4b 09 07 be
       -0.22109579 0.23889636 0.20423797 -0.13187139
000390 24 e0 80 3e b5 0f 45 be f8 6e 63 3d 33 3a 80 3e
       0.25171006 -0.19244273 0.05552575 0.25044402
0003a0 92 82 7f be 31 22 70 bd 05 7d 4d be d7 7b bc bd
       -0.24952152 -0.058626357 -0.20067222 -0.09203308
0003b0 d0 b7 2d 3d e3 fb 7f be ba 08 f7 3d 16 d0 05 be
       0.042411625 -0.24998431 0.12062211 -0.1306766
0003c0 a3 ba 4b 3e 6a c3 21 3e 6d b8 a8 be f7 3a 9e 3e
       0.19895415 0.15797201 -0.32953206 0.30904362
0003d0 82 23 2d be 2c 32 52 be c1 b5 78 3e 0b ca a6 bd
       -0.16908076 -0.20526952 0.24288084 -0.081440054
0003e0 ee d5 23 be b6 c7 94 3c 74 a3 24 3e 92 3d c9 3d
       -0.15999576 0.018161636 0.16077977 0.09826197
0003f0 2f 46 a4 be 3f 9e bd be d5 2e 0b 3e dc a2 10 3d
       -0.32084796 -0.37034795 0.13592084 0.035311565

net_list.0.weight_hh_l0 f4 [64, 16]
000000 e9 92 88 bb 5f fe 95 3c eb 3c e1 3c 52 9d d5 bc
       -0.0041679037 0.01830977 0.027494868 -0.026075993
000010 5b e3 f8 bd 26 1a 89 3d a6 90 8e be e9 91 7d be
       -0.121527396 0.066944405 -0.27844733 -0.24762692
000020 4b 9d 15 bd 6a 73 a1 be 03 7f 26 be 8e bc d0 bd
       -0.03652696 -0.31533366 -0.16259389 -0.10192214
000030 a1 06 32 3d 8f 20 ab be 25 09 2b be c4 c5 b4 3e
       0.043463353 -0.33423278 -0.16702707 0.35307133
000040 3f a2 89 be 59 17 ef bb 9d 6c b7 3e c3 e8 ce 3e
       -0.26881596 -0.0072964844 0.35825053 0.40411958
000050 79 3b e4 bb 10 46 de 3d ea 20 9a be 2d 04 05 be
       -0.0069650975 0.10853207 -0.30103236 -0.12989874
000060 f2 3b b7 bd 66 73 d1 be 55 69 00 be 9b 79 d4 bc
       -0.089469805 -0.40908355 -0.12540181 -0.025936892
000070 d0 d0 21 3e 7f 67 14 3e b2 fa a9 bc 78 78 e9 3d
       0.15802312 0.14492606 -0.020749424 0.11399931
000080 50 15 91 3b de e1 71 3e 3c 5c 90 3d 8d 84 ab ba
       0.0044275895 0.23621318 0.07048842 -0.0013085768
000090 74 d6 fc 3e 8f c0 16 bd c6 75 53 bd 69 c6 5b bd
       0.49382365 -0.036804732 -0.05162599 -0.053656016
0000a0 3f 24 3a 3d 38 43 f0 bd 91 ca 2f be 05 29 33 3d
       0.045444723 -0.11731571 -0.17167117 0.04374029
0000b0 3c c7 bf 3d 05 ea b4 be 3b d9 cb be 86 3f 57 3e
       0.09364173 -0.35334793 -0.3981417 0.21020326
0000c0 f9 bb bb be 37 3e c3 3b d4 ec d5 3e 97 61 23 3e
       -0.3666685 0.0059583443 0.41782248 0.15955196
0000d0 34 50 2e 3e 20 8c f6 bd ed 27 aa be 98 73 2d be
       0.17022783 -0.120384455 -0.33233586 -0.16938627
0000e0 72 d8 8b 3e 7f 75 8b be ce 17 ce bc c8 d2 cb 3d
       0.27313572 -0.2723808 -0.025157835 0.09952313
0000f0 46 27 52 3e 18 d1 a8 be 1c f4 b6 3d b8 08 44 3e
       0.20522794 -0.32972026 0.08933279 0.19143951
000100 48 f6 cc bd 4c c4 7f bd 4e 64 6e bd 31 b2 7b be
       -0.10007912 -0.062443063 -0.058201127 -0.24579693
000110 36 34 0e 3d e2 67 33 be a8 9c c2 bd 1a 11 a5 bd
       0.03471776 -0.17520097 -0.09502536 -0.080599025
000120 29 e0 db 3d 9c 9c d7 bd 8a ee 8c 3e 85 4c 02 3b
       0.107361145 -0.10527918 0.2752574 0.0019882035
000130 44 28 31 3e f0 a3 10 be 3a 13 8a bc c7 24 b3 3d
       0.17300516 -0.14125037 -0.016854871 0.08747249
000140 e8 6e ba be 41 22 9a 3e f1 03 32 3d bf 38 be 3e
       -0.3641274 0.3010426 0.04346079 0.3715267
000150 55 36 8c 3d 12 a4 4e 3e 95 92 ff be d4 e7 91 bd
       0.068463005 0.20179775 -0.4991652 -0.07124296
000160 cd 3b 85 3e 14 69 f2 bd 6e de 01 be 89 54 c8 3d
       0.26022187 -0.11836448 -0.12682506 0.09781749
000170 ca 25 71 3d 63 fa c6 be 75 b2 79 3d ed 4d 31 3d
       0.05887393 -0.38862905 0.060961206 0.043287206
000180 75 e4 5d 3d 6e 71 0b bd df 64 97 be d4 7a 81 bd
       0.05417295 -0.03404372 -0.29569146 -0.06322256
000190 8c c3 18 bd 00 98 34 3e 7d c9 bd 3e fd 70 94 3d
       -0.037295863 0.17636108 0.37067786 0.07248113
0001a0 af 25 81 3e 35 1c 8b bd 2b 1a 22 be 7d e9 8e bd
       0.25224063 -0.067924894 -0.15830295 -0.06978128
0001b0 60 00 44 bc 80 2e bd 3d c7 52 4e be bc 19 86 be
       -0.01196298 0.09237385 -0.20148765 -0.2619151
0001c0 54 85 6a be 0c c5 d2 3e 88 0a 88 3d 29 89 ab 3e
       -0.22902423 0.4116596 0.06642634 0.33503082
0001d0 86 4b 9f 3e f1 54 6c 3e 2f 83 82 bd 8e 69 e6 3d
       0.31112307 0.23079278 -0.063726775 0.11250602
0001e0 4b a0 56 be 54 32 e7 bd c1 e3 94 3d b7 42 bd bd
       -0.20959584 -0.11288896 0.07270003 -0.092412405
0001f0 4f da b9 3e 3b 38 63 be 01 94 e7 3d fd ea b1 3e
       0.3629937 -0.22189419 0.113075264 0.34749594
000200 04 f2 a9 be 5b 13 be 3d 19 90 53 3e 90 c9 62 3d
       -0.33192456 0.092810355 0.20660438 0.055368006
000210 02 c2 8c 3e a7 fa 53 3e 22 be c2 bd 22 df 81 be
       0.27491766 0.20701085 -0.09508921 -0.2536555
000220 65 49 ea bb 63 f1 dd 3b 62 69 55 be bf 66 40 be
       -0.0071498626 0.0067731603 -0.20840982 -0.18789195
000230 6c 9d 3a 3e 28 60 fa bd 8d 71 9f 3d 64 5f 53 3e
       0.18224114 -0.122253716 0.0778533 0.20641857
000240 9e 3c ab 3c e3 10 90 b9 13 5b 65 bd 31 96 00 be
       0.020902928 -0.00027478402 -0.05599506 -0.12557293
000250 99 d1 52 3e 66 75 8a 3e 3b 39 d0 bd 61 9c 0f 3e
       0.20587768 0.27042693 -0.10167166 0.14024498
000260 20 33 03 bf ae d2 5e 3c 81 7a b2 3c 80 2c 77 3e
       -0.51249886 0.013600035 0.02178693 0.24138069
000270 e1 2c 01 be cb 38 f0 3d c7 74 0b bd 03 18 30 3e
       -0.12614776 0.117295824 -0.034046914 0.1719666
000280 12 df 1c be e9 f0 38 bd ea 21 41 be c6 8c 3a be
       -0.1531947 -0.045151625 -0.18860593 -0.18217763
000290 b8 38 a7 bd 01 b9 46 3c aa a6 4d 3e 4e 1a e7 3d
       -0.08165115 0.012129069 0.20083109 0.11284314
0002a0 d9 8b 2f 3d 02 dd f0 3d af 46 4b be c7 d7 45 be
       0.04285798 0.11760904 -0.19851182 -0.19320594
0002b0 72 47 a6 bd 89 84 2f be 7c a1 09 be ec a3 66 3d
       -0.08119096 -0.17140402 -0.13440508 0.05630867
0002c0 d8 0e 00 3e d3 7d 09 be b8 de 09 be 01 1a 99 3e
       0.12505662 -0.13426904 -0.13463867 0.29902652
0002d0 8f 78 a9 3d 25 95 20 be ae 30 d2 3c 11 1b 6f 3d
       0.08274948 -0.15681894 0.025657978 0.058375422
0002e0 15 80 98 3e ee f1 36 be d0 e6 f3 bc 4e a7 cd bd
       0.2978522 -0.17865726 -0.029773146 -0.100416765
0002f0 47 b0 c5 3c 62 d1 7a bd e4 92 9e bd c3 69 2d 3d
       0.024131907 -0.06123484 -0.07742861 0.04233719
000300 72 aa 18 be 1a 16 ae 3e 5c 4f c5 3d 93 55 df 3e
       -0.1490877 0.34001237 0.09634277 0.43619975
000310 66 a4 be 3e 6f a0 de 3e 0d 5a a2 be c2 be 02 bf
       0.372348 0.43481776 -0.31709328 -0.51072323
000320 af c8 35 be 18 af 28 be 9d 49 0b bd 51 49 67 3d
       -0.17752336 -0.16473043 -0.03400575 0.056466404
000330 b2 ee 35 3d 1a 87 14 bd c0 96 28 be e6 35 47 3d
       0.04441709 -0.036261655 -0.16463757 0.048635386
000340 a6 93 34 be bf 57 96 3e a2 0a 8c bc ab ae 88 3e
       -0.17634448 0.2936382 -0.017094914 0.2669576
000350 be 9c 5f 3e 1d ae 6b 3d a3 b5 c6 be 6d 7e 07 b9
       0.21837136 0.057539094 -0.38810453 -0.000129217
000360 df b4 c5 3b 3c fe ba be 14 ff c1 bd 13 76 db 3d
       0.0060335244 -0.3652209 -0.094724804 0.1071588
000370 f1 27 e6 bc e5 d1 ed be a6 3d 41 be 55 88 31 3c
       -0.028095217 -0.464492 -0.18871173 0.010835727
000380 df ce 6a be e2 bb 23 3e 4e 80 0f 3e 3e 77 96 3d
       -0.22930478 0.1598964 0.14013788 0.073469624
000390 76 69 16 3e 89 b6 8b 3c 06 b1 d0 bd 9c d2 1b be
       0.14688668 0.017054813 -0.101900145 -0.1521706
0003a0 41 11 a2 3d 3c 6e 4d be 3d 89 df bd a7 ef 2a bd
       0.07913447 -0.20061582 -0.10914848 -0.041732457
0003b0 b0 35 97 3e 79 b8 5c bd 9c 04 3f 3e 59 c0 6b bd
       0.29533148 -0.053886864 0.18654102 -0.057556484
0003c0 23 45 ab be 8d 1d c6 3c 7e 1c b4 3e 58 92 b9 3e
       -0.33451185 0.024184013 0.35177988 0.36244464
0003d0 09 72 26 3e a7 d4 67 3e cc 4d 50 bd 88 47 25 3b
       0.16254438 0.22639714 -0.050855443 0.0025219638
0003e0 6c fb 43 3e 8f 0b d5 bb ec 0e 85 3d 2d 5e f0 bd
       0.19138879 -0.006501622 0.06496987 -0.117367126
0003f0 06 6a 00 bd 6a f2 42 3e ad 71 14 be 2c c9 7a 3e
       -0.03135111 0.19037786 -0.14496489 0.24490803

net_list.0.bias_ih_l0 f4 [64]
000000 52 fe 33 3d da a1 d3 3e c0 d3 81 3e cd 89 f8 3c
       0.04394371 0.4133442 0.25356865 0.030339146
000010 2f f3 83 3c 18 8c c4 3d 0d 9c 26 bc 23 3c 8b 3e
       0.01610717 0.09597033 -0.010169041 0.27194318
000020 3e eb fb bc dd 93 93 3e 65 7a 78 be 7f aa c4 bd
       -0.03075182 0.28823748 -0.2426544 -0.09602832
000030 44 c9 db 3e 29 94 d6 3e 01 e0 cd bd 1e 57 dd 3d
       0.4292699 0.41909912 -0.10052491 0.10807632
000040 e0 2d 71 3d b4 01 88 3e c2 61 de 3d 30 c5 1d bd
       0.05888164 0.265638 0.108584896 -0.03851813
000050 48 b7 4c 3d e7 57 83 3c ca 7a b2 3d 38 c6 3e bd
       0.049979478 0.016033126 0.087148264 -0.046575755
000060 41 6e 46 be a2 44 de 3e ee 6e a0 be e7 13 ca 3b
       -0.19377996 0.43411738 -0.31334633 0.0061669233
000070 1f 9a 58 bd 41 bf 92 3d 55 82 44 be 82 ed 36 3d
       -0.052881356 0.07165385 -0.19190343 0.0446601
000080 36 06 9b be 19 ed 8c 3e 83 bd c6 3e 30 0f 05 3f
       -0.30278176 0.2752464 0.3881646 0.519763
000090 87 a7 3e bb ee de e8 3c 88 23 34 bd 1c 69 02 bf
       -0.0029091553 0.028426614 -0.043979198 -0.50941634
0000a0 95 38 e0 3d dc 9c a5 be 40 66 b0 3d fb 60 94 3d
       0.10948292 -0.32346237 0.08613253 0.0724506
0000b0 ba 3f 85 3d 63 b9 a7 bd 3b 63 dd 3b 20 cf 02 3e
       0.065062955 -0.081896566 0.006756214 0.12774324
0000c0 ff ee 96 3e ce b5 e0 3e a1 b6 5a 3e a1 36 27 3e
       0.29479215 0.43888706 0.2135873 0.16329433
0000d0 7e c6 88 3c 10 56 d9 3d d0 4b 23 be ed 59 60 3e
       0.016696211 0.10612118 -0.15946889 0.21909304
0000e0 af a5 dc 3c e0 a3 5e 3d 67 6b aa 3d 74 74 3c 3e
       0.026934473 0.054355502 0.083212666 0.18403798
0000f0 d4 8c 74 3e 5b 7c a2 3e 1f c9 0b 3e b2 4a 9a 3e
       0.23881847 0.317355 0.1365094 0.30135113

net_list.0.bias_hh_l0 f4 [64]
000000 62 44 88 3d 0c b1 fe 3e 0a 12 88 3e bc 89 7f 3e
       0.06653668 0.4974445 0.26576263 0.24954885
000010 91 6f 33 3c 88 7f 7d 3e de a7 0d be 9d 10 e1 3e
       0.0109518925 0.2475568 -0.13833568 0.43957987
000020 07 a4 02 3e 23 b9 e2 3d ff 22 66 be fa c4 27 be
       0.12757884 0.11070468 -0.22474287 -0.16383734
000030 67 bd 65 3e a5 6e b6 3e 5a 9b ba 3e bd 10 b4 3e
       0.22435533 0.3563129 0.3644665 0.3516902
000040 fd a2 78 3e 35 97 50 3e 83 3b 44 be 72 d4 ec 3d
       0.24280925 0.20370181 -0.19163327 0.11563958
000050 2d a7 df 3d ef 6b c0 3d ec 4b c3 3d 91 24 97 3e
       0.10920558 0.09395587 0.09535965 0.29520085
000060 27 55 8f bd 85 31 86 bc d7 a3 24 bd a2 d9 19 be
       -0.069986634 -0.016381035 -0.040195312 -0.15024427
000070 5a 29 d4 3d 97 63 34 be cd 50 3c be 00 b2 a6 be
       0.1035945 -0.17616116 -0.18390198 -0.32557678
000080 67 af 09 be 32 cb 9d 3e cd 5e 84 3e 44 83 97 3e
       -0.13445817 0.30819088 0.25853577 0.29592335
000090 ba ee 9c 3e b6 fd b0 3d bc 95 c7 3d a9 f9 23 bf
       0.30650884 0.086421415 0.097453564 -0.64052826
0000a0 b9 d5 7c be 79 f0 13 bd 75 90 00 bd d5 46 57 3e
       -0.24690904 -0.036118004 -0.031387765 0.21023114
0000b0 77 9d b9 3d 4b 31 4e be c4 2c c2 bd f6 53 67 3e
       0.09063237 -0.20135991 -0.094811946 0.22590622
0000c0 9b 2d 09 3e 7d bb a8 3e f6 7e 58 3e 61 89 9b 3d
       0.13396303 0.32955542 0.21142182 0.07594562
0000d0 33 db d3 3e 6e 94 a3 3e cd 64 ad bd 2e 96 cb 3e
       0.41378173 0.3194918 -0.08466492 0.39763016
0000e0 8c fe 5b bb b9 82 1d be 44 8a a5 3d 90 f4 27 3d
       -0.003356847 -0.15381898 0.08083013 0.041004717
0000f0 e4 d1 ac 3e c9 3e d4 bd f9 34 23 3e 70 55 81 3d
       0.33753884 -0.10363538 0.15938176 0.06315124

net_list.0.weight_ih_l1 f4 [64, 16]
000000 14 51 1c 3e 38 4c 65 3e 2f 4c 6b 3d 36 8a 8f 3e
       0.15265304 0.22392356 0.0574457 0.28035134
000010 b0 44 88 3e 42 06 d8 3e 4b 42 6e 3d 8c 5e bd be
       0.26614904 0.42192274 0.05816869 -0.36986196
000020 d2 b9 43 3e 08 86 6f 3d cc 3c d7 be 52 98 ce be
       0.19113854 0.05847743 -0.42038572 -0.40350586
000030 0f 4d 4c 3e 09 c1 12 3e 74 e5 d5 be 3d 56 45 be
       0.1995127 0.1433145 -0.4177662 -0.19271179
000040 b3 70 cd be 50 cf 86 3e f7 fc 0a be ec 1f 7f 3e
       -0.40125045 0.26330042 -0.13573061 0.24914521
000050 5f 85 79 bd 56 47 06 3e 62 b6 16 bd ef d8 55 be
       -0.06091821 0.1311315 -0.036795028 -0.20883535
000060 bd 21 8c 3d 23 20 d4 be b9 90 f3 be e1 ba 87 be
       0.068423726 -0.41430768 -0.47571352 -0.26509765
000070 26 8b 37 3e c6 10 52 3d 92 cb 17 bf 5d 29 74 be
       0.17924175 0.051285528 -0.59295 -0.23843904
000080 9f 88 b9 bd 74 49 5e 3e 9d 36 06 3e 3b e2 b3 3e
       -0.090592615 0.21707708 0.13106771 0.35133538
000090 bd 5b 25 be 04 15 7b be fc f3 5a be 25 6f b9 be
       -0.16148277 -0.24519736 -0.21382135 -0.3621761
0000a0 94 eb e8 3d 0a 8d b1 3d 36 5d 7d b9 ad f0 47 3e
       0.11373058 0.08669479 -0.00024162684 0.19525404
0000b0 a6 56 04 3f 48 02 e4 be 4b 8b 0f bd c3 9c b3 3d
       0.51694715 -0.4453299 -0.03504495 0.08770134
0000c0 55 49 dd be c0 75 81 3b d3 1d 84 bd 23 90 09 3f
       -0.4322001 0.0039508045 -0.06451001 0.5373556
0000d0 ca ab 0f 3f 09 d7 09 3f 27 8a 43 3c aa 7f ee be
       0.56121504 0.5384374 0.011934794 -0.46581775
0000e0 31 77 2a 3e fc 8f 04 bf 29 a1 b9 be f3 a4 a9 be
       0.1664703 -0.517822 -0.36255768 -0.3313366
0000f0 3c d6 5a 3e 92 9d b8 bd bc 6b ec be 82 2a 6c 3c
       0.21370786 -0.09014429 -0.46175945 0.0144144315
000100 8b e4 83 be 40 64 23 be 02 f6 2a be f1 55 62 3e
       -0.25760302 -0.15956211 -0.16695407 0.22103097
000110 88 c0 3f bd 79 cf 75 3e 18 1c 56 bd 75 71 87 be
       -0.04681447 0.24004926 -0.052272886 -0.26453748
000120 2a a9 11 be ff fc 21 be 59 8d ab 3e d1 0f 5b bd
       -0.14224687 -0.15819167 0.33506277 -0.05348188
000130 41 ae 41 3f 20 29 1e bf 7e 89 aa bf 92 b7 0e 3f
       0.75656515 -0.617815 -1.3323209 0.55748856
000140 83 83 71 be fc 73 84 be 24 f7 b0 be 7d d8 73 bc
       -0.23585324 -0.2586974 -0.34563553 -0.014883158
000150 12 ef 8d bd 46 d1 1d 3e 9b 16 ca 3e b6 00 8e be
       -0.06930365 0.15411863 0.39470372 -0.27734917
000160 31 e7 05 3f 45 a3 2c 3d 03 55 6a be 97 71 c8 bd
       0.52305895 0.042147893 -0.22883992 -0.097872905
000170 9a c5 19 be b9 b8 c3 3d dd 5c d6 3e 96 f9 09 bf
       -0.15016785 0.095567174 0.41867724 -0.5389646
000180 07 1b f2 be 69 5b 09 3f 1a 4f e6 3e 8f e9 e4 3e
       -0.47286245 0.53655106 0.44982225 0.4470944
000190 a5 7c 87 3e 28 07 90 3e 89 0c bd bd 8a af 71 bd
       0.26462284 0.2813046 -0.092309065 -0.059005298
0001a0 81 9a e8 be 52 e2 11 bf be 3f 2d be 16 72 8e bc
       -0.45430377 -0.5698596 -0.16918847 -0.017388385
0001b0 9d 76 a9 3e 5b c2 d3 be af b1 16 be f2 23 ea bb
       0.33098307 -0.4135922 -0.14716218 -0.0071453983
0001c0 3c 06 9c be 10 ad 89 be 3d 87 25 be dc 61 f6 3e
       -0.30473506 -0.2688985 -0.1616487 0.48121536
0001d0 4a 95 f0 3e 93 bc b8 3d b1 b1 b8 bd d9 0b 00 bf
       0.469889 0.09020343 -0.09018267 -0.5001808
0001e0 bc 54 83 3e 6a 10 b8 be 57 f0 de be 0a 26 16 be
       0.25650585 -0.35950023 -0.4354274 -0.14662948
0001f0 5a d6 a0 3e e6 0f 85 bc e3 09 79 3e 5d f5 89 be
       0.31413537 -0.016242933 0.24320178 -0.2694501
000200 1f d1 e9 bd 65 40 26 3e b6 d4 48 be 6b 7c 9b 3e
       -0.1141684 0.16235502 -0.19612393 0.3036836
000210 51 cd 86 bd c4 38 88 3e bc b6 47 3e 2f 64 c2 3d
       -0.0658213 0.2660581 0.19503301 0.09491765
000220 b9 87 0e 3f 57 a3 e1 3c 98 a5 92 be ca bb d8 be
       0.55675846 0.027543707 -0.28641963 -0.42330772
000230 46 a5 5e bc d3 80 ab bd 28 5a c7 be 91 b9 e3 bc
       -0.013589209 -0.08374181 -0.3893597 -0.027798446
000240 6a 99 ef bd f4 39 ee bd 97 c0 28 be 1b c4 74 3d
       -0.11699183 -0.116321474 -0.16479717 0.059757333
000250 83 33 be 3e 74 5e e4 3e 75 2e 8f be 19 ba bd 3c
       0.37148675 0.44603312 -0.2796513 0.023160027
000260 ef 0c ba 3e 9e 42 2e 3e f8 de 8d be 6e df 04 bd
       0.36337993 0.170176 -0.27709174 -0.03243964
000270 30 57 86 bd cc c6 82 bd b8 4e e5 bd e1 fd 60 be
       -0.065595984 -0.06385574 -0.11196655 -0.21971847
000280 d4 f5 83 bd 5e 23 e6 3d 17 84 1d 3e a2 09 8a 3e
       -0.06443372 0.112372145 0.1538242 0.26960474
000290 d9 fe aa 3e 92 ca f8 3e 6b 6b 21 3e 6c dc 5e be
       0.33397558 0.4859205 0.15763633 -0.21763772
0002a0 28 0c 2b 3d 65 8b ad be 91 c8 b7 bd f1 58 5c be
       0.04175964 -0.33895412 -0.08973802 -0.21518303
0002b0 4d 8b 2b 3e 73 97 a6 3c e6 47 69 be 63 4a 7d 3d
       0.16752358 0.020335888 -0.22781333 0.06183852
0002c0 73 02 99 3e 3d 75 e4 3d a7 07 1f 3e e7 20 36 bc
       0.2988468 0.11155174 0.15530263 -0.011116243
0002d0 fe f3 ce be 86 c4 49 be fc 09 15 be 12 01 d6 bd
       -0.40420526 -0.19703874 -0.1455459 -0.10449423
0002e0 60 14 af be 85 8d 4a 3e 07 3e 88 3e c2 6a c7 3e
       -0.34195232 0.19780548 0.26609823 0.38948637
0002f0 c7 82 26 3f 84 cd c9 bd 4c bb ee 3d 86 03 e4 bc
       0.650433 -0.09853652 0.11656818 -0.027833711
000300 98 92 56 3e c4 c8 b4 bd 58 ee 52 3e c4 d1 15 3e
       0.20954359 -0.088273555 0.20598733 0.146308
000310 d3 17 3f be b5 5f bf 3d 2b 67 e3 bd f6 79 4b 3e
       -0.18661432 0.093444265 -0.11103662 0.19870743
000320 de f6 2e 3d 7f f1 50 be 79 8a d7 3c e3 a6 24 3c
       0.0427159 -0.20404623 0.026311146 0.0100495545
000330 e6 2f 3f 3e cc a8 86 3d 26 cd b6 be b1 f9 bd bd
       0.18670616 0.06575164 -0.3570339 -0.092761405
000340 43 0d 4f bc d7 49 14 bd 01 46 3b 3e ef 23 0f 3e
       -0.012637439 -0.03620323 0.18288423 0.13978551
000350 55 12 73 3e 13 0e 88 bd a3 8f 3e be eb 28 c7 be
       0.23737462 -0.066433094 -0.1860948 -0.38898405
000360 52 e8 03 be 68 d7 63 be b3 b7 0a bd b6 a5 7a bd
       -0.12881592 -0.2225014 -0.033866595 -0.06119319
000370 0c 82 93 3e a9 57 45 be 0c 3f 23 bd d2 df 71 3e
       0.28810155 -0.19271721 -0.039855048 0.23620537
000380 1f ac d7 be 8f 55 f2 3d c3 b0 09 bd 2f 4e c1 3e
       -0.42123505 0.11832725 -0.03361584 0.37754962
000390 f1 ef 17 3e ae 53 bd 3d 01 e9 09 be a7 7a b4 be
       0.14837624 0.09244476 -0.1346779 -0.35249826
0003a0 20 d6 40 3e 73 97 3b be 63 e9 38 be e5 c8 80 be
       0.18831682 -0.18319492 -0.1805778 -0.2515327
0003b0 32 c0 f5 3e 2a 8f 5a 3e 51 b7 10 3e 5d d0 9d bd
       0.47998196 0.21343675 0.1413243 -0.07705758
0003c0 c3 e9 24 be b6 55 ff 3d fc bb ed 3e 78 7b 9a 3d
       -0.16104798 0.1246752 0.46432483 0.07543081
0003d0 cf fb 86 3e c4 b2 b9 3e 77 f0 8a be cf d3 d1 bd
       0.2636399 0.362692 -0.27136585 -0.102454774
0003e0 dd 94 b8 bd ba 71 d4 be 85 ea 3d bf 7f d7 70 bb
       -0.090127684 -0.41493016 -0.74185973 -0.003674954
0003f0 cb 7b 22 3e 7e 7d b4 be 63 8b d2 bd 4b 39 fe 3c
       0.15867536 -0.35251993 -0.10280492 0.031033179

net_list.0.weight_hh_l1 f4 [64, 16]
000000 53 57 33 bd 31 44 0c be d6 f1 81 3e f3 32 a5 bd
       -0.04378445 -0.13697888 0.2537982 -0.080663584
000010 1f 6c 05 3d f2 bc 8a be bc 09 35 be e0 cf fa bd
       0.032573815 -0.2709728 -0.17679495 -0.1224668
000020 09 9f 54 bd 14 28 f6 bd c2 a7 09 3d 8f 1d 12 be
       -0.05190948 -0.12019363 0.033607252 -0.14269088
000030 b9 d6 1b 3e 90 30 e9 bd c6 1e a9 bd ed b8 08 3e
       0.15218629 -0.11386216 -0.08257823 0.13351794
000040 bf cb 43 bd fc c1 63 3d af d4 6d 3e f3 d2 c4 3e
       -0.04780173 0.05560492 0.23225664 0.3844219
000050 ed 2e 6a bc 8f 4c 24 3e 41 e7 aa bd 36 b1 8d be
       -0.014293415 0.1604483 -0.083448894 -0.27674264
000060 38 a0 a5 3d ab 77 5d 3e fd b5 87 3e 5e 59 a4 bc
       0.080872 0.21627681 0.26506034 -0.020062145
000070 0b 23 64 bd 6b bc 90 be 59 87 79 3e 7e 38 a0 bc
       -0.055697482 -0.28268752 0.24368037 -0.019558188
000080 5e be 93 3e ff b0 82 be 88 2e 1c be 9f 0b 54 be
       0.28856176 -0.25525662 -0.15252125 -0.20707558
000090 96 ce 22 3d 5d c1 51 3d 7d e0 7f 3e df c2 ae 3e
       0.039747797 0.051209796 0.24987979 0.3413305
0000a0 01 2d c6 bd be be eb 3d 11 34 68 3e e6 82 1d 3c
       -0.096765526 0.115109906 0.22676112 0.009613728
0000b0 db 82 db 3d 33 b5 a2 be 35 1d c6 bc 8a e0 c6 be
       0.10718318 -0.3177887 -0.024183849 -0.38843185
0000c0 a1 1c 0e 3f 79 0e fb be f8 84 cd 3d 7d 21 3e be
       0.55512434 -0.4903448 0.100351274 -0.18567462
0000d0 de 1b cb bd 89 e9 0d be 50 e8 37 3e 67 bf 17 bd
       -0.099174246 -0.13858618 0.17959714 -0.03704777
0000e0 74 6d ea bd c9 b9 10 bd 2d 7c cf 3e fd bf 95 3d
       -0.11446658 -0.03533343 0.40524426 0.073120095
0000f0 56 30 35 bd 7e 58 fc be ec 47 53 be c9 fd c4 be
       -0.04423555 -0.49286264 -0.20632905 -0.38474873
000100 73 ba 5a 3e 3d 1f 67 be 92 c5 8e bd 23 84 35 be
       0.21360187 -0.2257051 -0.06971277 -0.17726187
000110 98 ef 42 3e f9 3f 2e be 6b 7d ed bd 57 46 f1 3e
       0.1903671 -0.17016591 -0.11596187 0.47123978
000120 64 fe 01 be e3 ea 80 3e a0 52 00 bc 28 5a f1 3d
       -0.12694699 0.25179204 -0.007832199 0.11784774
000130 a0 cd 29 be 17 2d de 3c a9 cd e8 bb 7a 8f a6 3c
       -0.16582346 0.02712111 -0.0071045947 0.020332087
000140 7c 32 3b 3d 31 03 8e 3d 6f 96 8b 3e 12 97 db bd
       0.045702443 0.069342025 0.2726321 -0.10722174
000150 4d bb c9 3d ec 99 18 3e 0c d1 8b 3e af 56 53 be
       0.09850178 0.14902467 0.27307928 -0.20638536
000160 f2 51 41 be 94 f1 1b bc 83 d0 f3 3d 4e 35 80 3e
       -0.18878916 -0.009518046 0.11905005 0.25040668
000170 d1 4c ba be ee 48 c9 be 18 50 8d bd 15 2e b2 3c
       -0.3638673 -0.39313453 -0.06900042 0.02175049
000180 79 6e c8 3e b8 fe e8 bd 70 e9 1d 3e ed 4d 11 be
       0.39146784 -0.11376709 0.1542108 -0.14189883
000190 4d bb 1f 3e e3 a8 53 3d 49 9c ba bd 78 57 5b 3c
       0.15598793 0.051674735 -0.0911184 0.013387553
0001a0 5b 38 b1 be dd 50 c3 3d d0 cb ab 3e f3 1b f8 3c
       -0.34613308 0.09536908 0.33553934 0.030286765
0001b0 bb cb bc bd 72 d4 89 be dc d0 2f be e2 3a 5c be
       -0.09218546 -0.26919895 -0.17169517 -0.21506837
0001c0 bf 81 28 3e 34 de d1 3c f6 7c 97 3e e8 1e f2 bd
       0.16455744 0.02561865 0.29587525 -0.11822301
0001d0 fc 63 54 3e e2 1a 85 3d b8 47 8c bd ff 89 1c 3e
       0.20741266 0.06499268 -0.06849617 0.15287016
0001e0 48 57 20 bd 82 9d 93 bc 7a 14 f1 3d 71 33 a2 bd
       -0.039145738 -0.018019442 0.11771484 -0.07919968
0001f0 ca 51 53 be 22 07 63 3d 45 fc eb bd 1a 3b ad be
       -0.20636669 0.055426724 -0.11522726 -0.33834153
000200 e5 d2 b5 3d f1 0f 24 be 1c 95 82 3b 9b 19 3a 3c
       0.088781156 -0.16021706 0.0039850604 0.011358644
000210 f2 92 34 3c a4 e2 e1 bd 10 af 61 bd 9f 5d 44 bd
       0.011021363 -0.110295564 -0.055098593 -0.047940847
000220 9d 81 34 be 7a e0 92 bd ac 4d 88 3e 31 51 11 3e
       -0.17627569 -0.07171722 0.2662176 0.14191128
000230 03 eb 83 be 76 47 91 be 58 63 cd bb 65 01 4f be
       -0.25765237 -0.28374833 -0.006267946 -0.20215376
000240 84 df cb 3d aa 73 3d 3d 3b 41 3f 3e b6 d9 cb 3d
       0.099547416 0.046252884 0.18677227 0.099536344
000250 4a c0 45 3d 24 d9 49 be 87 f3 16 be 55 d3 64 3d
       0.048279084 -0.19711739 -0.14741336 0.055865604
000260 67 36 61 bd a8 0f 05 3c 70 b8 84 3c b4 a2 8b 3e
       -0.054983523 0.0081214085 0.016201228 0.2727257
000270 71 14 59 be e8 53 14 3e ef 77 8f 3b bb 27 e8 bd
       -0.21199204 0.14485133 0.004378311 -0.11335703
000280 21 3b 78 bd 01 fe 6a be ec bc 59 3e 54 21 b3 bd
       -0.060603265 -0.22948457 0.21263474 -0.08746591
000290 01 bf 6a be e6 b4 3c 3e 92 6a 34 3e d8 5b 04 3e
       -0.22924425 0.18428382 0.17618778 0.1292566
0002a0 3f 95 f2 3c db ef 6f 3e 58 88 1a 3e 3e af 52 3e
       0.029612182 0.23431341 0.15091074 0.20574662
0002b0 55 d0 5d be 82 eb b2 be c2 45 66 be 9f 58 f7 bd
       -0.21661504 -0.34945303 -0.22487548 -0.1207745
0002c0 ac d4 aa bd 09 06 c2 3c 70 0a 93 3e 0a 3d 75 3d
       -0.08341345 0.023684518 0.287189 0.059872665
0002d0 af 28 3a be 6e fa d6 3d 36 13 6e bd 8b 1a 40 3e
       -0.18179582 0.104969844 -0.05812379 0.18760125
0002e0 c6 6b 6b be e3 87 6e 3e 08 90 21 be 74 40 5c bd
       -0.22990331 0.23294024 -0.157776 -0.053772405
0002f0 a1 ff c0 bd 27 02 44 be ce 2a 87 be c7 0c a9 3d
       -0.09423757 -0.19141446 -0.26399845 0.0825439
000300 b2 4f 0f 3e 55 44 23 3e e6 36 8d 3e a1 83 46 3d
       0.13995245 0.15944035 0.27580947 0.048465375
000310 a2 b1 9e be e8 ca 9a bd 17 92 12 3d 85 27 42 be
       -0.30994898 -0.075582325 0.035783853 -0.18960388
000320 0e 52 fa bd b4 70 3f 3e 70 fb 8b 3e 19 3e 5b 3e
       -0.12222682 0.18695337 0.2734027 0.21410407
000330 c1 ba f0 bd 3c ec 3f bd 9c 5d 1f be e0 b7 c1 bc
       -0.117543705 -0.04685615 -0.15563053 -0.023647249
000340 b5 dc aa 3e 92 9c 14 3d e6 d1 be bd 5f 37 0b 3d
       0.3337151 0.03628213 -0.09317379 0.033988353
000350 ab eb bb 3c 18 95 ac 3d 7e d9 81 3d ba fd 9f 3e
       0.022939524 0.08426875 0.063403115 0.31248266
000360 f9 3e a3 be 5f c8 92 3e 0b 74 bc 3e 3a db c4 bd
       -0.31883982 0.28668496 0.36807284 -0.09612127
000370 bd ea 11 be 11 f9 a1 3d 59 a7 d0 bd 94 83 39 bb
       -0.14249702 0.07908834 -0.10188169 -0.0028307186
000380 c5 3a ef 3e d8 12 95 be 10 29 94 3e c5 1c f2 bd
       0.46724525 -0.2911594 0.28937578 -0.118218936
000390 1c 43 99 be a4 db fc 3c 3a 87 93 3e ae be 93 bd
       -0.29934013 0.030866452 0.28814107 -0.07214104
0003a0 a7 de 1c be 94 be 21 3e 04 c2 ab 3e ad b2 df 3e
       -0.1531931 0.15795356 0.3354646 0.43691006
0003b0 be 40 c0 be 48 ea f4 bd 86 2d 92 bc 13 76 37 be
       -0.37549394 -0.11958748 -0.017843973 -0.17916135
0003c0 f6 79 7e 3c 00 18 b8 be 65 c7 d2 bd f6 bb 2e 3d
       0.015532007 -0.3595581 -0.10291938 0.042659722
0003d0 11 ca 00 be f7 37 f7 bc f2 ce 54 3e 68 74 4c bd
       -0.12577082 -0.030178053 0.20782068 -0.0499157
0003e0 be f1 6c 3d 1b 1f 77 3d f7 61 52 3e 80 44 d1 3e
       0.05784773 0.0603324 0.20545183 0.40872574
0003f0 07 bb 1d bd e9 8e 8d be 3c 87 8c be 4a 17 94 3b
       -0.03850844 -0.27648094 -0.27446926 0.004519378

net_list.0.bias_ih_l1 f4 [64]
000000 47 3a b7 3e be 08 92 3e a7 c2 73 3d 9e 66 c3 3e
       0.3578665 0.28522295 0.059511807 0.38164228
000010 a7 a0 3e be b0 07 68 bc ac 56 31 3f 1b 86 d7 3e
       -0.18615972 -0.014161989 0.69272876 0.42094502
000020 57 8a 23 3e 94 65 c6 bd 76 fd 21 3e d6 76 a4 3e
       0.15970741 -0.09687343 0.15819344 0.32121915
000030 8b 67 11 bd bb 7f 55 3e b2 48 3b 3d 88 aa 12 3f
       -0.035499137 0.20849507 0.045723625 0.5729146
000040 04 d1 a8 bd da 3a 94 3e a0 a9 06 bb cb b2 7a be
       -0.082429916 0.2895115 -0.0020547882 -0.24482267
000050 b0 70 9c 3d d2 1a e6 bd 69 7f 64 bd 23 f0 93 3d
       0.07638681 -0.11235584 -0.05578557 0.07223537
000060 04 82 0b be 1f c3 04 be 70 1a 0d 3e 31 fa 2f bd
       -0.13623816 -0.12965058 0.13779616 -0.04296321
000070 da 5e c8 bc 10 be a8 bc 14 47 bd bd de 8e 0d bd
       -0.024459291 -0.020598441 -0.09242073 -0.034560077
000080 69 db 14 3f 99 40 fe be 63 e0 4c 3e c4 d3 f5 bd
       0.58147293 -0.4965866 0.20007472 -0.12003282
000090 cf 05 f3 bd 24 b6 df 3c f7 ce 9e 3e ed 2f 1e 3e
       -0.11866342 0.027308531 0.31017277 0.1544797
0000a0 c7 49 2d be a8 87 f7 3d ea 32 12 3e 1c 65 db 3d
       -0.16922675 0.12086421 0.14277235 0.107126445
0000b0 dd 6f 92 bd ba 80 20 bf 1e a7 04 be 3a 0f 31 bf
       -0.071502425 -0.6269642 -0.12954375 -0.6916386
0000c0 a3 4d 85 3d 4f d8 9b bd 4b 08 47 3d 29 30 de 3e
       0.06508949 -0.07609617 0.048591893 0.43396118
0000d0 60 d3 be 3e 2f a5 aa 3d b5 69 9b 3e b1 90 8a 3e
       0.3727064 0.083322875 0.30354086 0.27063516
0000e0 84 72 a7 bd 65 07 2e 3e 6b d9 28 3e ec e7 86 3e
       -0.08176139 0.16995008 0.16489188 0.26348817
0000f0 5c a0 d7 38 06 8f 80 3d 3c 24 ea 3e b9 93 81 3e
       0.00010281868 0.062772796 0.4573077 0.25308016

net_list.0.bias_hh_l1 f4 [64]
000000 09 ae c6 3e 6c 60 cd 3e 25 c7 a9 bd 5d dd 68 3d
       0.38804653 0.40112627 -0.08289937 0.056851733
000010 82 64 62 3e b4 81 1d 3e e8 52 ad 3e b1 4c a3 3e
       0.22108653 0.15381509 0.33852315 0.31894448
000020 6b d1 8e 3d 99 a7 36 be 16 88 8a bd 88 01 da bd
       0.06973537 -0.17837371 -0.067642376 -0.10644823
000030 2f 10 30 be 51 0f f8 3e 48 e6 a9 3e 90 41 24 3f
       -0.17193674 0.48449185 0.33183503 0.6416254
000040 37 37 8e 3e fa 6c 2a 3e 29 d6 9b b9 00 81 1a be
       0.277765 0.16643134 -0.00029723466 -0.15088272
000050 36 0e a5 be 18 fb 22 3e bc 03 7e 3e c3 ac c1 be
       -0.32237405 0.15916097 0.24806112 -0.3782712
000060 4f 52 b3 3d 5f 5f 8e be ef eb 2c 3e ec 2d 29 be
       0.087559335 -0.27807137 0.16886877 -0.16521424
000070 6d 25 5b be 73 4e c6 3e 61 9d b3 be db 33 b6 3e
       -0.21400996 0.38731727 -0.35081008 0.35586438
000080 67 e6 3c 3f d5 95 e1 be 57 2a b2 bd 8d 76 76 3e
       0.73789066 -0.44059625 -0.08699482 0.24068661
000090 da 4b a9 3c 73 a6 53 bc eb b6 0b 3f 47 da 1d 3e
       0.020666052 -0.012918103 0.54575986 0.15415297
0000a0 b8 da dd 3d c0 1a 03 3e 99 7b 64 3e 87 a1 50 ba
       0.10832733 0.12803173 0.22312774 -0.000795864
0000b0 47 8f c5 bc 1d 0d db be ad 91 35 bd ce 8d 33 bf
       -0.024116172 -0.42783442 -0.04432838 -0.7013825
0000c0 ca 8e 8e 3d 1f 10 76 3e c5 af 9f bc 11 30 ea 3d
       0.069608286 0.24029587 -0.019492993 0.11434949
0000d0 04 ff 84 bd 4f 5d 3d 3d fb 80 9a bd b4 69 c7 3e
       -0.06493953 0.046231564 -0.07544132 0.38947833
0000e0 2d b4 ee bd b9 51 26 be 35 2d 3a bd e6 37 14 3e
       -0.116554596 -0.16242112 -0.04545327 0.14474449
0000f0 7a da 8d 3e 36 8f 90 bd b7 82 2c 3d 4f c5 2d 3e
       0.27705747 -0.07058565 0.042116847 0.16969799

net_list.0.weight_ih_l2 f4 [64, 16]
000000 93 72 a9 3d 65 e8 a1 3c 88 3e d4 3e 7d 35 0d be
       0.082738064 0.019764135 0.41453958 -0.13789935
000010 d0 10 a0 bd 3d fb f8 3d ed fe 14 3e ee 0a cc be
       -0.07815707 0.12157295 0.14550371 -0.3985209
000020 41 1f ab bd 02 21 29 bd 17 c4 29 3e e1 96 d7 3d
       -0.083555706 -0.041291244 0.16578709 0.10526825
000030 92 7b 01 3d de 5d b5 be e3 15 d4 3e fc 61 10 be
       0.031611986 -0.35423177 0.41422948 -0.14099878
000040 54 14 ab 3e ba 2c f1 be 0e 44 92 3c 54 7d 15 3c
       0.33413947 -0.47104436 0.017854717 0.009124119
000050 df 50 ca bd 0b 6b b1 bd a0 c1 08 3e cb 5f 4d 3e
       -0.09878706 -0.08662995 0.13355112 0.20056073
000060 a8 8b 00 bf 0c 30 2d 3e 39 6f 3b 3e 5e 12 00 3e
       -0.502131 0.1691286 0.18304147 0.12507007
000070 25 25 17 3e 38 a2 50 bd d6 04 18 bf a0 60 00 bf
       0.14760263 -0.050935954 -0.5938238 -0.5014744
000080 19 88 fb bb d1 fd 52 be e6 b8 5a 3e b0 fe 4a 3e
       -0.007676136 -0.20604636 0.21359596 0.19823718
000090 e2 3b 35 bc 7f 95 0a 3f d5 6e 86 3e ab 4c 9c be
       -0.01106164 0.5413436 0.26256433 -0.30527243
0000a0 00 a9 13 3e 35 98 c2 bd 4c db 9d 3e 75 2f 9e bc
       0.14419937 -0.095016874 0.30831373 -0.019309739
0000b0 e9 65 b8 be fe 82 b7 be 99 93 32 be d2 55 58 be
       -0.3601525 -0.35842127 -0.17439117 -0.21126488
0000c0 c4 99 7a be 60 c3 5b be 43 22 6a bd a6 00 84 bf
       -0.2447272 -0.21461248 -0.05716158 -1.0312698
0000d0 32 5e aa 3e 32 a9 e3 bc 54 e5 1a bd d0 da 53 bf
       0.3327499 -0.02779064 -0.03781636 -0.82755756
0000e0 41 ac 60 3e 25 89 21 3d 30 7f f4 bd 98 27 85 3d
       0.2194071 0.03943743 -0.119383216 0.065016925
0000f0 63 84 76 bd 45 1a 0f 3e 79 ed 93 3e a5 80 c9 3e
       -0.060184848 0.13974865 0.28892115 0.3935596
000100 3e 29 e8 bb aa 10 29 3d 83 a7 bc 3e b6 e0 26 be
       -0.0070849946 0.041275658 0.3684655 -0.16296658
000110 a4 fb 32 be da ec b2 3e 5b 6c 32 3e 39 c2 de 3d
       -0.17478806 0.34946328 0.17424147 0.10876889
000120 63 b4 63 be 26 db ea bd 7e 6e 1d be b5 30 a8 3e
       -0.22236781 -0.114675805 -0.1537418 0.3284966
000130 8a 47 01 be 9c b6 29 be 91 0e b4 3d 29 f8 b3 be
       -0.12624946 -0.16573566 0.08791841 -0.3515027
000140 6a 90 52 3c 99 f3 62 bd 1c 97 97 3e c8 a9 a0 3e
       0.012851814 -0.055408094 0.29607475 0.31379533
000150 54 db d5 bc 3d 56 76 3e 2e 23 02 bd e9 77 0a 3d
       -0.02610556 0.24056335 -0.03177183 0.03380576
000160 31 3e a6 bd 9e 12 e5 3d 6a 18 18 3d 76 06 bc 3e
       -0.08117331 0.111851916 0.037132658 0.3672368
000170 64 6a dc 3c 61 4e 86 be 67 46 dc 3b a2 27 b7 bd
       0.0269062 -0.26231673 0.00672226 -0.08943106
000180 19 56 c3 3e 8b 66 a9 3d f4 26 6b bd 43 74 22 3d
       0.38151625 0.08271512 -0.057410195 0.039661657
000190 7c 31 e0 3b 4f 1b 63 bd 2f 3a f0 3d 42 1d 17 be
       0.0068418365 -0.055445965 0.11729848 -0.14757255
0001a0 37 4b 24 be 33 9d ea bd ed bc b6 3d a2 b7 0b bd
       -0.16044317 -0.114557646 0.089227535 -0.034110673
0001b0 c5 a8 5c bb 83 98 a2 bd 31 6f 2b 3d 0b c5 cd 3d
       -0.003366993 -0.079392456 0.041854087 0.100473486
0001c0 e6 a0 04 3f 9f c5 7f be f8 61 4d 3e 2f 93 d3 3e
       0.5180801 -0.2497773 0.20056903 0.4132323
0001d0 90 e2 39 be c4 d6 2c 3e bc 7b c1 3e cb c0 38 3e
       -0.18152833 0.16878802 0.37789714 0.18042295
0001e0 7f 77 c0 be 7c 69 13 3e a1 7c 84 3e 2a 93 b1 3e
       -0.37591168 0.14395708 0.25876334 0.3468259
0001f0 a2 38 9f bd 43 9d 0d bf e3 0e 4d bf 85 d7 27 bf
       -0.07774474 -0.5531809 -0.8010084 -0.6556323
000200 c0 e4 75 bd 0c 29 b1 be 96 02 60 be 95 56 a9 bd
       -0.060032606 -0.3460163 -0.21875986 -0.08268467
000210 4b bc b1 bc 17 e4 37 3e 1f 9c 4c 3a 79 d6 fb 3d
       -0.02169623 0.17958103 0.0007805246 0.12296767
000220 fb 28 60 be 0e 92 9b 3e 0a a8 c9 3c 78 1b de 3d
       -0.21890633 0.30384868 0.02461626 0.10845083
000230 9f 6f 3c be 78 27 b7 bd 1a 00 92 be 94 18 3f bd
       -0.18401955 -0.08943075 -0.28515702 -0.0466543
000240 81 3b ad 3e 62 09 fd be 58 59 8f 3d ad 45 a0 be
       0.3383446 -0.4942122 0.06999463 -0.31303158
000250 be c7 b5 bd 5c f2 49 3e c5 d2 84 3e b9 e9 0d 3e
       -0.088759884 0.19721359 0.25942054 0.1385869
000260 0a a9 b0 be ca fe 81 3e f0 14 37 3e fc 83 b1 bc
       -0.34503967 0.253897 0.17879081 -0.02166938
000270 0f fd fc bd 43 23 b5 be 0b 8f 24 bf e9 0f 0f bf
       -0.123529546 -0.35378465 -0.64280766 -0.5588365
000280 b6 46 a0 3e c4 90 c9 bd 4b 32 17 be ee 4b c7 be
       0.31303948 -0.09842065 -0.14765279 -0.38925117
000290 8f 48 37 be 9c 95 13 be c8 4b b4 bd f3 e2 48 3e
       -0.17898773 -0.1441254 -0.088035166 0.19617824
0002a0 c9 74 5f bd 69 2b d4 3e e3 be 3f 3e a8 b0 86 3d
       -0.054554734 0.4143937 0.18725161 0.06576663
0002b0 24 06 dd bd 8a d2 89 be 3c 57 cd 3d 91 55 7d 3d
       -0.10792187 -0.2691844 0.10026404 0.06184918
0002c0 e6 cd 2a 3f b8 3c 0c bf 0e c2 1c be 53 ae 5f be
       0.66720426 -0.5478015 -0.15308401 -0.21843843
0002d0 b5 62 07 be e2 f2 64 3e 52 5a 60 3f 53 60 aa 3e
       -0.13221247 0.22358277 0.8763782 0.33276615
0002e0 0b 1a 07 bf 59 e3 0f 3f 11 5c f0 3e e4 fb ad 3e
       -0.52774113 0.5620628 0.4694524 0.3398124
0002f0 d6 0c e1 3d 8d de 41 bf 81 7e dd be 9a b3 5d bf
       0.109887764 -0.7573021 -0.43260577 -0.86602175
000300 0f 45 d9 3d c0 62 84 be 2b b2 db 3d dc 6d b3 3e
       0.10608875 -0.2585659 0.10727342 0.35044754
000310 58 f7 2a be 65 bb 73 bd 10 06 b9 3e 94 6e 6b 3e
       -0.16695917 -0.059504885 0.36137438 0.22991401
000320 2e 89 32 bd 05 b7 de 3e b8 00 8c 3e aa 96 b4 3e
       -0.043587856 0.43499008 0.27344298 0.35271198
000330 3d 06 ae 3d 7c f9 f6 3c 9b 1a 6b be 60 6a a9 bd
       0.084972836 0.03014826 -0.22959368 -0.082722425
000340 1e 7e ad 3e a0 67 02 3d 38 89 ad bd fd 3a dc 3e
       0.33885282 0.031837106 -0.08473438 0.43013754
000350 78 f3 d2 be 62 d2 9f 3e 0a 49 04 3c 5e b0 69 be
       -0.41201377 0.31215197 0.0080740545 -0.22821185
000360 3e 9b 0b 3e 30 d4 dc 3d 06 c5 81 3d 54 52 0d 3e
       0.13633439 0.10782659 0.06336407 0.13800937
000370 2a da 70 3e 47 0c 50 be 88 a1 1e 3d c2 b1 70 bb
       0.23520723 -0.20317183 0.038728267 -0.0036727046
000380 d8 2a 46 3e 54 31 34 be 5d dd 88 3e 61 9f ea 3d
       0.19352281 -0.17596942 0.26731387 0.1145618
000390 2e 6b 08 bc 3e c8 af be cb 6a 92 3d 1e 6d 47 bd
       -0.008326335 -0.3433246 0.071492754 -0.048688047
0003a0 5a 4d 48 3e bd 8d 58 3e 43 a8 47 3e c9 2b 49 bd
       0.19560757 0.21147819 0.1949778 -0.049114022
0003b0 06 da 27 be 75 ac 9c be da cc 8c 3e a3 4e 5a be
       -0.16391763 -0.30600324 0.2750004 -0.2131906
0003c0 31 2e 6e 3f 9c ee dd be 99 0e 24 3d 4a 3c e3 bd
       0.9303923 -0.43346107 0.040052984 -0.110954836
0003d0 21 ac 58 be 91 83 34 3e ae 45 64 3f 3f d2 b9 3e
       -0.21159412 0.17628314 0.8916882 0.36293218
0003e0 2b a0 de bd c0 2a de 3e 0e be 18 3f 0e 57 10 3e
       -0.10870393 0.4339199 0.59665 0.14095709
0003f0 dd c2 84 bc 79 4e 74 bf 09 27 c4 be f6 52 5c bf
       -0.0162062 -0.9543224 -0.3831103 -0.8606409

net_list.0.weight_hh_l2 f4 [64, 16]
000000 2d ca 3b 3c 41 00 ef 3c df df 05 be 9b ca 3f be
       0.011461777 0.029174926 -0.13073681 -0.18729632
000010 79 ce cd be 40 15 91 3d 95 29 bb 3e 97 c6 18 bd
       -0.4019659 0.07084131 0.36555162 -0.037298765
000020 a1 3c 01 be 80 88 92 be b5 19 fd bd de 36 ba 3e
       -0.12620784 -0.28619766 -0.12358419 0.36369985
000030 a2 bf 8f bd 18 6c 80 3d a9 ec ba 3d 58 29 9c 3d
       -0.07018973 0.06270617 0.091271706 0.07625073
000040 48 07 de bd e5 b5 4a 3d 06 32 b8 be 43 56 41 be
       -0.108412325 0.049489874 -0.35975665 -0.18880562
000050 6f e7 92 bd 91 fa 8f 3d 36 f6 56 3c 32 00 af 3e
       -0.07173049 0.070302136 0.013120225 0.34179837
000060 8f 91 26 be 13 89 64 be fe 65 92 be f0 90 bd bc
       -0.16266464 -0.22317915 -0.2859344 -0.0231404
000070 b8 67 2a be 44 b2 1b 3e 2e 22 ea 3d 76 29 0c be
       -0.16641128 0.15204722 0.114323005 -0.13687691
000080 8b 20 28 bd 3f bf aa bc 85 d8 83 bd b4 46 72 be
       -0.04104666 -0.020843146 -0.06437782 -0.23659784
000090 f8 7f 84 be ab ad f4 3d 88 81 83 3e 91 0a 8a 3e
       -0.25878882 0.11947187 0.25684762 0.26961187
0000a0 4f d3 85 be e5 57 21 be f9 5d 73 bd 31 0f 91 3e
       -0.26137778 -0.15756185 -0.05941579 0.28331903
0000b0 95 22 e7 be 37 73 8e 3d 8b e2 99 be 0e 74 5a be
       -0.45143571 0.06955569 -0.3005565 -0.21333334
0000c0 fe 7b 0c be af 57 9b bc 1c 53 84 be 23 f8 d3 bd
       -0.13719174 -0.01896271 -0.25844657 -0.10350063
0000d0 08 a0 04 3e 63 2a 18 3e 86 8c ca 3d e5 36 4a 3c
       0.12951672 0.14859919 0.09890084 0.012342189
0000e0 a5 48 e8 3d 48 d9 57 be cc 8f 67 3e 63 86 5f bd
       0.11341981 -0.2107898 0.22613448 -0.05457152
0000f0 94 fc 7b be 20 48 bf 3d d8 46 bc be 9b f4 02 3d
       -0.2460807 0.093399286 -0.367728 0.031971555
000100 f9 43 72 be c1 48 83 3e 0b ea 32 3d 9a f9 1d be
       -0.23658742 0.25641444 0.043680232 -0.15427247
000110 5e 7e 8c bd 5f 6d 2f bd b3 ce bb bc 56 58 9d 3e
       -0.0686004 -0.042828914 -0.02292571 0.30731457
000120 c5 27 a0 bd 1c b1 93 be 03 df 84 3e da 1f a6 3e
       -0.078200854 -0.2884606 0.25951394 0.32446176
000130 4b 20 1b bd d7 dd 63 be 1b 1a 35 be 9d 2e 1a be
       -0.037872594 -0.22252594 -0.1768574 -0.15056844
000140 f5 39 36 be 7a 1f 35 bd 25 3e f9 3d 7d 34 e9 bd
       -0.17795546 -0.04421947 0.12170056 -0.113869645
000150 ea 14 b1 bd a5 50 fa 3d c9 8d 57 be 68 c1 3b 3e
       -0.08646567 0.12222413 -0.2105018 0.18335497
000160 9b 99 94 3d 1d ef 8c 3e 60 e0 dc bd eb 66 0c 3e
       0.072558604 0.2752618 -0.10784984 0.13711135
000170 0e ce 90 3e cf 6e 93 3d 60 53 20 be e4 98 85 bd
       0.28282207 0.071988694 -0.15656805 -0.06523302
000180 27 27 84 be 87 5f 35 3e 10 f0 26 3e c2 56 bb 3d
       -0.2581112 0.17712222 0.16302514 0.09147407
000190 37 73 e6 bd 6e 98 53 3d ed b3 3e 3e d9 14 cb 3d
       -0.11252444 0.05165904 0.18623324 0.09916086
0001a0 3b 9b d3 3d 59 35 ee 3c ae d9 2e 3d e5 22 a7 3e
       0.10332342 0.029078173 0.042688064 0.3264381
0001b0 11 52 25 3d a1 3a 89 be ce bf 56 be d3 c9 b9 be
       0.040361468 -0.26802543 -0.20971605 -0.36286792
0001c0 5d 8d 1e bd 9d b4 82 3e e0 74 21 be 1d df 1d be
       -0.038709033 0.25528422 -0.1576724 -0.15417142
0001d0 de d0 16 be c5 06 c0 3e 70 ca aa 3d dc 9c 6c 3d
       -0.14728114 0.37505165 0.08339393 0.05776678
0001e0 95 77 1f be 8a 2e 6e be 07 24 19 3e 3f 1e 5d 3e
       -0.1557296 -0.2325994 0.1495515 0.21593569
0001f0 3e ae a6 3d 4f fa 2f be 2f d6 2f 3d 96 79 36 be
       0.08138703 -0.17185329 0.04292887 -0.17819819
000200 0e bd b6 3d 24 b7 90 3e 68 da 9f be 13 ae cd 3d
       0.08922778 0.28264725 -0.31221318 0.10042968
000210 f8 21 c2 3d 45 93 85 3e ba c4 4f 3e b7 51 3d 3e
       0.09479135 0.2608892 0.20289889 0.18488203
000220 8a 7e 3d be c8 fa 08 3e ab cc f1 bd e6 92 f3 bd
       -0.18505302 0.13376915 -0.118066154 -0.11893253
000230 a1 91 9a 3c 04 b8 dc 3d 94 90 7e 3e 88 5f 19 3d
       0.01886827 0.10777286 0.2485984 0.03744462
000240 af 20 dc bd 81 f4 2c 3e a1 f4 46 bd 7f 40 ec bd
       -0.107484214 0.16890146 -0.04857314 -0.11535739
000250 1a ce b1 be 1e 7d ab 3e 29 08 28 3e 44 b0 09 3d
       -0.34727556 0.33493894 0.16409363 0.033615366
000260 5a 54 c5 be 67 ac a0 be a9 ea 95 be 1e a0 85 3d
       -0.38540918 -0.31381533 -0.29280594 0.065246806
000270 11 47 03 3e 07 c2 91 3c e0 57 82 bb 75 91 e1 3b
       0.12820078 0.017792715 -0.0039777607 0.006883795
000280 b3 dd 2c 3d 86 c9 8d 3e 4a 45 98 bd 7b cf 93 be
       0.042203616 0.27692813 -0.07435091 -0.28869233
000290 83 44 39 be 6b 3e 86 3d 4a 66 a7 3b 0b f2 81 3e
       -0.18092541 0.06554874 0.0051086294 0.25379977
0002a0 bf d4 6a be 95 c1 d4 bd af fc bc bd 74 30 a5 3e
       -0.22932719 -0.10388485 -0.09227883 0.3226353
0002b0 ff 9e 8c bd 78 0c 93 3d 65 6b 89 3d 4b 3a ce 3c
       -0.068662636 0.071801126 0.06709937 0.02517428
0002c0 37 7d 9a 3d 80 20 3f 3e d1 d2 11 be f7 aa a3 3d
       0.07543414 0.18664742 -0.14240576 0.07991593
0002d0 00 38 9f be e2 02 b2 3e cd a1 63 3d 18 a2 d2 3e
       -0.31097412 0.34767824 0.055574227 0.41139293
0002e0 22 f9 ae be 2d 75 cd be dd bb 26 be 9f 7d bb 3e
       -0.34174448 -0.4012846 -0.16282602 0.3661928
0002f0 00 40 dc bd 0e f4 42 bd 09 46 5f be df 8c ae bd
       -0.107543945 -0.04759603 -0.2180406 -0.08522963
000300 7f dd 24 3e 05 3c 1f 3d 15 72 aa bd 1b f0 0a 3c
       0.16100119 0.0388756 -0.08322541 0.008480097
000310 4d 6c 2a bc 8c ac 01 3e 83 50 9c 3e 0f 3e c4 3e
       -0.0104017975 0.12663478 0.30530176 0.38328597
000320 6f 29 8c be b2 34 cf be 10 60 92 be a7 ce a1 3e
       -0.2737536 -0.4046989 -0.28588915 0.31602976
000330 ae dd 44 3e 27 5a 8a be 06 90 e6 bd 99 a8 c0 be
       0.19225189 -0.27021906 -0.11257939 -0.3762863
000340 ec 93 c3 3c c1 fd 8d 3d ac da 13 bd a5 f8 2d be
       0.023874246 0.06933165 -0.036097214 -0.16989382
000350 3f 2a 4f bc b1 de d5 bd 22 56 7b 3d 21 d1 9c bd
       -0.01264435 -0.10442866 0.06136144 -0.07657076
000360 21 6a d3 3c f7 9b ad bd 7c 4c 95 bd d1 81 da bd
       0.025807442 -0.084770136 -0.07289979 -0.10669292
000370 cc 1f 24 be ae 0d c9 be dd 80 9c 3d 29 f2 e7 bd
       -0.16027755 -0.3926825 0.07641766 -0.11325485
000380 d7 af 77 be 1e e4 a4 3e b9 d3 8d bd 44 49 40 be
       -0.24188171 0.3220529 -0.069251485 -0.18777949
000390 92 e3 4a be 65 33 c0 3e 6d 07 63 3e ad 6d b0 3e
       -0.19813374 0.3753921 0.22170801 0.34458676
0003a0 d8 02 9c 3c 39 c4 07 3d 0a dc 87 3c cd 9b 3b 3e
       0.019044325 0.033146117 0.016584415 0.18321152
0003b0 a5 d0 f2 bd 18 ca b6 be 8d b1 ad 3d 3a 69 8c be
       -0.11856202 -0.3570106 0.08481131 -0.27424031
0003c0 db 20 49 bd 68 8e e4 3e f6 d5 9a be 9e 60 c9 3c
       -0.0491036 0.44639897 -0.30241364 0.024582203
0003d0 ea 9d a7 be ae d8 2a 3e 23 2b 81 3e e4 c7 03 3f
       -0.32737666 0.16684219 0.25228223 0.51476884
0003e0 08 62 ac be 32 d5 92 be ef 31 f6 bd 9d 3b e2 3e
       -0.33668542 -0.2867828 -0.12021243 0.44186106
0003f0 a7 a9 88 be bd 29 0a 3e 16 2f 2d be 64 30 c4 be
       -0.26691934 0.13492484 -0.16912493 -0.3831817
