QIENetV1_0_0/QIENet_FC2.pth (torch, 31315 bytes, 17 tensors)

net_list.0.weight_ih_l0 f4 [64, 16]
00000000: 5af9 68bd 8f7f cabe d4a9 b9bd a162 903e
00000010: cf69 8abe 3d65 febe 43dd edbe 9062 7d3d
00000020: 213c 583e fe7c 25be 403c 753d 4da8 2c3e
00000030: f6a3 b0be 1f0c 193f 1c9d 4e3f c3d4 903a
00000040: 89df 25bf 5974 bbbe 91b1 4fbe 58ee 5abf
00000050: 1d71 1abf 2394 c2be c9d2 50bf 3e8e 19be
00000060: 9817 853b 8501 41bf 5254 933d f224 163f
00000070: 6dd4 12bf 5f82 613f 180d db3f 3fbe 013f
00000080: 1952 3bbd e0d9 3a3e ce9f ad3c c799 6e3e
00000090: 57f3 2d3d a4a2 d73d f814 43be ddec 2bbc
000000a0: 8130 383e 63d9 0bbe 19d7 da3e e44a 62be
000000b0: 3998 e23e 1f4a fc3c a203 8fbd de27 a33d
000000c0: 2090 39bd 7ba0 59bd e025 03be 1823 80be
000000d0: c194 fa3b e994 853b c409 57be 010d 04be
000000e0: 334f b93d a6bb a63e e0c1 b83c 5009 a53e
000000f0: 95bb 3cbd e1a3 0dbd be34 873c eccb c93e
00000100: ce4c 893c 1644 923b 1105 f3bc d552 33be
00000110: a270 013c 1a6f bcbc 8d9c b53e 0f1d 0c3f
00000120: e562 473e b943 9a3e e037 afbd 24c3 46be
00000130: 60ba 303e 9ad2 843e 6c91 1c3f 6a12 793d
00000140: 652f 83bb c5fc d63d 10b9 01be a350 9cbe
00000150: 2896 ad3e bd0b a23d 7899 2c3e 4d99 5dbe
00000160: 78d2 80be b54a 01be c8ba d73e 6a06 6e3d
00000170: 001f d13e 80c7 24bb ad90 9f3e 4de6 833e
00000180: 3171 23be ffa3 a13d f743 10bc 961c 1e3d
00000190: ae6c 3d3e 0a7d c3bd 4fc0 c53e 5b9c 68bd
000001a0: 9a94 bf3d f0ae 073e 3558 2cbe ee72 633e
000001b0: 084a 4bbd 8041 c3bd 3bca 853e 7a77 bc3b
000001c0: c9c2 dcbe a535 18be 7672 2bbe 5a36 31bd
000001d0: c349 13be 0b53 3bbd 6339 143f 6bed a83d
000001e0: 1b14 68be 5701 9abe 5ba0 01bf a79b ea3e
000001f0: ed94 a2be 3ffa 2a3d c828 573e 540b d5bc
00000200: 1eeb cfbb a6ae 55be 682e e13d 67d2 63be
00000210: 3ea2 d2bd f56c 8a3e ef9c f43e 8256 17bf
00000220: ec2b f8be fa92 323b 1621 e23e 0add 3e3e
00000230: 254a c83e dbbb 1e3e 1897 123d 38ec 91bd
00000240: 0403 8abe ddc5 e2be 83fc 88be 359a 33be
00000250: a54f 9bbe 817c 8ebe 6ead b6bd d4af 893d
00000260: 587b 8dbe e4af 003d 839a a13e 4d1b c4bc
00000270: 3e51 a83e 9968 5e3e f4f2 a83e 28ab 24bd
00000280: 23fe 5fbe 760d 29be a8b6 fc3d 90e4 02bc
00000290: 8198 c7bc 7182 0dbe b2fc 163e f7d6 a3bd
000002a0: 0b01 1cbe 6c27 0cbe eee2 7b3c 2e1a 513d
000002b0: cd91 263e 8911 09be e1e8 93be e34e 7f3e
000002c0: 929a ef3d 1ad0 66bb 3f30 8cbe 46e4 353e
000002d0: 67a6 62be a67d 05bd 38cc 98bf 1147 873e
000002e0: 5773 01be 876a b2be ff35 0e3d 1150 1bbb
000002f0: f6ca 95bd 6e31 103f 1f70 8f3f c137 093e
00000300: 56c3 d3bd 4ae1 b4bd 006c cabe 3962 fb3d
00000310: f7bb 9cbe f1b7 b4be 9a4e 01be c6e5 e2be
00000320: c7a4 acbe 7e28 acbe f0d2 303e ac22 113d
00000330: bf54 aa3e ef6b a7bc fd17 b9be 4244 65be
00000340: 7b1f b63c fbd1 353e d0d6 3f3e f0a9 07be
00000350: 3230 5abd e44a 443e 2371 2bbf 913a eabe
00000360: a0f3 3dbf 90ca 2a3e d450 0a3f 4849 323f
00000370: ca93 033f 8518 033f 097e 9dbc 0d82 37bd
00000380: f359 87be 25d9 64bd 936d 9fbd 7f62 c7be
00000390: f275 85bd ac5c 9abe 9cfb 83be a244 a13e
000003a0: 3ef4 70bd e838 c83e c0fe 80bd 9dd3 fc3d
000003b0: 70ea 693e a471 89ba 2467 31bd 716e af3e
000003c0: d94a 39be 4312 74be 98a9 f8bc d90a c43e
000003d0: ada5 943d 99fa 9d3d e7e3 c4bf 70ba 663e
000003e0: 9dba 123e c99e 87bf abf5 103f 168b 063f
000003f0: 2b98 d13e e2ff e93d 0448 e7be 36e3 a1be
-0.056878425 -0.39550444 -0.09065595 0.28200248 -0.2703385 -0.49686614 -0.46457872 0.061861575
0.21116687 -0.16160962 0.059871912 0.16861077 -0.34500092 0.5978412 0.8070848 0.0011049736
-0.6479421 -0.36612204 -0.2028258 -0.85519934 -0.6032885 -0.38003644 -0.8157163 -0.14995667
0.0040616505 -0.75392944 0.07193817 0.58650124 -0.57355386 0.88089556 1.7113371 0.5068092
-0.04573259 0.18247175 0.021194365 0.23300849 0.042468395 0.10529068 -0.19050968 -0.010493484
0.17987253 -0.13657145 0.4274223 -0.22098881 0.44256762 0.030797062 -0.06983115 0.079665884
-0.045303464 -0.05313156 -0.12807417 -0.25026774 0.0076471274 0.0040765894 -0.20999819 -0.12895586
0.09048309 0.3256504 0.022553384 0.32233667 -0.04607733 -0.034580115 0.016504642 0.39413393
0.016760256 0.004463683 -0.029665502 -0.17512067 0.007900389 -0.023002196 0.35471 0.5473184
0.19471319 0.30129793 -0.08555579 -0.19410378 0.17258596 0.25941926 0.61159396 0.060808577
-0.0040034526 0.10497431 -0.12668252 -0.3053027 0.33903623 0.07912395 0.16855419 -0.21640511
-0.25160575 -0.12626155 0.4213469 0.058111586 0.40843964 -0.0025143325 0.31165066 0.25761643
-0.15961148 0.07892608 -0.008805267 0.03860148 0.1849849 -0.09545334 0.38623282 -0.056789737
0.093545154 0.13250327 -0.16830523 0.22211811 -0.04963115 -0.095339775 0.26130852 0.0057515474
-0.4311736 -0.14864214 -0.16742882 -0.043264724 -0.14383607 -0.045733493 0.57900065 0.08248409
-0.2266392 -0.30079147 -0.5063531 0.45821878 -0.31754246 0.04174256 0.2101165 -0.026006378
-0.006345167 -0.20867404 0.109951794 -0.22248231 -0.102848515 0.27036253 0.4777598 -0.59116375
-0.4847101 0.002724825 0.44165868 0.18639007 0.39119068 0.15501349 0.035788625 -0.07125133
-0.26955426 -0.44291583 -0.2675515 -0.17539294 -0.303342 -0.27829364 -0.08919798 0.0672299
-0.27633166 0.031417742 0.31563196 -0.0239388 0.32874483 0.21719588 0.3299786 -0.04020229
-0.21874289 -0.16509041 0.123395264 -0.007989064 -0.024364712 -0.1381929 0.14744833 -0.07999986
-0.15234773 -0.13686913 0.0153739285 0.051050358 0.16266556 -0.13385595 -0.2888861 0.24932437
0.11699404 -0.0035219253 -0.2738056 0.1776286 -0.2213379 -0.03259053 -1.1937323 0.26421407
-0.12641655 -0.348469 0.034719463 -0.0023698846 -0.07314102 0.56325424 1.1206092 0.13400175
-0.10339992 -0.08832033 -0.39535522 0.12274594 -0.30612156 -0.35296586 -0.1262764 -0.44315928
-0.33719465 -0.33624643 0.17267966 0.035433456 0.3326778 -0.020437209 -0.36151114 -0.2238932
0.022231808 0.17755882 0.18734288 -0.1324842 -0.05326862 0.19169194 -0.6696951 -0.45747808
-0.7419987 0.16678834 0.54029584 0.6964307 0.51397383 0.5120929 -0.019225137 -0.04480176
-0.26435813 -0.055871148 -0.077845715 -0.38942334 -0.06516637 -0.30148828 -0.257779 0.31497675
-0.058826678 0.39105916 -0.0629859 0.123450495 0.22843337 -0.0010486138 -0.043311253 0.34263948
-0.18094958 -0.23835091 -0.030354306 0.38289526 0.07258163 0.07713813 -1.538205 0.22532058
0.14329 -1.0595332 0.5662486 0.5255598 0.40936407 0.11425759 -0.4517213 -0.3161866

net_list.0.weight_hh_l0 f4 [64, 16]
00000000: c4da 9fbe 6137 923e 69a9 1b3e 8b61 183e
00000010: b5ec 36be 60d8 833d 7610 5dbe 47fd 19be
00000020: dc8b 2dbd 0b38 4e3e de96 15bc 444f ba3e
00000030: 9695 753e 6043 883d 2541 2bbd 5ade b1be
00000040: 83e7 febe cd5e 48be 864f 403e 0dde 613d
00000050: 6539 853e c89a ea3c 6f07 a4be 532f 4b3d
00000060: 3473 5e3e 1f5d 28ba b366 893e 8fdd 343e
00000070: 9ae9 9f3e f5a8 0d3e 79d7 253e 2475 83be
00000080: 181c 3e3e 41cb 8e3e 6bad b13d ad52 4ebe
00000090: 612d 90bc 45e6 2a3e c756 103e 09b3 1e3d
000000a0: 90d7 86bd 828a ad3e 8459 c93d 2dd0 07be
000000b0: bb92 0abe baf1 8c3d f9d7 38be b511 8f3e
000000c0: 9e21 003e bb33 843e f52f 793e 10f9 bebd
000000d0: 609f 81be 866f 5ebd 2b9f 3d3d c123 e63e
000000e0: 0b79 bfbe fac5 1a3e ff04 11bd e26c f8bd
000000f0: b67b 773e 1273 34be 0969 32be 09c3 5abe
00000100: 831d 5fbd 6b9d 343e 945f a03e fbcc 38bd
00000110: 1d68 173d cdc6 1e3e ac47 883e d2bc da3e
00000120: 0d64 5abe 37ae cbbc 702f 43be 1222 36be
00000130: 1ffb 133e 0aca f23d 08d5 cabe 4a41 42bc
00000140: e66a 57be 38ac be3e fdf2 863e 6040 25be
00000150: 06fa 68be 7a3d b3b9 9cef 0b3f 7166 343e
00000160: 3087 9bbe 6270 fa3e ff54 05bf 72e6 71be
00000170: 0df2 683e 49b9 7f3e 0eef 3cbe 89a1 3dbe
00000180: aa52 48be 6a67 663e 4be7 983e b759 04bf
00000190: d174 72be 520a 133e 1cf6 b13e e1e4 c03e
000001a0: 9c87 bebe d948 a03d 5a4d f3bd ab42 853e
000001b0: c7c6 ff3d 84cd 0ebe ab7b c0be a308 87be
000001c0: 40aa 7a3d 00a3 6a3e aa0b 673e 51ac c5bd
000001d0: 06ee 783d 3c9e 29be 6156 a53e c95b 8dbe
000001e0: 5fb3 14be a0de 51bd 152a 4b3e 8f21 283d
000001f0: a1ea 2cbc 55d0 5c3e 216a c2bd e77b 9f3d
00000200: ed9d d63d 0ad5 393e 13ca df3e 9d3a e8be
00000210: 1cd7 d8be 3755 313e d1a8 aa3d 540e 063f
00000220: 435d 86bd 068e f33d a6d0 8dbe e741 9bbe
00000230: f706 9a3d de96 a23e 9815 00bf 9e88 5a3e
00000240: ab82 21bd 0c6c c33e da25 f53e d9c1 9abe
00000250: cc71 f8bc dd3e 68bc 434f 603e 2a22 453e
00000260: 7c56 84be 4d1b 273e 3913 a3bc f4c1 14bd
00000270: 95d2 30be 2216 dcbd b64c f8be 9cdf 7fbe
00000280: e5b7 0cbd eee0 e23d 3565 1c3f 1541 d3be
00000290: 32d5 cebe 058a 35bc 1ae9 043e 09ee 703e
000002a0: b167 2fbe 61d3 093e 1158 65be b3d9 2bbe
000002b0: d0a8 18bd 7665 df3d 17b6 2dbe 5339 40be
000002c0: 22fd 1ebd 940a 343e 9b92 bb3e 42f0 0b3e
000002d0: 690f 303c 4a1f 3fbe ea65 0fbe f814 1f3d
000002e0: 526d 3ebd d196 77be f3ed 79be 4306 bb3d
000002f0: c26e 443e ef1d d43e f299 48bd 2add bf3c
00000300: 8b02 293d f166 533d 20f5 3fbd 8840 3dbe
00000310: ce34 14be 4bd2 f53e a740 a33d 0caf 213e
00000320: 19f2 1d3e 21ee 9dbd 863b 003e bfa5 12bd
00000330: b8ab 2b3e a203 0b3d 3d06 093e b561 06bb
00000340: ac81 b7be 8053 453e c0e8 2e3e 4d46 c33e
00000350: 022d 8c3e f384 fc3d bf18 003d 0b96 86be
00000360: 0f35 44be ad42 42be 13af 9f3d be41 243e
00000370: 1df8 67be 9e62 c1bd 0678 d43e baba 0dbd
00000380: efaa 27be 4024 fe3e fa06 cf3e f2fe bcbe
00000390: e680 c9be 225a ed3e eb96 3b3e f2d2 d13e
000003a0: be0a 0dbf 310d d23e 6d30 cdbe 4f62 c0be
000003b0: 18dd a53e 5f62 85be bd4c ccbe 7421 30be
000003c0: 8101 323d 08eb d6be bad8 7dbe f3f2 35bd
000003d0: 7666 3b3e 0a90 90be a42a 2e3d cf31 95be
000003e0: 4f42 4a3d d279 eabd 9155 dd3d c679 66be
000003f0: 79b0 2fbd 1abf 40be a9ca a63e ca27 19be
-0.31221592 0.28557876 0.15201344 0.1488096 -0.17863734 0.06437755 -0.2158831 -0.15038024
-0.04236971 0.20138566 -0.009130208 0.363886 0.23982844 0.06653476 -0.041810174 -0.34739953
-0.49786004 -0.19567414 0.18780336 0.055143405 0.2602035 0.028638259 -0.3203692 0.04960568
0.21723634 -0.00064225675 0.26836166 0.17662643 0.3123291 0.13833983 0.16195478 -0.2567531
0.18565404 0.27889445 0.08675655 -0.20148726 -0.017599763 0.16689403 0.14095603 0.03874496
-0.06584084 0.33894736 0.09831527 -0.13263007 -0.13532536 0.06882043 -0.18051137 0.27943197
0.12512824 0.25820717 0.243347 -0.09324849 -0.25316906 -0.054305576 0.046294373 0.44949153
-0.37397036 0.15114585 -0.035405155 -0.12130143 0.24168286 -0.17622021 -0.1742288 -0.21363463
-0.054471504 0.17638175 0.3132292 -0.04511736 0.036964525 0.15505524 0.2661718 0.42722183
-0.21327229 -0.024863346 -0.19061065 -0.17786434 0.14451264 0.11854942 -0.39615655 -0.011856386
-0.21036872 0.37240767 0.2635726 -0.16137838 -0.22751626 -0.00034187344 0.5466249 0.17617203
-0.30376577 0.48913866 -0.5208282 -0.23623064 0.22748585 0.24973024 -0.18450567 -0.18518652
-0.19562784 0.22500387 0.29863963 -0.51699394 -0.23677374 0.14359406 0.3475808 0.3767462
-0.37212837 0.078263946 -0.11879988 0.26027426 0.12489086 -0.13945585 -0.3759435 -0.26373777
0.06119752 0.22913742 0.22563043 -0.09652007 0.06077387 -0.16564268 0.32292464 -0.2760909
-0.1452155 -0.051237702 0.19840272 0.04104763 -0.010553987 0.21563847 -0.09492899 0.07787304
0.10479341 0.18147674 0.43708858 -0.45357218 -0.42351615 0.17317663 0.083329804 0.52365613
-0.06560757 0.11892323 -0.2769825 -0.30323717 0.0752086 0.31755728 -0.5003295 0.21341178
-0.039431255 0.3816837 0.4788044 -0.3022602 -0.0303277 -0.014175144 0.21905236 0.19251314
-0.25847232 0.16319008 -0.019906627 -0.03631778 -0.1726783 -0.10746409 -0.48496026 -0.24987644
-0.034355063 0.11078058 0.6109193 -0.4126059 -0.4039703 -0.01108027 0.12979546 0.23528303
-0.17129399 0.13459541 -0.22396876 -0.16782264 -0.037270367 0.10908024 -0.16963993 -0.18771867
-0.038815625 0.1758216 0.3663529 0.1366587 0.010745862 -0.1866428 -0.14003721 0.038838357
-0.046490975 -0.24178626 -0.24407177 0.09132054 0.19182876 0.41429088 -0.04897494 0.023420889
0.04126219 0.051611844 -0.04686463 -0.18481648 -0.14473268 0.48012003 0.07971316 0.15789431
0.15424384 -0.07711435 0.12522706 -0.0358026 0.16764724 0.03393901 0.13381286 -0.0020505015
-0.3584112 0.19270134 0.17080975 0.38139573 0.27378088 0.123300456 0.0312736 -0.2628635
-0.19160865 -0.18970747 0.07797065 0.16040704 -0.22653241 -0.09442638 0.4149782 -0.034601904
-0.163738 0.49637032 0.4043501 -0.36913258 -0.39356154 0.46357828 0.1831929 0.4098125
-0.55094516 0.4102569 -0.40076008 -0.37575004 0.32395244 -0.26051614 -0.39902297 -0.17200261
0.043458465 -0.4197619 -0.24789706 -0.044421148 0.18300804 -0.28234893 0.042521134 -0.29139563
0.049379643 -0.11449017 0.10807336 -0.2250739 -0.042892907 -0.188229 0.32576492 -0.14956585

net_list.0.bias_ih_l0 f4 [64]
00000000: d0ac adbd 9ebe 543d b9c1 893e 3d46 3a3f
00000010: db78 fdbc 84b3 153f c3d9 c83e eccd 233c
00000020: 3a89 4d3e 01ce ba3e 9150 8e3e 49ce ad3d
00000030: 1823 2cbe a468 d13d b8d2 893f d0c6 a9be
00000040: bbe2 39be 9e32 f33d cf0d 423d 1fa9 db3d
00000050: 3f79 fbbd 1ff9 9bbe f9e5 ac3e a364 bebd
00000060: 6b78 75be e3dd 0fbb b0f1 4abd 3947 9bbc
00000070: 7260 65be be27 afbe 9f3d 223e f81e b6be
00000080: 37ea 963e bf04 373d cc23 10bd 4e9f 27bf
00000090: 15a5 8ebe 8a17 ed3b 5d9b cd3e cdb4 c33d
000000a0: 0b56 1fbe 6b68 9b3d a0a0 a93d 27b2 f5bc
000000b0: 21a5 1d3e 613d 16be 93a6 37bf 1a36 0abe
000000c0: af6a fe3d 9138 6d3e 851d ab3d 4860 003f
000000d0: de2a c23c 37bb 093d c876 5c3e de2f 523e
000000e0: bbd8 2e3e c708 cd3d 0053 bb3e c66f a63e
000000f0: e969 0cbe 36bd 4cbe e58b 913f 156e 3f3e
-0.08480227 0.0519396 0.2690561 0.72763425 -0.030941417 0.58477044 0.3922864 0.009997826
0.20071879 0.36485294 0.27795842 0.084866114 -0.16810262 0.10225037 1.0767431 -0.33159494
-0.18152897 0.11874889 0.04737645 0.10725617 -0.12278985 -0.30463502 0.33769205 -0.09296539
-0.23971717 -0.0021952323 -0.049546897 -0.01895486 -0.22400072 -0.34210008 0.15843819 -0.35570502
0.29475567 0.04468226 -0.03519039 -0.65477455 -0.27860323 0.007235472 0.40157595 0.095559694
-0.15560167 0.075882755 0.0828259 -0.029992176 0.15395023 -0.14671852 -0.7173855 -0.134972
0.12422692 0.2316611 0.0835524 0.50146914 0.023702081 0.033625808 0.21529686 0.20526072
0.17074864 0.1001144 0.3658676 0.3250715 -0.13712277 -0.19994053 1.1370817 0.18694337

net_list.0.bias_hh_l0 f4 [64]
00000000: 9197 cc3d 6771 0cbe 134a 943d 8bd7 b43e
00000010: d055 223d d2b7 633e 886b 723e 2dff 043e
00000020: 8c25 5d3e 39d1 9c3e 8e24 ac3e 963b 933e
00000030: 605f 313e e956 bebe eaad 933f abc4 3b3d
00000040: 19ba 84be a292 383c 36cf 95bd 76b9 b63e
00000050: 1216 bbbe dcfe dfbd 30f0 2a3e 950a e93d
00000060: 5c2f c43d 0f1f c4bd 4bb3 623e 59de 6ebe
00000070: 62b0 a7be 7daa d0be 1a15 2c3e 1bdf babe
00000080: 043f 063c ade5 753e 83e5 503e 1b04 a9be
00000090: 43e7 7a3d 5d58 a3bd d7a3 283f 52d2 0a3e
000000a0: 0ce8 9cbd 6441 983e d2d8 c8be 2cb0 b43d
000000b0: af38 35be 2f87 31bd 4611 02bf d4f4 48bd
000000c0: bb6c 4dbd 38e9 0b3f 359c 953d 9c72 613e
000000d0: 3898 af3e 6715 973c d5ff e73e 9d61 163e
000000e0: 9e09 983e fd9b dabd add5 163f 72c9 f73d
000000f0: fb55 e43d 330d c03d ceec 943f 232c 853e
0.099898465 -0.13715135 0.07240691 0.35320696 0.03963262 0.2223809 0.23673832 0.12987967
0.21596354 0.30628374 0.3362164 0.28756398 0.17321539 -0.37175682 1.1537449 0.045841854
-0.2592323 0.011265429 -0.07314913 0.3568837 -0.36540276 -0.109372824 0.16693187 0.113789715
0.095793456 -0.095762365 0.22138707 -0.23327006 -0.32751757 -0.40755072 0.16804925 -0.3649834
0.008193735 0.24013396 0.20400052 -0.33010945 0.061255705 -0.07975838 0.65875 0.13556793
-0.07661447 0.2973739 -0.3922792 0.088226646 -0.17697404 -0.04334181 -0.5080761 -0.04906161
-0.05015252 0.5465274 0.07305185 0.22016376 0.3429582 0.018442823 0.45312372 0.14685674
0.29694837 -0.10674284 0.58919793 0.120989695 0.11149212 0.093775176 1.1634767 0.26010236

net_list.0.weight_ih_l1 f4 [64, 16]
00000000: fb14 31be 633d 2a3f 0595 be3e 4595 d0be
00000010: cafa 89be 501e d13e 1c78 a03e 96e4 d23e
00000020: 9abe bdbe 9e4e ef3d 015c f1be 6a70 00bf
00000030: 15fb 34be f9e4 afbe 9d2d 0abf 39fc 00be
00000040: 2927 a6be 0968 a53e 2277 e33d 445a 2abe
00000050: e846 4bbc 9aac 2f3d 6412 1f3e fa73 b13e
00000060: 4b16 c9bd 6fc0 803e 2cef bf3e 5cdb 32bd
00000070: b821 563e f6c2 f7be d170 e3be 4ebc 89be
00000080: 54a2 4bbc 7e5c b33e 97e7 083f adbf 44be
00000090: 5764 9abe 3407 a83d 4300 e13e 6c67 383e
000000a0: 018f 91be 4ec6 a13e 82e1 f9be df81 ffbd
000000b0: a4f7 40be 814c af3e 104e 24bf 27e1 adbe
000000c0: d17e d4be cc42 b63e 5d69 a93d f232 6bbd
000000d0: 63f6 333e db3f 4c3e 10df 2c3e ee1f f6bc
000000e0: 7c4b 57be 253a 513e 310d b23d 4b58 84bd
000000f0: 9fe4 373e f09e 8abe 359d 2dbe cfbc a83d
00000100: 791a b9bd bdb6 483f 1d14 0f3f 2a0c a5be
00000110: febd 83be a889 23bf b2d0 053f 2cf4 d0bd
00000120: fc5d d23d cf57 353f f1ec 153e 8b73 fbbe
00000130: 7a2d 93bd 8ff1 0abf 9eaf fabe 814b b4be
00000140: 51c5 843e 382e 9e3e 347a 6b3d c3c7 06bf
00000150: 5e0b 17be d454 08be b159 073e 5b0b 7c3e
00000160: f312 b5bd 52d5 633e b503 8abe eddf 543d
00000170: 4902 b3be 4f5d edbc f9e8 e2be 4ac6 e0be
00000180: 9b94 de3d d21b 913e 5f25 bb3e 758f bcbb
00000190: d275 e5bd cb63 52be 9108 923d 5acc 213e
000001a0: fc36 363d 87a2 553e 0a7e 4b3d d2a6 b5be
000001b0: 780f 5a3e 89e8 38bf c13e c7be e9c2 8abe
000001c0: 6689 e8bd 729b b93d 3f6d 7c3d 65f0 25be
000001d0: 3bbe afbe 3e73 27be 598e 793d 598a 91bd
000001e0: 0c44 aebe 86b6 3c3e 94d5 90be f6c5 dbbe
000001f0: 9223 7cbe eef9 08bf e3fe 5abe 9dc9 2dbf
00000200: 1419 1a3d c84b 103f 7401 c13e 290d 4bbf
00000210: 707b 2dbe b436 febe 9fd3 c23e 4c96 0c3f
00000220: 1fbf 813d 08e9 383f 138b 1dbe 8a80 24bf
00000230: 387b 2dbd 0cff 0dbf 9c7c 4fbf cd4b 8abe
00000240: 5d81 89be 6143 2e3f 87ed 293f 4fec bebe
00000250: 31d1 453d e28d 073f a0ed 813e 6e98 90bd
00000260: a9f0 6bbd 8e12 cd3e 73c4 c6be faa4 33bf
00000270: e365 d0be a95d bebc f59c 2cbf 480b 34be
00000280: f4a5 d83e 4b6f 983e 50c0 333e 73f0 46bf
00000290: 5235 babd 0e2d 01bf ab4f bd3e 1f18 953e
000002a0: 0e81 5e3e 8f23 333f b896 a2be d696 13bf
000002b0: 695e efbe 1d69 99be 90be 6bbf a90e e2be
000002c0: ab86 813e 3895 ce3e aa76 fa3e 6082 25be
000002d0: f782 7ebd 140e 9bbe 5efc a73e e43a cc3e
000002e0: c7fb 70be 90f2 1a3f f44a 1fbf 0a77 49be
000002f0: 22a3 0bbe b200 febd 8dae 73be 6fae 153e
00000300: 558d d8be 4082 da3e 95a6 3a3f bbe1 a7be
00000310: 0a9a c53d 59d8 b83e b7c5 003f d136 123e
00000320: 8535 85be 4aae 093f 8af3 c2bc 4367 7dbf
00000330: 4438 93bc ac66 01bf 4eb4 15bf efd9 94be
00000340: b937 a03b 8eeb 513e 9a07 a13e 018c 5d3d
00000350: d948 20be b632 acbe 9086 223e d811 5cbd
00000360: 5810 c9bd de2f 8d3e f3b6 c2be 8632 ffbc
00000370: 92ba d3be 37e1 6a3e ba21 aabe abc7 24be
00000380: 70e9 bf3d d47c 283f fe2c 973e 84df febe
00000390: c4a0 5abe 573e 4d3f 8472 143f 5627 7b3d
000003a0: a8f8 7cbe d877 453f 5f43 d6be a830 15bf
000003b0: 1518 283e 7a6f f5be d82c bfbe 32a9 c5be
000003c0: 2964 dfbc 7bf4 253f 4da2 dc3e d360 3abe
000003d0: c38f e53d 12a6 d83e 212e 013f 0e13 c13e
000003e0: 8f76 76be f63f 9f3e 0f0e 6cbe e333 89bf
000003f0: 28c4 94bd 7cd2 13bf a290 20bf f313 6a3d
-0.1729316 0.6649992 0.37223068 -0.40738884 -0.2694915 0.4084344 0.31341636 0.41190022
-0.3705948 0.11684917 -0.47140506 -0.5017153 -0.17673905 -0.3435438 -0.5397585 -0.12596215
-0.32451752 0.32305935 0.11106707 -0.16635996 -0.012407042 0.042889215 0.15534359 0.34658796
-0.09818705 0.25146815 0.3748716 -0.04366623 0.209113 -0.4839093 -0.4442201 -0.26901478
-0.012428839 0.35031503 0.5347838 -0.19213744 -0.30154678 0.08204499 0.43945512 0.18008202
-0.28429416 0.31596607 -0.4880486 -0.12475943 -0.18844467 0.34238055 -0.64181614 -0.3396084
-0.41503003 0.35597837 0.082720496 -0.057421632 0.17574458 0.19946234 0.16881967 -0.030044522
-0.21024889 0.20432337 0.08693922 -0.06462153 0.17958306 -0.27074385 -0.16954501 0.082391374
-0.090382524 0.78403836 0.55890065 -0.32235843 -0.2573089 -0.6388192 0.5227157 -0.10202822
0.10271832 0.7083711 0.14641167 -0.4911159 -0.07186408 -0.5427484 -0.4896211 -0.35213855
0.2593179 0.30894637 0.05748959 -0.5264856 -0.1475043 -0.1331361 0.13217808 0.24613707
-0.08841505 0.22249344 -0.26955953 0.051971365 -0.3496268 -0.028975157 -0.4431837 -0.43901283
0.10868188 0.28341538 0.3655195 -0.005754406 -0.11204113 -0.2054588 0.0713054 0.1580061
0.04448603 0.2086278 0.049680747 -0.35478836 0.21294963 -0.7222982 -0.38915065 -0.2710183
-0.11354332 0.09062852 0.061627623 -0.16204984 -0.34324822 -0.16352555 0.06092677 -0.07106466
-0.3403629 0.18429002 -0.28287947 -0.4292447 -0.24622944 -0.5350636 -0.21386294 -0.6788576
0.037621573 0.56365633 0.3769642 -0.79316956 -0.16941619 -0.4965111 0.3805208 0.54916835
0.063352816 0.7223058 -0.15385084 -0.64258635 -0.04235384 -0.55467296 -0.81049514 -0.27010956
-0.2685651 0.6807156 0.6637806 -0.37289664 0.048295204 0.5295087 0.25376606 -0.07060324
-0.05760256 0.4005322 -0.38821754 -0.7017361 -0.40702733 -0.02323802 -0.67427 -0.17582428
0.42314112 0.2977241 0.1755383 -0.77710646 -0.09092201 -0.50459373 0.36974844 0.29119965
0.21728918 0.69976133 -0.31755614 -0.5765203 -0.46751717 -0.29963008 -0.9208765 -0.4415181
0.25298056 0.4034822 0.48918658 -0.16163015 -0.062136617 -0.30284178 0.32809728 0.3988868
-0.23533545 0.6052637 -0.62223744 -0.19674316 -0.13636449 -0.12402476 -0.23797055 0.14617322
-0.42295328 0.42677498 0.72910434 -0.32789406 0.09648521 0.3610256 0.5030169 0.14278723
-0.26017395 0.5378157 -0.02379777 -0.9898569 -0.017971165 -0.5054729 -0.5847825 -0.2907252
0.004889455 0.20500013 0.31451112 0.054088596 -0.15652789 -0.3363244 0.15871644 -0.053727955
-0.098175704 0.27575582 -0.38030204 -0.031152021 -0.4135328 0.22937475 -0.33228856 -0.16091792
0.093706965 0.6581547 0.29526514 -0.49779904 -0.2135039 0.8017325 0.57987237 0.06131681
-0.2470423 0.7713599 -0.41848275 -0.5827737 0.16415437 -0.47936612 -0.373389 -0.38605648
-0.02726944 0.6482617 0.43092576 -0.18200998 0.11209061 0.42314202 0.5046101 0.3770985
-0.24068664 0.31103486 -0.23052238 -1.071896 -0.07263976 -0.5774305 -0.6272069 0.05714793

net_list.0.weight_hh_l1 f4 [64, 16]
00000000: 0b05 153e 5b5c 5b3e d2a9 983e 175e b5be
00000010: b7ee 49be 2fc4 113f bf02 dd3e 8086 9bbe
00000020: 1873 1f3f b672 47be 40dc 4e3e c65d c5be
00000030: 18a4 ba3e 90a2 203e 352a 813e 3884 c8be
00000040: ad21 1dbc dd2f a4bc b1ed 8e3e bc1c c3be
00000050: 9653 1fbe 2c51 633d 861a ae3e a77d 99be
00000060: a7ec a9bd 32ae 50bc ce7b 403e 15e1 5ebd
00000070: 2284 963e 4c8a 7f3e 1856 623e 4ecc 70be
00000080: 632a 943d 52c2 253e 55d5 963e a00b 22bf
00000090: 3ad1 a6be 5597 703e 9ca6 0a3f 364c babe
000000a0: 3a49 013f efaa b53b 8ac3 d03e 9771 4ebe
000000b0: 8960 9a3e b74c e63e be38 7abe e1b0 8d3c
000000c0: b051 f03d 63a0 5b3e 454c 6f3d 9e82 2fbe
000000d0: 1fcb b5be 5e78 7abd e38f 823e 76a2 82bd
000000e0: b643 7f3e c59c 90be 19c4 453e ad4c 73be
000000f0: 828c d0be cacc 803e 2589 1c3d af8c 353e
00000100: c34f 133e f18f d23d 5a69 833e c4d5 6cbe
00000110: 2f63 ab3d 6a93 a03e 8b71 febd 0dbd 9cba
00000120: 0d2a 31bb b019 333d 9fa8 723e 2918 4cbe
00000130: ee72 c8bc 9693 ac3e 580a 9b3e 04db 8abb
00000140: 1870 493e 7af1 b13d 83b9 613e 3bc1 f0be
00000150: 7a50 bfbe bfb4 7e3e 01e5 963d a732 f3bd
00000160: ba9e e43e 36de 8b3e 9c78 d73e f429 80bd
00000170: cc6c c93d 8f26 073e 3445 6e3d 6d8b 8dbe
00000180: 2a40 873c 3338 ae3d 2972 b0bd 6dcd a7be
00000190: 5686 78be fe53 5ebc feca 8b3e 98b8 9abb
000001a0: 8477 aebd f955 9c3e 80cd 82bd 5757 5bbe
000001b0: b61e b83e 7fd0 a23c e2a2 ab3e c8d0 3dbd
000001c0: d49e 373e 30c7 a73e d0f1 ac3e 9c05 ddbe
000001d0: 5ae3 10bf 624c e73e 2184 443e 42b9 90be
000001e0: 962b 153f 3327 b43d 13d3 213e 0531 7bbe
000001f0: 4919 643e 22eb 923e 493b 853d 3ec6 b5be
00000200: e329 ab3e d110 7e3e d9ce 7d3e c93f a5bd
00000210: e324 5d3d f56c 2a3e c7e0 1b3e 657d 0b3e
00000220: ce0b 1a3e 6d36 443e 2c1d 35be b8e9 28be
00000230: c466 7a3d f0a8 af3d 89cb f1bc f716 913c
00000240: 614e 6e3e 4b7d 2f3f 7232 d83d f05c c1be
00000250: 856d 3dbe 328a 123f 18ef d93e f430 cfbe
00000260: f827 d53e 4673 233e f894 773e 7480 10bf
00000270: 5eaa 523d 927f be3e c07f 593c aff8 05bf
00000280: 1dc8 433e a274 073e 58fb 463e 6bfa d63d
00000290: 92fb c1be 81cf 3c3e 01d9 313e 5815 ca3c
000002a0: fe9d d3bd e679 4c3d 87ad e4bd 4332 803e
000002b0: 8ad6 e93d 927e 033e 3f88 c33e 1be9 d7bd
000002c0: 5f24 133f 4f3d c13e bc2e 863e 7fc6 c9be
000002d0: 8f34 9dbe 4300 933e 4e33 c33e 2414 c8bd
000002e0: 5cfa 173f 528d 1d3e 0a14 903e 92db dfbe
000002f0: ec68 583e 0895 963e 081a 6bbd ae9e a2be
00000300: ff66 f03d e972 953e 47b0 763e b0e6 16bf
00000310: 42a3 b0be cab1 f53e 911e a83e 0483 c0be
00000320: 3cac 093f 2496 69bd 90ec 8f3e 8271 9cbe
00000330: 56c5 2a3c 8662 f73e a4fc 803d 996b bfbe
00000340: 719b ee3e b84f ac3e 4072 bfbd a142 a6bc
00000350: b647 993d 4d90 9c3e 48d2 d43e b782 873d
00000360: a4f7 143e 2aef 883e fd96 ed3d 7bb6 d0be
00000370: d8ee 903e 0d92 953e 6350 2f3e ec68 f0be
00000380: b00b 6e3d ebd9 d33e 4433 da3c ac76 2cbf
00000390: d364 3bbe 6c4f 023f 53ff 183f f77f 8fbe
000003a0: bc25 8e3e 10fa 3ebe 8973 d73e 3524 bcbe
000003b0: d45a 813e 34fc 413e eb56 1e3e ddbe 86be
000003c0: a55c 883e dac4 5b3e c808 fe3e 3409 16bf
000003d0: 1695 46be 9a91 053f e772 a53e 6f4c b7be
000003e0: bc28 de3e 0e97 c1bd 4ad7 5e3e beaa 6abe
000003f0: 0c27 97be e197 b03d 2646 b33d 7961 493d
0.14552705 0.2142195 0.29817063 -0.35423347 -0.19719969 0.5693998 0.43166158 -0.30376053
0.62284994 -0.19477352 0.20201206 -0.38548106 0.3645332 0.15687013 0.25227514 -0.39163375
-0.009590548 -0.020042354 0.2791572 -0.3810786 -0.15559229 0.055497333 0.3400461 -0.29978678
-0.08297091 -0.012736844 0.18797228 -0.054413874 0.29397684 0.249551 0.22103155 -0.23515436
0.07234647 0.16187409 0.29459634 -0.6329899 -0.32581502 0.23495229 0.54160476 -0.3638627
0.5050236 0.0055440585 0.40774184 -0.20160519 0.30151775 0.44980404 -0.24435708 0.017296256
0.11734331 0.21447901 0.058422346 -0.1713967 -0.35506532 -0.061149947 0.25500402 -0.06378643
0.24928173 -0.28244606 0.19313087 -0.23759718 -0.407322 0.25156242 0.03821673 0.17729448
0.14385895 0.10281361 0.25666314 -0.2312842 0.08368527 0.31362468 -0.12424 -0.0011958197
-0.002703312 0.04372567 0.23697136 -0.19931091 -0.024468865 0.3370635 0.3028133 -0.0042375345
0.19671667 0.08688636 0.22043423 -0.47022423 -0.37366086 0.24873637 0.07367898 -0.118748955
0.4465235 0.2731797 0.42084205 -0.06258002 0.098352045 0.13198303 0.058171466 -0.27645436
0.016510088 0.08506813 -0.08615524 -0.32773915 -0.24269995 -0.01356983 0.27303308 -0.0047217123
-0.085188895 0.30534342 -0.06386852 -0.21420036 0.3596093 0.01987481 0.33522707 -0.046341687
0.17931682 0.32769156 0.33778238 -0.43168342 -0.5659691 0.45175463 0.19191028 -0.2826634
0.5826963 0.08796539 0.15803175 -0.24530418 0.2227527 0.28695017 0.06505448 -0.3550281
0.33430395 0.24811102 0.24785937 -0.08068807 0.053990256 0.16643126 0.15222465 0.13622053
0.15043566 0.19161387 -0.1768691 -0.16495407 0.06113316 0.08577144 -0.029515998 0.017711146
0.23272087 0.68550557 0.10556497 -0.37766218 -0.1849881 0.5724212 0.42565227 -0.40467036
0.41632056 0.15961942 0.24177921 -0.56446004 0.051432006 0.37206703 0.013275087 -0.52332586
0.19119306 0.13228086 0.19431818 0.10496982 -0.37887245 0.18438531 0.17367937 0.02466838
-0.10332869 0.04992094 -0.1116591 0.25038347 0.11417873 0.12841251 0.38189885 -0.10542508
0.5747737 0.37742087 0.2620753 -0.39409253 -0.30704162 0.28711137 0.3812508 -0.097694665
0.59366393 0.1538594 0.2814029 -0.43722206 0.21133775 0.29410577 -0.057397872 -0.31761688
0.11738395 0.29189232 0.24090682 -0.5894575 -0.34499556 0.47987205 0.3283582 -0.37599957
0.53778434 -0.05702795 0.2811017 -0.3055535 0.010423025 0.48317355 0.062981874 -0.37386778
0.46602967 0.3365457 -0.09347963 -0.020295443 0.07484381 0.30578843 0.41566682 0.06616729
0.14547592 0.26744968 0.11601064 -0.40764222 0.28307223 0.2921299 0.17120509 -0.4695505
0.058116615 0.41377196 0.026635773 -0.6736858 -0.1830018 0.5090244 0.59764594 -0.28027317
0.27763164 -0.18650079 0.42080334 -0.36746374 0.2526461 0.18943864 0.15462844 -0.26317492
0.26633182 0.21461812 0.49616075 -0.5860779 -0.1939281 0.52175295 0.32314226 -0.35800502
0.43390453 -0.094526395 0.21761814 -0.22916695 -0.29521978 0.086227186 0.08753614 0.049165223

net_list.0.bias_ih_l1 f4 [64]
00000000: a196 183f c609 523e d50b d43e 46db 953d
00000010: d8ad 123f 95d6 903e eae6 013f 4d49 fc3e
00000020: 98e6 5a3f f41e 223f c697 2a3f 0548 163f
00000030: b8f0 3b3f bfe9 b53d 7b42 4d3f 5c81 bd3e
00000040: a610 8fbd 8366 313d bec2 0bbe 5484 a73d
00000050: d606 c83e bf46 dd3d b0e0 6b3e e1c4 9ebe
00000060: af68 393e ed60 2cbe 371e f6bd 67ce 8ebe
00000070: 082a a4be 7adf 91be 93b9 89be 20a6 94be
00000080: 30d3 4fbd 80c4 a03e 3b50 173e c218 aebd
00000090: 2bb7 e0be 7291 4f3e 447b 863e 03b4 9b3d
000000a0: 2848 353f 157a 0c3d 534a 2b3f 9330 46be
000000b0: 300b 4e3e a1de 633e 1637 d53d e0e1 e73c
000000c0: 4d5e c63e c928 1e3e 39b0 e53e df4c bcbd
000000d0: 1341 c5bd 5d5b 9f3e 0061 aabd bbab 0a3f
000000e0: 6ac6 313d 61e1 113f ff9e 2e3f 9515 e83e
000000f0: a678 103f a563 813d 3965 053f f585 39bd
0.5960484 0.20511541 0.41415277 0.07317214 0.57296515 0.28288713 0.5074297 0.49274674
0.8550811 0.6332848 0.6663784 0.58703643 0.7341418 0.08882474 0.80179566 0.37012756
-0.06985597 0.043310653 -0.13648507 0.081795365 0.39067715 0.10804509 0.2303493 -0.31009582
0.1810634 -0.16833849 -0.12017482 -0.27891847 -0.32063317 -0.28490812 -0.26899394 -0.29032993
-0.050738513 0.31399918 0.14776699 -0.08500816 -0.43889746 0.20270327 0.2626592 0.07602694
0.70813227 0.034296114 0.66910285 -0.19354467 0.20121455 0.22252895 0.104108974 0.028305948
0.3874382 0.15445246 0.4486101 -0.091943495 -0.096315525 0.31124392 -0.083192825 0.5416829
0.043402113 0.56984526 0.6821136 0.45328966 0.56434095 0.06317834 0.5210758 -0.045293767

net_list.0.bias_hh_l1 f4 [64]
00000000: 2291 3c3f 1e0e 6d3d 3c90 143f b8bf c83e
00000010: 092b eb3e 8086 063f faab 1a3f dbbf 123f
00000020: 5a13 933f de52 3e3f 249e 1f3f 6bb3 ff3e
00000030: 7e11 3d3f 162b 533e e17a ad3e 310e ca3e
00000040: 6c99 0bbd 7b4d c43d ed92 423d 72de 523e
00000050: eb2c 7a3d 6dbf 9e3d d5f0 1abe 8266 813d
00000060: 0a2a f93d 98e6 853c 2747 aa3e dc7c e8bc
00000070: c47b d4be 6aa1 1fbe 4944 b83c e386 b6be
00000080: b9cc 6dbc 3b8b c63e 2494 9dbd ecc7 85be
00000090: eefc a3be 84a6 183d 2255 083f f6d3 08be
000000a0: 6fea f53e d75e 9abd 7d19 283f 96e0 c83d
000000b0: 7e32 293e 5c89 003a 2265 18be 4649 483d
000000c0: 7d13 e13e 3eb5 2e3e ae8c 333e cdcb 523e
000000d0: fa09 873d d2ce 013e 63d1 a03e a9cf e33e
000000e0: 6b05 093c 24ba c73e dbf3 f33e 5d3d f63d
000000f0: cdb4 7a3e 14ab 9b3e 8cfc 1a3f 075f a33c
0.73658955 0.05787479 0.58032584 0.3920877 0.4593127 0.5254898 0.60418665 0.57324
1.1490281 0.74345195 0.6235068 0.49941573 0.73854816 0.20621905 0.33882812 0.39463952
-0.03408186 0.09585091 0.0475034 0.20592669 0.061077993 0.07751355 -0.15130933 0.0631838
0.121662214 0.016345307 0.3325741 -0.02837985 -0.41500676 -0.15588918 0.022493498 -0.35649785
-0.014514142 0.387781 -0.07694271 -0.2612909 -0.32028908 0.037268177 0.532549 -0.13362107
0.4803042 -0.075376205 0.6566389 0.09808461 0.16523167 0.00049032806 -0.14882329 0.048898004
0.4396018 0.17061326 0.17534134 0.20585556 0.065937 0.12676552 0.3140975 0.4449437
0.008363108 0.39009202 0.47646984 0.12023423 0.24483033 0.3040396 0.60541606 0.019942774

net_list.0.weight_ih_l2 f4 [64, 16]
00000000: 4b99 9dbd f2b0 05be a764 c8bd c7ea ee3d
00000010: f218 46be e250 abbd d10e 0e3e dd68 8abd
00000020: af84 febd 12b5 d93e 68d9 003e ac3c a13d
00000030: 314d 6d3e 1071 c23d 4c35 4fbe 0ca9 a9be
00000040: 8e77 8f3e 6d5b be3e ac13 fbbd dc17 bbbe
00000050: e3fe 2fbf ebe0 073f a344 d13e 9f83 733e
00000060: 15e8 063f f0b4 02be bab8 3b3f fb32 2a3d
00000070: 97bf 1d3f 8095 ed3e 9107 bc3e c183 1d3e
00000080: 3e2a c73e 5701 fc3e 6dc0 033d c045 023e
00000090: bb44 f2bd c9ea 0a3e f7d9 2c3e edcd ea3d
000000a0: 6e81 f33e 8505 f4bd 2aa1 d43e 496d e63d
000000b0: bfed cebd 39a9 bbbc 2263 b1bd 8392 0c3e
000000c0: e499 b63e 13a6 5bbe da0e f3be c340 8fbe
000000d0: 7cf1 08be 22e9 f7be 296b ca3e 6a89 773f
000000e0: f71c 12be 0dc7 833f 7e8e ab3d 47d8 503f
000000f0: 2ede 8c3f 2b3e bfbe e6b4 903f 27d2 55bf
00000100: caff 41bc 1fb1 823e 32ea ff3c 6e28 e3bd
00000110: 2a3a 35bf 04e8 943e 3022 d33e c9c0 8bbe
00000120: f00e 363f 2019 dbbe 804f 633f dda9 85be
00000130: 1afb dc3e f424 803e f725 a73e 1438 e03e
00000140: 9c2d 963d 56d3 f93e aad0 15be e94f d9be
00000150: 6772 35bf 4fe3 313f 4c11 333f db3e 0b3e
00000160: 9ac8 213f 7c38 86be ae1d 723f 915e 11be
00000170: 3af4 443f 8913 0f3f f305 0a3f f994 30bc
00000180: 5f1b b9be 0612 b73e aa54 a7bd 863e 35be
00000190: d2cd 89be d600 ec3e 2822 463e be1c 9dbe
000001a0: de2e 033f 1606 693e 0224 b73e 9384 0fbe
000001b0: 02fd 973e 07e8 ce3e 117e 5fbe 9cca aa3e
000001c0: a014 0fbe 7b3d 4a3f 8a6a dabe 63bf 3cbe
000001d0: 81d1 2fbf c990 e33e 8f5e 3a3f 2e14 643e
000001e0: d16a 403f 7a69 ccbc f0be 703f 926f 893e
000001f0: ca54 743f cd08 ab3e b174 2c3f c1bb 6e3e
00000200: 5e8a bb3e 8927 e33e 054d 61be a796 ffbe
00000210: 69da bbbe 302c 343e aab5 fb3e b7c8 70bd
00000220: 0353 383f 218c 7e3e c9c2 0c3f ecae 16be
00000230: 4039 553f 7770 833e c6bc 143f f226 6cbd
00000240: 9a16 fb3d 34fc 033f f768 4dbd 8099 e6be
00000250: 9b83 b4be db42 b13e 412a 833e 2d75 be3d
00000260: 758d 0d3f f010 983e 36c0 2a3f d055 a4ba
00000270: c6b4 2f3f ede1 d93e d73d a43e 303f 11be
00000280: 3d67 113e 7f41 073f a4b5 b73e 6c71 a8be
00000290: 5ebd e0be 58b9 263f a410 813e ad6b 4dbe
000002a0: e03f 673e ba00 4ebd f89b bf3e f5c4 bebc
000002b0: 7a49 623e f160 103e 4880 aebe ecfa 05be
000002c0: 7d55 fbbe 301c 963e 3f6f 843e 9e01 88be
000002d0: 1f81 dfbe 59b5 973e 1c05 f83e 6b06 d5be
000002e0: c76c ab3e 6661 d7bc 1541 323f b21a fbbe
000002f0: 5383 693e 8704 a33e 13f8 7a3d ac60 b83e
00000300: 1d7c 03be a668 3d3e a76f b23d 58c4 6f3d
00000310: 264b 90be b08a 963e b9a6 353e c3fa 9abe
00000320: f164 393e 5625 3cbf fd25 933e dacd 03bf
00000330: 816c 25bc 969b 823e a6fe 073d 8fee 1a3f
00000340: 87c7 683e 9f74 8f3e 1199 8abd ddbf 49be
00000350: 3a83 b9be 48b7 9e3e a9b7 813e cf24 a9be
00000360: 2dbb 933d ec8b 39be 30c3 453e cd00 37bd
00000370: 72ea ad3e 2688 f63b 12aa 693d d169 6abe
00000380: 1a02 543c 1fb5 f63e 3d3d 9abd 3ffd 00bf
00000390: 6ccd 2ebf 8433 0f3f 12bc 263f 1cf5 87be
000003a0: ecba 333f cdf7 3abe d364 763f 07ee b2be
000003b0: 3b4e db3e 4903 be3e 31a3 06bd 1cc4 5f3e
000003c0: 01b2 813e 0e82 b23e 9daf f23d e38a 01bf
000003d0: c12e b8bd 0806 f03e 3414 863e 3515 fc3d
000003e0: 995d 943e c999 8d3e f72d af3e 0b40 47be
000003f0: b937 433e e836 093e de4c 473f bc3d 43be
-0.07695254 -0.1305578 -0.09784823 0.11665874 -0.19345453 -0.083650365 0.1387284 -0.06758282
-0.12427651 0.42520958 0.12582934 0.078729 0.23173977 0.09494221 -0.20235175 -0.33136785
0.280209 0.37179127 -0.122596115 -0.3654164 -0.687483 0.5307757 0.40872678 0.23780678
0.5269788 -0.12764335 0.73328745 0.041552525 0.6162047 0.46403122 0.36724523 0.15382291
0.38899416 0.49219772 0.032165933 0.1272192 -0.118295155 0.13566126 0.16880022 0.114650585
0.47559685 -0.11915115 0.41529208 0.11251313 -0.1010394 -0.02290784 -0.08661486 0.13727765
0.35664284 -0.21450071 -0.47472268 -0.27979097 -0.13373369 -0.48420054 0.39534882 0.9669405
-0.14268862 1.029512 0.083767876 0.81580013 1.1005304 -0.37352118 1.1305206 -0.8352379
-0.01184077 0.25525758 0.031239603 -0.11091696 -0.70791876 0.29083264 0.4123702 -0.2729552
0.7111654 -0.42792606 0.8879318 -0.26106158 0.43160325 0.25028193 0.32646152 0.43792784
0.07332918 0.4879405 -0.1463038 -0.4244378 -0.7087769 0.6948747 0.6994827 0.13598196
0.6319672 -0.2621497 0.9457654 -0.1419623 0.7693516 0.55889183 0.5391533 -0.010777705
-0.36153695 0.35755938 -0.08170445 -0.17699632 -0.2691484 0.46094388 0.19348967 -0.3068599
0.5124339 0.22756228 0.3576966 -0.14015417 0.29685217 0.40411398 -0.21825434 0.33357704
-0.13972712 0.7900006 -0.42659408 -0.18432383 -0.6867905 0.444464 0.72800535 0.22273323
0.7516299 -0.024952639 0.9404135 0.26842934 0.9544188 0.33405152 0.67365557 0.2331381
0.36629003 0.443661 -0.22002037 -0.49919626 -0.3669007 0.17594981 0.49162036 -0.058785167
0.72001666 0.24858142 0.5498472 -0.14715165 0.8329048 0.2567174 0.58100545 -0.05765433
0.1226017 0.51556706 -0.05014893 -0.45038986 -0.35256657 0.3462132 0.25618175 0.09299693
0.5529397 0.29700422 0.6669954 -0.0012537781 0.68635213 0.4255518 0.3207843 -0.1418426
0.14199539 0.52834314 0.35880768 -0.32899034 -0.43894476 0.6512656 0.25208008 -0.20060606
0.2258296 -0.05029366 0.37423682 -0.023287276 0.22098342 0.1409948 -0.34082246 -0.13084
-0.4908866 0.2931838 0.25866124 -0.26563734 -0.436532 0.29630545 0.48441398 -0.4160646
0.33481428 -0.02629156 0.6963056 -0.49043804 0.22804002 0.31839392 0.06127174 0.36011255
-0.12840314 0.18496951 0.08712702 0.058536857 -0.28182334 0.29402685 0.17739381 -0.3026944
0.18104912 -0.7349447 0.2873992 -0.5148598 -0.01009667 0.25509328 0.033201836 0.6052026
0.22732364 0.28018662 -0.06767476 -0.19702096 -0.3623293 0.30999207 0.25335434 -0.33035895
0.07213435 -0.18119782 0.1931274 -0.044678498 0.3396793 0.0075235544 0.057046957 -0.22891928
0.012939954 0.4818506 -0.075312115 -0.5038642 -0.682822 0.5593798 0.6513072 -0.2655419
0.70207095 -0.18258591 0.96247596 -0.34947225 0.42833123 0.3711188 -0.032870475 0.21852154
0.2533112 0.3486485 0.11849902 -0.5060255 -0.089932926 0.468796 0.2618729 0.123087324
0.2897766 0.2765639 0.34214756 -0.19458024 0.19064225 0.13399851 0.77851665 -0.19066519

net_list.0.weight_hh_l2 f4 [64, 16]
00000000: dc8c 13be 94a3 143e c257 46be f185 3fbe
00000010: 4116 073d 64b5 6cbe 2739 b93d 4796 d33d
00000020: a08c 663e 3961 2b3e bf3a 973e ee2f cb3d
00000030: da6f f53d 96f9 df3d 3af1 81bd a497 ec3e
00000040: 411b 7c3d 789c 8cbe 053c 56be faef 9ebe
00000050: 4510 8d3e 08af 303e 636d ee3d 6a61 313d
00000060: 699f 383d 1cf6 b13e 0389 9cbd 440c 37bd
00000070: 4b2a a43d d31b 7e3c 1cb5 d13d 069b dc3d
00000080: 6183 a9bc 30fd 47bd 0624 5d3d 7e1d aebe
00000090: c05c afbd d7d7 763c 0481 8dbe a0eb 2d3e
000000a0: 41cd b83e c641 cbbc 785f de3e 8329 14be
000000b0: b6d8 a2bd fc9a cbbd 1e23 113e 7d00 7d3e
000000c0: 03d7 e5bc a97a 263e 1863 763d 344d 0abe
000000d0: 5cef 413e 2f9d 19be da84 c9bd bdd8 57be
000000e0: 7910 4fbe 54ba 2e3d db46 eb3d 6797 4d3d
000000f0: 1968 4c3e ec54 11be fb68 88bd 0314 0dbe
00000100: f9b0 4cbe edfc 6cbe 4363 90be e0e1 a8be
00000110: 801e 983e ae16 d3be d457 1dbe d9ac 4b3e
00000120: 553b 3e3e b31c 7d3e 2c06 073c 658a 35be
00000130: af51 b1be 5ea3 cebd 2ea9 b13e 0d4f 343e
00000140: 9f61 673d 8047 9fbb e098 93bb 2ede ce3c
00000150: 3954 68bc 6634 bebe ab79 d33d 79c3 a03e
00000160: 32b5 8c3e 5519 debc 4602 1abd ddf2 ccbd
00000170: bffb 80be 8b28 3fbd c24b 0c3e da03 f43d
00000180: 3364 d6be db8f fcbd e889 87be 2142 1dbe
00000190: feb0 8d3e a816 84be b12f a93e 2775 cb3e
000001a0: 2111 d23e 9058 033f 69f0 0e3d 12eb 89be
000001b0: cdeb e4bd b665 89be ef46 113d 4db8 5b3e
000001c0: f4d2 cbbe f9f4 e83c 7c06 c1be af96 52be
000001d0: c7b9 8a3e 5661 95be 9c4c a43e 168c 8a3d
000001e0: 16f6 f43d f526 4a3e 6014 e73c d330 a53d
000001f0: 6be6 8ebd 30ed 8abe 37f9 3d3d 76c3 7a3e
00000200: 3a6d f5bd 3afc a5be 1496 19be 0833 a13c
00000210: ba54 b83e 09e8 15be 3aac 0c3f d375 473e
00000220: 58cf 1f3e 7cdf b93e d32d 19bf ddce 3abe
00000230: ca23 95be ca39 88be 9be6 ae3e 066c 36be
00000240: b505 f2be 9f94 c3be 2c13 18bf b8af 543e
00000250: 00e9 a73e 399b 0dbe eaee 9a3e c6e1 1e3d
00000260: d0dd 6a3e fb62 9c3e 7bd1 9abe 5b06 93be
00000270: 08a7 84be fcd3 a0be 0ebb d13d 3768 09bf
00000280: f7d2 34be 1063 94be 90fe 80be 8438 eb3d
00000290: 3d9f 243e 832e ebbe b3ca 2c3d c138 0f3e
000002a0: e76c da3e b8c1 db3e e0dc 56be 4620 54be
000002b0: 67ab 03bf a1c0 36be 384b 113f 52e7 d53d
000002c0: 6416 41bd 442a 9abc 5210 d6be 81c9 383e
000002d0: 7bae 253d 17c9 6cbe fea2 f63e ada5 be3e
000002e0: c5d6 67bd 65af 893e b71b 01bf 5008 a9be
000002f0: 9d73 82bd 3fc0 69be b336 e43d 75b0 4fbe
00000300: f4a2 a0be eebf c2be 2529 cabd 99e7 52be
00000310: 4a4d 713e 75da 89bd 8243 00be 1bea ec3e
00000320: d8e4 f93e f6a0 263e 8f54 d83c dd34 92be
00000330: 8be8 fcbd 70be babe 379e ef3e fe38 353e
00000340: 1508 4fbe 3775 c4bd ac6d b4be 3ead 993e
00000350: d2a5 ca3e 493b e4be c94a fb3e 56f6 633d
00000360: 0a3e 8f3e 24dc 863d e33e e4be 5e14 06bf
00000370: 6759 ddbe 57b1 b9be fa87 e73e 8d08 dfbe
00000380: b8b3 343d 4452 83be a962 85be ef7c d8be
00000390: d545 b13e a9d5 13bd d1e1 40be bfc8 e13d
000003a0: ca16 ba3b 721b a83e e1fd b93e 4c22 18be
000003b0: 9035 093d b862 623c ec76 be3e 5711 b93e
000003c0: 11f2 d8be bb8b b2be 9cf0 7fbe 0af9 e9bd
000003d0: 3e87 113e d91f adbe 0f68 68bd e921 de3e
000003e0: ba0d a13e 2da3 ac3d b3b6 a4be 64fc 31be
000003f0: 0a72 9cbe ba38 c4bd de51 dc3d 53d1 09be
-0.14409202 0.14515525 -0.19369414 -0.18703438 0.032980207 -0.2311607 0.09044104 0.103313975
0.22514582 0.16736306 0.29537007 0.09921251 0.119842246 0.109362766 -0.063448384 0.46209443
0.06154943 -0.27463126 -0.20921333 -0.31042463 0.27551475 0.17254269 0.116419576 0.043305792
0.0450739 0.3475808 -0.076433204 -0.04468943 0.08015879 0.0155095635 0.10239622 0.10771756
-0.02069253 -0.048825443 0.053989433 -0.34006876 -0.085626125 0.015066109 -0.27637494 0.16984415
0.36094096 -0.024811637 0.43432212 -0.1446896 -0.079514906 -0.0994167 0.14173552 0.24707218
-0.028056627 0.16257729 0.060153097 -0.13506013 0.18938965 -0.15001367 -0.098397925 -0.21078773
-0.20221128 0.042658165 0.11488124 0.050193217 0.19961585 -0.14192551 -0.066606484 -0.13777165
-0.19989385 -0.23143359 -0.2820073 -0.3298483 0.2971077 -0.4122824 -0.15365535 0.19890155
0.18577321 0.24717979 0.008241218 -0.17728575 -0.34632632 -0.100897536 0.34699386 0.1760828
0.056489583 -0.0048608184 -0.004504308 0.025252428 -0.0141802365 -0.37149352 0.10325941 0.31399134
0.2748199 -0.027111689 -0.037599824 -0.1000726 -0.25192067 -0.046669524 0.13700774 0.11914797
-0.4187332 -0.12332126 -0.26472402 -0.15357257 0.27674097 -0.25798535 0.33044198 0.39737818
0.41028693 0.5130701 0.03489724 -0.26937157 -0.11177788 -0.26835412 0.03546804 0.21457024
-0.39809382 0.028437125 -0.3770026 -0.20565294 0.27094862 -0.29175824 0.32089698 0.067650005
0.11961 0.19741423 0.028207958 0.08065953 -0.069775425 -0.27134085 0.046380248 0.24488625
-0.11983724 -0.32418996 -0.14998657 0.019677654 0.3600214 -0.14639296 0.54950297 0.1947854
0.15606439 0.36303318 -0.5983555 -0.18242975 -0.29128867 -0.2660659 0.34160313 -0.17814645
-0.4726998 -0.38199326 -0.59404254 0.20770156 0.32794952 -0.13828744 0.30260402 0.038789533
0.22936177 0.30544266 -0.30237946 -0.28715786 -0.25908685 -0.3141173 0.10240756 -0.53674644
-0.17658602 -0.2898183 -0.25194216 0.11485389 0.1607637 -0.45933923 0.042185497 0.13986494
0.4266121 0.42921233 -0.20982695 -0.20715436 -0.51433414 -0.1784692 0.567554 0.104445115
-0.047140494 -0.018818982 -0.41809326 0.18045618 0.0404496 -0.23123585 0.48171228 0.37235776
-0.056601305 0.26891628 -0.50432914 -0.33014154 -0.06369708 -0.22827242 0.111432455 -0.20282157
-0.31374323 -0.38037056 -0.09871129 -0.2059616 0.2356464 -0.067311205 -0.12525752 0.46272358
0.48807406 0.16272339 0.026407508 -0.28555956 -0.123490416 -0.36473417 0.46800396 0.17697522
-0.20217927 -0.095926695 -0.35239923 0.30014986 0.39579636 -0.4457648 0.49080494 0.055654846
0.2797702 0.06584957 -0.4457923 -0.5237483 -0.4323227 -0.36268112 0.4522093 -0.4356121
0.044116706 -0.256487 -0.26051834 -0.42282817 0.3462359 -0.036092434 -0.18836142 0.110246174
0.005678986 0.3283344 0.36326507 -0.14856833 0.033498347 0.013817482 0.37200105 0.36146042
-0.42372182 -0.3487223 -0.24994129 -0.114244536 0.14211747 -0.3381336 -0.056739863 0.43385246
0.31455785 0.08429561 -0.32170638 -0.17381436 -0.30555755 -0.09581132 0.107578024 -0.13458757

net_list.0.bias_ih_l2 f4 [64]
00000000: 05eb 42be 7026 ea3e b194 ae3e de6e 07be
00000010: 25d9 333f db19 6d3f e914 cc3e 34b5 4a3f
00000020: 90df 083f a0cc e23e 7476 df3e d164 973e
00000030: 5198 1b3f 70ac b93d fcd5 2a3f c485 bc3e
00000040: 7084 8d3d 4478 8cbd fc95 f93c c8e7 35be
00000050: a144 c53e a750 9d3e e82f bebd 2632 fe3c
00000060: 945b b23e d040 af3d 0707 87bd 9501 b63e
00000070: 5645 183e 0562 9a3d 893f 50bd 0394 36bd
00000080: 75fa 9bbd 2a7e d8be db96 6ebe 73a1 5ebb
00000090: 35fa 94bb 426f dfbe 8210 043e 49d6 003f
000000a0: f493 243f 7502 0f3f dde1 f63d e9cc 7abe
000000b0: 6cdb cbbd e282 85be e3b1 013f 0d9b 03be
000000c0: a667 133e 61fb bb3e 6c75 61bd 7fa8 c5bd
000000d0: b303 bd3e 227e 1c3f 4b46 aa3d b863 c33e
000000e0: 1c3c 853e aa7e ba3e 577e 04bd 033e 923e
000000f0: 404a a53e b40f 613c a015 0b3f e613 0b3e
-0.19034965 0.4573245 0.34097818 -0.13225886 0.7025321 0.9261758 0.39859703 0.79182744
0.5346613 0.4429674 0.4364506 0.29569104 0.6077929 0.09066093 0.66732764 0.36820805
0.06910026 -0.06858876 0.030467026 -0.17764199 0.38528922 0.30725595 -0.09286481 0.031029772
0.34835494 0.08557284 -0.06593137 0.35548082 0.148702 0.07538227 -0.05084184 -0.04457475
-0.0761613 -0.42283756 -0.23299734 -0.0033970743 -0.0045464286 -0.4363957 0.12896922 0.50326973
0.6428826 0.55863124 0.12054799 -0.2449223 -0.09953961 -0.26076418 0.5066206 -0.12852116
0.14395007 0.36715224 -0.055043623 -0.09651279 0.36916885 0.61129963 0.083141886 0.38162017
0.26022422 0.36424762 -0.03234705 0.28562936 0.3228321 0.013736654 0.5432987 0.1358181

net_list.0.bias_hh_l2 f4 [64]
00000000: a4de f2bd 6c34 af3e 4ff7 dc3e 5c03 3e3d
00000010: 1bf0 973e 542b 6e3f 3341 013f 8cf2 4c3f
00000020: 1248 043f c2f0 d53e fc94 6b3e 1797 373f
00000030: 14be 1f3f 5049 b73e cfb6 293f 8555 313e
00000040: 2077 13be 2396 493e ea3d c1bc 7204 18be
00000050: a92f 993e 3c75 393e c0eb 57be 6ebf e83e
00000060: 0119 643e 8adf 5f3e 3674 66bd f676 ac3d
00000070: 6c72 0cbd e5c7 c93d 95ed 02be 6b01 c1bd
00000080: 6a8f 00be cb80 8fbe f616 eb3b 6768 bfbd
00000090: 944f e83c 2e23 11bf 3a63 b43d f85c 203f
000000a0: 6830 183f dfd0 e63e 378e 1fbe 9380 c6be
000000b0: 64e8 9fbe 4e2f 8bbe 3cfd b83e c544 0e3d
000000c0: 8ab5 a03c f7b8 0f3e 32cf bc3e f4e2 23bd
000000d0: ab8b 2e3d 991f cc3e da57 45bd b8c0 173f
000000e0: b8e1 093e 1ad6 a03e 00b9 f2bd 7eb4 af3e
000000f0: d70c 3d3e 68ae d3bc 186c a63e c075 193e
-0.118588716 0.34219682 0.4315743 0.046389922 0.29675373 0.93034863 0.5049011 0.800576
0.5167247 0.41785246 0.23006052 0.7171492 0.6239941 0.3579812 0.6629457 0.1731778
-0.14400911 0.19686179 -0.023589093 -0.14845446 0.29919174 0.18111128 -0.21086025 0.4545855
0.22275163 0.21862617 -0.05626317 0.084211275 -0.03428881 0.0985258 -0.12785943 -0.094240986
-0.12554708 -0.2802795 0.007174368 -0.09346085 0.028358258 -0.56694305 0.088079885 0.6264186
0.5944886 0.4508123 -0.15581594 -0.3876997 -0.31231987 -0.27184528 0.36130702 0.034733552
0.019617815 0.14035402 0.36876827 -0.04001136 0.042613667 0.39867857 -0.048179485 0.5927844
0.13465011 0.31413347 -0.11851692 0.34317392 0.1846193 -0.02584 0.32504344 0.14986324
