QIENetV1_0_0/QIENet_FC8.pth (torch, 28499 bytes, 17 tensors)

net_list.0.weight_ih_l0 f4 [64, 6]
0	0xbc0451f6	-0.008076182
1	0xbd4e7260	-0.050402045
2	0xbd6b12e9	-0.05739108
3	0x3d5bfb8d	0.053706694
4	0xbe27fdae	-0.16405365
5	0xbe122473	-0.14271717
6	0x3ea01eb0	0.31273413
7	0x3e4e9060	0.20172262
8	0xbdf8144f	-0.121132486
9	0x3d9e0998	0.077166736
10	0xbd82d111	-0.063875325
11	0xbdbf2179	-0.09332556
12	0xbf04c4ae	-0.5186261
13	0x3f00999c	0.5023439
14	0x3eb1f01c	0.347535
15	0x3e7dbcde	0.24779078
16	0x3d7d52c7	0.06184652
17	0x3dfcb12c	0.1233848
18	0xbd50e278	-0.050997227
19	0x3e809de5	0.25120464
20	0x3e854e17	0.2603614
21	0x3e185011	0.14874293
22	0x3dec6fbd	0.1154475
23	0x3e8615af	0.26188418
24	0x3eeb1178	0.45911765
25	0xbd519bab	-0.051173847
26	0xbe8f5cf3	-0.28000602
27	0x3e1998ea	0.14999738
28	0xbdc71745	-0.09721235
29	0xbee66502	-0.44998938
30	0xbeb4095c	-0.3516339
31	0x3f39602f	0.7241239
32	0x3ceb5521	0.028727116
33	0x3e7dbeb0	0.24779773
34	0x3e99ac94	0.3001448
35	0xbe4d9302	-0.2007561
36	0xbda9b613	-0.08286681
37	0x3f07b739	0.5301395
38	0xbe91ca3c	-0.28474605
39	0x3f0e276f	0.5552892
40	0x3eacfd4a	0.33786994
41	0xbee45abe	-0.4460048
42	0x3e52e6f5	0.20595916
43	0x3d9cb35c	0.076513976
44	0xbe8407a1	-0.2578707
45	0x3db6c861	0.08924938
46	0xbe6c16a3	-0.2305551
47	0xbe8387f5	-0.25689664
48	0xbe4799e8	-0.19492304
49	0x3d14a971	0.036294404
50	0x3ec47069	0.38367012
51	0xbe36a5aa	-0.17836633
52	0xbcdbe97a	-0.026844729
53	0x3e800b4a	0.25008613
54	0xbdea1445	-0.11429647
55	0x3f3bb814	0.73327756
56	0x3f2ec07b	0.6826245
57	0x3ed83271	0.42225984
58	0x3e9023bd	0.28152266
59	0xbe01da81	-0.12681009
60	0xbe99903f	-0.29992864
61	0x3ddf4343	0.10901501
62	0xbc38dfc9	-0.011283823
63	0xbe68cb87	-0.2273389
64	0xbbb67637	-0.0055682915
65	0x3e8b585d	0.27215853
66	0xbe5d8685	-0.21633346
67	0xbdfce9c5	-0.123492755
68	0x3e0ecc38	0.13945091
69	0x3e205925	0.15659006
70	0x3d88938a	0.06668766
71	0x3d520954	0.051278427
72	0x3f2ec7d4	0.68273664
73	0xbddf3916	-0.1089956
74	0xbec718ff	-0.38886258
75	0x3eb92d36	0.36167306
76	0x3f0d0e9f	0.55100435
77	0x3f3efbcf	0.7460298
78	0xbe2f16fa	-0.17098609
79	0xbe4855f2	-0.19564036
80	0xbe289c3b	-0.16465847
81	0x3d32ee77	0.04368445
82	0x3a243913	0.0006264608
83	0x3e3cf736	0.18453678
84	0xbe726dd3	-0.23674707
85	0xbea199f6	-0.31562775
86	0xbccdeb07	-0.025136484
87	0xbeac71ad	-0.33680478
88	0xbde71e4f	-0.11285078
89	0xbd6a9a6b	-0.05727617
90	0xbccfdd96	-0.025374215
91	0xbe103dd9	-0.14086093
92	0x3e2b0e82	0.16704753
93	0x3e0aebb9	0.13566484
94	0xbc6b0f58	-0.01434692
95	0x3f0e4fa7	0.5559029
96	0xbe6867e1	-0.22695877
97	0x3e54deef	0.20788167
98	0x3d81cde0	0.06338096
99	0x3e1f3afa	0.15549842
100	0xbd528b48	-0.05140236
101	0xbdc68942	-0.096941486
102	0x3e0cc746	0.13747892
103	0xbd94a163	-0.072573446
104	0xbe1f557f	-0.15559958
105	0xbd22643f	-0.039646383
106	0xbe10c347	-0.14136992
107	0x3d86ae67	0.06576233
108	0xbea97967	-0.33100435
109	0xbedee575	-0.43534437
110	0x3edabd25	0.4272243
111	0xbeb92e7d	-0.3616828
112	0x3dfb363f	0.12266206
113	0x3eccec33	0.40023956
114	0x3cddf5c2	0.027094726
115	0xbde81e6a	-0.11333926
116	0xbbaea17d	-0.0053293095
117	0x3d391d5c	0.045194015
118	0x3cc00773	0.023441052
119	0xbd5bf367	-0.053698923
120	0xbe525325	-0.2053953
121	0x3db92f84	0.09042266
122	0xbdf7b53a	-0.12095113
123	0xbe4008a3	-0.18753295
124	0xbdde02a2	-0.10840346
125	0xbe012b19	-0.12614097
126	0x3e573ade	0.2101855
127	0xbe9dd852	-0.30829102
128	0xbd82de21	-0.06390024
129	0xbd4f6a29	-0.05063835
130	0xbe641292	-0.22272709
131	0x3e836cbd	0.25668898
132	0x3e53104d	0.20611687
133	0xbeae89e7	-0.34089586
134	0xbdb7e9a4	-0.0898011
135	0xbc8e5122	-0.017372672
136	0xbecbbce9	-0.39792565
137	0xbf04e11d	-0.51905996
138	0x3d1c522a	0.038164295
139	0x3ddb3e09	0.10705192
140	0x3e15721f	0.14594315
141	0x3e126c28	0.14299071
142	0x3c8995ec	0.016795121
143	0xbdd9410d	-0.106081106
144	0xbe9cdba9	-0.30636337
145	0xbeab3a13	-0.33442745
146	0x3d63937f	0.055560585
147	0xbb7ddc51	-0.0038736055
148	0x3dc31cf7	0.09527009
149	0x3df69165	0.120394506
150	0xbd8d3ba6	-0.06896143
151	0x3c938d49	0.018011706
152	0x3d311b1f	0.043238755
153	0x3d354376	0.04425379
154	0x3e7c4226	0.24634609
155	0xbd8cd3d6	-0.06876342
156	0xbd385882	-0.045006283
157	0xbb71796f	-0.0036846062
158	0x3e062fe3	0.13104205
159	0xbc2f76b1	-0.010709451
160	0x3da7f6b1	0.082013495
161	0xbe412885	-0.18863113
162	0x3e2b3ae6	0.16721687
163	0x3e51473a	0.20437327
164	0x3dcf7fd6	0.10131805
165	0x3df506c4	0.11964181
166	0x3e996b33	0.299646
167	0xbd65297b	-0.055947762
168	0x3df8cf16	0.121488735
169	0xbe574704	-0.21023184
170	0xbd3c5246	-0.0459769
171	0x3c6d47d5	0.014482458
172	0xbb70e4d2	-0.0036757481
173	0xbe3091dd	-0.17243142
174	0xbe7c4227	-0.2463461
175	0xbe0119e7	-0.12607537
176	0x3e814ec2	0.252554
177	0x3d30d266	0.0431694
178	0xbdd50a41	-0.104023464
179	0x3e81584e	0.25262684
180	0xbe503aee	-0.2033498
181	0x3c2680df	0.010162561
182	0x3dcf2a7f	0.10115527
183	0xbe394cf0	-0.18095756
184	0x3e6f8607	0.23390971
185	0x3e855cca	0.26047355
186	0x3e9ccaca	0.30623466
187	0xbeb8df10	-0.36107683
188	0xbe1d2618	-0.15346563
189	0xbe8e21f3	-0.27760276
190	0xbd9089f4	-0.070575625
191	0x3ed73478	0.42032218
192	0x3ebc1074	0.36731303
193	0xbd9467e1	-0.07246376
194	0xbe8876d2	-0.26653153
195	0xbea54136	-0.32276314
196	0xbd810ff5	-0.06301872
197	0x3e58dbd7	0.21177612
198	0xbe9363f9	-0.2878721
199	0xbdc83723	-0.097761415
200	0x3cc6634d	0.024217272
201	0xbcb0e04e	-0.021591332
202	0xbd90b2a9	-0.07065327
203	0x3e8a3906	0.2699663
204	0x3eeae696	0.45879048
205	0xbf077d31	-0.529254
206	0x3c3923c0	0.011300027
207	0xbebe2dc1	-0.37144282
208	0xbcfb1192	-0.030648027
209	0x3f1aa627	0.6040978
210	0xbf1ae7cc	-0.60509944
211	0xbe090e87	-0.13384448
212	0x3ea3399f	0.318799
213	0xbe70907a	-0.23492613
214	0x3acbb7c3	0.0015542436
215	0x3ea4a614	0.32157958
216	0xbe36b041	-0.17840673
217	0x3bb3cd6d	0.005487135
218	0xbe0b0808	-0.13577282
219	0x3d568ee7	0.052382376
220	0xbe87e097	-0.26538536
221	0x3d595255	0.053057034
222	0xbefc47d5	-0.49273553
223	0x3ee3b775	0.44475904
224	0xbc39b64a	-0.011334965
225	0x3f05f0b8	0.5232043
226	0x3d8a4b6b	0.06752666
227	0xbe44216a	-0.19153371
228	0x3ee68f93	0.45031413
229	0xbe1a2d24	-0.15056282
230	0xbe9693e9	-0.29409721
231	0x3cb325a4	0.021868534
232	0x3e0ee824	0.13955742
233	0xbe4c53b2	-0.19953802
234	0xbed611b4	-0.4181038
235	0xbe0a5525	-0.13509043
236	0x3cb35c1d	0.021894509
237	0xbd1f7782	-0.03893233
238	0xbd8685d8	-0.065684974
239	0x3ec812ea	0.3907693
240	0x3e705d78	0.23473155
241	0x3c6633ad	0.014050406
242	0xbe5d672d	-0.2162139
243	0x3d9027d4	0.070388466
244	0xbd012cba	-0.031536795
245	0xbc4e30c1	-0.012584866
246	0xbe5f92b1	-0.21833302
247	0x3e8e32a0	0.27773
248	0xbd988313	-0.074468754
249	0xbdb9f324	-0.090795785
250	0xbd83fe44	-0.06444982
251	0x3d2ce3db	0.042209487
252	0x3e53d60c	0.20687121
253	0xbb8d05f5	-0.0043036886
254	0xba53202a	-0.0008053804
255	0x3de51429	0.11185486

net_list.0.weight_hh_l0 f4 [64, 16]
0	0xbe2676b6	-0.16256222
1	0xbe0b0746	-0.13576993
2	0x3d90082c	0.07032809
3	0x3eaa7fd8	0.33300662
4	0x3dd12f08	0.102140486
5	0xbdae784a	-0.08519037
6	0x3e7769a8	0.24161398
7	0x3e2829fb	0.16422264
8	0xbe3de095	-0.18542702
9	0x3dc673b0	0.096900344
10	0xbcfde689	-0.030993717
11	0x3e1cd92e	0.15317222
12	0xbe0b12e0	-0.13581419
13	0x3e2dcafa	0.1697196
14	0x3e8a388b	0.26996264
15	0xbdadcf10	-0.0848676
16	0x3d7fce4a	0.062452592
17	0x3d7641ab	0.06012122
18	0xbdeb720d	-0.11496363
19	0xbd8792f5	-0.06619827
20	0xbd32062d	-0.04346292
21	0xbe64dd69	-0.22350086
22	0x3c9fca64	0.019505687
23	0xbe1a605f	-0.15075825
24	0xbedf3a37	-0.43599102
25	0xbe17da45	-0.14829357
26	0xbeb30837	-0.34967205
27	0x3ee03a60	0.43794537
28	0xbe971d32	-0.29514462
29	0x3e11005b	0.14160292
30	0x3db21d6e	0.086970195
31	0xbe673356	-0.22578177
32	0xbf0a9e6c	-0.5414798
33	0xbf0cb4ef	-0.5496358
34	0x3db8f88c	0.090317816
35	0x3f04c287	0.51859325
36	0x3e959df2	0.29222065
37	0xbef2c66d	-0.47417012
38	0x3e0a54d0	0.13508916
39	0xbdc5ab79	-0.096518464
40	0xbef2bee0	-0.4741125
41	0xbf187932	-0.5955993
42	0xbea11594	-0.31461775
43	0x3e86aff8	0.26306129
44	0x3f0f5a89	0.5599752
45	0x3ee3b660	0.4447508
46	0x3f023c09	0.50872856
47	0xbe7a88b1	-0.24466206
48	0xbe7c03ed	-0.24610873
49	0xbe3d160e	-0.18465444
50	0xbcbd9fd3	-0.0231475
51	0x3e2860de	0.16443202
52	0xbdade6db	-0.08491298
53	0xbd9ca687	-0.0764895
54	0x3ebdf492	0.37100655
55	0xbe4ae481	-0.1981373
56	0xbe8bf67e	-0.27336496
57	0xbe874671	-0.2642093
58	0xbe94ad16	-0.29038304
59	0xbdb203fd	-0.08692167
60	0x3e357010	0.1771853
61	0x3e0304f8	0.12794864
62	0xbcaf7bc6	-0.021421324
63	0xbea90167	-0.33008882
64	0x3d50f904	0.05101873
65	0xbebe169f	-0.37126634
66	0x3ed23c37	0.41061565
67	0x3d7e1a10	0.062036574
68	0xbe0c2a06	-0.13687906
69	0x3ae182b7	0.0017205094
70	0x3ef75e55	0.48314157
71	0xbd54685c	-0.051857337
72	0xbd173698	-0.0369173
73	0xbeb4bc3a	-0.35299855
74	0xbe11a22d	-0.14222021
75	0x3e7dd307	0.24787532
76	0xbdad6108	-0.08465773
77	0x3e8646f4	0.26226008
78	0x3eaaa78d	0.33330956
79	0xbe90cbf7	-0.28280613
80	0x3d3f5ac1	0.04671741
81	0xbbf067bf	-0.0073365862
82	0x3ecaa736	0.39580697
83	0x3ddbaead	0.10726676
84	0xbe28ad68	-0.16472399
85	0xbe291057	-0.1651014
86	0xbd9d2e71	-0.076748736
87	0x3e6e923c	0.23297971
88	0xbe7c2122	-0.24622014
89	0x3cf7efb3	0.030265665
90	0xbca37200	-0.01995182
91	0x3e521be6	0.20518455
92	0x3e56c84d	0.20974846
93	0xbcb2bf47	-0.021819724
94	0x3ea34254	0.31886542
95	0xbe3466c6	-0.1761733
96	0x3e914972	0.28376347
97	0x3cd2dc42	0.025739793
98	0xbda4cdb8	-0.0804705
99	0x3db00712	0.085950986
100	0xbd4dbbd7	-0.050227966
101	0x3dfe776a	0.1242512
102	0x3d4957d5	0.04915603
103	0xbd286a63	-0.041117083
104	0xbd8f2050	-0.06988585
105	0xbd4a1c43	-0.04934336
106	0xbbb36096	-0.0054741604
107	0xbdedf677	-0.11619275
108	0xbe22bdc7	-0.15892707
109	0xbdab2729	-0.083570786
110	0xbe893899	-0.26800993
111	0xbde8ea61	-0.11372829
112	0xbebb9877	-0.3663976
113	0xbe79f44f	-0.24409603
114	0x3e0a9994	0.13535148
115	0xbd5b0dc6	-0.053479932
116	0xbda541ee	-0.08069216
117	0xbea9722c	-0.3309492
118	0x3e3c6d9c	0.18401188
119	0xbe3506a0	-0.17678308
120	0xbe850757	-0.25982162
121	0xbed62348	-0.41823792
122	0x3dde5a19	0.108570285
123	0x3e92dbc4	0.28683293
124	0xbe8bb684	-0.27287686
125	0x3d7afe35	0.061277587
126	0x3ec76a85	0.38948455
127	0xbe2f76c4	-0.17135149
128	0xbea54e51	-0.32286313
129	0xba4c4295	-0.0007791904
130	0x3e15933f	0.14606951
131	0xbdbeb48b	-0.093117796
132	0xbe68b59b	-0.22725527
133	0xbc6608d5	-0.014040192
134	0x3ea6dd81	0.3259087
135	0x3c72c8e9	0.0148184085
136	0xbd908218	-0.070560634
137	0xbd3d608f	-0.046234664
138	0xbdfad126	-0.12246923
139	0x3eadcc84	0.33945096
140	0xbd38a4d4	-0.045079067
141	0x3e2ba8a0	0.16763544
142	0x3eae077d	0.33990088
143	0x3d957259	0.07297201
144	0xbe048ae6	-0.1294361
145	0x3e30d88e	0.17270109
146	0x3eef7b37	0.46773693
147	0x3e189fdd	0.14904733
148	0xbe65cf2c	-0.22442311
149	0x3df18140	0.117922306
150	0x3c8ed926	0.017437529
151	0xbd3aabdd	-0.045574058
152	0x3e017629	0.12642731
153	0x3e81c929	0.25348786
154	0xbe6be802	-0.23037723
155	0x3e614e97	0.22002636
156	0x3db6bb02	0.08922388
157	0x3e937e3b	0.28807244
158	0xbe385077	-0.17999445
159	0xbce71d93	-0.028212344
160	0xbe8db401	-0.27676395
161	0xbe87fee2	-0.26561648
162	0xbd87bee1	-0.06628204
163	0x3db0f97b	0.086413346
164	0xbe40525d	-0.18781419
165	0xbdedcd24	-0.11611393
166	0x3e453c2a	0.19261232
167	0xbe4fdac0	-0.2029829
168	0x3da150c7	0.07876735
169	0x3d3164e2	0.0433091
170	0xbeb0997e	-0.34492105
171	0x3e91637a	0.28396207
172	0x3e9ee118	0.31031108
173	0x3cc64542	0.024202947
174	0x3dd38158	0.10327405
175	0xbe8db547	-0.27677366
176	0x3ce0ee1d	0.027457291
177	0x3d72ecaa	0.05930773
178	0xbdaa2763	-0.08308294
179	0x3c87f7c9	0.016597645
180	0x3dfa59af	0.12224137
181	0xbd9b226a	-0.07574923
182	0x3e383195	0.17987664
183	0xbe9e0513	-0.30863246
184	0xbe27ed2f	-0.16399072
185	0xbcca1146	-0.02466644
186	0xbe5855f1	-0.21126534
187	0x3e8ed619	0.2789772
188	0x3c7567ad	0.0149783315
189	0x3ed00471	0.4062839
190	0x3ec2770e	0.37981457
191	0xbe312a85	-0.17301376
192	0x3d9b37cc	0.07579002
193	0xbec428a0	-0.38312244
194	0x3d8a31fa	0.067478135
195	0x3dd98bca	0.10622366
196	0xbd992cef	-0.074792735
197	0xbe60e055	-0.21960576
198	0x3d80b4f3	0.06284513
199	0x3d85417b	0.0650663
200	0xbe11005f	-0.14160298
201	0xbdf0e86e	-0.117630824
202	0xbd0dee76	-0.034651242
203	0x3d6472ab	0.05577342
204	0x3eceb8bd	0.4037532
205	0x3e861059	0.26184347
206	0x3eec0642	0.46098524
207	0xbe97ccec	-0.2964853
208	0xbe44d2e7	-0.19221078
209	0xbdfed185	-0.124423064
210	0x3dbce176	0.09222691
211	0x3d6c4e6c	0.057691976
212	0x3d679f2e	0.05654829
213	0x3d15d9c8	0.036584646
214	0xbe6ccaba	-0.23124209
215	0x3e0171cb	0.12641065
216	0x3d27bf75	0.040954072
217	0xbea1db49	-0.31612614
218	0xbcb510a5	-0.022102663
219	0x3ea1634b	0.31521067
220	0x3e8ccb63	0.27498922
221	0x3dc4eff2	0.096160784
222	0x3ecca1df	0.39967248
223	0xbd529e71	-0.051420633
224	0x3da3505d	0.079743125
225	0xbe441546	-0.1914874
226	0x3ed22c9f	0.41049668
227	0x3d6b07d3	0.05738051
228	0x3d0b5b14	0.034022406
229	0xbe1432b8	-0.14472473
230	0xbdefbbf2	-0.117057696
231	0x3d9abbdb	0.07555362
232	0xbd374bd0	-0.044750035
233	0xbeb8b350	-0.36074305
234	0x3c5de4f4	0.013543356
235	0xbe0be07f	-0.13659857
236	0x3ddd827b	0.10815903
237	0x3e9f6d12	0.31137902
238	0xbe0deb37	-0.13859259
239	0x3da72ca2	0.0816281
240	0x3e01baf3	0.12668972
241	0xbe66b618	-0.22530401
242	0x3e72e6b8	0.23720825
243	0x3e61a8fe	0.22037122
244	0xbd9e60ff	-0.07733344
245	0xbe5cd8cf	-0.21567081
246	0x3ea7b543	0.3275548
247	0xbd134a8d	-0.03595977
248	0xbec2a2be	-0.38014787
249	0x3dcdf25e	0.100559935
250	0xbea8b54d	-0.32950822
251	0x3e876005	0.26440445
252	0xbed59fcf	-0.41723487
253	0x3c1749a6	0.009233868
254	0x3d982b5c	0.07430145
255	0xbe666d82	-0.22502711

net_list.0.bias_ih_l0 f4 [64]
0	0x3e23611c	0.15955013
1	0x3e1d3023	0.15350394
2	0x3f00f07f	0.5036697
3	0x3e0315bb	0.12801258
4	0x3e899209	0.26869228
5	0x3e57ed47	0.21086608
6	0xbe0dc2c0	-0.13843822
7	0x3e1cec74	0.15324575
8	0xbdc26145	-0.09491209
9	0x3bc48601	0.00599742
10	0x3eb17f49	0.34667423
11	0xbcdbbf05	-0.026824484
12	0x3e2c87b5	0.16848643
13	0x3e8be210	0.2732091
14	0x3e9c8fbf	0.3057842
15	0x3ebe0f79	0.3712118
16	0x3ddc15f8	0.10746378
17	0x3cdfad47	0.027304305
18	0xbd93f69a	-0.0722477
19	0x3d4c057b	0.049809914
20	0xbec9f14e	-0.39441913
21	0xbc6b9324	-0.014378343
22	0xbddb2475	-0.10700313
23	0xbde0af8a	-0.109709814
24	0xbd24c20f	-0.04022413
25	0xbcca0790	-0.02466181
26	0x3e036bf7	0.12834154
27	0xbd37ddc7	-0.044889238
28	0xbedd8ba9	-0.43270615
29	0xbcdc2b65	-0.02687616
30	0x3e052d66	0.130056
31	0x3e853666	0.26018065
32	0xbeaeeca0	-0.34164906
33	0xbebb3e16	-0.36570805
34	0x3dec9c5b	0.1155326
35	0xbd36d072	-0.044632383
36	0x3ec5facb	0.38667902
37	0xbdeb69f6	-0.1149482
38	0x3c3301de	0.010925738
39	0x3ca626af	0.020282118
40	0xbe865c90	-0.26242495
41	0x3d472e3a	0.04862807
42	0xbf0045d4	-0.5010655
43	0x3f16ed22	0.58955586
44	0x3d89de51	0.067318566
45	0x3ec3443b	0.38137993
46	0x3db40be2	0.08791329
47	0xbe99c567	-0.3003342
48	0x3e814719	0.25249556
49	0x3e68343a	0.22676173
50	0x3e28241f	0.16420029
51	0xbe3fd0e9	-0.18732037
52	0xbe213c5a	-0.15745679
53	0xbd7fef08	-0.062483817
54	0xbe8b7c9a	-0.272435
55	0xbe130c3e	-0.14360139
56	0x3d7d2703	0.061804783
57	0x3eae9759	0.34099844
58	0x3d9a226c	0.07526097
59	0xbc5a543d	-0.013325748
60	0x3e8224a2	0.25418574
61	0xbde2c1cc	-0.1107212
62	0x3e2a95df	0.16658734
63	0x3e74465e	0.23854968

net_list.0.bias_hh_l0 f4 [64]
0	0x3e65adfc	0.22429651
1	0x3e913a35	0.2836472
2	0x3ea4112a	0.32044345
3	0x3d8c408b	0.06848248
4	0xbd554f05	-0.052077312
5	0x3eb44f88	0.35216928
6	0xbe5b48dd	-0.21414514
7	0x3d54d6a2	0.051962502
8	0x3dac10c4	0.08401635
9	0xbd67e5b3	-0.056615543
10	0xbbadcc94	-0.0053039286
11	0x3e96f170	0.29481077
12	0x3eb4bc7d	0.35300055
13	0x3c884a22	0.016636912
14	0x3d6f6750	0.058448136
15	0x3e5952a3	0.2122293
16	0x3c63317d	0.013866779
17	0x3e8cb98e	0.27485317
18	0xbe555fea	-0.2083737
19	0xbe8479c5	-0.25874153
20	0xbe302253	-0.17200594
21	0x3db1ddaa	0.08684857
22	0xbe938ac4	-0.28816807
23	0xbe8ebaab	-0.2787679
24	0xb9a84181	-0.0003209226
25	0xbe62fa38	-0.22165763
26	0x3e9c3f00	0.30516815
27	0xbd4d0bf8	-0.050060242
28	0xbd6eae28	-0.058271557
29	0x3e39e128	0.18152297
30	0x3db541ab	0.08850416
31	0x3e34e15a	0.1766409
32	0xbe2fc334	-0.17164308
33	0xbeb71de0	-0.3576498
34	0xbba3ab5a	-0.004994792
35	0x3e20c552	0.15700272
36	0x3e41a560	0.18910742
37	0xbe61652d	-0.22011252
38	0xbe019c8d	-0.12657376
39	0x3e89d0ca	0.26917106
40	0xbe4fc9ea	-0.20291868
41	0xbea3ab6c	-0.31966722
42	0xbf185bab	-0.59514874
43	0x3ef5553a	0.47916585
44	0x3d9e4664	0.0772827
45	0x3ec45495	0.3834578
46	0x3eb7a728	0.35869718
47	0xbf1a4ee5	-0.60276634
48	0xbda46ebb	-0.08028933
49	0x3e1bdac7	0.15220176
50	0x3d875ad0	0.06609118
51	0x3e245b79	0.16050519
52	0x3e0a6361	0.13514473
53	0xbe18dffe	-0.14929196
54	0xbc9aaf4a	-0.018882412
55	0xbe1e3a02	-0.15451816
56	0xbd4f377d	-0.050590027
57	0x3b4e79c4	0.0031505683
58	0x3db49350	0.0881716
59	0x3e9c3363	0.30507955
60	0xbe0f3320	-0.13984346
61	0x3e0767de	0.13223216
62	0x3ebb96fe	0.36638635
63	0x3e9d60de	0.30737966

net_list.0.weight_ih_l1 f4 [64, 16]
0	0xbe809289	-0.25111797
1	0xbea2eaad	-0.31819668
2	0x3dc8a7b9	0.097976156
3	0xbec36fb0	-0.38171148
4	0xbde8090c	-0.113298506
5	0xbeed9ab8	-0.46407104
6	0x3e2e9425	0.170487
7	0xbebb312d	-0.36560956
8	0xbe54f5d9	-0.20796908
9	0xbe0f13cd	-0.13972397
10	0xbeb1b3bb	-0.34707436
11	0x3de2149a	0.11039086
12	0x3f939117	1.1528653
13	0x3dd613dc	0.104530066
14	0x3da88a70	0.0822953
15	0xbd292b69	-0.041301165
16	0x3df251ad	0.11831985
17	0x3d703052	0.05863983
18	0xbe02f65f	-0.12789296
19	0xbdecb7c4	-0.11558488
20	0x3cb9d230	0.022683233
21	0x3e0f1299	0.13971938
22	0x3dfe5a59	0.12419576
23	0xbd4a0430	-0.0493204
24	0xbdf4590a	-0.11931045
25	0xbcca9bac	-0.024732433
26	0x3e1f3154	0.15546161
27	0x3e5a39cb	0.21311109
28	0x3e0c82c2	0.13721755
29	0xbde921a7	-0.11383372
30	0x3e98a309	0.29811886
31	0x3bde23e6	0.006779182
32	0xbf0bc509	-0.54597527
33	0xbed9baf3	-0.42525443
34	0x3e86bb45	0.2631475
35	0xbe9059f2	-0.28193623
36	0x3d28399a	0.041070558
37	0xbe5fc480	-0.21852303
38	0x3df23798	0.1182701
39	0x3e042b2e	0.12907097
40	0xbdc821bd	-0.0977206
41	0xbf29c500	-0.66316223
42	0xbdd7fc60	-0.105461836
43	0x3dac2c97	0.08406942
44	0x3f163592	0.5867549
45	0x3f15a656	0.58456933
46	0x3eda9f4d	0.42699662
47	0xbf1803ed	-0.5938099
48	0xbe6293a9	-0.2212664
49	0xbb561ce3	-0.0032671026
50	0xbf2e163d	-0.6800268
51	0x3ebeda52	0.3727594
52	0x3e906a16	0.28205937
53	0x3e792e33	0.2433403
54	0xbf0d59dc	-0.5521524
55	0x3ee15d8d	0.44016686
56	0xbe7d59af	-0.24741243
57	0xbdb28ae8	-0.087179005
58	0xbe30eacc	-0.17277068
59	0x3eb5f150	0.3553567
60	0x3e4f48be	0.20242593
61	0x3e1af4e2	0.15132478
62	0x3ea162e7	0.3152077
63	0xbe69c8f4	-0.22830564
64	0xbd7b7cd4	-0.061398342
65	0xbe7490e7	-0.23883401
66	0x3f354495	0.7080777
67	0xbe31071f	-0.17287873
68	0xbeb000d0	-0.3437562
69	0xbe8dcedb	-0.2769688
70	0x3e66bfb7	0.22534071
71	0xbec1eeb5	-0.37877432
72	0xbdeeb95a	-0.11656447
73	0x3df73159	0.12069959
74	0x3e9dc4a7	0.30814096
75	0x3e2f916e	0.17145321
76	0x3edd2c62	0.43197924
77	0x3e6f5ca4	0.23375183
78	0xbd233ba7	-0.03985181
79	0xbcf61a76	-0.030041914
80	0xbec9d39c	-0.39419258
81	0xbeaac8a6	-0.33356208
82	0x3e82aea9	0.2552388
83	0x3dd4985c	0.10380623
84	0xbd2af384	-0.04173614
85	0xbe9edcaa	-0.31027728
86	0xbd91f0cc	-0.071260065
87	0xbddb9c38	-0.10723156
88	0x3cd53b39	0.026029216
89	0xbf198662	-0.59970677
90	0x3e5149ee	0.20438358
91	0x3ec1e6b6	0.3787133
92	0x3f45baac	0.77237964
93	0x3ed0cd88	0.40781808
94	0xbd961d4b	-0.07329806
95	0xbe9c6d44	-0.30552113
96	0xbea31d96	-0.3185851
97	0xbef44192	-0.47706276
98	0xbef78a1c	-0.48347557
99	0x3d5779a0	0.052606225
100	0xbd8304fd	-0.06397436
101	0xbca232d1	-0.019799622
102	0x3cbede4e	0.023299363
103	0xbe1e99c5	-0.15488346
104	0x3d8b915a	0.06814833
105	0xbe59b5ac	-0.21260709
106	0x3d9ab55f	0.07554125
107	0x3e808292	0.25099617
108	0x3f89d5cd	1.0768372
109	0x3f006fbc	0.50170493
110	0xbc368077	-0.011139027
111	0xbdde365e	-0.108502135
112	0xbe9a47e7	-0.30132982
113	0x3d766171	0.06015152
114	0x3ed3e741	0.4138737
115	0xbe8350f3	-0.25647697
116	0xbe882bd0	-0.26595926
117	0x3cfda67c	0.030963175
118	0x3de80b6e	0.11330305
119	0xbdc832d1	-0.097753175
120	0xbe10ce9a	-0.14141312
121	0xbeb8150c	-0.35953557
122	0xbd0068ff	-0.031350132
123	0xbd1d7893	-0.038445067
124	0x3f586cbc	0.84540915
125	0xbc5b278d	-0.013376129
126	0x3e0e527f	0.13898657
127	0xbab881f7	-0.0014076818
128	0xbdb96abc	-0.09053561
129	0xbebdaa06	-0.3704378
130	0x3c620469	0.013794997
131	0x3e61ae25	0.22039087
132	0xbd839261	-0.06424404
133	0xbd9c40bb	-0.07629534
134	0xbc1629eb	-0.009165267
135	0xbd769c09	-0.0602074
136	0xbe8d5689	-0.27605084
137	0xbed0889a	-0.4072922
138	0xbc8c5849	-0.017131941
139	0x3edd8300	0.43264008
140	0x3ebe7eea	0.37206203
141	0x3ecce7c9	0.40020588
142	0x3e1af45c	0.15132278
143	0xbcbb858b	-0.022890827
144	0xbe1f8f78	-0.15582073
145	0xbdc20d18	-0.09475154
146	0xbf0da526	-0.5533012
147	0x3e32fb8e	0.17478773
148	0x3e0f9c4b	0.14024465
149	0xbe6d967d	-0.23201938
150	0xbd244024	-0.04010023
151	0x3e19f9f0	0.1503675
152	0x3ea83a63	0.32857046
153	0xbebddfad	-0.37084714
154	0xbe15cf38	-0.14629829
155	0x3d61de5a	0.05514369
156	0x3e6ec85a	0.23318616
157	0x3de0d6e0	0.10978484
158	0xbe0e824f	-0.13916896
159	0xbe62595a	-0.22104397
160	0xbebef7d0	-0.3729844
161	0xbe439cbf	-0.19102763
162	0x3e9fb0bc	0.31189525
163	0x3dac80b0	0.08422983
164	0xbe66b768	-0.22530901
165	0xbeacac71	-0.33725312
166	0xbcc70523	-0.024294442
167	0xbe4a3382	-0.19746211
168	0x3c95ccb2	0.018286083
169	0xbe4d08dd	-0.20022912
170	0xbe2f53dc	-0.17121834
171	0x3de085df	0.10963034
172	0x3f157ed6	0.5839666
173	0x3f126220	0.57180977
174	0x3e1206e8	0.14260447
175	0xbe5aed14	-0.213795
176	0xbe202e05	-0.15642555
177	0xbd5ed7d2	-0.05440504
178	0x3f02793e	0.5096625
179	0xbe0d9636	-0.13826832
180	0xbec9857e	-0.3935966
181	0x3d917ff4	0.07104483
182	0x3dc9e98c	0.09858999
183	0xbe57f585	-0.21089752
184	0xbe1b3125	-0.15155466
185	0xbe8e0407	-0.27737448
186	0xbcb6d707	-0.02231933
187	0x3e6960dd	0.22790857
188	0x3ef62bcf	0.48080298
189	0x3e9a1bd6	0.30099362
190	0xbe098131	-0.13428189
191	0x3c30ee92	0.010799067
192	0xbeb43c8c	-0.35202444
193	0xbe3f4e3f	-0.18682192
194	0x3ecb6f25	0.39733234
195	0x3eb611ef	0.35560557
196	0x3e327072	0.17425707
197	0xbef9e398	-0.48806453
198	0x3e228187	0.15869723
199	0x3e8ff96f	0.2811999
200	0xbed76591	-0.42069677
201	0xbf2f1d46	-0.6840404
202	0xbf0925a3	-0.53573054
203	0x3ede79a8	0.4345219
204	0x3e8112bf	0.25209615
205	0x3e40b062	0.18817285
206	0x3e74c9a8	0.23905051
207	0xbf1c755d	-0.6111658
208	0x3d2628d5	0.040566284
209	0x3df49fab	0.11944517
210	0x3fa19a82	1.2625277
211	0x3f896322	1.0733378
212	0x3f15a73b	0.584583
213	0xbeca06ca	-0.39458305
214	0xbe9ba446	-0.30398768
215	0x3edc3988	0.43012643
216	0x3e325a9f	0.17417382
217	0xbf44364f	-0.7664537
218	0x3eb1a559	0.34696463
219	0x3e654fec	0.22393769
220	0x3febeab4	1.8431001
221	0xbc6fee2d	-0.014644188
222	0xbbe60088	-0.0070191063
223	0x3d9d1085	0.076691665
224	0xbdaf0d4f	-0.0854746
225	0xbe7d4112	-0.24731854
226	0x3dbebcc5	0.09313349
227	0xbe3e329c	-0.18573993
228	0x3d0fffc6	0.035156034
229	0xbe117b3b	-0.14207165
230	0x3ce97ee0	0.028502882
231	0xbeaa7fe5	-0.333007
232	0x3e37e8c1	0.17959882
233	0xbe129a12	-0.14316586
234	0x3e3721ca	0.17883983
235	0x3e260af0	0.1621511
236	0x3ec4c25e	0.3842954
237	0x3ea66662	0.32499987
238	0x3e5fb45b	0.21846144
239	0xbe75822c	-0.23975438
240	0xbed1ac6c	-0.4095186
241	0xbd29402a	-0.041320957
242	0x3eb2daa2	0.3493243
243	0xbd335101	-0.043778423
244	0xbe0238ad	-0.12716933
245	0xbeb39d67	-0.35081026
246	0x3e99766f	0.2997317
247	0x3dc3a5c3	0.09553101
248	0xbd5ccd78	-0.053906888
249	0xbf0a086f	-0.5391912
250	0xbee66282	-0.4499703
251	0x3e8a847e	0.2705421
252	0x3ee60c6d	0.44931355
253	0x3ed8e61b	0.42363057
254	0x3ea2b57a	0.3177908
255	0xbd4a42a4	-0.04937996

net_list.0.weight_hh_l1 f4 [64, 16]
0	0x3d199d1a	0.03750334
1	0xbe911455	-0.28335825
2	0xbeb71421	-0.35757545
3	0xbed1a39f	-0.40945145
4	0x3e951722	0.2911921
5	0x3dcd1517	0.10013788
6	0xbd5be79b	-0.053687673
7	0xbd754382	-0.059878834
8	0xbd11354d	-0.035451222
9	0x3d95fb55	0.073233284
10	0x3bfa3bb8	0.0076365136
11	0x3e54f6db	0.20797293
12	0xbeaba06c	-0.3352083
13	0xbe614ba4	-0.22001511
14	0xbd19400e	-0.037414603
15	0x3d2acd5a	0.041699745
16	0xbdbbe2f8	-0.0917415
17	0x3d2b72c1	0.041857485
18	0xbb463978	-0.0030246656
19	0x3d778197	0.06042632
20	0x3dfee409	0.12445838
21	0x3cf983b9	0.030458318
22	0xbcc937ea	-0.024562795
23	0xbcefc52f	-0.02926883
24	0xbe96e490	-0.29471254
25	0x3e67d069	0.22638096
26	0xbd64cce3	-0.055859458
27	0x3d8d0af4	0.06886855
28	0x3d5e3b03	0.054255497
29	0xbde99f91	-0.11407388
30	0xbe5441f9	-0.20728292
31	0x3e26796d	0.16257258
32	0x3d4ac1ad	0.04950111
33	0xbe97d3e9	-0.29653862
34	0xbeeb0ac5	-0.45906654
35	0xbea48066	-0.3212921
36	0x3ecfdb33	0.40596923
37	0xbe129a61	-0.14316703
38	0x3ddd1ff9	0.10797114
39	0x3ce171c2	0.027520064
40	0x3e399cc2	0.18126205
41	0x3ed2304e	0.4105248
42	0x3ed2ba40	0.41157722
43	0x3dc2eff9	0.095184274
44	0x3d280391	0.041019026
45	0xbc1849b2	-0.009294914
46	0xbe369e9f	-0.17833947
47	0xbab5692e	-0.001384055
48	0xbf34b2cf	-0.7058534
49	0xbd8cd4a7	-0.06876498
50	0xbe3cb08a	-0.1842672
51	0xbe124618	-0.14284551
52	0x3eb08f9e	0.3448457
53	0x3ea850c8	0.3287413
54	0x3f02ab8b	0.51043004
55	0x3f0de534	0.5542786
56	0xbe2cafa6	-0.1686388
57	0xbe95f660	-0.29289532
58	0x3e916a7a	0.28401548
59	0x3ea6dd8c	0.32590902
60	0x3ea8c54d	0.3296303
61	0xbf1c2c01	-0.61004645
62	0xbd8a19fb	-0.06743237
63	0x3e638556	0.22218832
64	0x3dd882e7	0.10571843
65	0xbdad8da7	-0.08474284
66	0xbdf16308	-0.11786467
67	0xbe9ee73e	-0.310358
68	0x3de0f520	0.10984254
69	0x3e046fbf	0.12933253
70	0xbe8bd913	-0.27314052
71	0xbe51c4f3	-0.20485286
72	0x3dfdfa40	0.12401247
73	0x3dc4d2ab	0.09610494
74	0xbc7f6622	-0.015588315
75	0x3e82bb67	0.25533602
76	0xbe14ee9f	-0.14544152
77	0x3e82df70	0.25561094
78	0x3cbb2828	0.022846296
79	0xbc4ddda3	-0.012565049
80	0xbdd6a5d3	-0.10480847
81	0xbeb8b209	-0.3607333
82	0xbee16807	-0.4402468
83	0xbe970215	-0.29493776
84	0x3db8caf0	0.09023082
85	0xbdeaebce	-0.114707574
86	0x3c6a9067	0.014316655
87	0x3e2f8098	0.17138898
88	0xbdda7c2a	-0.10668214
89	0x3d07ba40	0.033136606
90	0x3dd3f5bb	0.10349604
91	0x3eede09d	0.4646043
92	0xbefe0ef2	-0.49620777
93	0x3e68f256	0.22748694
94	0xbecac688	-0.39604592
95	0x3d97bee0	0.074094534
96	0xbd61dbf9	-0.055141423
97	0xbeb7f43c	-0.35928524
98	0xbd9e73c7	-0.077369265
99	0xbdc66731	-0.09687651
100	0x3e9ff147	0.31238768
101	0xbe2d50ff	-0.16925429
102	0x3c142fa2	0.00904456
103	0x3ecb0d8e	0.3965878
104	0x3b5e31c3	0.0033904172
105	0x3eb564da	0.35428506
106	0xbd932d65	-0.07186393
107	0xbcd56f38	-0.02605401
108	0xbdf211e4	-0.118198186
109	0x3dc4baf7	0.09605973
110	0xbecde888	-0.4021647
111	0x3d4c09c9	0.04981402
112	0xbdfb3de5	-0.12267665
113	0xbe9ad1b2	-0.3023811
114	0xbeb9b8a6	-0.36273688
115	0xbd39652c	-0.0452625
116	0x3ea63cea	0.3246835
117	0xbe347b1d	-0.17625089
118	0x3e570f6f	0.21001981
119	0x3e8fc20a	0.28077728
120	0xbd4a6cad	-0.049420048
121	0x3eb45086	0.35217685
122	0x3e175bae	0.14781067
123	0x3eba52bf	0.36391255
124	0xbdc84cc8	-0.0978027
125	0xbdf4b471	-0.11948479
126	0xbdce0459	-0.10059423
127	0x3e52fd7e	0.20604512
128	0xbe10b2d9	-0.14130725
129	0xbea6616c	-0.32496202
130	0xbe4689ae	-0.19388458
131	0xbe8d3d21	-0.275857
132	0x3ee5af4d	0.44860306
133	0xbe3dfe0e	-0.18553945
134	0x3e069277	0.1314181
135	0x3ec2dfe3	0.38061437
136	0xbdd2afc8	-0.10287434
137	0xbd259ecb	-0.04043464
138	0x3e2f46bf	0.17116831
139	0x3de806c5	0.11329416
140	0xbe12205e	-0.1427016
141	0xbe4870a0	-0.19574213
142	0xbea4b3b9	-0.32168368
143	0x3eab14df	0.3341436
144	0x3e0d7e3e	0.13817689
145	0x3d9cf030	0.07663
146	0x3db53663	0.08848264
147	0x3d94361e	0.072368845
148	0x3d9349ac	0.07191786
149	0x3e00bad7	0.12571274
150	0xbba11b3c	-0.0049165767
151	0x3e6b4151	0.22974135
152	0x3dfbe52e	0.12299572
153	0x3e694aa9	0.22782387
154	0x3e7858c1	0.24252607
155	0x3e7080fe	0.23486707
156	0x3e54b8d6	0.20773634
157	0xbdeb1621	-0.1147883
158	0xbc553b2b	-0.013014595
159	0x3d93ea49	0.07222421
160	0x3d0fdfc5	0.035125513
161	0xbe6b3e4c	-0.22972983
162	0xbec84e76	-0.3912236
163	0xbe5c6ca1	-0.21525814
164	0x3e15bee4	0.146236
165	0x3da7ecd5	0.08199469
166	0x3ce91f77	0.028457386
167	0x3e1fc489	0.15602316
168	0xbec49cbf	-0.38400838
169	0x3ea6993e	0.3253879
170	0x3e91a953	0.28449497
171	0x3d80fff7	0.062988214
172	0xbe8d366d	-0.27580586
173	0xbdead92f	-0.11467206
174	0xbecbb6d8	-0.39787936
175	0x3ead0585	0.33793274
176	0x3dc52a87	0.09627252
177	0xbe19d98f	-0.15024398
178	0xbc526d95	-0.012843509
179	0x3e2bd871	0.16781785
180	0x3e90d0c4	0.28284276
181	0x3d3b57a1	0.045737866
182	0x3e205f2b	0.15661304
183	0xbe8d225b	-0.27565274
184	0xbe14ffe3	-0.14550738
185	0x3d9d5956	0.07683055
186	0x3e4e7065	0.20160063
187	0xbe1d3fb0	-0.15356326
188	0x3d40d58e	0.04707866
189	0x3e12384b	0.14279287
190	0xbdbe10f0	-0.09280574
191	0x3e05e370	0.13075042
192	0xbe07da4a	-0.13266864
193	0xbe966c47	-0.29379484
194	0xbe6381f7	-0.22217546
195	0xbe427394	-0.18989402
196	0x3f04cc7f	0.51874536
197	0xbe75308b	-0.23944299
198	0x3d70b563	0.058766734
199	0x3edf4164	0.43604577
200	0xbe35f7f6	-0.17770371
201	0x3df2b603	0.11851122
202	0x3f0ac2ef	0.54203695
203	0x3f0ec010	0.55761814
204	0xbea6d40a	-0.32583648
205	0x3d2b980a	0.041893043
206	0xbf1916a6	-0.59800184
207	0x3e4eef05	0.20208366
208	0x3df8950d	0.12137804
209	0xbe517c21	-0.20457508
210	0xbd332603	-0.043737423
211	0xbe28585e	-0.1643996
212	0xbd282bd1	-0.04105741
213	0x3ec9ba5d	0.39399996
214	0xbd867b3a	-0.06566472
215	0x3dff894a	0.12477358
216	0x3e0ded77	0.13860117
217	0xbde16575	-0.110056795
218	0x3e154c8e	0.14579985
219	0x3e879b7d	0.26485816
220	0x3d72583f	0.05916619
221	0x3eba250d	0.36356393
222	0xbcdc9968	-0.026928619
223	0xbe841207	-0.25795004
224	0xbe83bd68	-0.25730443
225	0xbe5e567f	-0.21712683
226	0xbeac55e6	-0.33659285
227	0xbdef3cad	-0.11681495
228	0x3e179e59	0.14806499
229	0xbdbcbde9	-0.0921591
230	0xbe57fc73	-0.21092395
231	0x3e9a3705	0.30120102
232	0xbd806381	-0.06268979
233	0x3e57a31e	0.21058318
234	0x3e08155b	0.13289396
235	0x3db4bc11	0.08824933
236	0x3cca132f	0.02466735
237	0x3e7cf1eb	0.2470166
238	0xbde297b5	-0.11064092
239	0xbc9019f3	-0.017590499
240	0x3c3c7a41	0.011503757
241	0xbd4132a6	-0.047167443
242	0xbee9f5dc	-0.45695388
243	0xbe5b5f01	-0.2142296
244	0x3e864bde	0.26229757
245	0x3e056621	0.1302724
246	0xbdb260d0	-0.08709872
247	0x3ed75c18	0.4206245
248	0xbef346f8	-0.47515082
249	0x3e347762	0.17623666
250	0x3e75f5d7	0.24019562
251	0x3eef4167	0.46729586
252	0xbd75cd16	-0.06001004
253	0xbe1dce97	-0.15410839
254	0xbd22d6ec	-0.039755747
255	0xbc8882fb	-0.016664019

net_list.0.bias_ih_l1 f4 [64]
0	0x3e8d4118	0.27588725
1	0x3e5ccce6	0.21562538
2	0x3ed698b7	0.41913387
3	0x3e1b8db1	0.1519077
4	0x3da904ee	0.082528934
5	0x3d22a3de	0.039707057
6	0x3e4b3a30	0.19846416
7	0x3e29f40a	0.16597
8	0xbda00263	-0.07812955
9	0x3e31f208	0.17377484
10	0x3f09a759	0.5377098
11	0x3e18aa4c	0.14908713
12	0x3f0c732b	0.5486323
13	0x3ea2a0f6	0.31763428
14	0xbdc6e67d	-0.09711931
15	0x3e87182e	0.26385635
16	0xbd9923c2	-0.074775234
17	0x3db7b012	0.089691296
18	0x3e97ff98	0.2968719
19	0xbdf86485	-0.121285476
20	0xbc010075	-0.007873644
21	0xbe3148d0	-0.17312932
22	0xbeaa5c29	-0.33273438
23	0x3e27a5bf	0.16371821
24	0xbe139ac7	-0.14414512
25	0xbe82ca2a	-0.25544864
26	0xbc7dfcd8	-0.015502177
27	0x3b0a354b	0.0021088894
28	0x3d9dcd0d	0.07705126
29	0xbea06e5d	-0.313342
30	0xbc338251	-0.010956363
31	0xbbec0fd2	-0.0072040344
32	0xbd99d323	-0.07510974
33	0x3d717b72	0.058955617
34	0xbe883e44	-0.26610005
35	0xbe98b3ab	-0.29824576
36	0x3e203fee	0.15649387
37	0x3e33630b	0.1751825
38	0x3e640cfc	0.22270578
39	0x3df6c68d	0.12049589
40	0x3dbf0839	0.0932774
41	0x3e48812c	0.19580525
42	0x3e13da3e	0.14438722
43	0x3e178eb0	0.14800525
44	0xbdce033a	-0.10059209
45	0x3d0c60b0	0.034271896
46	0xbe1ab8f9	-0.15109624
47	0x3e4f1660	0.20223379
48	0x3d52b1da	0.051439144
49	0xbddaec72	-0.106896296
50	0x3e2d2c31	0.16911389
51	0x3d622e91	0.05522019
52	0x3ea0e928	0.31427884
53	0x3e0180ef	0.1264684
54	0x3e0110b4	0.12604028
55	0x3e00bf89	0.12573065
56	0xbd14a888	-0.036293536
57	0xbaa32b3b	-0.0012448797
58	0x3dabf3a0	0.08396077
59	0x3e4d4616	0.20046267
60	0x3ed686da	0.4189976
61	0x3d83296d	0.06404386
62	0x3e091f93	0.13390951
63	0x3cbc508f	0.022987632

net_list.0.bias_hh_l1 f4 [64]
0	0x3cda00a7	0.02661164
1	0xbddb715b	-0.1071498
2	0x3e369c0e	0.17832968
3	0x3de9581f	0.11393761
4	0x3e4dadf5	0.2008589
5	0x3e1dd49e	0.15413138
6	0x3e8e4314	0.27785552
7	0x3e57a330	0.21058345
8	0x3dcb7d30	0.09935987
9	0x3e31434e	0.17310831
10	0x3ec561c6	0.38551158
11	0xbe4b7f6c	-0.19872826
12	0x3e371baf	0.17881654
13	0x3e0f03f8	0.13966358
14	0xbccab289	-0.024743335
15	0x3e064518	0.13112295
16	0xbdd9e91c	-0.10640165
17	0xbe4268f5	-0.1898535
18	0x3d5bac47	0.053631093
19	0x3e657988	0.22409642
20	0x3cc2ef8e	0.02379587
21	0xbea57e15	-0.32322755
22	0x3d4bb055	0.04972871
23	0x3d05a88a	0.032631435
24	0x3d0155e1	0.03157604
25	0xbd512d5b	-0.051068645
26	0xbdd2354f	-0.10264074
27	0x3c140c2d	0.009036106
28	0xbe59964f	-0.21248744
29	0x3da45579	0.08024115
30	0x3e8e3278	0.2777288
31	0x3dda5243	0.106602214
32	0xbdb47f6d	-0.08813367
33	0xbe064d93	-0.1311553
34	0xbea587fc	-0.3233031
35	0xbe642238	-0.22278678
36	0xbe323add	-0.17405267
37	0x3d386524	0.04501833
38	0xbe04cc39	-0.1296853
39	0xbdfbea52	-0.123005524
40	0x3e700527	0.23439465
41	0xbe413d8e	-0.18871137
42	0xbc9d79de	-0.01922315
43	0xbd08e59d	-0.0334221
44	0x3cb93e11	0.022612603
45	0x3e296351	0.16541792
46	0xbdcd3701	-0.10020257
47	0xbe0dc912	-0.13846233
48	0x3ecaba0c	0.39595068
49	0xbd1f7707	-0.038931873
50	0xbd74a59a	-0.059728242
51	0x3e21af81	0.15789606
52	0x3e91395e	0.2836408
53	0x3df4696d	0.11934171
54	0x3e8d312b	0.27576575
55	0x3bef076d	0.0072945864
56	0x3e311408	0.17292798
57	0x3e69013b	0.22754376
58	0x3e90100b	0.2813724
59	0x3d8a86b8	0.06763977
60	0x3f00edb1	0.5036269
61	0x3e32d4f4	0.17464048
62	0x3e20fbd2	0.15721062
63	0x3eca536a	0.39516765

net_list.0.weight_ih_l2 f4 [64, 16]
0	0xbeb8ba03	-0.36079416
1	0xbef19d27	-0.4719021
2	0xbee5fb26	-0.44918174
3	0xbf144edf	-0.5793285
4	0x3eab4eb1	0.33458474
5	0x3e9deaff	0.3084335
6	0xbd745884	-0.059654728
7	0x3f078211	0.5293284
8	0x3e50b059	0.20379771
9	0x3dbb679e	0.09150623
10	0x3dae5f4f	0.085142724
11	0x3f05f251	0.5232287
12	0x3e013cb6	0.12620816
13	0xbeea2536	-0.45731515
14	0xbf2528eb	-0.6451556
15	0x3e944fdd	0.2896718
16	0x3e40f59a	0.1884369
17	0xbd3164ec	-0.043309137
18	0x3d90ce37	0.07070582
19	0xbe94d5bd	-0.2906932
20	0x3dd5f48a	0.10447033
21	0x3e4e9154	0.20172626
22	0xbd5d711d	-0.05406295
23	0x3e5fe77a	0.21865645
24	0x3e501839	0.2032174
25	0x3e8eabe7	0.27865526
26	0x3e6d81a1	0.23193981
27	0xbb78f9c3	-0.0037990666
28	0xbe41a275	-0.18909629
29	0x3e04429e	0.12916037
30	0xbe874a47	-0.26423857
31	0x3cc9a3b6	0.024614196
32	0xbe9b9cb9	-0.30393007
33	0xbe894f35	-0.26818243
34	0xbeaab890	-0.33343935
35	0xbe3df6c5	-0.18551166
36	0x3e7fd982	0.24985316
37	0x3dffa5d5	0.12482802
38	0x3ef343f6	0.47512788
39	0x3e03ff48	0.12890351
40	0x3da9d113	0.08291831
41	0x3e40d9fe	0.18833157
42	0x3ec6f786	0.3886072
43	0x3e974291	0.29542974
44	0x3eb47a4b	0.35249552
45	0xbf317486	-0.69318426
46	0xbec8fa9a	-0.39253694
47	0x3e53f94a	0.20700565
48	0xbe3ac118	-0.18237722
49	0xbdfcae7c	-0.12337968
50	0xbf07278b	-0.5279471
51	0xbedbf88c	-0.42963064
52	0x3ebcc058	0.36865497
53	0x3eca66fe	0.39531702
54	0x3e5eaef9	0.21746434
55	0x3e4eb8c1	0.20187666
56	0xbdc93e2a	-0.0982631
57	0x3e6a0658	0.22853982
58	0x3eac7ffc	0.33691394
59	0x3f18c6c1	0.59678274
60	0x3d9718cf	0.07377779
61	0xbf144c24	-0.5792868
62	0xbeacbc1d	-0.3373727
63	0x3e8409a4	0.25788605
64	0xbe14902e	-0.14508125
65	0xbd712136	-0.058869563
66	0x3dc20cb0	0.09475076
67	0x3c0b2169	0.008491852
68	0x3e0a95e2	0.13533738
69	0x3dd5bfd3	0.10436978
70	0x3f1a9cb1	0.6039534
71	0x3e42e264	0.19031674
72	0x3ef8ff3b	0.48632225
73	0x3d33fd5f	0.043942805
74	0xbd9d41f6	-0.07678597
75	0x3e5e049f	0.2168145
76	0x3eb57bdf	0.3544607
77	0xbd1d860b	-0.03845791
78	0x3b7bd351	0.0038425515
79	0x3d863fc3	0.0655513
80	0xbe3cc936	-0.18436131
81	0xbf1410a3	-0.57837886
82	0xbf07a2ef	-0.5298299
83	0xbf147d10	-0.5800333
84	0x3eb56533	0.3542877
85	0x3e839dca	0.2570632
86	0xbe112443	-0.14173989
87	0x3ef0ed2f	0.47055957
88	0xbe3146cc	-0.17312163
89	0x3f201044	0.6252482
90	0x3dbcf9d3	0.09227338
91	0x3ea55028	0.32287717
92	0x3e077c6b	0.13231055
93	0xbe1e218c	-0.15442485
94	0xbf334b34	-0.70036626
95	0xbd85019d	-0.06494448
96	0xbe930fcb	-0.28722987
97	0xbe8abe5c	-0.27098358
98	0xbe1e642d	-0.15467902
99	0xbef38e8a	-0.47569686
100	0x3e4b275d	0.19839235
101	0x3ee1a33b	0.44069847
102	0xbe2c5999	-0.16831054
103	0x3f01a9c8	0.5064969
104	0x3eb9a97b	0.36262116
105	0x3ed086c5	0.4072782
106	0x3ca70c48	0.020391598
107	0x3f0db95a	0.5536095
108	0x3efd3012	0.49450737
109	0xbf0d7a35	-0.552646
110	0xbed5252f	-0.4162993
111	0xbd4d7f6a	-0.05017034
112	0x3e022f57	0.12713371
113	0xbebc1dd9	-0.36741522
114	0x3da2f62d	0.079571106
115	0xbe858a06	-0.26081866
116	0xbdda83be	-0.10669659
117	0xbe1e77ca	-0.15475383
118	0xbc120b66	-0.00891385
119	0xbed73883	-0.42035303
120	0xbe8171e8	-0.25282216
121	0x3d355255	0.04426797
122	0xbdddd038	-0.1083073
123	0xbe0326d4	-0.1280778
124	0xbc2ce8ed	-0.010553581
125	0x3eed6448	0.4636557
126	0x3d5f94a8	0.05458513
127	0xbe6cd37b	-0.23127548
128	0x3dd43898	0.10362357
129	0x3e8a8f30	0.27062368
130	0xbe9a3af7	-0.30123112
131	0x3c82bce0	0.015959203
132	0x3e718c1a	0.23588601
133	0x3eaa557c	0.33268344
134	0x3e7460e7	0.2386509
135	0x3ee461f0	0.4460597
136	0x3e8ecfc5	0.2789289
137	0xbd9cc1fb	-0.07654186
138	0x3eaec8f4	0.3413769
139	0x3e2636d2	0.1623185
140	0x3e81816b	0.2529405
141	0xbe1546a5	-0.1457773
142	0xbe69f358	-0.22846735
143	0x3c81e2cd	0.015855217
144	0xbdadbb15	-0.08482949
145	0xbf411b2c	-0.75432086
146	0xbee3a019	-0.44458082
147	0xbf32f452	-0.69904053
148	0x3f43d9fa	0.7650448
149	0xbee73d20	-0.45163822
150	0x3d04a0f5	0.032380063
151	0x3ef05da2	0.46946436
152	0xbd94daad	-0.072682716
153	0x3f38cd18	0.7218795
154	0x3f065921	0.5247975
155	0x3ee01749	0.43767765
156	0xbea4b1fd	-0.32167044
157	0xbdaeb263	-0.08530118
158	0xbf1f3532	-0.62190545
159	0x3e405e22	0.18785909
160	0xbece4a1c	-0.40290916
161	0xbdaac113	-0.08337607
162	0xbe8884a5	-0.266637
163	0xbedf521b	-0.4361733
164	0x3efe75f9	0.4969938
165	0x3e0cd3a0	0.13752604
166	0x3cfdf1d7	0.030999107
167	0x3f0c9808	0.5491948
168	0xbe6fa27a	-0.23401824
169	0x3ea146c7	0.3149931
170	0x3ec8367b	0.39104065
171	0x3edd3944	0.43207753
172	0x3e60f09f	0.2196679
173	0xbf0b5b68	-0.5443635
174	0xbf2a6705	-0.66563445
175	0x3d942520	0.072336435
176	0xbf08daa8	-0.5345864
177	0xbec2251a	-0.3791893
178	0xbf1ded5d	-0.6169031
179	0xbdbb5d1f	-0.09148621
180	0x3f031f9a	0.51220095
181	0x3e0d972b	0.13827197
182	0x3f0e5bcf	0.5560884
183	0x3e848c3a	0.25888234
184	0xbdd2fca7	-0.10302096
185	0x3e7dfe29	0.24803986
186	0x3ea62ac1	0.32454494
187	0x3f056729	0.52110535
188	0xbd60ac78	-0.05485198
189	0xbefd275d	-0.49444094
190	0xbf0a4c51	-0.540227
191	0x3f14c1d2	0.58108246
192	0xbe552778	-0.20815837
193	0xbe0b069a	-0.13576737
194	0xbd31894d	-0.04334383
195	0x3b180460	0.0023195967
196	0x3ecaa666	0.39580077
197	0x3ee3e63b	0.4451159
198	0xbdf44e3b	-0.11928984
199	0x3e3fcb98	0.18730009
200	0xbde3cc4b	-0.1112295
201	0x3dcf9f5c	0.10137817
202	0x3e9844e7	0.29740068
203	0x3ec31970	0.38105345
204	0x3f2b8e7d	0.67014295
205	0xbf8db5dc	-1.1071124
206	0xbe19045b	-0.14943068
207	0x3e3e2d36	0.18571934
208	0xbe3a7f2d	-0.18212576
209	0xbd587fa7	-0.052856114
210	0x3cf271df	0.029595314
211	0xbe8e03c9	-0.27737263
212	0xbd85db30	-0.06535947
213	0x3dc8f13a	0.09811635
214	0x3e656440	0.22401524
215	0x3e0c7380	0.13715935
216	0x3da4c989	0.08046252
217	0x3d74874a	0.059699334
218	0xbd9a0508	-0.07520491
219	0xbdb2980f	-0.08720409
220	0xbe864661	-0.2622557
221	0x3c718100	0.014740229
222	0xbe18d563	-0.1492515
223	0x3d5d3c31	0.05401248
224	0xbe144bc9	-0.14482035
225	0xbdfd2127	-0.12359839
226	0x3cabf8c6	0.020992648
227	0x3c54d1fe	0.012989519
228	0x3e5d4ddc	0.21611732
229	0x3c92b5e7	0.017909003
230	0xbe12fbaf	-0.14353822
231	0x3e8ce95e	0.27521795
232	0x3e12ae56	0.14324316
233	0x3e1aa145	0.15100582
234	0x3c862e46	0.016379487
235	0x3d149591	0.03627545
236	0x3e5f9612	0.21834591
237	0xbea00804	-0.31256115
238	0xbdc6bb23	-0.09703662
239	0x3db9de61	0.090756185
240	0xbe4ec29a	-0.20191422
241	0xbeb045fa	-0.34428388
242	0xbe318e4d	-0.1733944
243	0xbeb01fb3	-0.34399185
244	0x3e1c1cf9	0.15245427
245	0x3e4bc4d7	0.19899307
246	0xbdd40812	-0.10353102
247	0x3ed88dab	0.42295584
248	0xbe97d176	-0.29651994
249	0x3e15b768	0.14620745
250	0xbd0b32cc	-0.03398399
251	0x3ebb8ff7	0.36633274
252	0xbe25814d	-0.16162606
253	0xbe903a5b	-0.28169522
254	0xbedc91f7	-0.43080112
255	0x3db853bc	0.09000346

net_list.0.weight_hh_l2 f4 [64, 16]
0	0x3e05ba74	0.13059407
1	0x3e922534	0.2854401
2	0x3e8780f6	0.26465577
3	0x3ed48238	0.415056
4	0x3ebedd93	0.37278423
5	0x3e95e778	0.2927816
6	0x3e761949	0.24033083
7	0xbeede1c1	-0.464613
8	0xbe8943be	-0.26809496
9	0x3f1331c1	0.57497793
10	0x3d9bf10d	0.07614336
11	0xbda3798a	-0.07982166
12	0xbe9fa62f	-0.31181476
13	0xbeec63b0	-0.46169806
14	0x3e0ef50f	0.1396067
15	0x3e9c3c02	0.30514532
16	0x3e44300f	0.19158958
17	0xbd1b5b55	-0.037928898
18	0xbe1d3bbe	-0.15354821
19	0xbda8c70c	-0.0824109
20	0x3e554419	0.20826758
21	0x3da91e36	0.082577154
22	0xbe166aa5	-0.14689119
23	0xbe986a16	-0.29768437
24	0xbe1c6011	-0.15271021
25	0xbcf07bdf	-0.029355941
26	0xbe82932e	-0.25502914
27	0xbd5a5753	-0.053305935
28	0xbe07f185	-0.13275726
29	0xbc3c6d48	-0.011500664
30	0x3e836ce8	0.25669026
31	0x3e2f1789	0.17098822
32	0x3e486a38	0.19571769
33	0x3ce1b33e	0.02755129
34	0x3d2aaf1e	0.04167091
35	0x3e3420de	0.17590663
36	0x3d4caf91	0.04997212
37	0xbd3e303a	-0.04643271
38	0xbd0c6c63	-0.034283053
39	0xbe08c24d	-0.1335537
40	0xbdda1d37	-0.106501035
41	0x3ea19d9c	0.3156556
42	0xbdff232a	-0.12457879
43	0xbe2a3fab	-0.1662585
44	0xbed9afe0	-0.42516994
45	0xbc533589	-0.012891182
46	0x3eece4cf	0.46268317
47	0x3ec3608d	0.381596
48	0xbd86712f	-0.06564557
49	0x3ef12982	0.4710198
50	0x3edca4f0	0.43094587
51	0x3e4106ad	0.18850203
52	0x3ebde0f6	0.37085694
53	0x3ed16043	0.40893754
54	0xbe2ba974	-0.1676386
55	0xbe2e9205	-0.1704789
56	0xbe376d8e	-0.17912886
57	0x3e877751	0.2645822
58	0x3d6c0bc6	0.057628416
59	0xbe4f446d	-0.20240946
60	0xbe936964	-0.28791344
61	0xbcd655cd	-0.02616396
62	0x3e74d14f	0.2390797
63	0x3e60a2e0	0.21937132
64	0xbd890ef6	-0.06692307
65	0xbe724e4f	-0.23662685
66	0x3de02844	0.1094518
67	0xbe80a063	-0.25122365
68	0x3d90f0f7	0.070772104
69	0x399509e5	0.00028426867
70	0x3e478bda	0.19486943
71	0xbea61df4	-0.32444727
72	0x3e1c2c0f	0.15251182
73	0xbe27328f	-0.1632788
74	0xbe065dbe	-0.13121697
75	0xbe7d6b3b	-0.24747936
76	0xbcd03522	-0.02541596
77	0xbe115509	-0.14192595
78	0x3e096397	0.13416897
79	0xbdd10c55	-0.1020743
80	0x3e4a10be	0.19732949
81	0x3eb4a05a	0.3527859
82	0x3e9cbbb3	0.30611953
83	0x3ebe395d	0.3715314
84	0x3f22ea4f	0.63638777
85	0x3e76fcfc	0.24119943
86	0x3d970f5d	0.07375977
87	0xbefeb459	-0.4974697
88	0xbef9a952	-0.48761994
89	0x3ed1861d	0.40922633
90	0x3e1d00a3	0.15332274
91	0xbe539c72	-0.20665148
92	0xbed438e7	-0.41449663
93	0xbe9507b0	-0.29107428
94	0x3ebefe3b	0.37303337
95	0x3f0f10ef	0.55885214
96	0x3dda0bca	0.1064678
97	0x3e1b90bd	0.15191932
98	0x3dfddbe5	0.12395457
99	0x3d81ea4c	0.06343517
100	0x3ed4eca3	0.4158679
101	0x3d9029c8	0.07039219
102	0xbe0b792f	-0.13620447
103	0xbe195271	-0.14972855
104	0xbf14246f	-0.57868093
105	0x3e8394cd	0.25699463
106	0xbc815a09	-0.015790002
107	0xbee624e5	-0.44950023
108	0xbdff3756	-0.12461726
109	0xbe66c3a4	-0.22535568
110	0x3e6d5bf5	0.2317961
111	0x3e7d5b2b	0.24741809
112	0x3e8db0ce	0.27673954
113	0x3da9a511	0.08283437
114	0xbd8e25dc	-0.06940815
115	0x3dcee35b	0.10101958
116	0x3d138c62	0.03602255
117	0x3e4631fc	0.19355005
118	0x3e2bdb37	0.16782843
119	0xbe4c18f7	-0.19931398
120	0xbdd0991a	-0.10185452
121	0x3e41a09f	0.18908928
122	0x3e5c2a60	0.2150054
123	0xbb48b2a4	-0.0030624056
124	0xbdb3135a	-0.087439254
125	0xbead05ab	-0.33793387
126	0x3ea1bc03	0.31588754
127	0xbe4c27c8	-0.1993705
128	0x3e3add87	0.18248568
129	0x3e44a30d	0.19202824
130	0xbcaa4372	-0.020784114
131	0x3d5b03f4	0.053470567
132	0xbd2dcf8b	-0.042434257
133	0x3daa3d99	0.0831253
134	0xbe5e6e8e	-0.21721861
135	0xbe991140	-0.29895973
136	0xbe5a5a61	-0.2132354
137	0x3eb5e5d2	0.355269
138	0x3ac0075f	0.0014650634
139	0xbe0264f8	-0.12733829
140	0xbe6b5906	-0.22983178
141	0x3de7d10b	0.11319169
142	0xbd3677e7	-0.04454794
143	0x3d5e3248	0.05424717
144	0x3dd3ef39	0.103483625
145	0x3f2dde8d	0.6791771
146	0x3ef0f1d4	0.470595
147	0x3e59be80	0.21264076
148	0x3f46d970	0.77675533
149	0x3c71b695	0.014753004
150	0xbdefa2b1	-0.11700953
151	0xbf12a495	-0.5728238
152	0xbf21d63f	-0.6321754
153	0x3efd1596	0.4943053
154	0xbdf513e0	-0.119666815
155	0xbeed8249	-0.46388462
156	0xbec972d5	-0.39345422
157	0xbf33f4a9	-0.70295197
158	0x3f03751d	0.51350576
159	0x3eb47193	0.352429
160	0x3e8abb45	0.27096
161	0x3e1b8045	0.1518565
162	0x3ea7ac25	0.32748523
163	0x3e303dd5	0.17211087
164	0x3ef5b767	0.47991487
165	0x3e470fd8	0.19439638
166	0x3de92fe5	0.11386088
167	0xbea5b5ee	-0.32365364
168	0xbe8a77b9	-0.27044466
169	0x3f0c0638	0.5469699
170	0x3ccccee5	0.025000999
171	0xbe37ae00	-0.1793747
172	0xbf06fc83	-0.5272905
173	0xbdb4f0c3	-0.08834984
174	0x3e802b5a	0.25033075
175	0x3ea7d9d4	0.32783377
176	0xbd583233	-0.05278225
177	0x3dacd832	0.084396735
178	0x3f071faa	0.5278269
179	0x3ea95d5e	0.33079046
180	0x3f08b016	0.53393686
181	0x3e7a4f09	0.24444212
182	0xbe574dcb	-0.2102577
183	0xbefcc443	-0.49368486
184	0xbe9046fe	-0.28179163
185	0x3e7d930e	0.24763128
186	0xbe21136a	-0.15730062
187	0xbe5afd8b	-0.21385781
188	0xbf025fc2	-0.50927365
189	0xbdfe83f5	-0.124275126
190	0x3d9eab9f	0.07747578
191	0x3eb2e491	0.34940007
192	0x3e0aebfd	0.13566585
193	0x3dbc6ea7	0.09200793
194	0x3e80bffa	0.25146466
195	0x3c9d90f6	0.019234162
196	0xbc9300b9	-0.01794468
197	0x3ddcf9a3	0.10789802
198	0xbe21c748	-0.15798676
199	0xbdc56e14	-0.09640136
200	0xbeaadb0c	-0.33370245
201	0xbd63f1ea	-0.05565063
202	0x3e398d18	0.18120229
203	0xbeb152db	-0.34633526
204	0xbeb24230	-0.34816122
205	0x3e15f7fb	0.14645378
206	0x3e8a6cbf	0.27036092
207	0x3e0f0cc9	0.13969721
208	0xbca51987	-0.020153774
209	0xbe401a1f	-0.18759964
210	0x3cd91b5a	0.0265023
211	0xbd32997e	-0.043603413
212	0x3e880761	0.2656813
213	0xbd5c2ac5	-0.053751726
214	0x3d1132c9	0.035448823
215	0xbd143223	-0.036180627
216	0xbe1ccb84	-0.1531201
217	0x3df8773b	0.121321164
218	0x3e6aa507	0.22914515
219	0x3db20d14	0.08693901
220	0xbda6bcf9	-0.081415124
221	0xbe5abc56	-0.21360907
222	0x3e792576	0.24330696
223	0xbd442b22	-0.047892697
224	0xbe7ad7c7	-0.24496375
225	0xbe67ec69	-0.22648777
226	0x3deabac2	0.114614025
227	0x3e49f291	0.19721438
228	0xbdf4a7b1	-0.11946047
229	0x3e997103	0.29969034
230	0x3e921664	0.28532708
231	0x3be4e868	0.006985713
232	0xbe0aac5a	-0.1354231
233	0x3e28f2a5	0.16498812
234	0xbdd0522d	-0.10171924
235	0x3e37c20d	0.17945118
236	0x3dbb8bd8	0.091575325
237	0x3e342955	0.17593892
238	0x3e2d911d	0.16949888
239	0x3c6780da	0.014129842
240	0xbb15913e	-0.0022822167
241	0x3dab1772	0.08354081
242	0x3e74760e	0.2387316
243	0x3dccbe80	0.099972725
244	0x3ea31221	0.3184977
245	0x3eed6b46	0.46370906
246	0x3dfb6814	0.12275711
247	0xbed0f4f8	-0.40811896
248	0xbf0cadef	-0.549529
249	0x3f0d65fc	0.5523374
250	0xbd40e678	-0.047094792
251	0xbe81564b	-0.2526115
252	0xbf00dac5	-0.50333816
253	0xbe660b6d	-0.22465296
254	0x3ec5cf3a	0.38634664
255	0x3ee55496	0.44791096

net_list.0.bias_ih_l2 f4 [64]
0	0x3e8446ee	0.25835365
1	0x3e16931f	0.1470456
2	0x3eb1e02b	0.3474134
3	0x3df4badd	0.11949704
4	0x3e8376f7	0.256767
5	0x3f20f7e9	0.6287828
6	0x3f09e273	0.5386116
7	0x3e582119	0.21106376
8	0x3cd90f32	0.026496504
9	0x3ef0dced	0.47043553
10	0x3e2d3653	0.16915254
11	0x3e585491	0.2112601
12	0x3e7621ef	0.24036382
13	0x3d275f41	0.040862326
14	0x3e00aa73	0.12565021
15	0x3ea31803	0.31854257
16	0xbe7c52fe	-0.24641034
17	0xbb81116c	-0.0039388444
18	0xbe2257a6	-0.15853748
19	0xbc82a4e1	-0.015947761
20	0x3da19eb6	0.078916
21	0xbd751169	-0.059831057
22	0xbe1a112d	-0.15045615
23	0x3e055952	0.13022354
24	0x3e3dc815	0.18533356
25	0xbe389530	-0.1802566
26	0xbe9515d4	-0.29118216
27	0x3de691d6	0.11258285
28	0x3d8c9cc5	0.06865839
29	0x3e6b0dea	0.22954527
30	0x3d2ba209	0.041902576
31	0xbe1b9562	-0.15193704
32	0xbd7c80ea	-0.06164638
33	0xbd2065f0	-0.039159715
34	0xbd9ce5b3	-0.07660999
35	0x3e370200	0.17871857
36	0x3e8cb415	0.27481142
37	0xbe31bce8	-0.17357218
38	0x3e397924	0.18112618
39	0xbe7b44fd	-0.24538036
40	0xbe96ba28	-0.294389
41	0x3e30bbca	0.17259136
42	0x3d98c7b5	0.07459966
43	0xbdd5cc8d	-0.104394056
44	0xbd00a411	-0.031406466
45	0x3d8e9fdb	0.06964084
46	0xbd63706c	-0.055527136
47	0x3e1ba24a	0.15198627
48	0x3f0cb4c5	0.5496333
49	0xbcd70f68	-0.026252463
50	0x3d4bf2e1	0.049792174
51	0x3eefac6c	0.46811235
52	0x3e633eee	0.22191975
53	0x3f2c82a4	0.6738684
54	0x3ef4a170	0.47779417
55	0xbdf5fda1	-0.120112665
56	0x3e4d9363	0.20075755
57	0x3f4926e6	0.7857498
58	0x3ee64302	0.44972998
59	0x3e86a904	0.26300824
60	0x3de9540a	0.11392982
61	0xbcc96eea	-0.02458902
62	0xbccefb42	-0.025266293
63	0x3efbb5e5	0.49162212

net_list.0.bias_hh_l2 f4 [64]
0	0x3f29205a	0.6606499
1	0x3e82ed9f	0.25571916
2	0x3e1f62b6	0.15564999
3	0x3deebba1	0.11656881
4	0x3d68cd2e	0.0568363
5	0x3ec5205a	0.38501245
6	0x3ed6610f	0.41870925
7	0x3e4b5421	0.19856311
8	0xbd9ebe13	-0.077510975
9	0x3f2a71c9	0.6657987
10	0x3ecee981	0.40412524
11	0x3e59b09a	0.21258774
12	0x3e655e92	0.22399357
13	0xbd83f536	-0.06443255
14	0x3de16c85	0.110070266
15	0x3ef9ef48	0.4881537
16	0xbe9861b8	-0.29762053
17	0x3dff9785	0.12480072
18	0xbd9f694a	-0.07783754
19	0xbe869543	-0.26285753
20	0xbe3e71cb	-0.18598096
21	0xbe9ce981	-0.306469
22	0xbc072dc8	-0.008250661
23	0xbd5eaaf5	-0.054362256
24	0x3e835c26	0.2565624
25	0xbe71d5c6	-0.23616704
26	0xbd8c0925	-0.06837682
27	0xbeb3a47f	-0.35086438
28	0xbdd1edc2	-0.10250427
29	0x3e573f52	0.21020249
30	0xbce74849	-0.02823271
31	0xbd961b2d	-0.07329402
32	0xbd94b922	-0.07261874
33	0xbd2342a3	-0.03985847
34	0x3e2f3860	0.17111349
35	0xbe0a7b20	-0.13523531
36	0x3cdc7aca	0.02691402
37	0x3e67570b	0.22591798
38	0xbd591898	-0.05300197
39	0xbe47fdd2	-0.19530419
40	0xbddbe71f	-0.10737442
41	0x3df6ace2	0.120446935
42	0xbe43a1c2	-0.19104674
43	0xbd5daf07	-0.054121997
44	0x3e0503e8	0.12989771
45	0x3da82353	0.082098626
46	0xbc4f9768	-0.012670375
47	0x3e0bef54	0.13665515
48	0x3f350454	0.7070973
49	0x3e9535fc	0.2914275
50	0x3e0d69b7	0.13809858
51	0x3ef02f5e	0.46911138
52	0x3e8a4aa3	0.27010068
53	0x3f1e702f	0.6188993
54	0x3eb640b7	0.35596249
55	0x3da63511	0.0811559
56	0xbb926a86	-0.004468265
57	0x3f2808b2	0.6563827
58	0x3f0cc51a	0.54988253
59	0x3da7fab4	0.08202115
60	0x3eaa1495	0.33218828
61	0x3e6c9e61	0.23107292
62	0xbd14c3ee	-0.036319666
63	0x3ead06af	0.33794162
