QIENetV1_0_0/QIENet_Conv1.pth (torch, 243905 bytes, 11 tensors)

net_list.0.cell_list.0.conv2d.weight f4 [64, 32, 3, 3]
0.089948036 0.049075257 0.058935877 0.043362554 0.070031755 0.021114722 0.06576368 0.06684887
0.034737732 0.06889683 0.037753887 0.099069275 0.04567286 0.06399484 -0.005827775 0.040684666
-0.0023200675 0.03892667 0.07360858 0.11379609 0.06070761 0.018399764 0.032830905 0.07512857
-0.021899618 -0.054614622 0.0524369 0.15470509 0.24256575 0.22004604 0.18291113 0.1694184
0.06390133 0.13117076 0.11143306 0.17282116 0.16186722 0.116350085 0.20712209 0.12535873
0.007760777 0.06645132 0.09828868 0.008863219 0.06197042 0.14974204 0.027802644 0.13006216
0.04075542 -0.018871496 0.034723084 0.005158675 -0.025357833 0.050446372 -0.25731984 -0.18223771
-0.07736762 -0.24975798 -0.10465358 -0.059696056 -0.16108425 -0.04648851 -0.090608604 -0.017235966
0.08250644 0.1292331 -0.0059951823 0.07533175 0.12836269 0.044711933 0.06458999 0.08375506
-0.045088623 -0.033841264 0.106547855 -0.03314699 0.031030508 0.12247158 -0.060943075 0.012778679
0.13243583 -0.075718105 0.032628696 0.009934363 -0.02379542 -5.5860062e-05 0.09318972 -0.04760857
-0.039226513 0.03374578 -0.1004623 -0.092669986 0.09321337 -0.04203956 -0.039924644 0.14457603
-0.0055584204 0.053358514 0.17978364 -0.18936428 -0.0075264913 0.0810553 -0.10878838 0.016363427
0.15937744 0.031241944 0.08042997 0.156939 -0.1484302 -0.019958813 0.034196813 -0.055747095
0.03627054 0.10580206 -0.086931586 -0.015627736 0.08988327 -0.17818232 -0.08523814 0.057996675
-0.08516623 0.029551815 0.099543 -0.022697262 0.053835757 0.032157306 -0.18094376 -0.07838469
0.049460042 -0.09987459 -0.104301326 0.010521347 -0.03279621 -0.02876015 0.008080629 -0.18197504
-0.09349789 0.010473922 -0.16243517 -0.11058626 -0.028450143 -0.1437386 0.0036733309 0.023855753
-0.126859 0.054834917 0.07299351 -0.20854464 0.03157399 0.017067902 -0.15920028 0.0003376698
0.056174014 -0.017419182 -0.1768465 -0.011089589 -0.14096168 -0.14752275 -0.15404145 -0.056766853
-0.20877376 -0.119913064 -0.21452658 -0.12608008 -0.109706976 -0.037650485 -0.03856184 -0.06115944
-0.012350341 -0.059029307 -0.032011796 -0.07106921 -0.04554646 -0.15223488 -0.1930592 -0.10197241
-0.22834495 -0.073170386 -0.09666559 -0.122296214 0.0052803475 0.1133801 0.13914888 0.1560151
0.12295195 0.1777087 0.16250671 0.15034223 0.17483272 0.04375055 -0.053441506 0.0503001
0.0022831904 -0.07943014 -0.0001640642 -0.28604603 -0.28331923 -0.1801644 -0.18960495 -0.13231558
-0.031321038 -0.13811138 -0.037796766 0.12758102 0.048904296 0.03196019 0.18931921 -0.12800023
-0.35903883 -0.3254746 -0.1408711 -0.2562019 -0.3161971 -0.050867066 -0.1843378 -0.21787247
-0.06179685 -0.10019147 -0.13023022 -0.17045143 -0.20901914 -0.11272161 -0.1898559 -0.2799818
-0.14046372 0.02943883 -0.03920516 -0.011094795 -0.110635385 -0.06990641 -0.0052844486 -0.08714437
-0.13767968 -0.10055795 -0.18085733 -0.005922317 0.019612523 -0.14104675 0.0005016024 -0.029693205
-0.059142865 0.026436668 -0.062328648 -0.26976657 -0.12333067 -0.09262277 -0.124715865 -0.09533326
-0.17137757 -0.17198224 -0.03959969 -0.16957322 0.057598416 0.11374268 -0.03844135 0.06335343
00000000: ad36 b83d 2303 493d bf66 713d ef9c 313d
00000010: cf6c 8f3d c8f8 ac3c 1caf 863d 0fe8 883d
00000020: 2749 0e3d c819 8d3d d2a3 1a3d d5e4 ca3d
00000030: 7713 3b3d ba0f 833d ecf6 bebb f7a4 263d
00000040: 460c 18bb 9271 1f3d 18c0 963d ed0d e93d
00000050: 8ba8 783d 1abb 963c b379 063d 02dd 993d
00000060: d466 b3bc 95b3 5fbd 13c8 563d 036b 1e3e
00000070: 2863 783e c053 613e 0e4d 3b3e 047c 2d3e
00000080: b3de 823d a151 063e 0437 e43d 08f8 303e
00000090: 85c0 253e f448 ee3d d017 543e 0a5e 003e
000000a0: 1e4e fe3b a117 883d 934b c93d 0937 113c
000000b0: b2d4 7d3d fa55 193e 5fc2 e33c 042f 053e
000000c0: 28ef 263d 6598 9abc cb39 0e3d 1a0a a93b
000000d0: 3bbb cfbc dba0 4e3d 6dbf 83be 869c 3abe
000000e0: ea72 9ebd 8ec0 7fbe 9e54 d6bd da83 74bd
000000f0: 45f3 24be bc6a 3ebd 0191 b9bd 7132 8dbc
00000100: 23f9 a83d af55 043e 3c73 c4bb 8847 9a3d
00000110: 8271 033e dc23 373d c247 843d c687 ab3d
00000120: d9ae 38bd 239d 0abd c335 da3d 23c5 07bd
00000130: b133 fe3c 61d2 fa3d 729f 79bd aa5d 513c
00000140: 429d 073e 1812 9bbd aba5 053d bdc3 223c
00000150: 9dee c2bc 494b 6ab8 40da be3d 3401 43bd
00000160: fbab 20bd 0439 0a3d 2ebf cdbd c3c9 bdbd
00000170: a7e6 be3d ac31 2cbd 0688 23bd bd0b 143e
00000180: 6923 b6bb 758e 5a3d 3419 383e b6e8 41be
00000190: c9a0 f6bb 5200 a63d 71cc debd 980c 863c
000001a0: d733 233e 1bef ff3c 78b8 a43d 9eb4 203e
000001b0: 16fe 17be aa80 a3bc f511 0c3d 1157 64bd
000001c0: 6b90 143d c0ae d83d 3009 b2bd bd05 80bc
000001d0: b814 b83d 6d75 36be 5591 aebd ec8d 6d3d
000001e0: a26b aebd a616 f23c 33dd cb3d 9cef b9bc
000001f0: e282 5c3d 61b7 033d 5249 39be 2788 a0bd
00000200: 9d96 4a3d 0d8b ccbd ef9b d5bd ba61 2c3c
00000210: 5255 06bd 689a ebbc 9d64 043c aa57 3abe
00000220: d27b bfbd d09a 2b3c 6855 26be 0d7b e2bd
00000230: 4610 e9bc 3630 13be 44bc 703b 246d c33c
00000240: 53e7 01be 949a 603d 9f7d 953d ba8c 55be
00000250: ba53 013d fcd1 8b3c 6605 23be 4609 b139
00000260: b916 663d acb2 8ebc 4017 35be 1cb1 35bc
00000270: 4258 10be 3410 17be 0bbd 1dbe 5c84 68bd
00000280: cac8 55be fb94 f5bd dbac 5bbe 231b 01be
00000290: 0dae e0bd 6537 1abd 05f3 1dbd 5282 7abd
000002a0: 1659 4abc b7c8 71bd cd1e 03bd bc8c 91bd
000002b0: ed8e 3abd 76e3 1bbe 50b1 45be e9d6 d0bd
000002c0: 42d3 69be 5bda 95bd 9cf8 c5bd 7076 fabd
000002d0: c406 ad3b d333 e83d 0b7d 0e3e 6cc2 1f3e
000002e0: 3bce fb3d 45f9 353e 2968 263e 50f3 193e
000002f0: 5907 333e c733 333d 7be5 5abd 7a07 4e3d
00000300: 94a1 153b 45ac a2bd a608 2cb9 a074 92be
00000310: 380f 91be 047d 38be cd27 42be bc7d 07be
00000320: 7d4a 00bd 126d 0dbe c8d0 1abd 99a4 023e
00000330: df4f 483d b0e8 023d e5dc 413e 7e12 03be
00000340: f0d3 b7be 9ba4 a6be 8340 10be e52c 83be
00000350: 96e4 a1be fc59 50bd 0cc3 3cbe f619 5fbe
00000360: b21e 7dbd 2f31 cdbd 125b 05be d28a 2ebe
00000370: 1d09 56be 96da e6bd 9669 42be c659 8fbe
00000380: b9d5 0fbe b429 f13c 9795 20bd f1c6 35bc
00000390: ce94 e2bd 182b 8fbd 2b29 adbb bf78 b2bd
000003a0: e7fb 0cbe 54f1 cdbd aa32 39be ff0f c2bb
000003b0: 71aa a03c 8f6e 10be f87d 033a 2a3f f3bc
000003c0: ca3f 72bd b691 d83c 534c 7fbd d81e 8abe
000003d0: ca94 fcbd 02b1 bdbd 086b ffbd 163e c3bd
000003e0: 9a7d 2fbe 1d1c 30be 4933 22bd 9aa4 2dbe
000003f0: 51ec 6b3d ecf1 e83d ad74 1dbd 71bf 813d

net_list.0.cell_list.0.conv2d.bias f4 [64]
0.0935904 0.02766839 -0.04516752 0.054295328 -0.04172042 -0.020124067 0.052700363 -0.1906381
-0.0099969525 -0.010135759 -0.116081215 0.029170316 0.02966833 0.0023271986 -0.010457253 -0.026522443
0.16585925 0.041202527 0.030081242 0.06526691 -0.00048143338 0.072923414 -0.040122554 0.13536817
0.04216257 0.12525888 0.0009152147 0.07277233 0.17746383 0.095793754 -0.03686274 -0.0071797
0.04635478 0.041033 0.015969476 0.046450827 -0.035832684 0.020294085 -0.034291737 -0.013086523
-0.045345098 0.02593021 0.06910795 0.0010580184 0.010173542 0.08141672 -0.008481481 0.029676089
0.11587573 0.1739519 0.05921817 0.0053088544 0.02567535 0.060097404 -0.0010667038 0.1305526
0.08168722 0.06247688 0.04438717 0.17567712 0.10003015 0.21503988 0.013767168 0.08618114
00000000: 53ac bf3d d2a8 e23c 9401 39bd c764 5e3d
00000010: 08e3 2abd 3adb a4bc 56dc 573d a236 43be
00000020: 42ca 23bc 7410 26bc fdbb edbd 96f6 ee3c
00000030: ff0a f33c ea83 183b e654 2bbc 9845 d9bc
00000040: 02d7 293e fbc3 283d f06c f63c a8aa 853d
00000050: e568 fcb9 df58 953d 8c57 24bd f49d 0a3e
00000060: a9b2 2c3d dd43 003e 05eb 6f3a a909 953d
00000070: 14b9 353e 842f c43d 62fd 16bd b043 ebbb
00000080: 83de 3d3d 3812 283d 6bd2 823c 3943 3e3d
00000090: 4bc5 12bd c83f a63c 7e75 0cbd db68 56bc
000000a0: c8bb 39bd 976b d43c 7888 8d3d 35ad 8a3a
000000b0: eeae 263c cfbd a63d e9f5 0abc 451b f33c
000000c0: 4150 ed3d 7220 323e c08e 723d e6f5 ad3b
000000d0: 1d55 d23c b228 763d a4d0 8bba 95af 053e
000000e0: a14b a73d c2e7 7f3d 52cf 353d b4e4 333e
000000f0: 9bdc cc3d 6a33 5c3e b08f 613c bd7f b03d

net_list.0.cell_list.1.conv2d.weight f4 [64, 32, 3, 3]
-0.01525682 -0.011478055 0.11741885 -0.041419037 0.02495213 0.069932535 0.050036937 0.020085052
0.1490483 0.08365517 0.121718846 0.18271972 0.013751188 0.07648158 0.18756768 0.08198743
0.24381542 0.25343773 -0.046142176 -0.06334476 -0.06620108 -0.04979866 -0.10799313 -0.042297766
0.1385233 0.06501979 0.06090608 0.06780273 0.04300891 0.03794638 0.066515066 0.07037285
-0.031358607 0.04605048 0.07354667 0.017560385 -0.09315198 -0.10334443 -0.06464764 -0.052614428
-0.121306725 -0.09682661 -0.037807435 -0.026537018 -0.062640585 -0.026619947 0.004366204 0.027765807
0.12259322 0.08736033 0.031778865 0.1541212 0.059351157 0.071705945 -0.16589445 -0.15149525
-0.120475486 -0.18354627 -0.1942747 -0.12672597 -0.29847178 -0.245035 -0.13165465 0.24731508
0.23594193 0.18901601 0.110825 0.14739072 0.1293922 0.045345698 -0.026674729 0.038882483
-0.0947095 -0.074978516 -0.1355972 -0.051441316 -0.10791993 -0.1258359 -0.07540657 -0.13401112
-0.11220504 0.07640803 0.09470379 0.12868527 0.036429256 0.012581391 0.044160027 0.08911439
0.07295168 0.16205433 -0.2662208 -0.16974586 -0.07738532 -0.2253864 -0.22467253 -0.15367006
-0.2128153 -0.1695908 -0.13565426 -0.11966444 -0.16789278 -0.043047413 -0.12869768 -0.13554773
-0.09708157 -0.1596082 -0.18270074 -0.17885438 0.07259975 0.14047462 0.05949659 0.18962628
0.12574807 0.11494775 0.060163025 0.072972395 -0.06670265 -0.047925983 -0.033983603 -0.05762728
-0.12687145 -0.06348285 -0.024539726 -0.1992156 -0.17834844 -0.08309962 -0.15368022 -0.15060174
-0.032620724 -0.13582243 -0.12077265 -0.10205909 -0.1632553 -0.06065587 -0.0033837692 0.21617597
0.19973673 0.20302057 0.17342979 0.18576162 0.18212488 0.115691304 0.12710541 0.14051117
-0.051368374 0.01854509 0.07900962 -0.00454845 -0.023317078 0.016234215 -0.10956613 -0.04002925
-0.05751336 0.31976193 0.37333012 0.27234897 0.2601697 0.2910627 0.21623147 0.2720387
0.17761831 0.20483151 0.2818625 0.24014571 -0.051762562 0.19101657 0.13248539 -0.16473511
-0.029338947 -0.1551641 -0.31931344 0.10761634 0.0058245524 0.021726996 0.09269488 0.037920587
0.06961426 0.08471145 -0.05279865 -0.030097539 -0.0348224 -0.13160531 -0.110930055 -0.08392617
-0.12654756 -0.14592023 -0.032355502 -0.0410736 -0.12301484 -0.09680513 -0.0060213264 -0.0679558
-0.027405292 -0.021906963 0.026825119 -0.024366051 -0.012327141 -0.049428217 -0.04732065 0.01243975
0.06337782 0.0089792 0.07133362 -0.0096464725 -0.071227916 -0.043283153 -0.041741718 0.028693087
-0.15679815 -0.1477695 -0.054066375 -0.16628702 -0.14732969 -0.13593875 -0.186798 -0.11958668
0.023155408 -0.03379238 -0.07944255 -0.016569983 0.028524637 -0.045428097 0.10388379 0.094507545
0.09903451 -0.05658232 -0.040329013 -0.120470256 -0.030021852 -0.040420007 -0.10686734 -0.019462239
-0.07399544 0.033409163 -0.15692204 -0.024591504 -0.04470265 -0.10503949 -0.100516565 0.029933194
-0.14617689 -0.09169711 -0.09242542 0.023430495 0.030523343 0.2011236 0.08788818 0.11442345
0.20191458 0.04810478 0.10326478 0.046846684 0.04167275 0.0077667157 -0.028951421 -0.040060624
00000000: bef7 79bc 740e 3cbc 4b79 f03d 02a7 29bd
00000010: 6968 cc3c ca38 8f3d 88f3 4c3d 6889 a43c
00000020: 1ea0 183e 6753 ab3d bb47 f93d e11a 3b3e
00000030: aa4c 613c 60a2 9c3d be11 403e 07e9 a73d
00000040: c0aa 793e 97c2 813e 94ff 3cbd e6ba 81bd
00000050: 6f94 87bd aef9 4bbd 812b ddbd 6c40 2dbd
00000060: 0dd9 0d3e 1829 853d a778 793d 28dc 8a3d
00000070: 1c2a 303d aa6d 1b3d 0d39 883d a41f 903d
00000080: e271 00bd 6e9f 3c3d a39f 963d ccda 8f3c
00000090: 77c6 bebd 3fa6 d3bd fb65 84bd 3a82 57bd
000000a0: a96f f8bd 084d c6bd f8db 1abd 2964 d9bc
000000b0: b549 80bd 1312 dabc 6012 8f3b 1e75 e33c
000000c0: 2712 fb3d f9e9 b23d 8e2a 023d f3d1 1d3e
000000d0: 331a 733d 91da 923d 3ce0 29be 9221 1bbe
000000e0: dabb f6bd 8ef3 3bbe f2ef 46be 74c4 01be
000000f0: 4bd1 98be 74ea 7abe 7ad0 06be 2a40 7d3e
00000100: c39a 713e 6a8d 413e 38f8 e23d 98ed 163e
00000110: 647f 043e 69bc 393d f684 dabc 3d43 1f3d
00000120: 0ef7 c1bd 568e 99bd fed9 0abe 21b4 52bd
00000130: 2005 ddbd 20db 00be c36e 9abd 363a 09be
00000140: c2cb e5bd d07b 9c3d 10f4 c13d 12c6 033e
00000150: d836 153d 2e22 4e3c 25e1 343d 9b81 b63d
00000160: b167 953d 92f1 253e 184e 88be dcd1 2dbe
00000170: 327c 9ebd b1cb 66be 8e10 66be af5b 1dbe
00000180: 41ec 59be 36a9 2dbe f3e8 0abe a112 f5bd
00000190: 16ec 2bbe 7c52 30bd 53c9 03be 06cd 0abe
000001a0: b4d2 c6bd 5570 23be e715 3bbe 9a25 37be
000001b0: 2daf 943d 94d8 0f3e b2b2 733d 642d 423e
000001c0: 1ac4 003e ba69 eb3d 816d 763d 8d72 953d
000001d0: 669b 88bd 094e 44bd 6432 0bbd 950a 6cbd
000001e0: 97ea 01be 4c03 82bd 8907 c9bc 2dff 4bbe
000001f0: f9a0 36be 2230 aabd 595e 1dbe 5837 1abe
00000200: 4f9d 05bd 0915 0bbe a757 f7bd 5b04 d1bd
00000210: 662c 27be 4a72 78bd 3ac2 5dbb 3c5d 5d3e
00000220: c987 4c3e a0e4 4f3e 9497 313e 4b38 3e3e
00000230: f27e 3a3e 90ef ec3d ec27 023e 29e2 0f3e
00000240: a567 52bd dfeb 973c cccf a13d 2a0b 95bb
00000250: 7503 bfbc 9efd 843c 3564 e0bd b6f5 23bd
00000260: 2193 6bbd d6b7 a33e 2025 bf3e 5371 8b3e
00000270: f734 853e 2c06 953e c86b 5d3e a848 8b3e
00000280: 93e1 353e 5abf 513e 4850 903e c2e8 753e
00000290: fb04 54bd d999 433e 40aa 073e 52b0 28be
000002a0: 3b58 f0bc 56e3 1ebe 0d7d a3be f565 dc3d
000002b0: e3db be3b d0fc b13c d0d6 bd3d 9e52 1b3d
000002c0: ec91 8e3d 327d ad3d 6643 58bd 1d8f f6bc
000002d0: efa1 0ebd 8bc3 06be 4c2f e3bd 7ce1 abbd
000002e0: af95 01be 1d6c 15be 3487 04bd cb3c 28bd
000002f0: 34ef fbbd c541 c6bd 8c4e c5bb 692c 8bbd
00000300: 1081 e0bc 3b76 b3bc 5ac0 db3c 509b c7bc
00000310: c7f7 49bc 3e75 4abd 4cd3 41bd 18d0 4b3c
00000320: 3bcc 813d 7f1d 133c 5c17 923d 3d0c 1ebc
00000330: f1df 91bd ad49 31bd 5df9 2abd c40d eb3c
00000340: b28f 20be e350 17be b474 5dbd 2547 2abe
00000350: 98dd 16be 8733 0bbe fa47 3fbe dce9 f4bd
00000360: 69b0 bd3c e169 0abd c7b2 a2bd c6bd 87bc
00000370: 80ac e93c d012 3abd 06c1 d43d 2c8d c13d
00000380: 9bd2 ca3d ddc2 67bd 0930 25bd 1cb9 f6bd
00000390: 63f0 f5bc 738f 25bd 44dd dabd 466f 9fbc
000003a0: ec8a 97bd 0cd8 083d 2cb0 20be 1f74 c9bc
000003b0: 201a 37bd f21e d7bd a1db cdbd 7536 f53c
000003c0: 65af 15be b2cb bbbd 8a49 bdbd 4ff1 bf3c
000003d0: 170c fa3c 58f3 4d3e b8fe b33d d756 ea3d
000003e0: b2c2 4e3e 8509 453d 7c7c d33d 4fe2 3f3d
000003f0: 0cb1 2a3d ef7f fe3b 882b edbc 9c16 24bd

net_list.0.cell_list.1.conv2d.bias f4 [64]
-0.009011996 0.014663969 -0.016003255 0.02168344 0.027425906 0.08105247 -0.03035818 -0.02370475
0.038335662 -0.006664438 -0.026559805 0.014909311 -0.054691195 0.06777293 -0.059313226 -0.059311442
0.15781713 0.07116956 0.17204772 0.053546175 0.028948812 0.11332168 0.011398229 0.12743242
0.10365509 0.016127808 -0.02871729 0.023658937 0.047912348 0.145869 0.2096503 0.00038304852
-0.013514342 0.06451987 -0.11662466 0.0015168297 0.07966234 -0.014391985 -0.115578674 0.037457563
0.03662619 -0.009188957 -0.09677775 0.09494429 -0.034753587 -0.07778316 -0.06173809 0.0034044522
0.18254837 0.030958071 0.22524406 0.046643104 0.07748625 0.055049982 0.10376641 0.06104774
0.049791977 0.06968668 -0.01379494 0.07171445 0.070349485 0.13114251 0.25232866 0.006795694
00000000: 0da7 13bc 2541 703c 4219 83bc 78a1 b13c
00000010: 4bac e03c d6fe a53d b8b1 f8bc 7730 c2bc
00000020: db05 1d3d 5c61 dabb f393 d9bc 2f46 743c
00000030: e003 60bd 89cc 8a3d 6df2 72bd 8ef0 72bd
00000040: d09a 213e 59c1 913d 472d 303e 3c53 5b3d
00000050: 0f26 ed3c 3215 e83d a3bf 3a3c a57d 023e
00000060: 1f49 d43d 771e 843c 8640 ebbc 63d0 c13c
00000070: bd3f 443d af5e 153e 91ae 563e e7d3 c839
00000080: 426b 5dbc fe22 843d e9d8 eebd 5cd0 c63a
00000090: 0226 a33d 5ccc 6bbc 83b4 ecbd 1a6d 193d
000000a0: 5805 163d 478d 16bc 6a33 c6bd 2772 c23d
000000b0: c759 0ebd c74c 9fbd 14e1 7cbd 3b1d 5f3b
000000c0: f6ed 3a3e c89b fd3c 61a6 663e d70c 3f3d
000000d0: 1cb1 9e3d 177c 613d 7c83 d43d 320d 7a3d
000000e0: acf2 4b3d e4b7 8e3d 2c04 62bc 07df 923d
000000f0: 6413 903d 394a 063e 3931 813e 6aae de3b

net_list.0.cell_list.2.conv2d.weight f4 [64, 32, 3, 3]
-0.0365309 0.040796667 0.00070347555 -0.07193818 0.0015021447 0.078497104 0.1428325 0.19741732
0.21820636 0.11923051 -0.07579326 -0.055253487 0.0668847 0.013711635 -0.015692603 0.028741645
0.049440924 0.008497961 0.11275045 -0.08882359 -0.029126761 0.11642109 -0.03316935 0.06645624
0.05549034 -0.068115346 -0.04416866 -0.065574095 -0.053039506 0.036707856 -0.12414645 -0.025738213
0.0863143 -0.072080106 -0.08289317 0.0653359 -0.107523605 -0.005681913 -0.017621808 -0.071000196
-0.020815909 -0.0004400115 -0.09086512 -0.11201319 -0.014999724 0.033121236 -0.06925079 -0.036822002
0.02992043 0.08464623 0.08095375 -0.043875504 0.06937124 -0.019375557 -0.02606846 -0.035830352
0.039626177 -0.020235583 -0.047388036 0.022200018 -0.068508476 0.022829026 -0.017213127 -0.032364495
0.011325888 0.17672086 -0.123152465 -0.00029489739 0.038171984 -0.057209212 0.029143373 0.10035984
-0.10907013 -0.19444174 -0.0019015917 -0.044473447 0.062008943 0.057700623 -0.15231936 -0.17351253
0.12755674 -0.22255893 -0.0917992 -0.020757768 -0.114847206 0.0023431163 0.043250144 -0.007435454
-0.063800186 0.046139546 -0.010048641 0.02930487 -0.017563652 0.028034369 0.027688224 -0.039817795
-0.050273396 -0.043087948 -0.049631387 0.12123783 -0.12601197 -0.31472066 0.019593695 -0.084123544
-0.20786469 -0.0004253534 -0.061206885 -0.31572446 -0.07852696 -0.02891163 0.050391324 -0.009000102
0.0056449035 -0.014370194 0.047098495 0.09977876 0.08290789 0.033995528 0.059409488 -0.039435998
-0.034134187 0.03227696 0.02869047 -0.0023177713 -0.051406316 0.05178254 0.115150735 0.12655778
0.25571343 0.06848039 0.09898314 0.13491802 0.014684783 -0.035131503 0.08417256 -0.109238684
-0.089115515 -0.064565025 -0.13985041 -0.12853006 -0.05034608 -0.07492723 -0.10555364 0.034482546
0.04808983 0.016816942 -0.022617703 -0.03590501 -0.027320663 0.006451852 -0.00056416856 -0.1050714
-0.06324777 -0.032602657 0.02272909 -0.22848575 0.048275836 -0.10259293 -0.29303998 0.0025368861
-0.01739495 -0.19980404 0.12936634 0.07624708 -0.030048532 0.059908893 0.031873174 -0.007955643
0.014443912 0.06892931 -0.00036157516 0.030159626 -0.040175557 0.04580302 -0.017848667 -0.06680047
0.024671407 0.034269653 -0.03437903 0.021180786 0.13889813 0.1333838 0.107721746 0.1069414
0.09266948 0.06166981 0.11028967 0.074205436 0.085601896 -0.055801224 -0.101624124 -0.057097342
-0.029084267 -0.053192005 -0.05177944 -0.087004416 -0.05176692 -0.11254279 -0.038372166 0.054936867
0.0557241 0.013584925 0.043697763 0.045450773 -0.08868607 0.10879249 0.10951561 -0.059036586
-0.112194225 -0.05064224 0.008212252 -0.06895038 -0.001023347 -0.014841657 -0.039820988 0.062263962
-0.10324626 -0.09003672 0.05758214 -0.024354752 -0.01434434 -0.011353278 0.0058992985 0.017604457
-0.014174912 0.045965627 -0.02740229 -0.008135069 -0.01155215 0.049784355 0.049263917 0.032951977
-0.0021394659 0.022071898 -0.05248279 -0.013266932 0.007403345 -0.006774538 -0.011339948 -0.006813412
-0.0015408047 0.0143848155 -0.07243743 0.00903767 -0.051415574 -0.032045946 -0.06980675 -0.060633875
-0.040859304 -0.048799742 -0.07107634 -0.1895509 -0.03861087 -0.020855445 -0.08084227 0.006492829
00000000: 6da1 15bd 681a 273d 7269 383a 5354 93bd
00000010: 9de3 c43a 17c3 a03d af42 123e c427 4a3e
00000020: 7d71 5f3e 202f f43d 7f39 9bbd 7b51 62bd
00000030: d8fa 883d c4a6 603c c68d 80bc 9973 eb3c
00000040: 9182 4a3d 083b 0b3c b5e9 e63d 24e9 b5bd
00000050: 3f9b eebc 2e6e ee3d 96dc 07bd 361a 883d
00000060: d749 633d 0f80 8bbd 32ea 34bd b64b 86bd
00000070: f43f 59bd fa5a 163d 7e40 febd f2d8 d2bc
00000080: 8dc5 b03d bc9e 93bd e5c3 a9bd d4ce 853d
00000090: 5635 dcbd 572f babb 9c5b 90bc 8d68 91bd
000000a0: 2086 aabc 58b1 e6b9 7e17 babd 2c67 e5bd
000000b0: 67c1 75bc 22aa 073d 5cd3 8dbd abd2 16bd
000000c0: b11b f53c 015b ad3d 14cb a53d cdb6 33bd
000000d0: 8212 8e3d 7db9 9ebc 868d d5bc d9c2 12bd
000000e0: 0f4f 223d 18c5 a5bc f519 42bd d0dc b53c
000000f0: 2c4e 8cbd f003 bb3c 8b02 8dbc a290 04bd
00000100: 3890 393c 50f6 343e 5c37 fcbd 759c 9ab9
00000110: 3a5a 1c3d 3554 6abd 15be ee3c 7689 cd3d
00000120: 2960 dfbd bc1b 47be d43e f9ba ca29 36bd
00000130: 17fd 7d3d 7d57 6c3d 9bf9 1bbe 45ad 31be
00000140: 3c9e 023e 7de6 63be 3801 bcbd 320c aabc
00000150: 0335 ebbd f88e 193b 1027 313d 1ca5 f3bb
00000160: aca9 82bd d2fc 3c3d 0ea3 24bc c410 f03c
00000170: a6e1 8fbc 55a8 e53c 6ad2 e23c fc17 23bd
00000180: 7aeb 4dbd fd7c 30bd 484a 4bbd 8a4b f83d
00000190: 4809 01be 1123 a1be f582 a03c f748 acbd
000001a0: 7bda 54be f801 dfb9 12b4 7abd a3a6 a1be
000001b0: bed2 a0bd 15d8 ecbc 2267 4e3d 2a75 13bc
000001c0: e2f8 b83b f670 6bbc 5aea 403d ce58 cc3d
000001d0: 9dcb a93d e53e 0b3d 5d57 733d a487 21bd
000001e0: 4ad0 0bbd d834 043d 4708 eb3c c0e5 17bb
000001f0: 6e8f 52bd ee19 543d 26d4 eb3d 5d98 013e
00000200: dfec 823e 723f 8c3d acb7 ca3d f327 0a3e
00000210: 7298 703c 0de6 0fbd aa62 ac3d 88b8 dfbd
00000220: 3282 b6bd ab3a 84bd f234 0fbe 629d 03be
00000230: b137 4ebd 7373 99bd 822c d8bd 923d 0d3d
00000240: d7f9 443d afc3 893c c348 b9bc 2211 13bd
00000250: 95cf dfbc 0f6a d33b b6e4 13ba ad2f d7bd
00000260: 0c88 81bd 5d8a 05bd 5b32 ba3c 2bf8 69be
00000270: e2bc 453d 3e1c d2bd 5609 96be e341 263b
00000280: db7f 8ebc 6e99 4cbe 9c78 043e 6e27 9c3d
00000290: 5728 f6bc 0763 753d 728d 023d 6358 02bc
000002a0: 28a6 6c3c cf2a 8d3d cc91 bdb9 5211 f73c
000002b0: 208f 24bd f39b 3b3d 5e37 92bc afce 88bd
000002c0: b11b ca3c 565e 0c3d 07d1 0cbd 5483 ad3c
000002d0: 503b 0e3e c395 083e 389d dc3d 1804 db3d
000002e0: 7fc9 bd3d 7c99 7c3d 8ddf e13d 05f9 973d
000002f0: 0c50 af3d d38f 64bd 4f20 d0bd e7de 69bd
00000300: 2142 eebc dcdf 59bd ae16 54bd 5f2f b2bd
00000310: 8d09 54bd d67c e6bd 222c 1dbd 7b05 613d
00000320: f43e 643d 4e93 5e3c 6dfc 323d 972a 3a3d
00000330: 0ba1 b5bd 99ce de3d b849 e03d 59d0 71bd
00000340: 16c6 e5bd 3d6e 4fbd ae8c 063c db35 8dbd
00000350: d421 86ba 6c2a 73bc 551b 23bd 7f08 7f3d
00000360: c672 d3bd 2c65 b8bd 40db 6b3d 9e83 c7bc
00000370: 8604 6bbc 1903 3abc e74e c13b 3937 903c
00000380: e43d 68bc 7446 3c3d c47a e0bc f448 05bc
00000390: 3b45 3dbc aeea 4b3d f6c8 493d a7f8 063d
000003a0: 4836 0cbb 20d0 b43c 32f8 56bd 8c5d 59bc
000003b0: c297 f23b f2fc ddbb 30cb 39bc 0b43 dfbb
000003c0: d4f4 c9ba 4aae 6b3c 135a 94bd bc12 143c
000003d0: 2399 52bd 9c42 03bd d7f6 8ebd 3a5b 78bd
000003e0: 165c 27bd 3de2 47bd 7990 91bd a219 42be
000003f0: 6e26 1ebd 0ad9 aabc a290 a5bd ccc1 d43b

net_list.0.cell_list.2.conv2d.bias f4 [64]
-0.04051964 -0.059377182 -0.0076179807 -0.015925696 0.059709795 0.059703257 -0.017121453 0.063431874
0.04236298 0.14959437 -0.020492265 0.05516997 -0.011648365 0.01943959 0.078105465 0.07409018
0.11847195 0.11599954 -0.031010823 0.05428047 0.12659338 0.11799897 0.017181467 -0.008594344
0.090105936 0.14843261 0.04467811 0.06739932 0.07844005 -0.013990738 0.057264812 0.032915235
-0.09338783 0.053567544 0.09413625 -0.099789284 -0.11884681 0.14523304 -0.078035295 0.081632935
0.11913642 -0.18959111 -0.07157644 -0.052228387 -0.05657185 -0.058099553 0.13434045 0.14274803
0.042403683 0.06923485 0.008164959 0.040960945 0.017868467 0.011977557 0.014679426 -0.0673747
0.04833778 0.14930554 -0.006136662 0.11272534 -0.046583742 -0.027537322 0.031483788 0.047229875
00000000: ecf7 25bd 7d35 73bd 41a0 f9bb 9b76 82bc
00000010: 4292 743d 678b 743d 4a42 8cbc 92e8 813d
00000020: ce84 2d3d 442f 193e 65df a7bc e8f9 613d
00000030: c9d8 3ebc c63f 9f3c c2f5 9f3d 98bc 973d
00000040: 6ca1 f23d 2b91 ed3d 690a febc 3355 5e3d
00000050: b2a1 013e 72a9 f13d 26c0 8c3c 4bcf 0cbc
00000060: 7689 b83d b8fe 173e 6500 373d a808 8a3d
00000070: 2da5 a03d 6939 65bc 828e 6a3d 20d2 063d
00000080: 1e42 bfbd a469 5b3d 82ca c03d 535e ccbd
00000090: f565 f3bd f8b7 143e f8d0 9fbd 2b2f a73d
000000a0: ccfd f33d 2c24 42be ab96 92bd 6fed 55bd
000000b0: e2b7 67bd ccf9 6dbd 8b90 093e 8a2c 123e
000000c0: 7caf 2d3d 00cb 8d3d 52c6 053c aac6 273d
000000d0: e460 923c 843d 443c fa81 703c bffb 89bd
000000e0: d6fd 453d 8de3 183e 0d16 c9bb 8bdc e63d
000000f0: 98ce 3ebd f395 e1bc 25f5 003d 1d74 413d

net_list.3.weight f4 [16, 22, 3, 3]
0.06377062 0.038721677 0.045979336 0.00548388 0.051410794 0.024390714 -0.0410837 -0.0228534
0.026176147 -0.033672765 0.038511366 0.025120642 -0.09217957 -0.025974806 0.029332863 0.040687907
0.071526036 -0.019561315 -0.052764848 -0.107137546 -0.16425304 -0.10669714 -0.06763374 -0.19131929
-0.017456891 -0.031011129 -0.038845167 0.018244037 -0.05092001 0.012996098 0.040917963 -0.0371178
-0.0183702 -0.017467374 -0.07480961 0.040354587 0.017087277 0.013954656 0.0049958946 0.023951214
0.010839162 -0.0153427515 -0.04202145 0.0387144 -0.031190263 -0.07130765 0.035176113 -0.055283803
-0.06536679 0.06687405 0.06660898 0.05314581 0.0049136295 0.047418125 -0.12943187 -0.008069227
-0.015780255 0.031732768 0.04612339 -0.12607515 -0.017886892 -0.036983658 0.014241951 -0.091846436
0.033342123 0.030703343 -0.076584175 -0.08418574 -0.08770156 -0.031510808 -0.0446132 0.037945468
0.007826328 8.6884764e-05 0.04307227 0.05846256 0.045480374 -0.053166773 0.04319023 0.04289008
-0.06412272 0.010072766 -0.06172258 -0.049078003 -0.0047835344 -0.04467902 -0.019210557 -0.03566878
0.03954634 0.023902666 -0.099215485 0.014764806 -0.08069111 -0.0954746 -0.0611526 -0.011413271
-0.002038473 -0.039079778 -0.06406437 0.0057930164 -0.03537914 0.12374646 0.00039738652 0.011522154
0.08249636 0.081634425 0.09361757 -0.001396809 0.047652062 0.023669316 0.04908774 0.07624316
-0.025823358 0.03496199 0.08007899 0.0778037 0.04949694 0.077656835 0.03977935 0.06733572
0.118151434 0.06633733 -0.05905823 0.07624121 0.0061162924 0.06759024 0.018588847 -0.06391637
0.05677311 0.05098863 0.03906524 0.023789264 0.0057288236 -0.021507416 0.034817964 -0.05201381
0.0016044849 0.0039296397 -0.09686586 0.009622079 -0.04193239 -0.052410893 0.041564956 -3.2672997e-05
0.0003312108 0.025846936 0.051148362 -0.042680547 0.0077368724 0.013535259 -0.029328655 -0.009678611
0.009379224 -0.017950432 -0.057433154 -0.024725543 0.02782564 0.022634415 -0.0077944044 0.071839415
0.038739208 0.06472298 0.05500198 -0.04564676 -0.030167777 0.058107033 -0.020146377 -0.07130642
-0.080843434 -0.06985527 0.019173596 0.05993575 0.025544088 0.0028092633 0.0403089 -0.006724933
0.067968085 0.06431028 0.052665092 0.0753015 -0.040160175 0.07972271 -0.0291128 0.042166367
-0.035213053 0.0908369 0.04876884 0.039548878 -0.018902957 0.022038147 0.013264397 -0.006718127
0.04286965 0.020447524 0.002543899 -0.021180907 -0.04834192 0.0048379493 0.0048645455 0.020925423
-0.014730309 0.049302954 0.030890988 -0.037454788 0.040447213 0.027342191 -0.00753232 -0.012586228
0.08832844 -0.057531726 0.013252628 0.043740164 -0.03864743 -0.016557109 0.084232524 -0.045260716
0.026022077 -0.045251925 -0.020941198 0.05636916 0.049022295 0.031542294 -0.045799162 0.009354791
-0.046140842 0.04162858 0.07778593 0.0014204944 0.003768692 -0.037804157 0.028899847 0.030309318
0.02089188 0.019299373 0.13065402 0.10431067 0.08425836 0.14713271 0.11657942 0.012619948
0.11523934 0.1063717 -0.005077041 -0.051882617 -0.04829498 -0.015116412 0.0003218753 0.0077817
-0.04048683 -0.011788302 -0.08745447 -0.027075369 -0.021571746 -0.03815181 0.008897655 -0.009499257
00000000: 2c9a 823d 9f9a 1e3d d454 3c3d 1fb2 b33b
00000010: 2094 523d 09cf c73c 6247 28bd 0e37 bbbc
00000020: 5c6f d63c 74ec 09bd 18be 1d3d cec9 cd3c
00000030: a4c8 bcbd 1ec9 d4bc 794b f03c 5da8 263d
00000040: 3e7c 923d 0d3f a0bc f41f 58bd ee6a dbbd
00000050: f331 28be 0884 dabd 8f83 8abd 34e9 43be
00000060: c101 8fbc 0d0b febc 1c1c 1fbd 8574 953c
00000070: 8091 50bd 96ed 543c 9899 273d d608 18bd
00000080: 1a7d 96bc bd17 8fbc c835 99bd da4a 253d
00000090: 9efa 8b3c 12a2 643c 9ab4 a33b 5635 c43c
000000a0: be96 313c 2a60 7bbc af1e 2cbd fe92 1e3d
000000b0: b982 ffbc bf09 92bd d414 103d 4571 62bd
000000c0: 06df 85bd 43f5 883d 4a6a 883d 6caf 593d
000000d0: 8302 a13b 8239 423d ca89 04be cb34 04bc
000000e0: 9845 81bc 38fa 013d e1eb 3c3d d819 01be
000000f0: 8887 92bc 2d7c 17bd 1257 693c fc19 bcbd
00000100: c091 083d 9485 fb3c 2ad8 9cbd 9369 acbd
00000110: e09c b3bd 7a11 01bd 55bc 36bd b56c 1b3d
00000120: 003a 003c e735 b638 8c6c 303d 7076 6f3d
00000130: a149 3a3d 67c5 59bd 3de8 303d 82ad 2f3d
00000140: c652 83bd 3e08 253c d1d0 7cbd 0406 49bd
00000150: 32bf 9cbb 5901 37bd 755f 9dbc 6d19 12bd
00000160: 58fb 213d 86cf c33c 7d31 cbbd 16e8 713c
00000170: 6141 a5bd 3088 c3bd 267b 7abd bafe 3abc
00000180: e797 05bb 1e12 20bd 2e34 83bd 58d3 bd3b
00000190: b8e9 10bd c96e fd3d 5158 d039 6bc7 3c3c
000001a0: daf3 a83d f32f a73d 92ba bf3d 2215 b7ba
000001b0: cf2e 433d 27e6 c13c 3a10 493d 6025 9c3d
000001c0: 828b d3bc 4e34 0f3d 7400 a43d 8c57 9f3d
000001d0: 4ebd 4a3d 8c0a 9f3d acef 223d 4fe7 893d
000001e0: 61f9 f13d dedb 873d 0be7 71bd 5a24 9c3d
000001f0: 2e6b c83b c06c 8a3d a347 983c 96e6 82bd
00000200: ec8a 683d 74d9 503d e002 203d b4e1 c23c
00000210: dbb8 bb3b 5230 b0bc 489d 0e3d 6f0c 55bd
00000220: 944d d23a 35c4 803b 9c61 c6bd eda5 1d3c
00000230: 4cc1 2bbd ceac 56bd 0440 2a3d 5d0a 09b8
00000240: 5ca6 ad39 f4bc d33c f280 513d ccd1 2ebd
00000250: 9785 fd3b fec2 5d3c a642 f0bc 0993 1ebc
00000260: 51ab 193c c90c 93bc 073f 6bbd 398d cabc
00000270: 99f2 e33c cf6b b93c 3468 ffbb 8b20 933d
00000280: 01ad 1e3d 7b8d 843d c249 613d 19f8 3abd
00000290: 6a22 f7bc a401 6e3d 040a a5bc 1a09 92bd
000002a0: 3e91 a5bd 4810 8fbd f211 9d3c 307f 753d
000002b0: d641 d13c 9e1b 383b f21a 253d d45c dcbb
000002c0: da32 8b3d 1cb5 833d 5ab7 573d ac37 9a3d
000002d0: ff7e 24bd a945 a33d f77d eebc a4b6 2c3d
000002e0: 903b 10bd b208 ba3d d6c1 473d 01fe 213d
000002f0: 60da 9abc 5889 b43c ea52 593c bc23 dcbb
00000300: 1698 2f3d 9181 a73c 8bb7 263b 9583 adbc
00000310: 2d02 46bd a987 9e3b c466 9f3b cb6b ab3c
00000320: 6557 71bc e5f1 493d 190f fd3c 316a 19bd
00000330: faab 253d bbfc df3c aed1 f6bb 7736 4ebc
00000340: 8be5 b43d 63a6 6bbd 8d21 593c e328 333d
00000350: c44c 1ebd c6a2 87bc 1a82 ac3d 4d63 39bd
00000360: 402c d53c 155a 39bd e08c abbc 59e3 663d
00000370: 9acb 483d 7e32 013d e797 3bbd d644 193c
00000380: 2efe 3cbd bb82 2a3d 3b4e 9f3d e22f ba3a
00000390: 29fc 763b 88d8 1abd 5fbf ec3c 3f4b f83c
000003a0: 7325 ab3c b819 9e3c 2bca 053e d5a0 d53d
000003b0: a68f ac3d f5a9 163e 31c1 ee3d e6c3 4e3c
000003c0: 9a02 ec3d 68d9 d93d 4f5d a6bb de82 54bd
000003d0: f5d0 45bd d4aa 77bc 5fc1 a839 a2fd fe3b
000003e0: 85d5 25bd b923 41bc 541b b3bd 2acd ddbc
000003f0: 3bb7 b0bc 1345 1cbd 78c7 113c c6a2 1bbc

net_list.3.bias f4 [16]
0.0039688107 -0.014765155 0.08675577 0.07747211 -0.106330104 0.0710351 -0.03887844 -0.015536105
0.045643795 0.08916798 -0.0037124716 0.024243094 0.040294692 -0.012262662 0.11274319 0.046101797
00000000: cc0c 823b 8ce9 71bc 02ad b13d b3a9 9e3d
00000010: 99c3 d9bd da7a 913d 003f 1fbd 268b 7ebc
00000020: fdf4 3a3d b49d b63d f04c 73bb 7499 c63c
00000030: 0c0c 253d 55e9 48bc e7e5 e63d 3dd5 3c3d

net_list.5.weight f4 [8, 16, 3, 3]
-0.027059654 -0.013959101 -0.06345191 6.8864836e-05 0.050496668 0.09551732 0.03528618 -0.021186719
-0.060499776 0.11190958 -0.0074929064 0.12795584 0.0790733 -0.0052838465 0.10954468 -0.0065164883
0.116623335 0.07786391 -0.09382292 -0.16666502 -0.2042751 -0.17494258 -0.101988494 -0.18928738
-0.19576187 -0.10936139 -0.061690763 0.046961464 -0.02299463 0.05663226 -0.0003895375 0.042851653
0.06778169 0.03386547 -0.019501006 -0.07919469 0.11697042 0.1908724 0.118360564 0.17933904
0.06695626 0.17557837 0.18169643 0.1780107 0.19828261 0.105433315 0.054658677 0.058630537
0.095286325 0.06954233 -0.05193146 0.08928673 -0.029158656 0.0032074524 -0.026043445 -0.027776977
-0.00793079 0.085145615 0.0829707 -0.031819377 0.016108138 -0.07162071 -0.022251243 0.020670803
0.013248604 0.00521975 0.040669456 0.07725382 -0.018028345 -0.03772924 0.03683569 -0.0582632
0.11325143 0.0049633607 0.0033594796 0.028977005 0.062465448 0.093487896 -0.019668829 -0.027925758
-0.037820846 0.044157974 0.08336254 0.08223056 -0.06063777 -0.031055154 0.04833432 -0.0126361735
0.07131521 -0.023024168 -0.019665856 -0.027265817 -0.030908382 -0.0016743825 -0.0038790198 0.0118564
0.03179601 0.019404156 -0.0692769 0.079193495 0.051537268 0.119542025 0.049654387 0.13072044
-0.0314072 -0.018734708 0.10087982 -0.010488451 -0.18156926 -0.1464878 -0.12301321 -0.052457854
-0.1630869 -0.07788472 -0.16954508 -0.16072465 -0.08690219 0.06575977 -0.01612596 -0.083254285
0.00021953338 -0.011352214 0.02759511 0.059183747 -0.0033634566 0.04925552 -0.07332423 -0.09978578
-0.08476065 -0.056863353 -0.067591965 -0.052711423 -0.11440475 -0.0993528 -0.05705755 -0.04842841
0.071298495 0.03681554 0.069043785 0.06404181 0.07439841 0.08239111 0.06924468 0.089173965
-0.05007072 -0.05682754 -0.07508524 -0.049858175 0.016888252 0.013611142 0.076932244 -0.00082861277
-0.017862722 0.09483311 0.15444732 0.06406087 0.030250378 0.059767492 0.07735223 0.115089
0.057608027 0.03182729 -0.052722055 -0.065723345 -0.05355335 -0.094412915 0.01760838 0.009298784
0.019948326 0.006992199 0.032149296 -0.0054157195 0.052705467 0.037786454 0.07088929 0.0783896
0.04414034 -0.003708194 -0.07848121 0.04057691 0.17463374 0.047438994 0.17094022 0.074236736
0.059723683 0.013914107 0.0874996 0.024377372 0.10650055 0.046930574 -0.006479781 -0.032360576
0.021079382 -0.07509591 0.017843843 -0.028224222 0.007832333 0.002324349 0.027889315 0.029941345
-0.034739554 0.031471778 0.0015552242 0.068883575 0.057820853 0.05529978 -0.015553125 0.039189663
-0.03593736 -0.0038117394 -0.030714402 0.058592916 0.012648122 -0.052707326 -0.095224105 -0.0424531
0.2177551 0.10809996 0.15583932 0.13394094 0.18055701 0.038228624 0.0855299 0.032268006
0.09845257 0.012828078 0.012304867 -0.03481717 -0.0028767022 0.044765413 -0.026618868 0.013250752
0.022392415 -0.019984627 0.017277624 -0.027992034 0.02803657 0.04796485 0.05591293 -0.026640372
0.03690395 -0.03504838 0.02821406 0.1329102 0.037754178 0.1781537 0.0063507296 0.115604736
0.012183419 0.10403665 0.0046987827 0.010783178 -0.034830853 -0.010942909 -0.080172025 -0.0027609484
00000000: 35ac ddbc b7b4 64bc 13f3 81bd 876b 9038
00000010: 98d5 4e3d 969e c33d 3e88 103d c58f adbc
00000020: 9dce 77bd da30 e53d 0e87 f5bb db06 033e
00000030: 2ff1 a13d 1e24 adbb f658 e03d 4488 d5bb
00000040: 37d8 ee3d 1d77 9f3d 3b26 c0bd 3caa 2abe
00000050: 7e2d 51be 2624 33be 58df d0bd 8dd4 41be
00000060: cd75 48be ddf8 dfbd 74af 7cbd aa5a 403d
00000070: 3c5f bcbc 3bf7 673d d73a ccb9 3785 2f3d
00000080: 20d1 8a3d 85b6 0a3d 93c0 9fbc d330 a2bd
00000090: 308e ef3d 0e74 433e 0667 f23d a7a4 373e
000000a0: 5d20 893d d1ca 333e a10e 3a3e 7048 363e
000000b0: 990a 4b3e 6ced d73d c7e1 5f3d 9326 703d
000000c0: 7a25 c33d 366c 8e3d 15b6 54bd f6db b63d
000000d0: 22de eebc 1f34 523b 1059 d5bc 8b8c e3bc
000000e0: 25f0 01bc d360 ae3d 8bec a93d 0955 02bd
000000f0: 37f5 833c e1ad 92bd 3d48 b6bc d155 a93c
00000100: ac10 593c 700a ab3b 0495 263d 4037 9e3d
00000110: 2eb0 93bc fa89 1abd 05e1 163d 65a5 6ebd
00000120: 5ef0 e73d b0a3 a23b b72a 5c3b 2f61 ed3c
00000130: c5db 7f3d 9576 bf3d 8620 a1bc 8fc4 e4bc
00000140: 08ea 1abd fede 343d fbb9 aa3d 7f68 a83d
00000150: 4f5f 78bd 6167 febc 35fa 453d f407 4fbc
00000160: b50d 923d 2e9d bcbc 4a1a a1bc 905c dfbc
00000170: 9333 fdbc f476 dbba 2737 7ebb 5941 423c
00000180: 883c 023d 77f5 9e3c 0ce1 8dbd 3330 a23d
00000190: be18 533d 73d2 f43d 6662 4b3d 94db 053e
000001a0: d6a4 00bd 8879 99bc 149a ce3d c1d7 2bbc
000001b0: 4bed 39be e600 16be 5aee fbbd 0cde 56bd
000001c0: 4100 27be 0682 9fbd 3a9d 2dbe 0195 24be
000001d0: c7f9 b1bd 0fad 863d 971a 84bc 3981 aabd
000001e0: 8b32 6639 a3fe 39bc 240f e23c a86a 723d
000001f0: 706d 5cbb 28c0 493d 042b 96bd 7d5c ccbd
00000200: fe96 adbd 8ce9 68bd a86d 8abd efe7 57bd
00000210: 0a4d eabd 7b79 cbbd 2db5 69bd de5c 46bd
00000220: f204 923d e4cb 163d d466 8d3d 5a28 833d
00000230: 325e 983d acbc a83d 28d0 8d3d d7a0 b63d
00000240: f516 4dbd ffc3 68bd 4ac6 99bd 1638 4cbd
00000250: 3b59 8a3c 4401 5f3c a78e 9d3d 4337 59ba
00000260: d854 92bc dd37 c23d 7027 1e3e 5832 833d
00000270: a4cf f73c c2ce 743d d96a 9e3d c8b3 eb3d
00000280: 65f6 6b3d 555d 023d 15f3 57bd f699 86bd
00000290: c25a 5bbd 8f5b c1bd 733f 903c ed59 183c
000002a0: ac6a a33c d11e e53b fbae 033d 5976 b1bb
000002b0: b0e1 573d f8c5 1a3d 672e 913d ba8a a03d
000002c0: 80cc 343d 2c05 73bb c2ba a0bd f933 263d
000002d0: 30d3 323e 644f 423d f40a 2f3e 6e09 983d
000002e0: d2a0 743d fff7 633c fe32 b33d 0eb3 c73c
000002f0: f61c da3d 463a 403d 5854 d4bb 868c 04bd
00000300: abae ac3c e2cb 99bd 402d 923c 7c36 e7bc
00000310: 3053 003c 1b54 183b 2278 e43c 8d47 f53c
00000320: 104b 0ebd 8de8 003d aad8 cb3a d512 8d3d
00000330: 8fd5 6c3d 0682 623d 89d2 7ebc 5785 203d
00000340: 0e33 13bd 60ce 79bb c59c fbbc 20ff 6f3d
00000350: 123a 4f3c a3e3 57bd db04 c3bd 4de3 2dbd
00000360: 31fb 5e3e 8363 dd3d 5894 1f3e d027 093e
00000370: f0e3 383e 9e95 1c3d 4d2a af3d 752b 043d
00000380: 80a1 c93d dc2c 523c 5a9a 493c 739c 0ebd
00000390: 0e87 3cbb f05b 373d d00f dabc af19 593c
000003a0: 4c70 b73c cdb6 a3bc ce89 8d3c 8d4f e5bc
000003b0: f3ac e53c ca76 443d f504 653d e93c dabc
000003c0: 9928 173d e48e 0fbd 2c21 e73c 9d19 083e
000003d0: 20a4 1a3d ec6d 363e c819 d03b 2dc2 ec3d
000003e0: f79c 473c 2b11 d53d 3ff8 993b edab 303c
000003f0: ccaa 0ebd e349 33bc 3b31 a4bd 07f1 34bb

net_list.5.bias f4 [8]
0.004965194 0.051674422 -0.028595772 0.055853423 -0.07207158 0.047834583 -0.060638096 -0.06838805
00000000: 11b3 a23b 8fa8 533d ae41 eabc 8fc6 643d
00000010: 449a 93bd 32ee 433d a75f 78bd 090f 8cbd

net_list.7.weight f4 [1, 8, 3, 3]
-0.071815245 -0.035289533 -0.17580952 -0.15950626 -0.15982325 -0.13603893 -0.07307445 -0.092235416
-0.031188937 0.027067237 -0.11220661 -0.07140157 -0.068084165 0.020171955 -0.07571317 -0.020288948
0.020754272 -0.023379557 0.19238617 0.084300175 0.16885124 0.030352963 0.22418036 0.10326421
0.0155961355 0.21770383 0.028093934 -0.121543065 -0.1454672 -0.23107533 -0.20768665 -0.049085364
-0.045425892 -0.23589112 -0.18259574 -0.21581669 0.0094815 0.07806395 -0.05952926 -0.078714274
0.10822789 0.040445622 0.109043024 0.09113945 0.059317768 -0.040104374 0.034266356 0.11052529
-0.05455017 0.04038784 0.075415105 -0.05688087 0.109285064 0.09078273 0.032409333 0.07886501
0.08733729 -0.084778376 -0.060366496 0.08755969 -0.05140807 -0.015003534 0.08459721 -0.041006435
-0.08379193 0.02976444 -0.12254084 -0.008262081 -0.053299513 0.05611517 -0.144609 0.041001294
00000000: df13 93bd c28b 10bd 6907 34be 9c55 23be
00000010: b5a8 23be ca4d 0bbe 0fa8 95bd ece5 bcbd
00000020: f17f ffbc 1cbc dd3c 94cc e5bd fd3a 92bd
00000030: b66f 8bbd a83f a53c 820f 9bbd 0235 a6bc
00000040: dd04 aa3c 7c86 bfbc e100 453e 92a5 ac3d
00000050: 57e7 2c3e c7a6 f83c 898f 653e 307c d33d
00000060: ef86 7f3c c1ed 5e3e 4025 e63c 92eb f8bd
00000070: 5bf5 14be 039f 6cbe cfab 54be bc0d 49bd
00000080: 8010 3abd 718d 71be 61fa 3abe 0dff 5cbe
00000090: 4b58 1b3c fedf 9f3d f4d4 73bd f334 a1bd
000000a0: 96a6 dd3d 4faa 253d f351 df3d 52a7 ba3d
000000b0: 30f7 723d 7c44 24bd e15a 0c3d 155b e23d
000000c0: 0070 5fbd b86d 253d 3c73 9a3d eafb 68bd
000000d0: d9d0 df3d 4cec b93d a6bf 043d fa83 a13d
000000e0: e5dd b23d 49a0 adbd dc42 77bd 7f52 b33d
000000f0: 4591 52bd 62d1 75bc 4d41 ad3d 5df6 27bd
00000100: 1a9b abbd 8ed4 f33c b1f6 fabd ae5d 07bc
00000110: 9750 5abd 05d9 653d 6214 14be f9f0 273d
