QIENetV1_0_0/QIENet_Conv2.pth (torch, 242177 bytes, 11 tensors)

net_list.0.cell_list.0.conv2d.weight f4 [64, 32, 3, 3]
0	0xbc973670	-0.018458575
1	0xbcc95994	-0.024578847
2	0xbcd6dd53	-0.026228582
3	0xbdb2286a	-0.086991146
4	0xbcf4d8b0	-0.02988848
5	0xbcdaa238	-0.02668868
6	0xbd50bbbb	-0.050960284
7	0xbd5bbe63	-0.053648364
8	0xbd9b3e8d	-0.0758029
9	0x3c864675	0.016391018
10	0xbdb346ad	-0.08753715
11	0xbd090221	-0.033449296
12	0x3cbbd5a9	0.02292903
13	0xbdd32da7	-0.10311442
14	0xbd764463	-0.060123812
15	0xbd47bd20	-0.048764348
16	0x39ad5312	0.00033059024
17	0xbd9517fb	-0.072799645
18	0x3cb13f12	0.02163652
19	0xbdc97137	-0.09836047
20	0xbdbe4579	-0.092905946
21	0xbd38d834	-0.045128062
22	0xbddf2832	-0.108963385
23	0xbdad19c4	-0.0845218
24	0x3c2039a6	0.009779369
25	0xbd8d53b1	-0.069007285
26	0xbde43fc5	-0.111449756
27	0xbdef8503	-0.11695292
28	0xbdbebbe3	-0.0931318
29	0xbd941640	-0.07230806
30	0xbd34e47e	-0.04416322
31	0xbd5929b7	-0.053018298
32	0xbdcdba16	-0.10045259
33	0xbc2e267e	-0.010629294
34	0xbdfae872	-0.12251367
35	0xbded7ff6	-0.11596672
36	0xbda6a57f	-0.081370346
37	0xbdb8bfcc	-0.09020957
38	0xbdb0f01d	-0.08639548
39	0xbd11f6ac	-0.035635635
40	0x3bbf520e	0.005838639
41	0xbdda1ef9	-0.10650439
42	0xbd1022a3	-0.035189282
43	0xbce0732d	-0.02739867
44	0xbd6f8147	-0.058472898
45	0xbda7cd44	-0.08193448
46	0xbb22f3b7	-0.0024864504
47	0xbcc04ee7	-0.023475124
48	0xbd865773	-0.06559648
49	0xbd9e53cb	-0.07730826
50	0xbcf90ee8	-0.030402616
51	0xbc30aafe	-0.010782955
52	0xbcef5cb5	-0.02921901
53	0xbd45eebb	-0.048323374
54	0x3d2837b3	0.041068744
55	0x3d1230ce	0.035691075
56	0xbcf003b1	-0.029298635
57	0x3c49cc57	0.012316785
58	0x3c70b96e	0.014692647
59	0x3ca678f0	0.02032134
60	0xbd215d71	-0.039395753
61	0xbd07fab3	-0.03319807
62	0xbd70e8cb	-0.05881576
63	0xbd5aecce	-0.05344849
64	0xbdbcdb94	-0.09221569
65	0xbd3ef06b	-0.046616
66	0xbc8cef1d	-0.017203862
67	0xbd9c1a60	-0.07622218
68	0x3baeccfd	0.005334495
69	0x3cedad89	0.029013412
70	0x3cbb7094	0.02288083
71	0x3d688af7	0.056773152
72	0xbd1481ee	-0.036256723
73	0xbe0e123b	-0.13874142
74	0xbdccbaea	-0.099965885
75	0xbb669e53	-0.0035189583
76	0xbd123c64	-0.035702124
77	0xbd2acf15	-0.041701395
78	0xbd2dbb9e	-0.042415254
79	0xbc8ad513	-0.016947305
80	0x3cc77902	0.024349693
81	0xbc6f54c7	-0.014607615
82	0xbdab7fc7	-0.08373981
83	0xbd354819	-0.04425821
84	0x3d2ffc50	0.042965233
85	0x3c9f6fcb	0.019462487
86	0x3d11632a	0.03549496
87	0x3dc8c390	0.098029256
88	0x3ba8de52	0.005153456
89	0x3cf6f8df	0.030147968
90	0x3db0803b	0.08618208
91	0x3cb05942	0.021526936
92	0xbb6d89d2	-0.0036245477
93	0x3ce8ef90	0.028434545
94	0xbbc99ae7	-0.006152499
95	0xbd366ab9	-0.044535372
96	0x3c4dfc4a	0.012572357
97	0xbd26c40a	-0.0407143
98	0xbd41533f	-0.04719853
99	0x3d58659c	0.052831277
100	0xbb8f0116	-0.004364143
101	0x3d88368d	0.0665103
102	0x3d23f6b9	0.040030215
103	0x3cbd62e6	0.023118448
104	0xbc3c9f19	-0.011512541
105	0x3c8d80a3	0.017273253
106	0x3ba226a0	0.004948452
107	0x3ba0d74d	0.0049084784
108	0x3d6d249e	0.05789625
109	0x3c8ce050	0.017196804
110	0xbcd95208	-0.026528373
111	0x3cc07530	0.02349338
112	0x3c80fc01	0.015745165
113	0xbd0d31b7	-0.03447124
114	0x3c4027ff	0.011728286
115	0x3c9cae31	0.01912603
116	0xbc3de7d0	-0.011590913
117	0xbc3d7a48	-0.011564799
118	0xbcb42923	-0.021992272
119	0xb9e75d69	-0.0004412935
120	0x3d5448a8	0.051827103
121	0x3d8080ce	0.062745675
122	0x3d152102	0.03640843
123	0xbcbe4e12	-0.023230586
124	0xbd5ed233	-0.05439968
125	0x3c018be6	0.00790689
126	0x3d78ae21	0.060712937
127	0x3d4e5f7f	0.05038404
128	0xbcbafdb8	-0.02282606
129	0x3d4854b6	0.04890891
130	0xbc7685e9	-0.015046575
131	0x3d8086dd	0.06275723
132	0x3d01fdb4	0.03173609
133	0xbc890768	-0.016727164
134	0x3cdcc8ee	0.02695128
135	0xbd6461aa	-0.055757202
136	0x3cb96324	0.022630282
137	0xbd89451e	-0.06702636
138	0xbca8fe3e	-0.020629045
139	0xbd8d8ff6	-0.06912224
140	0xbcc238da	-0.02370875
141	0x3d826530	0.06366956
142	0xbce7cab7	-0.028294904
143	0x3d27aae9	0.040934477
144	0x3c741aca	0.014898965
145	0xbc6a8ae8	-0.014315344
146	0xbc76ca17	-0.01506283
147	0x3ba412a4	0.005007105
148	0xbd41d250	-0.04731971
149	0xbd0c269e	-0.034216516
150	0xbcd0bd5b	-0.025480917
151	0x3b2d2dd3	0.0026425018
152	0x3d1e2ae9	0.03861514
153	0xbda11adf	-0.078664534
154	0x3d19632d	0.037448097
155	0x3dac3631	0.08408774
156	0xbb28de0c	-0.0025767116
157	0x3dc4be08	0.09606558
158	0x3df77408	0.12082678
159	0xbe094e69	-0.13408817
160	0x3dbbd291	0.09171022
161	0x3e394816	0.18093905
162	0xbd4071a6	-0.046983384
163	0xbe04cb51	-0.12968184
164	0xbdc99966	-0.098437116
165	0xbe1d49d5	-0.15360196
166	0xbde822d1	-0.11334766
167	0xbd5ab1e2	-0.0533923
168	0xbdf74418	-0.12073535
169	0xbda3c6d0	-0.07996905
170	0xbdf3112f	-0.11868512
171	0xbd9cf068	-0.07663041
172	0x3ca46c42	0.020071153
173	0x3c413c75	0.011794199
174	0x3d3d19dd	0.046167243
175	0x3cdc2559	0.026873278
176	0x3c0e8161	0.0086978385
177	0x3b8e2b8f	0.0043386887
178	0x3b1b5588	0.0023702104
179	0x3d8b8dbd	0.06814144
180	0x3e3dd9ea	0.18540159
181	0xbba4cda2	-0.005029396
182	0xbcca6dec	-0.024710618
183	0x3e62f6b4	0.22164422
184	0x3d3a0c6a	0.045421995
185	0xbcf9039e	-0.030397233
186	0x3e112d02	0.14177325
187	0xbe19c8c4	-0.15017992
188	0xbda9b107	-0.082857184
189	0xbcde5e72	-0.027144644
190	0xbd3f506a	-0.04670755
191	0xbc842058	-0.016128704
192	0xbd7ea0ad	-0.06216495
193	0x3d03bf38	0.032164782
194	0x3cb361ea	0.021897275
195	0xbce37200	-0.02776432
196	0x3d18c71b	0.037299257
197	0x3d2436ba	0.040091254
198	0xbd8686fc	-0.06568715
199	0xbd747c14	-0.059688643
200	0xbd88aa45	-0.06673101
201	0xbb14b153	-0.0022688701
202	0xbbe2b7b5	-0.0069188722
203	0x3c070452	0.008240776
204	0x3d877d77	0.066157274
205	0x3dbdd6cb	0.09269484
206	0x3c843e5a	0.016143013
207	0xbdc83931	-0.097765334
208	0xbd2f68c9	-0.04282454
209	0xbdcbd9e6	-0.0995367
210	0xbc53deb9	-0.012931519
211	0xbd808187	-0.062747054
212	0xbd1c3bab	-0.03814284
213	0xbc83cae0	-0.01608795
214	0xbd91d08d	-0.07119856
215	0xbd35712c	-0.044297382
216	0xbe1a2d50	-0.15056348
217	0xbe29e69b	-0.16591875
218	0xbe0dba57	-0.13840614
219	0xbde76c24	-0.11299923
220	0xbe0813a4	-0.13288742
221	0xbd3829ae	-0.044961624
222	0xbe1fad34	-0.15593415
223	0xbe1ad40b	-0.1511995
224	0xbe689559	-0.22713222
225	0xbbb3031c	-0.005463017
226	0xbb8dcd35	-0.004327441
227	0xbd813cff	-0.06310462
228	0x3cc0994f	0.023510603
229	0xbd4891a6	-0.048967026
230	0xbd245552	-0.04012043
231	0xbc2b93ba	-0.0104722325
232	0x3d013135	0.031541068
233	0xbd63a896	-0.055580698
234	0xbd488cc6	-0.048962377
235	0xbdcfa380	-0.10138607
236	0xbd329612	-0.04360015
237	0xbc40bd67	-0.011763907
238	0xbd5db81d	-0.054130662
239	0xbc748f6f	-0.014926775
240	0xbdfc5fda	-0.1232297
241	0xbe29b701	-0.16573717
242	0xbe1e403b	-0.1545419
243	0x3d330be9	0.04371253
244	0x3d4d42ab	0.050112408
245	0x3b90a6c8	0.004414413
246	0xbcb2fc34	-0.021848775
247	0xbddb98f5	-0.107225336
248	0xbd108daa	-0.03529135
249	0xbd8f2cc9	-0.06990964
250	0xbd833acf	-0.06407701
251	0xbda6d20e	-0.081455335
252	0x3bae629b	0.0053218133
253	0xbd3ede5c	-0.046598777
254	0x3bcafdc1	0.0061948006
255	0xbd1009fb	-0.035165768

net_list.0.cell_list.0.conv2d.bias f4 [64]
0	0x3c661b65	0.014044617
1	0x3d535582	0.05159522
2	0x3d0e9e02	0.034818657
3	0x3d4cf259	0.05003581
4	0xbc157e4e	-0.009124352
5	0x3d9213b6	0.07132666
6	0x3cf5c6e9	0.030002074
7	0x3df1c8de	0.118058905
8	0xbd4a73c7	-0.04942682
9	0x3ca8e49c	0.020616822
10	0x3d896928	0.0670951
11	0xbcd03519	-0.025415944
12	0xbcd81da9	-0.02638133
13	0x3d979f22	0.07403399
14	0x3d36c4eb	0.04462139
15	0x3da4770b	0.08030518
16	0x3d4e9523	0.050435197
17	0x3de6bee6	0.1126688
18	0x3d9ac683	0.07557394
19	0x3c9a69fa	0.018849362
20	0x3d407bed	0.046993185
21	0x3c4280df	0.011871546
22	0x3d0752c6	0.033037923
23	0x3d8f4a01	0.06996537
24	0x3cf8edd2	0.030386839
25	0x3d69d765	0.05709018
26	0x3e187376	0.14887795
27	0xbc952a9f	-0.0182088
28	0x3d79da57	0.06099924
29	0x3d1e543c	0.03865455
30	0x3e2a901f	0.1665654
31	0x3c1e3ff9	0.009658807
32	0x3cb327a9	0.021869497
33	0x3de013c8	0.10941273
34	0xbd5bde47	-0.053678777
35	0x3d35a837	0.044349875
36	0xbd2aff19	-0.041747186
37	0xbcf789ba	-0.03021704
38	0xbd800e2b	-0.06252702
39	0xbd21b54b	-0.039479535
40	0xbd3d3e5e	-0.046202056
41	0x3ce6d3bd	0.028177137
42	0xbd736629	-0.0594236
43	0xbd5ccc63	-0.053905856
44	0xbd3f3922	-0.046685345
45	0x3d771b58	0.06032881
46	0x3db996d5	0.09061972
47	0xbdb1123e	-0.086460575
48	0x3d3040ce	0.043030553
49	0xbb397b77	-0.002830235
50	0x3e09130f	0.13386177
51	0x3d942ee3	0.072355054
52	0x3e134b65	0.1438423
53	0x3dcc45a9	0.09974224
54	0x3d1e1a87	0.038599517
55	0x3e3afe87	0.18261157
56	0x3db542ff	0.08850669
57	0x3c01263c	0.007882651
58	0x3deb748f	0.11496841
59	0x3d172835	0.03690358
60	0x3d84f8b2	0.06492747
61	0x3dc5fa85	0.096669234
62	0x3d9c463c	0.07630584
63	0x3da19ce1	0.078912504

net_list.0.cell_list.1.conv2d.weight f4 [64, 32, 3, 3]
0	0x3d46c528	0.048527867
1	0x3d6f1ec6	0.058378957
2	0x3db182b6	0.08667509
3	0x3c7f2335	0.015572359
4	0x3d2570b2	0.040390678
5	0x3d84c4d7	0.06482857
6	0x3c2983f5	0.010346402
7	0xbd1a209f	-0.037628766
8	0xbc50769a	-0.012723589
9	0xbdae2277	-0.085026674
10	0xbc995912	-0.01871923
11	0xbd14ed31	-0.036359016
12	0xbe10b5a1	-0.14131786
13	0xbd0f8b2d	-0.035044838
14	0xbd81c07c	-0.063355416
15	0x3b7a6866	0.00382092
16	0xbd288564	-0.041142836
17	0x3cb987ef	0.022647826
18	0xbd0566f7	-0.032568898
19	0xbd50b46d	-0.050953317
20	0xbd1cabe5	-0.03824987
21	0x3d0d6d79	0.03452823
22	0x3cbbc753	0.022922194
23	0xbd0e476e	-0.03473609
24	0x3d29c3eb	0.041446608
25	0xbd80fd3b	-0.062983
26	0x3cf2eb0e	0.029653098
27	0x3c2e8f56	0.010654291
28	0xbc7cf051	-0.015438155
29	0xbbc5e156	-0.006038825
30	0xbd2f8274	-0.04284902
31	0xbca6450c	-0.020296596
32	0x3c30f85c	0.010801401
33	0xbda0352c	-0.07822642
34	0xbd6b0589	-0.057378326
35	0xbd83fc1a	-0.06444569
36	0x3d9cac01	0.07649995
37	0xbbf6387d	-0.007514058
38	0xbc1a2b89	-0.009409794
39	0x3cfdec29	0.030996399
40	0x3caf68b6	0.021412235
41	0x3d544d25	0.051831383
42	0x3da4cf75	0.08047382
43	0xbc1c7c8f	-0.009551181
44	0xbd66b084	-0.056320682
45	0xb98dae11	-0.00027023305
46	0x3d5dbc78	0.054134816
47	0x3c22d974	0.00993954
48	0xbd3cebee	-0.046123438
49	0xbd47acc0	-0.04874873
50	0x3d3b8fe9	0.04579154
51	0x3d7543af	0.059879
52	0xbd3ed300	-0.046587944
53	0x3d07241c	0.03299342
54	0x3caa23f4	0.020769097
55	0x3d03773f	0.032096144
56	0x3d110074	0.035400823
57	0xba81bf61	-0.0009898954
58	0xbc74719a	-0.014919663
59	0xbcf49379	-0.029855477
60	0xbd634c5c	-0.055492744
61	0x3d4b3440	0.049610376
62	0x3ca56b6d	0.020192826
63	0x3d228686	0.039679073
64	0x3bb4b27e	0.005514442
65	0xbd3679bb	-0.044549685
66	0xbcac52a1	-0.021035494
67	0xbd329ec1	-0.04360843
68	0xbd884026	-0.0665286
69	0xbcf160d8	-0.029465124
70	0x3b7eddcd	0.0038889528
71	0xbd8a5928	-0.067552865
72	0xbcc64623	-0.024203366
73	0xbcbafbd9	-0.022825168
74	0xbc03c446	-0.008042401
75	0xbc4c03b4	-0.012452055
76	0x3d94b1e7	0.07260495
77	0x3d2cb0f9	0.04216096
78	0xbc18cfbe	-0.009326873
79	0x3d3ad730	0.045615375
80	0xb949fc87	-0.00019262928
81	0xbcd0f37a	-0.025506724
82	0xbccd23cb	-0.025041481
83	0x3b8bbb63	0.0042642816
84	0x3d79e799	0.061011884
85	0x3d46dcd2	0.048550434
86	0x3ce4ebbb	0.027944436
87	0x3d6d8573	0.057988595
88	0x3d72473e	0.059149973
89	0xbc5c0bb4	-0.013430525
90	0xbc7e870c	-0.015535127
91	0x3c64b147	0.013958282
92	0xbcae7925	-0.021298
93	0x3c79c91d	0.015245703
94	0x3bd8a2b4	0.0066111926
95	0xbd807185	-0.06271652
96	0xbd856296	-0.065129444
97	0xbcb1f5ba	-0.021723617
98	0xbd415353	-0.047198605
99	0x3c9d56cf	0.019206433
100	0x3d8110c2	0.063020244
101	0x3d3edede	0.04659926
102	0x3c50e30e	0.012749447
103	0x3d997b87	0.07494264
104	0x3c9cbf98	0.019134328
105	0x3d4139d7	0.0471743
106	0x3d82f520	0.0639441
107	0xbcc8dd4c	-0.024519585
108	0x3cdc6a54	0.02690617
109	0x3dbfe449	0.09369714
110	0xbc8b60bf	-0.017013906
111	0x3dab27c2	0.083571926
112	0x3c4b01a4	0.012390528
113	0x3db5cebf	0.08877324
114	0x3e1853e1	0.14875747
115	0x3ce0752e	0.027399626
116	0xbb33b1bd	-0.0027419173
117	0xbd3ae1e1	-0.04562557
118	0x3c91e7d9	0.017810749
119	0x3c3b8f88	0.011447795
120	0xbbd7ffe8	-0.0065917857
121	0x3c929633	0.017893886
122	0x3cc301ce	0.023804571
123	0x3d1e9c2b	0.038723152
124	0x3c2abd94	0.0104211755
125	0xbc3e0bf2	-0.011599528
126	0xbd79c757	-0.06098112
127	0xbc331289	-0.010929712
128	0xbdc0b619	-0.09409732
129	0xbd5626b2	-0.052282996
130	0x3b82a215	0.003986607
131	0xbb432035	-0.0029773836
132	0x3b3d7055	0.0028906066
133	0xbd82af7a	-0.06381126
134	0xbdc5223e	-0.09625672
135	0x3c7699f0	0.01505135
136	0x3d9de0de	0.07708906
137	0x3def8807	0.11695867
138	0x3db5c62d	0.0887569
139	0x3c6f688b	0.014612327
140	0x3d166895	0.03672083
141	0x3da98e38	0.08279079
142	0x3d2d6976	0.042336904
143	0x3d4366d9	0.047705505
144	0x3c76c73b	0.015062149
145	0xbd0ba102	-0.034089096
146	0xbd7a43d6	-0.06109985
147	0xbd0e0428	-0.034671932
148	0x3d04331d	0.032275308
149	0xbbef7d86	-0.0073086647
150	0xbcec21d4	-0.028824724
151	0x3afdbf83	0.0019359443
152	0xbd36d0a6	-0.044632576
153	0x3c674b9a	0.014117146
154	0xbcd8b039	-0.026451217
155	0xbd849836	-0.064743444
156	0xbccff419	-0.02538495
157	0xbd11c696	-0.035589777
158	0xbd37a32e	-0.044833355
159	0xbd862acf	-0.06551134
160	0xbd27207d	-0.040802468
161	0xbd5858c0	-0.052819014
162	0xbd28e231	-0.041231338
163	0xbc35d066	-0.011097049
164	0xbd1f54a1	-0.038899068
165	0xbd8f5c7f	-0.07000064
166	0xbcb31bdd	-0.021863872
167	0xbdaa37f8	-0.083114564
168	0xbc9341af	-0.017975656
169	0xbd432b4a	-0.047648706
170	0x3cbedf32	0.023299787
171	0x3ced1f49	0.028945582
172	0xbd8a6f33	-0.06759491
173	0xbdb02530	-0.08600843
174	0xbdbf8810	-0.09352124
175	0xbc4ea35c	-0.01261219
176	0xbcb53fc0	-0.022125125
177	0xb9401c1c	-0.00018321018
178	0xbd6c2bee	-0.057659082
179	0xbd8aa08b	-0.067689024
180	0x3d4ed350	0.050494492
181	0x3ca778b8	0.020443305
182	0x3d4a5cbd	0.04940485
183	0x3cea44b8	0.02859722
184	0xbbcaf3a2	-0.006193594
185	0xbca8a165	-0.020584771
186	0x3d894296	0.067021534
187	0x3cadfcef	0.021238772
188	0x3c65b52f	0.014020248
189	0xbd921143	-0.07132199
190	0xbd838bd1	-0.06423152
191	0xbd8a0517	-0.06739252
192	0xbd7ed45d	-0.062214244
193	0xbd838c0d	-0.06423197
194	0xbda7cf72	-0.08193864
195	0xbd5574e1	-0.052113418
196	0xbd376bcb	-0.044780534
197	0xbd6f5caf	-0.058438
198	0x3ab6dbee	0.0013951042
199	0xbce0d9f5	-0.02744768
200	0xbcbb0dde	-0.02283376
201	0xbcc12e16	-0.023581546
202	0xbd6c5279	-0.05769584
203	0x3cb82a6f	0.022481171
204	0x3cb6deb3	0.022322988
205	0x3bfee939	0.007779267
206	0xbd1749cd	-0.036935616
207	0xbc7e5153	-0.015522319
208	0xbd1914b3	-0.037373256
209	0xbd815bec	-0.06316361
210	0xbcccfd4e	-0.025023129
211	0xbd3fee0c	-0.04685788
212	0xbd3800b0	-0.04492253
213	0x3d534524	0.05157961
214	0xbd8e936e	-0.06961714
215	0xbdb3b0d8	-0.08773965
216	0x3cf2b11c	0.029625468
217	0x3d8e7820	0.06956506
218	0x3d6d7333	0.05797119
219	0x3a9838de	0.0011613627
220	0x3c9ddddd	0.019270832
221	0x3c8933c1	0.016748311
222	0xbd221e27	-0.039579537
223	0xba84e4fc	-0.0010139043
224	0x3d370c16	0.04468926
225	0xbcb19894	-0.0216792
226	0xbddd1e09	-0.107967444
227	0xbdfca237	-0.123356275
228	0xbdfeed29	-0.124475785
229	0xbdffe60d	-0.124950506
230	0xbd981b3a	-0.07427068
231	0xbd94959c	-0.07255098
232	0xbdc812db	-0.097692214
233	0xbdc751ef	-0.097324245
234	0x3d94f79a	0.07273789
235	0xba6830d1	-0.0008857372
236	0xbc76b2f8	-0.015057318
237	0xbba859ba	-0.0051376494
238	0x3d52ca05	0.051462192
239	0x3dc54ebd	0.09634159
240	0xbc0ce01a	-0.008598352
241	0x3cf129db	0.029438904
242	0x3c795664	0.015218351
243	0x3d171c0f	0.036891993
244	0xbcf7029b	-0.03015261
245	0xbc5d175f	-0.013494342
246	0xbbe87b0f	-0.007094748
247	0xbc1819d0	-0.009283498
248	0xbd0e5f57	-0.034758892
249	0x3c6749d5	0.014116724
250	0xbd8194a7	-0.06327181
251	0xbd818a5b	-0.06325217
252	0xbd84126b	-0.064488254
253	0xbd7d6e78	-0.06187293
254	0x3c5ea501	0.013589145
255	0xbd893510	-0.06699574

net_list.0.cell_list.1.conv2d.bias f4 [64]
0	0x3d65d8c0	0.056114912
1	0x3d8a5bcb	0.06755789
2	0x3d5e47c1	0.05426765
3	0x3da51bd6	0.0806195
4	0x3da102f2	0.0786189
5	0xbcc36e6e	-0.023856368
6	0xbc99b188	-0.018761411
7	0xbd1569eb	-0.036477964
8	0x3cbb863c	0.022891156
9	0xbc8195d4	-0.015818514
10	0x3ce8fc24	0.028440543
11	0x3cf82a7b	0.030293694
12	0x3d628ca7	0.055309918
13	0x3d7c2a1e	0.061563604
14	0x3cf876ae	0.030330028
15	0x3d60dc35	0.054897506
16	0x3c7a2c7c	0.015269395
17	0x3dd30955	0.10304514
18	0x3d694084	0.056946293
19	0x3dcca9ef	0.0999335
20	0x3cc2f94b	0.023800513
21	0x3d92d5e1	0.071697004
22	0x3df23cd1	0.11828006
23	0x3d04b3b1	0.03239793
24	0x3caa3d90	0.020781308
25	0x3d2f37a9	0.04277769
26	0x3b30be3b	0.0026968855
27	0xbc5bb6db	-0.013410295
28	0x3d81a4a5	0.063302316
29	0x3da5cd54	0.08095804
30	0x3d3a310b	0.045456927
31	0x3d1c7893	0.038200926
32	0x3c64edba	0.013972694
33	0xbdcf6d99	-0.10128326
34	0xbd6a52c0	-0.057207823
35	0x3d5ee0b0	0.054413497
36	0x3c96cece	0.018409159
37	0xbd55c1d6	-0.05218681
38	0xbd4dfc0c	-0.0502892
39	0x3c92ec39	0.017934905
40	0xbdc2ed95	-0.095179714
41	0xbd16df83	-0.03683425
42	0xbca59922	-0.020214621
43	0x3d30a1ab	0.04312293
44	0xbce6d2b2	-0.02817664
45	0x3d97fa16	0.07420747
46	0xbdaabddb	-0.08336993
47	0xbd9d65e5	-0.076854505
48	0xbaf6b6dd	-0.0018822808
49	0x3d466743	0.04843832
50	0x3c5807c1	0.013185442
51	0x3d260cb7	0.04053947
52	0x3d2984e8	0.041386515
53	0x3b6b63da	0.003591767
54	0x3e03f857	0.12887703
55	0x3b18926c	0.0023280634
56	0x3c2af654	0.010434706
57	0x3ba90701	0.0051583056
58	0x3ced6700	0.028979778
59	0x3d1aa7e9	0.037757788
60	0x3cf48154	0.029846825
61	0x3d89c019	0.06726093
62	0x3cd27262	0.025689308
63	0x3dac3a4c	0.08409557

net_list.0.cell_list.2.conv2d.weight f4 [64, 32, 3, 3]
0	0x3cad62a2	0.021165196
1	0x3cd6f3bb	0.026239267
2	0x3d92033b	0.071295224
3	0x3d74988d	0.059715796
4	0x3ba8cc06	0.0051512746
5	0x3daa3414	0.08310714
6	0x3c61713c	0.013759907
7	0xbc646099	-0.013939046
8	0xbbd50443	-0.006500752
9	0xbdb09a4f	-0.08623182
10	0xbdda572e	-0.106611595
11	0xbe22f487	-0.15913592
12	0xbde65cb2	-0.11248149
13	0xbbd865f9	-0.006603953
14	0xbd1dac16	-0.038494192
15	0xbd99d611	-0.07511533
16	0xbd58ac74	-0.05289884
17	0x3c99c782	0.01877189
18	0x3d04abf4	0.03239055
19	0x3cd9e684	0.026599176
20	0x3d7f55ba	0.062337615
21	0xbd0b8f7f	-0.034072395
22	0x3db8525e	0.09000085
23	0x3dac434f	0.084112756
24	0xbdcae66b	-0.0990723
25	0xbd1703e7	-0.036868956
26	0x3beb8ff4	0.0071887914
27	0xbcbc5bea	-0.022993047
28	0x3d8830f9	0.06649966
29	0x3d187ff9	0.03723142
30	0x3dc97417	0.098365955
31	0x3dc2d918	0.095140636
32	0x3d6e8010	0.0582276
33	0xbc230395	-0.0099495845
34	0x3d0285de	0.031865947
35	0x3e2a2783	0.16616635
36	0xbcb35681	-0.021891834
37	0x3ce7f862	0.02831668
38	0xbd549a2f	-0.051904853
39	0x3da3f90a	0.08006485
40	0x3c47a182	0.012184503
41	0xbc967f1e	-0.018371161
42	0x3ccac995	0.024754325
43	0x3ba0bcbe	0.0049053123
44	0xbca4d758	-0.020122215
45	0xbd0279ac	-0.031854317
46	0x3c89b16c	0.016808234
47	0x3d8303c8	0.063972056
48	0xbcd17253	-0.02556721
49	0x3d2ef3c8	0.042712957
50	0x3d86aab8	0.06575531
51	0xbd188fcb	-0.037246507
52	0x3d8ef31b	0.069799624
53	0xbac16d12	-0.0014757237
54	0xbd852200	-0.065006256
55	0xbc86e3a0	-0.016465962
56	0x3d041326	0.032244824
57	0x3cd387e4	0.025821634
58	0xbbfca7a4	-0.007710414
59	0x3d8caa76	0.0686845
60	0x3d2dfcb2	0.042477317
61	0x3d16be50	0.03680259
62	0x3dcbdfe3	0.099548124
63	0x3c9a5f53	0.018844282
64	0x3d3f0cbc	0.046643004
65	0xbda10b1f	-0.07863449
66	0xbd54198d	-0.05178218
67	0xbd2fbd16	-0.042904936
68	0x372de911	1.0365869e-05
69	0x3d2540e6	0.040345095
70	0x3d4371e2	0.04771603
71	0xbd31f32c	-0.043444797
72	0x3d44c432	0.04803867
73	0xbc557295	-0.013027807
74	0xbbb9eb81	-0.005673826
75	0xbd12f1f0	-0.03587526
76	0x3d310f3a	0.04322741
77	0xbd3f9a7f	-0.0467782
78	0x3c432ea7	0.011912978
79	0xbd46b80d	-0.04851537
80	0xbda5d9e5	-0.08098201
81	0xbd33bcc6	-0.0438812
82	0xbd873797	-0.066024
83	0xbdbc18cb	-0.091844164
84	0xbd052f75	-0.03251596
85	0x3d1dde2b	0.038541954
86	0xbcde4d03	-0.027136331
87	0xbc3db507	-0.011578805
88	0xbd2e4c90	-0.042553484
89	0xbd3090ae	-0.043106727
90	0xbbe4233a	-0.006962207
91	0xbd9f8509	-0.07789046
92	0xbda26fc9	-0.079314776
93	0xbc0510f3	-0.008121717
94	0xbd738656	-0.059454285
95	0xbd4bd13a	-0.04976008
96	0xbcadb3c0	-0.021203876
97	0xbd2ff520	-0.04295838
98	0xbc3e79ec	-0.011625748
99	0x3dac1dec	0.08404145
100	0xb9634780	-0.00021675043
101	0x3c6aa0fd	0.014320609
102	0x3d30c308	0.043154746
103	0xbcc14c68	-0.023596004
104	0x3cd5220c	0.026017211
105	0x3d86d843	0.065842174
106	0x3e089fd6	0.13342223
107	0x3d5ca7ab	0.053870838
108	0xbd8f3345	-0.06992201
109	0x3d6c1227	0.0576345
110	0x3c4c0966	0.012453413
111	0xbc9288da	-0.017887522
112	0x3da6a806	0.08137517
113	0x3dbbd562	0.09171559
114	0xbc8455c0	-0.01615417
115	0x3dcab6c4	0.09898141
116	0x3d0c0882	0.0341878
117	0xbd99770b	-0.07493409
118	0xbda86b91	-0.08223642
119	0xbdb57464	-0.088600904
120	0x3cf79ea6	0.030227017
121	0xbd96ff03	-0.073728584
122	0xbc0bd626	-0.008534944
123	0xba447ae9	-0.00074951217
124	0xbdc444fe	-0.09583472
125	0xbd1659f3	-0.036706876
126	0xbd995b9b	-0.074881755
127	0x3cb954ef	0.022623507
128	0xbd90559d	-0.070475794
129	0x3d88810f	0.06665241
130	0xba7eb743	-0.0009716639
131	0x3bebd44d	0.007196939
132	0x3cefbfe9	0.029266315
133	0x3ce30be1	0.027715625
134	0xb9733cc6	-0.00023196926
135	0xbd1fc2bd	-0.039004076
136	0x3c8301e6	0.015992116
137	0x3ccaffae	0.02478012
138	0xbcef4fa3	-0.029212778
139	0xbd15f0b2	-0.036606498
140	0xbd8f9c22	-0.07012202
141	0x3cfbf014	0.030754127
142	0xbcc55c44	-0.024091847
143	0x3be11b2f	0.0068696956
144	0x3c8c986e	0.017162528
145	0x3d82c05d	0.06384347
146	0x3d85666a	0.065136746
147	0xbcb2154f	-0.021738676
148	0xbb69e08b	-0.0035686817
149	0x3c3c1445	0.011479442
150	0x3d1b79d6	0.03795799
151	0x3dc81ce0	0.097711325
152	0x3d60a81d	0.054847825
153	0x3d452421	0.04813016
154	0xbbf63e7b	-0.0075147725
155	0x3c78880b	0.015169154
156	0x3d11dd57	0.035611477
157	0x3d0f243b	0.03494666
158	0x3cd33fb4	0.025787212
159	0xbd0143b3	-0.031558704
160	0xbb8ba52f	-0.004261635
161	0xbd442ba8	-0.047893196
162	0x3c7e1656	0.015508255
163	0xbd9a771d	-0.0754225
164	0xbb4d4248	-0.0031320024
165	0xbd4e36ae	-0.050345115
166	0xbbb0a250	-0.005390443
167	0xbca52b38	-0.02016221
168	0x3ce3fa6d	0.027829373
169	0xbd0a8649	-0.03381947
170	0xbcfef6d9	-0.031123566
171	0x3d7c7ac0	0.0616405
172	0x3d65a6a2	0.056067117
173	0xbd8c785b	-0.068588935
174	0xbc07d049	-0.008289405
175	0x3d6a4fa7	0.05720487
176	0xbd10181c	-0.035179242
177	0xbcc67984	-0.024227865
178	0x3d1ce4fa	0.038304307
179	0xbd4e539b	-0.0503727
180	0x3d28e062	0.041229613
181	0x3d5b8e29	0.05360237
182	0x3bcfee4f	0.0063455473
183	0xbcb6d32c	-0.022317491
184	0xbc3fe4a7	-0.01171223
185	0xbd8a3632	-0.06748618
186	0xbd1de808	-0.03855136
187	0xbca637ce	-0.020290282
188	0x3ba9ca0a	0.0051815556
189	0xbbd28403	-0.0064244284
190	0xbd1e062b	-0.0385801
191	0x3cd4e5ee	0.025988545
192	0xbcaf0a6e	-0.021367278
193	0x3c8d7279	0.017266499
194	0x3d7c9311	0.06166369
195	0xbd810060	-0.062989
196	0xbd603b46	-0.054744028
197	0x3cbb5488	0.022867456
198	0xbd0ac7d3	-0.033881973
199	0xbc876dfc	-0.016531937
200	0xbc9d5955	-0.019207636
201	0xbccba80f	-0.02486041
202	0x3c667942	0.014066996
203	0x3c9c1aa2	0.019055668
204	0x3d2756d6	0.040854298
205	0xbcf6f153	-0.03014437
206	0x3d1f27f9	0.03885648
207	0xbe0d39c0	-0.13791561
208	0xbe09cf27	-0.13457929
209	0xbe366a45	-0.17813976
210	0xbe1acb9b	-0.15116732
211	0xbe0a14b7	-0.13484465
212	0xbe0460cf	-0.12927555
213	0x3c1b08b3	0.009462523
214	0x3d1ab917	0.03777417
215	0xbcfc9f92	-0.030837808
216	0xbbe06cd5	-0.0068489113
217	0xbccb3e74	-0.024810053
218	0x3cd81da9	0.02638133
219	0xbcb1992e	-0.021679487
220	0x3d5287f9	0.051399205
221	0x3d889e68	0.066708386
222	0xbd1467d0	-0.036231816
223	0x3d2a5724	0.04158701
224	0x3dc4bfeb	0.09606918
225	0x3d29e848	0.041481286
226	0xbbcd5fdc	-0.006267531
227	0x3bc1fe83	0.0059202327
228	0x3d4b1e37	0.049589362
229	0x3d58d88e	0.052940898
230	0x3d97f0fa	0.074190095
231	0xbd0d3273	-0.03447194
232	0xbc090daf	-0.008365079
233	0x3b865868	0.0040998943
234	0xbb48f271	-0.0030662084
235	0x3d33093b	0.043709975
236	0xbd2a8ab3	-0.04163618
237	0xbd3d9390	-0.046283305
238	0x3cf37984	0.02972103
239	0x3cb3de06	0.021956455
240	0x3cdf1e86	0.027236234
241	0xbc4c5cdf	-0.012473314
242	0x3c8d92da	0.017281938
243	0xbd476cfe	-0.048687927
244	0x3bf83739	0.0075749424
245	0x3d6011a7	0.054704335
246	0xbbffc9dd	-0.0078060464
247	0x3d706a2c	0.058695003
248	0xbcf3f297	-0.029778762
249	0x3bd9968a	0.00664026
250	0xbd0155e6	-0.03157606
251	0x3d112c56	0.035442673
252	0xbcd662ef	-0.026170222
253	0x3c1c31b5	0.009533335
254	0xbd9d765b	-0.0768859
255	0xbcf990b4	-0.030464508

net_list.0.cell_list.2.conv2d.bias f4 [64]
0	0x3d423c86	0.047421
1	0x3dec3268	0.11533052
2	0x3aaf8ee8	0.001339403
3	0xbc91925c	-0.017769985
4	0xbd9dfebe	-0.07714604
5	0xbd23c977	-0.039987054
6	0x3b00941c	0.001961953
7	0xbc97f41b	-0.018549016
8	0xbc8f27aa	-0.017474968
9	0xbd527eeb	-0.05139057
10	0xbcca1fc6	-0.024673354
11	0x3b69c6ab	0.0035671394
12	0x3ca2aa44	0.01985658
13	0x3d081b5c	0.033229217
14	0xbd22959e	-0.039693467
15	0x3df72142	0.1206689
16	0x3d3d56f6	0.04622551
17	0x3e4811b4	0.19538003
18	0x3b4177ee	0.0029520947
19	0x3d2c8fba	0.042129256
20	0x3db6cea9	0.08926136
21	0xbc8a888b	-0.016910812
22	0x3ca65a3b	0.020306697
23	0x3e045294	0.12922126
24	0x3d7e6659	0.062109325
25	0xbce8d0d2	-0.028419886
26	0x3d32a1cb	0.04361133
27	0xbc9dd995	-0.01926879
28	0x3d31c6b4	0.04340239
29	0x3def71fb	0.11691662
30	0x3dfcb367	0.12338906
31	0x3dc87013	0.097870015
32	0xbdaf03ad	-0.08545623
33	0xbdd5e2c9	-0.104436465
34	0xbd97bfcf	-0.074096315
35	0x3da4e1dd	0.080508925
36	0xbdafe6e1	-0.085889585
37	0xbdaf7ffb	-0.08569332
38	0x3d92cd7f	0.071681015
39	0x3b6690ac	0.0035181446
40	0x3de3be8e	0.1112033
41	0xbcf72ead	-0.030173624
42	0x3c942c87	0.018087639
43	0x3bd01d75	0.006351168
44	0x3cd79d8d	0.026320243
45	0x3c68edae	0.0142168235
46	0xbd8f1501	-0.06986428
47	0xbe3a5463	-0.18196253
48	0xbbf12469	-0.0073590768
49	0x3df3edff	0.119106285
50	0x3d6cbf31	0.05779952
51	0x3bd14168	0.006385971
52	0x3c97b69a	0.018519688
53	0x3d541e1a	0.05178652
54	0x3cf5c45f	0.030000864
55	0x3d7ff283	0.062487137
56	0x3e01af1e	0.12664458
57	0x3d6e8a7b	0.058237534
58	0xbc37c9c6	-0.01121754
59	0x3ca975cf	0.020686058
60	0x3cecc3ac	0.028901897
61	0x3d47cd09	0.04877952
62	0x3d3dc217	0.046327677
63	0x3d2f8108	0.042847663

net_list.3.weight f4 [16, 19, 3, 3]
0	0x3d802ea0	0.06258893
1	0xbca47d66	-0.020079326
2	0x3dc4c6ef	0.09608256
3	0x3c803e44	0.01565469
4	0x3dcb6359	0.099310584
5	0x3d730e92	0.059340067
6	0x3d97cc4d	0.07412014
7	0xbd6bf303	-0.0576048
8	0x3d370e70	0.044691503
9	0xbc21df9f	-0.009879976
10	0xbc8de4ca	-0.01732101
11	0xbe09222b	-0.1339194
12	0xbdedbc2c	-0.116081566
13	0xbd96049a	-0.073250964
14	0xbca57326	-0.020196509
15	0xbdc2d778	-0.09513754
16	0xbdc815bf	-0.09769773
17	0xbdd97548	-0.10618073
18	0x3c0e72a5	0.008694326
19	0xbb231018	-0.0024881419
20	0xba88c1c0	-0.0010433719
21	0xbca87255	-0.02056233
22	0xbdabb940	-0.08384943
23	0x3d40bdec	0.047056124
24	0xbd797a81	-0.060907844
25	0xbd4cf3d3	-0.050037216
26	0x3d363b6a	0.044490255
27	0xbbf898e0	-0.0075865835
28	0xbad9ea62	-0.0016625638
29	0x3d7dd0e9	0.06196681
30	0x3caef892	0.021358762
31	0xbc752e0a	-0.01496459
32	0xbd31f1f9	-0.043443654
33	0xbd90811d	-0.070558764
34	0xbd8d16a8	-0.06889087
35	0x3cfb715a	0.030693699
36	0x3dbfacde	0.09359144
37	0xbc44b9cd	-0.012007189
38	0x3dc787ac	0.09742674
39	0xbc351641	-0.011052669
40	0x3d46d76b	0.048545282
41	0x3dd47b50	0.103750825
42	0x3db226b3	0.086987875
43	0xbc95495c	-0.018223457
44	0xbc857982	-0.016293291
45	0x3d91d545	0.07120756
46	0xbd339476	-0.043842755
47	0xbba27477	-0.0049577313
48	0x3dbc78e2	0.09202744
49	0xbd0b8e09	-0.034071002
50	0x3dbdb792	0.09263529
51	0x3d549f32	0.051909633
52	0x3d9d03bb	0.07666727
53	0x3a8857a8	0.00104021
54	0x3d9930f5	0.07480041
55	0x3d175c36	0.036953174
56	0xbcb5313b	-0.022118201
57	0x3ced8c41	0.028997542
58	0xba73ee76	-0.0009305248
59	0x3dc320f1	0.095277674
60	0x3dc9721d	0.098362185
61	0x3d27f27c	0.041002735
62	0xbc35f4c3	-0.011105719
63	0xbe0349db	-0.12821142
64	0xbd39b2a1	-0.04533637
65	0xbe2512fb	-0.16120522
66	0xbb9fd8a2	-0.0048781196
67	0xbc1ff1a5	-0.009762202
68	0xbbe5e5e6	-0.0070159314
69	0x3d69ed6b	0.057111185
70	0x3d37e084	0.04489185
71	0xbd15d81e	-0.03658306
72	0xbdaa9d53	-0.083307885
73	0x3d0c11b5	0.034196574
74	0xbc494f4f	-0.012286975
75	0xbdd5fd97	-0.10448759
76	0xbd0db166	-0.03459301
77	0xbd939811	-0.07206739
78	0xbd3cdefe	-0.0461111
79	0xbdab3cc6	-0.08361201
80	0x3d55f34f	0.05223399
81	0x3cae5c73	0.021284318
82	0x3d8beee8	0.06832677
83	0x3d64f709	0.055899654
84	0x3d196cb0	0.037457168
85	0x3d1ce868	0.038307577
86	0x3d7415e4	0.05959119
87	0x3ce822a0	0.028336823
88	0xbce0bb47	-0.02743305
89	0xbd22b4ed	-0.039723326
90	0xbd1d6a2a	-0.038431324
91	0xbd463dd3	-0.048398804
92	0x3d0bfcda	0.034176685
93	0x3c72a8af	0.014810725
94	0x3d01edfb	0.031721096
95	0xbd94cc9a	-0.07265587
96	0x3d5ba4de	0.053624026
97	0x3c8d7961	0.017269792
98	0xbd373682	-0.044729717
99	0x3ade97d2	0.0016982502
100	0x3c8d6541	0.017260196
101	0x3c4773b3	0.012173581
102	0x3de1fe9f	0.11034893
103	0x3d898a40	0.06715822
104	0x3d39daf5	0.04537483
105	0x3db1fbae	0.08690582
106	0x3d39824d	0.04529028
107	0x3db4b3f6	0.08823387
108	0x3db3e7b7	0.087844305
109	0x3d52c591	0.051457945
110	0x3dff28b4	0.124589354
111	0x3da0af2c	0.078459114
112	0x3d5f1223	0.054460656
113	0x3d28d1a0	0.04121554
114	0xbdafa1fe	-0.085758194
115	0xbd56e5af	-0.052465137
116	0x3cb70753	0.02234236
117	0xbdc06843	-0.09394886
118	0xbccfeb82	-0.025380854
119	0xbdd32f04	-0.10311702
120	0xbde341aa	-0.11096509
121	0xbccd4609	-0.02505781
122	0xbd9a5ee9	-0.07537634
123	0xbda41c99	-0.08013267
124	0xbdfbaa96	-0.12288396
125	0xbdb74707	-0.08949094
126	0x3e58672d	0.21133108
127	0x3ddcff5b	0.10790893
128	0xbd661ea5	-0.05618157
129	0x3e168c2f	0.14701913
130	0x3d4665ac	0.048436806
131	0x3c194a0e	0.009356035
132	0xbcd1b44c	-0.025598668
133	0xbdb3a7c4	-0.08772233
134	0x3d4a9f05	0.04946806
135	0x3d1b22a3	0.03787483
136	0xbcbbdad3	-0.022931492
137	0xbd8ce6a2	-0.06879927
138	0x3d803d2a	0.06261666
139	0xbd0337ed	-0.032035757
140	0x3d6bef26	0.057601117
141	0x3c8382e7	0.01605363
142	0xbda1c051	-0.078980096
143	0xbd39a098	-0.04531917
144	0xbd2d1ac1	-0.042261843
145	0xbc922a8d	-0.017842555
146	0xbca7f940	-0.020504594
147	0xbda58ce2	-0.08083512
148	0xbdd3806e	-0.103272304
149	0xbd5611e8	-0.05226317
150	0x3d122ea9	0.03568903
151	0xbd025a71	-0.031824533
152	0xbc36f857	-0.011167607
153	0x3d8bbbfd	0.06822965
154	0xbd395d2c	-0.04525487
155	0xbcd5a781	-0.026080849
156	0xbd1238ce	-0.035698704
157	0xbd077e72	-0.033079572
158	0xbcea7c1d	-0.028623635
159	0xbcc2af13	-0.023765123
160	0x3a4ee74b	0.00078927417
161	0x3d5a7361	0.05333269
162	0xbdc83678	-0.09776014
163	0xbde96eea	-0.11398108
164	0xbe0a7724	-0.13522011
165	0xbdc86988	-0.097857535
166	0xbdca2d52	-0.098719254
167	0xbe02aea0	-0.12761927
168	0xbd896d7a	-0.06710334
169	0xbdf147ce	-0.11781274
170	0xbd2ca6e1	-0.042151336
171	0xbae7782a	-0.0017659713
172	0xbd03606f	-0.032074388
173	0x3d864828	0.065567315
174	0x3c5ee6a9	0.013604798
175	0xbd3f3c74	-0.046688512
176	0xbd8ae884	-0.0678263
177	0x3d8c843e	0.06861161
178	0x3d88de42	0.06683017
179	0xbc1395c1	-0.009007872
180	0x3d2b5e9d	0.041838277
181	0xbd26f4ad	-0.040760685
182	0xbd943142	-0.07235958
183	0xbda65a88	-0.08122736
184	0xbc2acc62	-0.010424705
185	0xbdc7a419	-0.09748096
186	0xbce3c134	-0.027802087
187	0xbc34dd8d	-0.01103915
188	0xbd12d8d5	-0.03585132
189	0x3ce5320e	0.02797797
190	0x3d7064b3	0.058689784
191	0xbdaf6ab1	-0.08565272
192	0x3c5514c9	0.013005444
193	0x3d11040b	0.035404246
194	0xbc8dbcf0	-0.017302006
195	0x3cd1e5d0	0.025622278
196	0xb9bbb489	-0.0003580193
197	0x3b9d0fb5	0.004793132
198	0xbd8cff49	-0.06884629
199	0x3d2d80df	0.04235923
200	0x3d73cc02	0.05952073
201	0xbcaabd32	-0.020842168
202	0xbc341851	-0.010992126
203	0xbd17a51a	-0.037022687
204	0xbdef6cae	-0.11690651
205	0x3c042cc7	0.008067316
206	0xbcdf45fe	-0.027255055
207	0xbcc659ef	-0.024212806
208	0xbd351897	-0.044212904
209	0xbd481bba	-0.048854567
210	0xbcab36d6	-0.020900171
211	0xbdaea8d1	-0.08528293
212	0xbccd8d7d	-0.025091881
213	0x3d9df4dc	0.07712719
214	0xbd8837e8	-0.06651288
215	0x3d11edff	0.03562736
216	0x3d88a563	0.0667217
217	0x3d86f9ed	0.06590638
218	0x3d8f252c	0.06989512
219	0x3dafc7ec	0.08583054
220	0x3ca09c09	0.019605653
221	0x3dced153	0.10098519
222	0x3d4cc5b3	0.04999323
223	0x3d8aac42	0.06771137
224	0x3da6195f	0.08110308
225	0x3d7aa3d4	0.061191395
226	0x3de55768	0.11198312
227	0xbcc0db7c	-0.023542158
228	0x3d2f7082	0.042831905
229	0x3d3edf69	0.04659978
230	0xbce691fb	-0.02814578
231	0x3ce2e967	0.027699186
232	0x3d731313	0.059344362
233	0xbce19a85	-0.027539501
234	0xbaa9cfe6	-0.0012955635
235	0xbc531b32	-0.012884902
236	0x3d8776f7	0.066144876
237	0xbdd5fe61	-0.104489096
238	0xbda9033a	-0.082525685
239	0x3cf762d1	0.030198487
240	0xbd820b83	-0.06349852
241	0x3d45b45d	0.04826771
242	0x3d85e04e	0.06536923
243	0x3db35c71	0.08757866
244	0x3da77c95	0.08178059
245	0x3e0637b2	0.13107184
246	0x3d0fc1e1	0.035097007
247	0x3d3c06d6	0.045904957
248	0x3d9bc0dd	0.07605145
249	0xbcb70e24	-0.02234561
250	0x3d9de896	0.07710378
251	0xbca07711	-0.019588025
252	0x3d0504bc	0.03247522
253	0xbd3445c3	-0.044011842
254	0xbc0d1725	-0.008611475
255	0x3dbcc8bd	0.09217975

net_list.3.bias f4 [16]
0	0x3cb4a9bc	0.022053592
1	0x3d103e06	0.0352154
2	0x3daf29f2	0.08552922
3	0x3daaa0ce	0.08331452
4	0xbdc2c2da	-0.09509821
5	0xbbdd21ee	-0.0067484295
6	0x3d312d16	0.043255888
7	0xbc9c9ef8	-0.019118771
8	0x3c8edfc3	0.017440682
9	0x3d580646	0.052740358
10	0x3e092b30	0.13395381
11	0xbd9577c0	-0.07298231
12	0x3d8d695a	0.0690486
13	0xbd2b3498	-0.041798204
14	0xbdb8ad28	-0.09017402
15	0xbdb636be	-0.0889716

net_list.5.weight f4 [8, 16, 3, 3]
0	0x3c47f902	0.012205364
1	0x3e07fb08	0.13279355
2	0x3e168100	0.14697647
3	0x3da59618	0.08085269
4	0x3d5c3dfe	0.053770058
5	0x3d197a2c	0.037470028
6	0xba1a93da	-0.00058966654
7	0xbcad39a8	-0.021145657
8	0x3df4de9f	0.11956524
9	0xbe3ce96c	-0.18448418
10	0xbe2a0a2d	-0.16605444
11	0xbe34044a	-0.17579761
12	0x3dacb5cd	0.08433113
13	0x3e07d4e8	0.13264811
14	0xbbec71b3	-0.0072157024
15	0x3ee71c7d	0.45138922
16	0x3eae9d80	0.34104538
17	0x3dcae581	0.09907056
18	0x3d6ad141	0.057328466
19	0xbd1254ed	-0.035725523
20	0x3cb1c351	0.02169958
21	0x3cf8dad0	0.030377775
22	0x3da5e207	0.08099752
23	0x3d7493a5	0.059711117
24	0x3d3481a1	0.044068936
25	0x3d9d142d	0.07669864
26	0xba82037a	-0.0009919249
27	0x3d4d81a6	0.05017247
28	0x3dc2abec	0.09505448
29	0xbc6640dd	-0.014053551
30	0x3d59629b	0.053072553
31	0x3d78c69b	0.06073628
32	0x3dc17df6	0.09447853
33	0xbc436555	-0.011926015
34	0xbd679204	-0.056535736
35	0x3d492ad5	0.049113113
36	0xbdab29e0	-0.083575964
37	0xbd9d8cbe	-0.0769286
38	0xbe1cdb5d	-0.15318055
39	0xbd8b4ad6	-0.06801383
40	0xbde1800f	-0.11010753
41	0xbe1b14a6	-0.15144596
42	0xbe5e65e1	-0.21718551
43	0xbd59aba0	-0.05314219
44	0xbda2d719	-0.07951183
45	0x3d032dcb	0.032026093
46	0xbd5a3266	-0.05327072
47	0x3de3b28c	0.111180395
48	0xbd302ac8	-0.04300955
49	0xbcdb1af1	-0.026746245
50	0xbd67dee8	-0.056609064
51	0xbda9f388	-0.08298403
52	0xbdf1e8ab	-0.11811956
53	0xbd6bcfe9	-0.057571325
54	0x3d8c7455	0.06858126
55	0x3db3169d	0.087445475
56	0xbcaf0732	-0.021365736
57	0xbd052ee0	-0.032515407
58	0xbd90eef8	-0.0707683
59	0x3d613cb7	0.054989543
60	0xbdcb1ffd	-0.09918211
61	0xbdf946b6	-0.1217169
62	0xbc17445e	-0.009232609
63	0xbde459c2	-0.111499324
64	0x3d64b777	0.05583903
65	0xbe73bc22	-0.23802236
66	0xbd417282	-0.047228344
67	0x3e0f7bbc	0.14012045
68	0x3d84b382	0.06479551
69	0xbd5bf747	-0.05370262
70	0x3e4505c8	0.19240487
71	0x3df4def6	0.11956589
72	0xbe65df95	-0.22448571
73	0xbe873d49	-0.26413944
74	0xbeb65dc8	-0.35618424
75	0xbc599a19	-0.013281369
76	0xbce5ce53	-0.028052485
77	0xbea42c14	-0.3206488
78	0x3d99a047	0.075012736
79	0x3c8b3413	0.016992604
80	0xbde7ec07	-0.113243155
81	0x3ccb4d5e	0.024817165
82	0xbc74e447	-0.014947004
83	0x3c1a16b6	0.009404829
84	0xbbd4b81f	-0.0064916755
85	0xbdc65ead	-0.09686027
86	0x3c8a956a	0.01691695
87	0xbdf11a86	-0.11772637
88	0xba50fe7c	-0.00079724914
89	0x3bdcd212	0.0067389095
90	0x3ceb639a	0.028734017
91	0x3e1425f9	0.1446761
92	0x3ddf9ca0	0.10918546
93	0x3da05dae	0.07830368
94	0x3e3b1eb5	0.18273433
95	0x3e07648a	0.13221946
96	0x3d832ff1	0.064056285
97	0x3ded2c80	0.11580753
98	0x3e46f820	0.1943059
99	0xbd2bc425	-0.041935105
100	0xbcdd6652	-0.02702633
101	0xbe357858	-0.17721689
102	0x3d82e19a	0.06390686
103	0x3cef0e16	0.029181521
104	0xbc7f255d	-0.015572873
105	0x3d5d6d90	0.054059565
106	0x3e1156d0	0.14193273
107	0x3e316cc8	0.17326653
108	0x3dae97c7	0.08525043
109	0xbd7605c8	-0.060064107
110	0x3bc69f2d	0.0060614557
111	0xbbb487b0	-0.0055093393
112	0x3d429789	0.047507796
113	0x3d2acc39	0.04169867
114	0xbde22068	-0.11041337
115	0x3d15800b	0.036499064
116	0xbd9f5b42	-0.07781078
117	0x3c9c5331	0.019082638
118	0xbd9adb93	-0.07561412
119	0x3bb48345	0.0055088126
120	0xbc1f1fea	-0.009712199
121	0x3d1450c5	0.03620984
122	0x3a135a13	0.0005621027
123	0xbd1aee18	-0.03782472
124	0xbd6829eb	-0.0566806
125	0xbde42d8f	-0.11141502
126	0x3e79e28a	0.24402824
127	0xbc50393f	-0.012708961
128	0xbe9a161a	-0.30094987
129	0x3ec6b067	0.3880646
130	0x3da10ee7	0.078641705
131	0xbe9d6309	-0.3073962
132	0x3e964855	0.2935206
133	0x3e7f1b4c	0.24912757
134	0xbe0c3fc2	-0.13696197
135	0x3ca50ed0	0.020148665
136	0xbdcf1016	-0.1011049
137	0xbe8cf051	-0.27527097
138	0x3e232584	0.1593228
139	0xbc9dc2b0	-0.019257873
140	0xbd68fd16	-0.056881987
141	0x3e72a425	0.23695429
142	0x3de98f50	0.11404288
143	0xbcd1bde5	-0.025603244
144	0x3df819c9	0.12114293
145	0xbd2d7197	-0.042344656
146	0xbd2b26f2	-0.041785188
147	0x3ab53889	0.0013826053
148	0xbc89420f	-0.016755132
149	0x3e020343	0.12696557
150	0xbd1582ff	-0.03650188
151	0x3d53c108	0.05169776
152	0x3bd50c43	0.006501706
153	0xbe60e280	-0.21961403
154	0xbe9487d4	-0.2900988
155	0xbe70ef4c	-0.23528785
156	0xbe3a96f1	-0.18221642
157	0xbe2f0776	-0.1709269
158	0xbe1bb576	-0.1520594
159	0xbe74b7ca	-0.23898235
160	0xbdfa3975	-0.1221799
161	0xbe173b8d	-0.1476881
162	0xbc327f7c	-0.010894652
163	0x3d55d354	0.05220349
164	0x3ca7b8c9	0.020473855
165	0xbdb62ad0	-0.088948846
166	0x3d4fa17c	0.050691113
167	0xbcb57d01	-0.022154333
168	0xbe1a7d01	-0.15086748
169	0xbe51f9a6	-0.2050539
170	0xbe747bc9	-0.23875345
171	0x3dc6934d	0.09696064
172	0x3d80ecfd	0.06295202
173	0x3e04e00f	0.12976097
174	0x3da3da46	0.08000617
175	0x3e45609d	0.19275136
176	0x3d97257d	0.07380197
177	0x3d0b344e	0.03398543
178	0x3e1fffcc	0.15624923
179	0x3e0dc97c	0.13846391
180	0x3d6ecaa1	0.05829871
181	0x3db012f8	0.08597368
182	0x3d8a943f	0.06766557
183	0x3d6ef504	0.058339134
184	0xbd212da4	-0.039350167
185	0xbdaa7b99	-0.08324356
186	0xbe3e6c1e	-0.18595931
187	0xbdf77c96	-0.1208431
188	0xbe618656	-0.22023901
189	0x3dc22eed	0.09481607
190	0x3da5a722	0.08088519
191	0x3da3d781	0.080000885
192	0x3c11c4c4	0.00889701
193	0x3df36fe4	0.11886576
194	0x3c184009	0.009292611
195	0xbd042f58	-0.032271713
196	0x3c6b9d46	0.014380759
197	0xbc2dde68	-0.010612108
198	0x3e6799c1	0.22617246
199	0x3e452288	0.19251454
200	0x3e54bfa6	0.20776233
201	0x3d64e965	0.055886645
202	0x3e0f3afb	0.13987343
203	0x3d8bf128	0.06833106
204	0x3e28a07c	0.1646747
205	0x3e30ae98	0.17254102
206	0x3dc9be38	0.098507345
207	0xbdfa8539	-0.122324415
208	0xbde78572	-0.113047495
209	0xbdb819db	-0.089893065
210	0xbd082c76	-0.033245526
211	0xbd043f11	-0.032286707
212	0x3d7fb626	0.06242957
213	0x3b4c3987	0.0031162219
214	0x3d71ba56	0.059015594
215	0xbcafdc4b	-0.021467349
216	0x3dc5472b	0.09632715
217	0x3e481f51	0.19543196
218	0xbcf4a1b4	-0.029862262
219	0x3e2091d1	0.15680625
220	0x3e9490e3	0.2901679
221	0x3b2f7ab9	0.002677603
222	0xbd222aaf	-0.039591487
223	0x3e0cabda	0.13737431
224	0x3dde9586	0.10868363
225	0x3e22e53a	0.15907755
226	0x3d9367ab	0.071975075
227	0x3dea5a66	0.114430234
228	0x3d8bf308	0.06833464
229	0x3dffd103	0.12491038
230	0x3dec6757	0.11543148
231	0x3d520065	0.051269908
232	0x3e24cd8c	0.16094035
233	0x3d830576	0.06397526
234	0xbded18a9	-0.11576969
235	0xbdc17e5a	-0.09447928
236	0xbd11cb45	-0.035594244
237	0xbae313f1	-0.0017324669
238	0xbcdee9ec	-0.027211152
239	0xbdd3768f	-0.10325348
240	0xbdda017f	-0.106448166
241	0xbe74284e	-0.238435
242	0xbe737cf1	-0.2377813
243	0xbe668237	-0.2251061
244	0xbe7e5c86	-0.24839982
245	0xbe802c68	-0.2503388
246	0xbe969606	-0.29411334
247	0xbe8fa845	-0.28058067
248	0xbe61e2f8	-0.22059238
249	0xbeaecb1b	-0.34139332
250	0xbe932624	-0.28740036
251	0xbe9620b4	-0.29321826
252	0x3df59788	0.11991793
253	0x3dd203bf	0.10254621
254	0x3dc844d1	0.09778751
255	0x3c898a98	0.01678972

net_list.5.bias f4 [8]
0	0xbe3578a2	-0.17721799
1	0x3e204b2b	0.15653674
2	0xbd00ea0a	-0.031473197
3	0xbd787e87	-0.06066754
4	0xbd6b23de	-0.057407252
5	0xbae1ae2a	-0.0017218043
6	0x3db7c0b6	0.089723036
7	0x3c4026fa	0.011728043

net_list.7.weight f4 [1, 8, 3, 3]
0	0x3d6ed526	0.058308743
1	0x3df496ed	0.11942849
2	0x3d96d5b9	0.07364983
3	0x3e07b39b	0.13252108
4	0x3e07f18a	0.13275734
5	0x3de06e3f	0.10958528
6	0x3e517e2f	0.20458291
7	0x3e0668e2	0.13125947
8	0x3d8e2ce0	0.06942153
9	0xbdad295e	-0.08455156
10	0xbdff0b9b	-0.124533854
11	0xbe3b896b	-0.1831414
12	0xbdaffdab	-0.08593305
13	0x3df4a97d	0.1194639
14	0xbd67f3d0	-0.056629002
15	0x3e821b6f	0.25411555
16	0x3e0b6227	0.13611661
17	0x3e7ab814	0.24484283
18	0x3dae7fc5	0.08520464
19	0xbc6625e9	-0.014047124
20	0xbdfce196	-0.123477146
21	0xbd3afeb5	-0.045653064
22	0x3df87190	0.12131035
23	0x3dd36454	0.103218704
24	0xbda46949	-0.08027894
25	0x3d776e3d	0.060407866
26	0xbda7708b	-0.08175763
27	0xbe16190c	-0.14657992
28	0xbe1d8fe5	-0.15386923
29	0xbc239023	-0.009983095
30	0xbdd17302	-0.10227014
31	0xbe0de470	-0.13856673
32	0x3d588597	0.052861776
33	0xbdaa4391	-0.083136685
34	0xbe4e2f46	-0.20135221
35	0xbe49fc9e	-0.19725272
36	0x3cf6f97c	0.03014826
37	0xbd41a59f	-0.04727709
38	0xbc9da59f	-0.019244013
39	0xbe4191f5	-0.18903334
40	0xbe14f853	-0.14547853
41	0x3c99a37f	0.018754719
42	0xbe44448f	-0.19166778
43	0xbbe87dda	-0.007095081
44	0xbcae5d09	-0.021284597
45	0xbdb32760	-0.087477446
46	0xbd9a97e8	-0.07548505
47	0x3ddd3c2d	0.10802493
48	0x3db1d7fd	0.086837746
49	0xbd3fc8c7	-0.046822336
50	0xbd907220	-0.070530176
51	0x3d50c8f0	0.05097288
52	0xbce8cfd7	-0.028419418
53	0x3d4d6093	0.05014093
54	0xbe061ab9	-0.13096131
55	0x3c2e57cf	0.010641052
56	0xbd8a72f0	-0.06760204
57	0xbc89c44d	-0.016817236
58	0xbd44f194	-0.04808195
59	0xbd6f4f5f	-0.058425304
60	0xbda56eab	-0.08077749
61	0xbdcfafbb	-0.1014094
62	0xbe1b6803	-0.15176396
63	0x3e77158f	0.24129318
64	0x3e801e80	0.2502327
65	0x3e804077	0.25049183
66	0x3e4b748e	0.19868681
67	0x3e20bc71	0.15696885
68	0x3d4008e8	0.046883494
69	0x3dd05a94	0.101735264
70	0x3e2b2de5	0.16716726
71	0x3e7a4e62	0.24443963
