QIENetV1_0_0/QIENet_Conv3.pth (torch, 242177 bytes, 11 tensors)

net_list.0.cell_list.0.conv2d.weight f4 [64, 32, 3, 3]
000000 99 9c 08 3e 57 e6 2a 3e a2 01 0e 3e df 47 86 3d
       0.13340987 0.1668943 0.1386781 0.06556677
000010 ec de 1d 3e 3a 2e 2d 3e cd a3 fc 3d 74 c3 0b 3e
       0.15417069 0.16912165 0.1233593 0.13648778
000020 9d 97 21 3e b7 95 17 3e 7e 39 e4 3d ec 35 c4 3d
       0.15780492 0.14803205 0.11143778 0.09580597
000030 74 5c e7 3d 8a 26 88 3d 61 1a df 3d ec 10 ee 3d
       0.11296931 0.06647976 0.10893703 0.11624321
000040 b9 2f 23 3e 6e fd ad 3d 0a 7c ce 3d 13 c6 8a 3d
       0.15936173 0.084956035 0.10082252 0.06776061
000050 e7 91 bf 3d 09 a5 f4 3d 81 9d 81 3d ae d5 9c 3d
       0.093540005 0.119455405 0.063288696 0.07657944
000060 ca 83 69 3d 69 32 17 3e 66 a8 1b 3e f7 c8 de 3d
       0.05701045 0.14765324 0.15200958 0.10878175
000070 e8 1f c8 3d 8d 45 00 3e 5a ee 14 3e 02 fc c6 3d
       0.09771711 0.12526532 0.14544049 0.097160354
000080 04 59 e4 3d 13 7e 93 3d 54 a2 7a 3d 36 05 12 3d
       0.11149791 0.07201781 0.061189964 0.0356495
000090 82 b4 77 3d 73 1d 9b 3d 14 24 9c 3d 6d e5 d5 3d
       0.06047488 0.07573976 0.07624069 0.1044415
0000a0 ff f9 59 3d 85 ac 51 3d a6 47 e6 3d ca e7 b1 3c
       0.05321693 0.051189918 0.112441346 0.021716971
0000b0 09 78 f7 3d 1a b1 07 3e 3c 9a dc 3d b7 f4 ba 3d
       0.12083442 0.13251153 0.10771605 0.09128707
0000c0 bd cf d1 3d e3 5e 90 3d ec 86 81 3d 61 43 d9 3d
       0.10244701 0.07049348 0.063245624 0.10608555
0000d0 24 1f e2 3d 7f df fa 3d 4a ba a2 bd 3d bb 51 bd
       0.11041096 0.1224966 -0.07945688 -0.051203955
0000e0 e9 b8 70 bd 28 b7 ae bd fd 7a ff bd 26 ad 50 bd
       -0.058770094 -0.08531028 -0.1247463 -0.050946377
0000f0 b0 b6 86 bd fa 98 5c ba cc 29 57 bc 94 fb a8 bd
       -0.065778136 -0.0008415129 -0.013132524 -0.0825111
000100 91 88 b6 bd 9f 5f c7 bb 22 f6 1a bd e0 8d a7 bd
       -0.08912767 -0.006084397 -0.037832387 -0.081813574
000110 d8 51 29 bd f0 4e e9 3c ae d7 74 3c 36 35 a3 bc
       -0.041337818 0.028480023 0.014944 -0.019922834
000120 76 7b 85 bc 8d 2a 63 3d a4 54 9f 3b 8c ff 94 3d
       -0.016294222 0.0554605 0.004862385 0.07275304
000130 fa c2 17 bc f7 d0 be 3d 7b 71 29 3d 00 86 71 3d
       -0.009262795 0.09317201 0.04136799 0.058965683
000140 7c 0c 8e 3d c8 a4 0c bd 19 67 d9 bc e4 a2 57 3c
       0.06935975 -0.034336835 -0.026538419 0.013161395
000150 e0 e3 70 bd 3a 50 5f bd 3d b0 9c 3d 6a 0b 93 bc
       -0.05881107 -0.05451987 0.07650802 -0.017949779
000160 7f 03 14 bd fa 59 76 ba b0 ad 80 bd e5 a3 13 3d
       -0.036136147 -0.0009397563 -0.06283128 0.036044974
000170 14 78 c6 3c 52 6c ef bd 7d 04 a3 bd 68 08 94 bd
       0.02422718 -0.11690582 -0.079598404 -0.07228166
000180 04 aa 93 bd 26 29 a7 bd 3b a8 d6 3b 1a e0 ba bb
       -0.07210162 -0.08162145 0.0065508164 -0.0057029845
000190 54 66 3a 3c 8c 83 1e 3d 08 c0 52 bd 5f 05 47 bd
       0.011376936 0.03869967 -0.051452667 -0.048589107
0001a0 ca 35 89 bd fa d9 96 bc a8 6f 93 bd 9a b1 17 bd
       -0.066997126 -0.018414486 -0.07199031 -0.03703461
0001b0 72 69 7c 3d 41 89 fe bb b7 c3 cb 3d 8c 1c e2 3c
       0.061623998 -0.007767827 0.09949439 0.027601503
0001c0 52 40 3c 3b 62 0f ab 3d bb f2 1e bd aa b1 16 3d
       0.0028724861 0.083525434 -0.038805705 0.036790527
0001d0 13 4c dc 3a e2 c6 36 3d 7c 16 08 3d 22 7e c9 3c
       0.001680734 0.044623263 0.033224568 0.024596278
0001e0 a1 8e 38 3d b5 e3 b2 3d 24 8c 75 3c e3 3c 82 bb
       0.045057897 0.08734838 0.014987025 -0.0039745434
0001f0 3d 69 33 3d 9d d6 b9 3d 42 4d d9 bc 66 68 51 3d
       0.043801535 0.09074137 -0.026526097 0.051124953
000200 24 06 d1 3b 98 f6 25 bd a9 c1 24 3a 42 5b b3 3d
       0.006378906 -0.040518373 0.0006284961 0.087576404
000210 f1 c8 8c ba 90 10 27 3c cc 84 6c 3d 18 b7 8e 3d
       -0.0010741038 0.01019682 0.057743832 0.06968516
000220 fb 29 c6 3d 69 05 6d 3d 46 63 fd 3b 5b 8c 9c 3d
       0.09675976 0.057866488 0.0077327816 0.07643958
000230 30 01 86 3d e5 6d 8a 3d b1 4b bb 3d 9f a4 71 3d
       0.06543195 0.06759242 0.09145296 0.058994886
000240 21 d4 75 3d 43 f4 4a bd 77 a9 8e 3b db d0 f2 3c
       0.060016755 -0.049549352 0.004353698 0.029640606
000250 be 9e 80 3d 47 45 18 3c 40 0d 7e bd 60 b3 f2 bc
       0.06280278 0.009293861 -0.062024355 -0.029626548
000260 a1 9a 98 3d 29 c3 5e be 4d 11 13 be 49 9c 83 be
       0.07451368 -0.21754135 -0.14362068 -0.25705174
000270 ee 22 40 be 0e d5 64 be e0 35 8c be e3 79 68 be
       -0.18763325 -0.22346899 -0.27384853 -0.22702746
000280 ef db 6b be 08 39 7e be f5 af e4 bc 18 0c 2f bd
       -0.23033117 -0.24826443 -0.027915934 -0.042736143
000290 ea 05 aa 3d 23 0d 16 3c 16 8b 4d bc e9 09 cc 3c
       0.08301909 0.0091584055 -0.012545368 0.02490707
0002a0 4b 8b 69 bc f6 e9 ba bd ce c8 71 3d 77 d0 b1 bc
       -0.014254401 -0.09126656 0.059029393 -0.02170585
0002b0 4a b5 29 bd e5 84 ab bd 77 48 25 3d e9 fd 12 bd
       -0.041432656 -0.08374957 0.04035231 -0.03588668
0002c0 85 82 9f bd cc 66 3f 3d fe df 47 3c 2b 92 24 bc
       -0.077885665 0.046728894 0.0121994 -0.010044615
0002d0 0d 9c a5 3d 1d a2 41 3d c5 8a 66 3a c2 26 ca 3d
       0.08086405 0.047273744 0.0008794482 0.09870674
0002e0 9f 9e 07 3d c1 0c f3 3b 40 b5 23 3e 18 c1 6d 3d
       0.033110257 0.007417292 0.1598711 0.058045477
0002f0 69 52 83 3d 55 d7 02 be c3 d3 2d bd 56 14 97 bc
       0.06412203 -0.12777455 -0.04243828 -0.018442314
000300 bf b6 58 bd ff 2b b6 bd 92 fa 3b bc 1b b7 3a be
       -0.052908655 -0.0889511 -0.011473315 -0.18233912
000310 04 e1 a3 bd 8c 73 74 bc 7f 6d 1a 3c 99 40 0f 3d
       -0.08001903 -0.014920127 0.00942552 0.034973715
000320 fb c8 ed 3d c8 01 92 3d b5 19 03 3d 82 d0 59 bb
       0.116105996 0.07129246 0.032006938 -0.0033235853
000330 bd 2b df 3d 7f 39 a7 3d fd 65 bb 3d c0 be 89 bd
       0.10897014 0.081652634 0.09150312 -0.06725836
000340 5c 81 29 bd 07 b1 bc bb 66 c4 83 bd a1 37 50 3c
       -0.041383132 -0.005758408 -0.064339444 0.012708575
000350 64 26 86 3c 78 04 a5 bd 56 83 29 bd 0a 5e c0 3c
       0.016375728 -0.08057493 -0.041385017 0.023482341
000360 13 d9 dd 3c 18 c6 04 3d 79 25 87 3d 59 6e ba 3c
       0.027081048 0.03241548 0.06598944 0.022757696
000370 d7 f4 29 bd 3a ab 99 bc 38 f4 ee bb 4e 83 cd 3c
       -0.041493263 -0.018758405 -0.0072922967 0.025087025
000380 a2 06 dd 3c d6 8b 80 bc c4 2b ff bd 17 56 6d be
       0.026980702 -0.015691679 -0.124595195 -0.23177372
000390 d5 d8 42 39 7b 02 a2 bd 71 60 73 be 10 de 33 3d
       0.00018582058 -0.07910629 -0.23767258 0.043912947
0003a0 05 42 11 be be 3c 44 be a2 6a ab bd 13 dd 8f bd
       -0.1418534 -0.19163796 -0.08369948 -0.070245884
0003b0 a0 44 05 be a3 5d 2b be 65 20 2a be a3 06 c7 bd
       -0.1301446 -0.16734938 -0.1661392 -0.09718063
0003c0 27 8a 39 be 36 12 15 be 81 30 d8 bd 64 76 08 3d
       -0.18119107 -0.14557728 -0.105561264 0.03331603
0003d0 5d 24 3c 3d ec 3f 74 39 88 83 ad 3d 46 c4 4c 3d
       0.045933116 0.00023293466 0.08472353 0.04999187
0003e0 5e f9 97 bb fc 5a 89 3d 90 87 91 3d 47 a4 98 3d
       -0.004637881 0.06706807 0.071059346 0.074532084
0003f0 af 09 8a 3d 8d 87 35 3d 56 ef 38 3e e8 f0 1d 3d
       0.06740128 0.044318724 0.1806005 0.038559824

net_list.0.cell_list.0.conv2d.bias f4 [64]
000000 4b 33 09 bc 54 ac b3 bc 12 1b 8e bd 64 c5 98 3d
       -0.008374046 -0.021932758 -0.06938757 0.07459524
000010 d1 c5 a5 3c 91 46 d6 bc 94 5f 1b 3d 75 6e 97 bc
       0.020235928 -0.026156696 0.037932947 -0.018485287
000020 77 48 47 bd c6 a7 58 3c bc 8d 83 3d 32 4f 95 3d
       -0.048653092 0.013223594 0.06423518 0.07290496
000030 9d ae 0a 3c 71 9f 21 bd c8 9c 8e bd c5 97 85 3a
       0.008464483 -0.039458696 -0.069634974 0.0010192326
000040 d5 e6 96 3d 4c c6 c1 3d fa fa b5 3b 29 dd 01 3e
       0.073682465 0.0946165 0.0055536004 0.12682022
000050 23 41 1d bd 74 00 36 3d fa 81 85 3d 55 91 49 be
       -0.038392197 0.044434026 0.06518932 -0.19684346
000060 5f a7 22 be 0e ae a1 bd 04 d5 01 bd 4f be 0c 3d
       -0.1588416 -0.078945264 -0.03169729 0.03436118
000070 47 c9 15 3e 4a 24 ac 3d cd 15 93 3d 57 c0 93 3d
       0.14627562 0.08405359 0.071818925 0.0721442
000080 a0 9e 70 bc ad 2a f4 bc 9c 7b c5 3b ed c5 f6 3c
       -0.014686257 -0.029805506 0.0060266983 0.030123675
000090 96 0e 8a bc a1 a1 ba 3d 13 5e 69 3b 74 07 42 3d
       -0.016852658 0.091128595 0.003560905 0.04737039
0000a0 5a 2b fc bd 51 a2 20 bc 8f d0 d5 bc d0 73 36 bc
       -0.12312956 -0.009804324 -0.026100425 -0.01113601
0000b0 2b e4 6f 3d a9 0d 62 3d 74 b7 c7 bc 93 d9 d4 3d
       0.058567207 0.05518881 -0.02437947 0.103930615
0000c0 1f 4d 3e 3e f6 32 e2 3d 73 a0 6f bb e3 fe 44 3e
       0.18584107 0.11044876 -0.003656414 0.19237857
0000d0 a7 21 9a 3d 6e 7e 18 3e f3 ce 23 3e d2 5b 52 bd
       0.0752595 0.14891979 0.15996914 -0.051357098
0000e0 cf 3e f0 bc 22 8e b9 3c 2f 3e e9 3d 1a 86 c8 3d
       -0.029326824 0.022650782 0.11388814 0.09791203
0000f0 b5 b3 91 3e 51 ee 95 3e de b2 4d 3d 9e 06 12 3e
       0.28457418 0.29283383 0.05021941 0.14260337

net_list.0.cell_list.1.conv2d.weight f4 [64, 32, 3, 3]
000000 93 7a 1a 3d 11 84 3d bd e5 cc f5 bc dc 64 a4 3d
       0.037714552 -0.046268526 -0.030004928 0.0802705
000010 bc ab d7 3c 08 18 a6 bd 35 99 b5 3d 09 bc 7e 3d
       0.026327007 -0.08110052 0.088671125 0.062191043
000020 cb 2c 6a 3c 2d ca f6 bc 60 1c 03 be cc e4 b9 bc
       0.014292906 -0.030125702 -0.12803793 -0.022692107
000030 2b 2a dc bd 41 84 88 bb 5d 24 8d bd 82 7c c0 3c
       -0.107502304 -0.0041661565 -0.06891701 0.02349687
000040 49 69 0c bd 3e 53 e9 3c 8f 9e be bd cf da 8d bd
       -0.034280095 0.028482076 -0.093075864 -0.069265
000050 2e ab 18 3d 2b 9d 44 bd 1b 2d 6f bd 0d b1 72 bd
       0.037272625 -0.04800145 -0.058392625 -0.05925088
000060 fc 06 d6 bc df f4 28 bc 1d ad a8 bd 89 9c f9 bd
       -0.026126377 -0.010312288 -0.08236144 -0.1218806
000070 23 45 d7 bd de b4 c7 bd ae 25 25 bc 60 6b 3d bd
       -0.10511234 -0.097512946 -0.010079784 -0.04624498
000080 45 df fd ba e2 b3 e5 bd 9c ae b2 bd cf 7b 1c bd
       -0.0019368908 -0.112159505 -0.0872471 -0.03820401
000090 06 05 a8 3b 5b 65 6c bd a6 aa 3d bd d8 7b 80 3c
       0.005127552 -0.057713848 -0.04630532 0.015684053
0000a0 62 7c 30 3a 30 25 a6 bd a3 c2 c2 bb c8 6d 8e bd
       0.00067324017 -0.08112562 -0.0059436127 -0.06954533
0000b0 d2 84 c2 bd 91 21 c2 3d ed 87 b1 3d 8f 4b e4 3d
       -0.0949799 0.094790585 0.08668504 0.11147224
0000c0 09 05 2f bd fa e6 78 bd 30 09 d2 bc 31 70 a7 3c
       -0.04272941 -0.06076715 -0.025639147 0.02043924
0000d0 ce a0 8a 3d 51 ea 9a 3c ad 5f 24 be 5c ff 6d be
       0.06768952 0.018910559 -0.16052122 -0.23241943
0000e0 b9 56 ec bd bd e3 0e be 76 e2 5c be 59 78 3f be
       -0.115399785 -0.13954063 -0.21570763 -0.18698253
0000f0 c9 b1 0e bd d2 e8 27 be 6f b3 be bd 84 84 4d be
       -0.034837518 -0.16397408 -0.09311568 -0.20070082
000100 fc 90 b0 bd 23 dd 09 be 17 1c 14 be be f7 32 be
       -0.086214036 -0.13463263 -0.1446384 -0.17477319
000110 b2 1c 22 be 5c 85 2a be 21 bc 12 be b6 e2 3a be
       -0.15831259 -0.16652435 -0.14329578 -0.18250546
000120 f7 f6 64 3c 42 52 8c bd 92 a8 2c 3d d6 ce fa bc
       0.013974897 -0.06851627 0.04215295 -0.030616205
000130 44 36 7e bc aa 7f cd 3d 49 f3 d2 bd 34 69 80 bd
       -0.015515868 0.100341156 -0.10300309 -0.06270066
000140 22 89 e2 3c ef cf d2 bd 9f ed d0 bd 86 94 d7 bd
       0.02765328 -0.102935664 -0.102015726 -0.105263755
000150 25 51 91 bd e7 24 d9 bd 2d 3f 88 bd 6f 19 84 3c
       -0.07095555 -0.10602742 -0.06652675 0.016125409
000160 9d 42 b7 bd 2c 73 a8 3c 32 21 ef 3c 9a 2d 9f 3d
       -0.08948252 0.02056273 0.029190633 0.0777237
000170 5c 9d 00 3d 2c b4 dd 3d 83 07 d1 3d 6e dd 26 3d
       0.03140007 0.10825381 0.10206511 0.040738516
000180 1b 5a 93 3d dc 11 c8 3d 4a 6d 12 bc d6 82 ef 3d
       0.07194921 0.097690314 -0.008937189 0.11694877
000190 11 b6 fe b9 9e de 24 3d a0 1f ff 3c de 63 7a 3d
       -0.00048582305 0.040251367 0.03114301 0.061130397
0001a0 27 84 83 3c 4a 24 d1 3d 36 e4 87 3d 4e 0a 93 3d
       0.016054226 0.10212 0.06635325 0.071797
0001b0 aa 76 68 bd 63 ee df bd d5 bc aa bd ef 4e 02 be
       -0.056753792 -0.109341405 -0.08336798 -0.12725423
0001c0 9f 87 9e bd 40 89 18 bd 1e 5e 2a bd 5e 21 4e be
       -0.077407114 -0.037240267 -0.041593663 -0.20129916
0001d0 1f 5d 33 be dd 61 a0 3d b5 52 86 bd 1c 23 36 bd
       -0.17515992 0.07831166 -0.06558744 -0.044467077
0001e0 80 f9 4d 3d 52 b6 e5 bd 46 02 2f be 75 40 91 3d
       0.05028677 -0.112164155 -0.17090711 0.07092372
0001f0 44 b1 c2 bd b6 a0 10 bd b7 ff c5 bd b8 45 43 bd
       -0.09506467 -0.035309516 -0.09667914 -0.04767391
000200 8b ea 39 be 02 f6 b8 bc e7 eb dc bb 58 65 0d be
       -0.18155877 -0.022578243 -0.006741989 -0.13808191
000210 54 23 af bc 04 f6 9e bd 08 6f 13 be 43 63 73 bd
       -0.02137915 -0.077617675 -0.14397824 -0.059420835
000220 49 af e9 bb 8b 5d 2a 3d 83 50 36 bd 8c f2 5d bd
       -0.0071314913 0.041593116 -0.044510376 -0.05418639
000230 f8 a8 bf bd 75 bb 3b bd d3 c6 b4 3c d4 93 a1 3d
       -0.093584 -0.04583307 0.022067463 0.07889524
000240 3a 33 41 bc ec 2a ac bc 40 b6 03 be e5 b0 39 3c
       -0.0117919985 -0.02101656 -0.12862492 0.011333679
000250 ec 2b 81 bc ee 3c 86 bd fe a8 03 bd fb 8a fd 3c
       -0.015768014 -0.0655459 -0.032143585 0.03095006
000260 04 b1 08 bd 25 63 1a 3d ce 43 47 bc 10 07 38 bb
       -0.03337194 0.037692208 -0.012162162 -0.0028080381
000270 35 7d b3 bc 06 e4 c2 bd 1e d9 a7 bd ad c3 db 3c
       -0.02191029 -0.09516148 -0.08195709 0.026826704
000280 27 f7 a2 bc 07 2f 9a bd eb 48 af 3d 61 ca 38 3d
       -0.019893242 -0.07528501 0.0855883 0.04511488
000290 06 02 98 3d 11 62 bb 3d 67 af dd 3d a6 33 e6 3d
       0.07422261 0.09149564 0.10824471 0.1124032
0002a0 88 5a 90 3d b8 59 e5 3d 7c d5 2a 3e 7d 7d 28 3c
       0.070485175 0.11198753 0.16683 0.010283825
0002b0 84 a1 2a bd cb da 6d 3b 46 5d c3 bb fc c3 95 3d
       -0.04165794 0.003629374 -0.005962047 0.07312772
0002c0 db ae 1f 3d ba 52 2d 3d 32 66 80 3d d8 b3 a0 3c
       0.038985115 0.042315222 0.06269492 0.019617006
0002d0 4f 23 9a bd e0 7d 0b bd 49 0a c1 bc 1f 04 8b bd
       -0.07526266 -0.03405559 -0.023564475 -0.067878954
0002e0 bf d0 ed 3c 58 99 09 bd 0a 41 a6 3d 46 0e 20 3e
       0.029030202 -0.033593506 0.08117874 0.15630445
0002f0 88 e7 2b bc da 13 a4 3d ba ed 7d bc db 00 f2 bb
       -0.010492213 0.08011599 -0.015498573 -0.007385356
000300 04 83 97 bc 8c be 79 3d 4d ea 80 3d 92 8f 62 bd
       -0.01849509 0.060972735 0.06294689 -0.0553127
000310 f6 7e 12 3d 29 21 b1 3d 62 c4 a7 bd d3 22 98 3c
       0.03576561 0.08648903 -0.08191754 0.018571293
000320 b0 e7 a6 3c 5b 00 8e bd 9b a4 bc 3c 83 24 da bc
       0.02037415 -0.069336616 0.023027709 -0.026628738
000330 6e 83 49 3b 26 35 b4 bd 3f ad be bd 2a 72 8c 3d
       0.0030748504 -0.087992 -0.09310388 0.068577126
000340 a6 b9 33 3e d7 20 32 3e 88 c4 97 3d fe d3 8d 3d
       0.17551288 0.1739534 0.07410532 0.069252
000350 c1 07 0a 3e 08 e1 06 3b ea 2c 1f bd db ce 3e 3d
       0.1347952 0.0020580906 -0.038861193 0.04658399
000360 35 56 64 3d 3e 15 60 3d d3 42 91 3c a7 6e 37 3d
       0.055746276 0.054707758 0.01773206 0.04478326
000370 21 95 b2 3c 36 30 b1 bc 1e 6e 95 3d dd 1b 13 3d
       0.021799626 -0.021629434 0.07296394 0.035915244
000380 70 52 9f 3d 8f 48 85 3c 65 d1 6b 3d 15 3e 97 3c
       0.077793956 0.01626995 0.05757274 0.01846222
000390 bb 2f c7 3c 6d d6 c0 3c ea 7a 82 3c 1d e0 46 3d
       0.024314752 0.023539746 0.01592775 0.048553575
0003a0 5a eb 89 3d c6 fb 84 3d 56 15 6d 3d 0f 64 6d 3d
       0.06734343 0.064933345 0.057881676 0.05795675
0003b0 1e 43 63 3c 9d be 3a 3d bc 58 be bb 02 69 71 3d
       0.013870982 0.04559194 -0.005808918 0.058938034
0003c0 9a c9 81 3c 8d c2 64 3c 9c f0 5e ba 49 75 01 3a
       0.015843201 0.0139624 -0.00085044815 0.00049384363
0003d0 74 49 62 3c 3c e5 c6 bc 0a 3a c7 3c 83 52 b3 bd
       0.013811458 -0.02427923 0.024319667 -0.08755972
0003e0 71 4b 4d 3c ee 77 ca bd 6a 4a e1 bd 5e 8f df bd
       0.012530194 -0.09886156 -0.110005215 -0.10916017
0003f0 14 63 92 3c ff 21 42 3d 5c 32 42 3d bf ee 9c 3d
       0.01786951 0.047395702 0.047411308 0.07662725

net_list.0.cell_list.1.conv2d.bias f4 [64]
000000 cc 7d 87 3d 69 56 8c 3b 0c df d3 3c d2 d2 1a bc
       0.06615791 0.004282762 0.025863193 -0.009449678
000010 55 9f ec 3c a0 b8 c2 3d 7e 62 fa 3a 2d 6b f3 3c
       0.02888457 0.09507871 0.0019102839 0.029714191
000020 94 08 05 3d e9 1e 8a 3d fd 8f dd bc 74 12 62 3b
       0.032478884 0.06744177 -0.027046198 0.0034495862
000030 a6 91 6a 3d 8d 78 dc 3c 56 c5 5a 3d 3e 2e a8 bd
       0.057267807 0.026912952 0.05341085 -0.08211945
000040 c3 e6 0c 3e 47 05 a8 3d e9 5a 71 bc 46 84 6f 3c
       0.13759904 0.082041316 -0.014731147 0.014618939
000050 86 d5 22 bd 59 37 18 3e 64 28 22 3e 46 58 a9 3d
       -0.039754413 0.14864863 0.1583572 0.0826879
000060 9f da ea 3c 28 49 18 3e a6 3f 97 ba 09 e1 74 3e
       0.0286687 0.14871657 -0.0011539354 0.23913969
000070 fb b7 ab 3d b3 90 7c 3d 80 3f dc 3d 6f 3d dd bc
       0.08384701 0.061661433 0.10754299 -0.027006833
000080 d1 ed bc 3d 37 dd ed 3d 5c 6e d2 bd 83 e3 99 3c
       0.092250474 0.11614459 -0.10274956 0.018785244
000090 0a 7f 3a bc 72 82 86 bc a9 8d 11 be 1f 4c 6f 3d
       -0.011382828 -0.016419623 -0.14214195 0.058422204
0000a0 40 b3 91 3d a0 b2 02 3d 39 1b b8 bc 6b fe 99 3d
       0.07114267 0.03190863 -0.022473918 0.075192295
0000b0 8d dd 97 bc 9d b1 3a bc db 19 76 bc dc 3f 7f bd
       -0.01853826 -0.011394885 -0.015020813 -0.06231676
0000c0 d7 7a 29 3e 48 7a 72 3d a0 bb 4a bd 07 a5 a8 3d
       0.16550766 0.059198648 -0.04949534 0.082346015
0000d0 4c bb cf bc 0d df 86 3e 17 eb 14 3e 4d cf b2 3d
       -0.025357865 0.2634205 0.14542805 0.08730946
0000e0 84 16 2a 3e 67 ec 37 3e 67 cb 22 3c 12 19 24 3e
       0.16610152 0.17961274 0.00993619 0.16025189
0000f0 64 81 05 3d c2 fc a2 bc 12 5b 09 3e 4f 5b fe 3c
       0.0325941 -0.019895915 0.13413647 0.031049399

net_list.0.cell_list.2.conv2d.weight f4 [64, 32, 3, 3]
000000 58 ce c1 bd d6 9d fe bc ad 58 b8 bc f5 1c 19 be
       -0.09463185 -0.031081121 -0.022503221 -0.14952452
000010 80 34 37 bd 88 c9 9e bd 93 8f f1 bd b1 22 3c bd
       -0.044727802 -0.07753283 -0.11794963 -0.04593152
000020 58 3b 9a 3c 59 dd f5 bd 4f 94 04 be 2b 51 b7 3b
       0.018827125 -0.12005109 -0.129472 0.005594393
000030 65 f8 c9 bd 5f e4 ba bd 4d 60 ef bd e0 b7 9b bd
       -0.098618306 -0.091255896 -0.1168829 -0.07603431
000040 53 43 0c bd b3 33 cc bc 00 a8 01 3e d3 46 78 3d
       -0.034243893 -0.024926996 0.12661743 0.06061442
000050 56 68 89 3d a9 d1 bc 3d 57 6a 77 3e 9f 91 03 3e
       0.067093536 0.09219677 0.24161659 0.12848519
000060 06 8f c2 3d 72 da 09 3d e3 be 15 bd a9 22 be 3d
       0.09499936 0.03365559 -0.036558997 0.09283955
000070 db 2e 9d 3d 00 6f d0 3d 2a 3f 28 3d 54 d5 ec 3d
       0.076749526 0.101774216 0.041075863 0.115641266
000080 e5 b9 bf 3c 6e 20 c7 3a 44 9f 82 bc ef 7c 1c bd
       0.023404071 0.001519216 -0.015945084 -0.038205083
000090 99 81 92 bc a6 9d 54 bd b8 7a 2a be 7a 80 54 3d
       -0.017884063 -0.051908158 -0.16648376 0.051880337
0000a0 84 5e c4 3b 5c 9b c4 bd bc c1 8b 3d 6f ba 02 3d
       0.0059927125 -0.09599945 0.06824061 0.03191608
0000b0 65 eb 98 bd cf a3 b7 ba 12 9e 45 bd d6 79 d2 bc
       -0.07466773 -0.0014010611 -0.04824645 -0.025692862
0000c0 cb f4 12 ba 61 be ec bc 2d 59 ab bd 7e 30 1c bd
       -0.0005605935 -0.028899373 -0.08366618 -0.038132183
0000d0 2c 0d 3f bc e6 fd ab bd 52 f7 15 3e 47 87 f8 3d
       -0.011660855 -0.08398037 0.14645126 0.12135177
0000e0 28 1a 1f 3e 30 66 da 3b ed 3f 20 3d e0 96 ab 3d
       0.15537322 0.0066650137 0.039123464 0.083783865
0000f0 42 f6 96 bd 29 b2 86 bd 6f b4 4c bd 3a aa e4 3d
       -0.07371189 -0.0657695 -0.049976762 0.11165281
000100 58 ac 10 3d 17 25 df 3d aa f5 ad 3c d3 75 74 bd
       0.03532061 0.10895746 0.021235306 -0.05968268
000110 20 db 98 3d a4 fd d3 bc 64 17 35 bd ac da 9b 3d
       0.0746367 -0.025877781 -0.04421176 0.07610068
000120 1b 43 c3 bd 4e 24 48 bc 06 a1 a6 3d b4 86 c1 bc
       -0.09534284 -0.012215687 0.081361815 -0.023623802
000130 fb 9f 29 3c d1 6a 30 bd fc dd cd bd e5 50 a4 bc
       0.010353084 -0.043070618 -0.10052106 -0.020058105
000140 61 34 8b 3c b4 72 73 3d 1a 2a 31 3e 18 b5 79 bd
       0.01699275 0.05943556 0.17301217 -0.06096372
000150 46 de 19 bc 9e ca 9c 3c 8f 84 88 bd 94 6a aa bc
       -0.009391373 0.019139584 -0.066659085 -0.020802774
000160 bd 13 8e 3c 5c db 70 bc 4c fc 69 3d 00 c0 f8 3c
       0.017343396 -0.014700737 0.057125375 0.03036499
000170 2b 84 f7 3b e4 c3 55 3d 8e 74 83 3d 44 f7 76 3d
       0.0075535974 0.05218877 0.064187154 0.060294405
000180 ef ff ff 3d b1 4f fa 3d f4 01 13 3e a4 fb 52 3e
       0.12499987 0.12222231 0.14356214 0.20603806
000190 9b f8 fa 3d 73 5d a0 3d eb 58 14 3e 6e 03 ce 3d
       0.12254449 0.07830324 0.14487045 0.10059248
0001a0 66 a9 a5 3c ff 83 59 bc 6f fa a8 bc 3f 3d e6 3c
       0.020222377 -0.013276099 -0.020627229 0.028105376
0001b0 b8 6b 5b 3e c3 c9 0b 3e 22 59 b6 3d 0e 14 3a 3e
       0.2142781 0.13651185 0.089037195 0.18171713
0001c0 70 ec 83 3d 12 fc 66 bc 03 a3 19 bd 1a 85 89 bd
       0.06441581 -0.014098184 -0.037508976 -0.0671484
0001d0 e2 87 09 bd 61 78 87 bd 71 84 94 bc fd c7 8b 3c
       -0.033576854 -0.06614757 -0.01812956 0.017063135
0001e0 9a 53 ec bd 8b 78 b6 bd 0d af 8b bd 76 03 e2 bd
       -0.11539383 -0.089097105 -0.06820498 -0.11035816
0001f0 64 db c7 bd 1d 92 c0 bd 38 71 1c bb 1b 7d de 3d
       -0.09758642 -0.09402869 -0.0023871195 0.10863706
000200 54 fb 2b 3d 70 a6 2f be 7d 7d f3 3c 18 ef 35 bd
       0.041987732 -0.17153335 0.029722923 -0.04441747
000210 83 95 35 be 44 43 27 be 5a a0 76 be 84 f0 8a 3d
       -0.17732815 -0.16334254 -0.24084607 0.06784156
000220 19 ae 03 bd 03 bb d2 bc b4 b9 a4 3d 69 29 54 bb
       -0.032148454 -0.02572394 0.080432326 -0.0032373315
000230 0e 0a df bc e8 ce 57 bd 6a cb af bd 72 01 f4 bd
       -0.027226474 -0.052687556 -0.0858372 -0.11914338
000240 5f f1 ae bb ff 1a e5 3d a0 36 41 3d 3f b3 b7 3a
       -0.0053388323 0.1118679 0.047171235 0.0014015211
000250 4a 13 8c 3d 2e e3 e8 3c d3 47 65 3c f2 63 b5 3d
       0.068396166 0.02842864 0.013994175 0.08856954
000260 d0 2c 61 3d 1e f8 8f bd 03 1c c9 bd 51 f1 b6 3c
       0.054974377 -0.070297465 -0.09819796 0.022331866
000270 9d 2c 44 be 66 af 36 be 7d ed c2 bd 3f f4 0f be
       -0.19157644 -0.17840347 -0.095179535 -0.14058016
000280 5b d2 47 bc 3f 5c 88 3d 79 81 d8 3c d5 37 74 bd
       -0.012196149 0.066582195 0.026428925 -0.059623558
000290 1b 71 5a 3c 1c 59 b0 3b 4f 64 c9 bb 97 0f 2c bc
       0.0133326305 0.0053817164 -0.006145991 -0.010501764
0002a0 87 56 d5 3c da 9a d3 bc ba 33 4d 3d 1c a5 50 3d
       0.026042236 -0.025830675 0.05009816 0.05093871
0002b0 53 dc 48 3d c9 10 1c bb 62 91 5a 3b e6 7b 07 bd
       0.049038243 -0.0023813716 0.0033350815 -0.033077143
0002c0 c5 76 13 bd 67 e0 09 bd 54 79 1e bc 1f b0 39 bc
       -0.03600194 -0.033661272 -0.009672482 -0.011333494
0002d0 ac 74 2c bc 61 52 aa bd b5 36 bd bc 6e a2 9a 3c
       -0.010525864 -0.08316494 -0.023097375 0.01887628
0002e0 43 fd 94 3c 29 7a 95 3c 91 66 76 bd b9 e8 4f bc
       0.01818717 0.018246727 -0.06015641 -0.012689763
0002f0 18 61 c2 3d 2e 0f bd bd 6b 1a 9c bd e7 ed 4e bd
       0.094911754 -0.09231411 -0.07622226 -0.05051985
000300 9a 3e 7c bc c4 5f 9d bd 6b 21 06 bd 7b 17 00 be
       -0.015395785 -0.076842815 -0.032746714 -0.12508957
000310 f8 22 e8 bd 37 63 24 bd 73 b8 7d 3d 07 3d 1b 3e
       -0.11334795 -0.04013368 0.061943483 0.15159999
000320 ab fd 91 3d fa ed 3c 3c 03 df 15 3e 0b ae d4 3d
       0.071284615 0.011531347 0.14635853 0.103847586
000330 53 04 42 bd f7 2b a0 3c 0f bc b2 3d c9 32 bf bc
       -0.047367405 0.019552214 0.087272756 -0.023339646
000340 a6 92 82 bc 94 1d d8 3c d5 94 63 3c 86 69 a6 3c
       -0.015939068 0.026381291 0.013890465 0.02031399
000350 33 96 35 bd bb 30 fd bc a2 3a 84 bb 62 eb 30 bd
       -0.044332694 -0.030907026 -0.00403531 -0.04319323
000360 87 b6 65 bd bd 27 25 bd 82 66 f3 3c 03 3f b5 3a
       -0.056082275 -0.0403211 0.029711965 0.0013827983
000370 67 74 e1 bd 62 40 68 bd 14 fd e5 3c 2c e1 2e bd
       -0.1100853 -0.056702025 0.028074779 -0.04269521
000380 ca 7e e7 bb 08 cf e2 3c e5 5f 18 bd 01 b2 6f bc
       -0.007064675 0.02768661 -0.037200827 -0.014629842
000390 d8 fa 94 3d 07 90 b8 3c eb ed 0f bd fd 47 b8 3d
       0.07274407 0.022529615 -0.035139006 0.08998106
0003a0 ed 1b f3 bc 38 5e c5 bd bd 9a 3a bd 14 49 61 bd
       -0.029676402 -0.096371114 -0.045557726 -0.055001333
0003b0 3e 74 0d bc 16 c5 26 bd 7d 88 68 bd af d3 43 bd
       -0.008633671 -0.0407153 -0.05677079 -0.0478093
0003c0 bc c3 71 bd bb 72 6a 3d e0 71 36 3d bc aa 6e bd
       -0.059024557 0.05723832 0.044542193 -0.058268294
0003d0 eb 7f 82 bd 26 1e 88 3c 44 c0 ca bd c4 2d ac 3c
       -0.06372055 0.016615938 -0.09899953 0.021017917
0003e0 b0 5f c0 3c ea 6f 03 bd 95 3b 4c 3c d1 24 24 3d
       0.023483127 -0.03208915 0.012465377 0.040074173
0003f0 6b 56 e8 bd cd 75 cf bd 12 77 b0 bd 73 14 ba bd
       -0.11344608 -0.101298906 -0.08616461 -0.09085932

net_list.0.cell_list.2.conv2d.bias f4 [64]
000000 a8 bd ee 3c a5 6e 55 bd f3 3b 99 3d 85 d0 95 3c
       0.02914317 -0.052107472 0.074821375 0.018287906
000010 2b a4 8a bc 2c 88 3d bb fb 1e ff bd 1b c2 9a 3d
       -0.016923985 -0.0028920276 -0.12457081 0.07556554
000020 f4 e9 75 3c 20 ca 6d bb a8 77 50 3d 86 5a 0f 3d
       0.015009392 -0.0036283806 0.050895363 0.03499844
000030 80 57 a3 bd b8 01 ae 3c c7 e3 0b bd c2 59 ce bc
       -0.07975674 0.021241054 -0.034152772 -0.025189284
000040 91 c4 91 3d 54 93 86 3d 9d cb b9 3d d3 71 5d 3e
       0.0711757 0.06571069 0.09072039 0.21625452
000050 01 89 35 3d e4 d7 07 3e 1a de 1c 3d 15 57 d6 3c
       0.04432011 0.1326595 0.03829775 0.02616457
000060 fc 87 07 3d 4d cb 64 3e 60 3e b6 3c 7a 01 c4 3c
       0.03308867 0.22343178 0.02224654 0.023926485
000070 d2 ba 21 3e 87 b0 2d 3d 96 8c 6e 3e e9 20 89 3e
       0.15793923 0.042404678 0.23295817 0.2678292
000080 14 24 ab 3d 9c 0c 4f 3c 23 8f ce 3d c6 6a 4a 3d
       0.08356491 0.012637284 0.10085895 0.049418233
000090 54 3d 5d bd 88 a2 8c bc 56 63 87 bd e8 4f 30 3d
       -0.054013565 -0.017167345 -0.06610744 0.043044955
0000a0 ba 04 41 bd 36 a6 a7 bd 60 87 1d 3d 92 b8 9c bd
       -0.04712365 -0.08185999 0.03845918 -0.076523915
0000b0 29 59 a3 3d 46 56 80 bc 70 ff a2 bb 5e ea 21 be
       0.0797599 -0.015666138 -0.004974298 -0.1581206
0000c0 10 82 c2 3d 31 e6 1a 3e 58 97 46 bc 77 43 18 3e
       0.09497464 0.15126874 -0.012121044 0.14869486
0000d0 29 b3 b7 3b 55 1c f0 3d 36 e6 49 3d 61 96 4a 3d
       0.0056060744 0.11724154 0.049291812 0.04945982
0000e0 7d 0c 02 bc 1c ec a0 3e a0 c3 04 bd 1b 98 18 3d
       -0.007937548 0.31430137 -0.032413125 0.037254434
0000f0 ea d5 ca 3d 8d 10 ba 3c 4c ef 75 3e 69 a7 8d 3e
       0.09904082 0.02271297 0.24017066 0.27666786

net_list.3.weight f4 [16, 19, 3, 3]
000000 d3 c5 37 3d 9a 36 9e 3d 14 1e 27 3b 4a 56 ab 3d
       0.044866394 0.07725258 0.0025500106 0.08366068
000010 34 0a 9c 3d d3 8e a1 3b 75 c1 c0 bc ce a2 90 3d
       0.076191336 0.004930356 -0.023529748 0.070623025
000020 f1 b6 1a bc 87 11 42 3e 2b 72 08 3e c9 2a ff 3d
       -0.009443031 0.18951999 0.13324802 0.124593325
000030 92 8d 43 3e 81 a7 39 3e 39 f9 42 3e 3b 45 53 3e
       0.19096974 0.18130304 0.19040383 0.20631878
000040 5c 76 77 3e 95 1f 47 3e 65 c1 16 3d 1d f4 39 3d
       0.24166244 0.19445641 0.03680553 0.04539882
000050 aa 8b c5 3d c9 25 8e 3d cd 89 da 39 f7 b2 55 3d
       0.096457794 0.06940801 0.0004168287 0.052172627
000060 0b 82 ba 3c 89 4f 7d 3d 2f 95 ca 3c ba ad 53 3e
       0.022767087 0.06184343 0.02472934 0.2067174
000070 f0 0f 0e 3e 9d 6c 3b 3e f3 74 46 3e 96 55 eb 3d
       0.13873267 0.18303151 0.1938055 0.114909336
000080 b1 90 da 3d e3 96 9e 3b 60 4d fc bc 4e 15 09 bc
       0.10672129 0.0048397644 -0.030798614 -0.008366896
000090 a3 7b 0f 3b 77 0e db bd b7 78 09 3d 74 8e d0 3d
       0.0021893762 -0.10696118 0.03356239 0.10183421
0000a0 79 88 9b 3d 44 aa ce 3d 09 12 84 bd b2 99 e3 3b
       0.075943895 0.10091069 -0.064487524 0.006945812
0000b0 fc 22 0c 3c 3f 2d 78 bd e2 07 2f bd 19 7d 1c bc
       0.008553263 -0.060590025 -0.042732127 -0.00955131
0000c0 b9 3e 42 3d d9 7b a3 3a 27 3e 30 3d 11 9a 4e 3c
       0.0474231 0.0012472823 0.043028023 0.0126099745
0000d0 58 99 71 3d fb 19 64 3c c4 d7 6a 3e 20 b3 1c 3e
       0.05898413 0.01392221 0.2293387 0.15302706
0000e0 1d 85 f5 3d e6 a2 55 3e 2e a6 c8 3c 72 30 10 3e
       0.1198828 0.20862922 0.024493303 0.1408098
0000f0 d6 5c 6a 3d 77 3a 23 3c d9 0b 81 3d 97 2b 95 3d
       0.05721744 0.00996267 0.06301088 0.07283705
000100 42 59 01 3e 4a 6e 98 3d bd 4e 6c 3d b0 61 a4 3d
       0.12631705 0.07442911 0.05769228 0.08026445
000110 99 9a bc 3d 91 7d c6 3c e4 b4 ef bc 30 b4 4b 3d
       0.09209175 0.024229797 -0.02926106 0.049732387
000120 70 fa ab bd b7 43 b4 3d 00 fb 97 3d 7a 8e 01 bd
       -0.083973765 0.08801978 0.07420921 -0.031630017
000130 49 00 97 bc 89 f3 6c 3d 58 e5 38 3d 75 a8 19 3e
       -0.018432753 0.05784944 0.045140594 0.15005668
000140 b5 2e 27 3d f5 c9 f1 bd b5 3b 23 be ef d0 4f be
       0.040816028 -0.11806098 -0.15940745 -0.20294546
000150 e5 1b 43 be bb 43 d7 bd f6 3b ec bd 04 af 7b bd
       -0.1905361 -0.105109654 -0.11534874 -0.061446205
000160 24 33 13 be c7 d4 03 be a5 a8 b5 bd 1d 95 52 bd
       -0.14374977 -0.12874137 -0.08870057 -0.051411737
000170 8f 4f bf bc 8a 9a 0f bc 37 f5 36 bd 93 bb 74 3b
       -0.023353366 -0.008764872 -0.04466745 0.0037343248
000180 83 3a 55 3c 59 eb 22 3d b7 25 67 3d 13 41 7a bd
       0.013014439 0.039775226 0.056432452 -0.061097216
000190 03 36 11 bd 0e 81 67 bd b2 0b 9e bb aa 32 6d 3d
       -0.0354519 -0.05651956 -0.0048231715 0.057909645
0001a0 1e 78 a5 bc 8b c7 12 3b 95 b7 65 bc e5 bc b6 bd
       -0.020198878 0.002239677 -0.01402082 -0.089227475
0001b0 fe c2 de bd 82 9a fa bc 94 15 84 bd 75 14 ab bd
       -0.108770356 -0.030591253 -0.06449428 -0.08353511
0001c0 d2 70 ad bd 79 84 9d bd 08 00 a6 bd 34 08 bc bc
       -0.084687844 -0.07691283 -0.08105475 -0.02295313
0001d0 1f 10 a2 3c 4f 9c 7b bd fc 51 9d bd 85 c0 e3 bc
       0.019783078 -0.061428364 -0.07681653 -0.027801761
0001e0 1c e3 69 3c b4 b5 31 bd a1 c9 9c 3c d6 70 5f bd
       0.0142753385 -0.043386176 0.019139113 -0.054550968
0001f0 e9 21 89 3b 13 66 a3 bd 8d 8e 82 bd ad 1b 14 3d
       0.0041849506 -0.079784535 -0.06374846 0.036159206
000200 75 63 53 bd 0a 7b 13 bd 1b 2a b1 3d 5b bf ce 3d
       -0.05160852 -0.03600601 0.08650609 0.10095092
000210 6b 87 9c bd 71 3a 9c 3d 95 ae a0 3d ad 59 1a 3c
       -0.076430164 0.07628334 0.07845799 0.009420794
000220 a8 6b 49 bd 9d cf 8d bd 23 32 b3 bd 21 b3 50 3c
       -0.049174935 -0.06924365 -0.08749797 0.01273802
000230 cf cb be bd 40 13 dc bd 4c a5 9f 3a 9c 52 4f bd
       -0.09316217 -0.10745859 0.001218 -0.05061589
000240 86 76 bc bd 45 4b 02 bc 63 93 ba bd 47 e3 ee bb
       -0.09202294 -0.007952516 -0.09110143 -0.007290277
000250 fd 77 77 bc 4a 02 95 bd 9f b9 3e bd 58 60 08 3d
       -0.015104291 -0.07275827 -0.04656374 0.033295006
000260 44 84 78 bd f6 ee 34 bd 39 a6 78 bc c0 e3 a0 bd
       -0.060673013 -0.044173203 -0.015176349 -0.0785594
000270 10 cb 2a 3d 6a c9 8b 3a 66 58 09 bd ea ba 79 3c
       0.04169756 0.0010664884 -0.03353157 0.015242318
000280 52 a5 42 3c 09 f1 65 bd b3 e5 36 bd 58 0d 59 bd
       0.011880236 -0.056138072 -0.044652652 -0.05299124
000290 a8 03 21 bd 5f 9b 93 bd 13 55 85 3c d9 da a4 3c
       -0.039310127 -0.07207369 0.016275918 0.020123886
0002a0 65 20 64 3c 85 23 5f 3d 2b 71 17 3d b8 70 1a 3d
       0.013923739 0.054477233 0.03697316 0.037705153
0002b0 9f 40 02 3e a8 43 d5 3a d1 0a df bd e5 10 b8 3d
       0.12719963 0.0016270773 -0.10890735 0.089875974
0002c0 cc f0 84 3d 48 8b d7 bd 9d df 63 3d 95 bb 1b 3d
       0.06491241 -0.10524613 0.055633176 0.03802069
0002d0 56 0f 64 bd 24 d7 be 3c fe b3 8e 3d 6a 06 c9 bd
       -0.055678688 0.023295946 0.069679245 -0.098156765
0002e0 1a 08 7f bc 2a 5d d4 3c 07 73 0f be 5c 8e 84 bd
       -0.015565896 0.02592333 -0.14008723 -0.064724654
0002f0 be b1 04 be 4b 1e f7 bc 1a 9d b3 3a 76 a9 b2 bd
       -0.12958428 -0.030165812 0.0013703436 -0.08723728
000300 42 db d6 3c 61 59 00 bd bf 31 51 3d 9e 06 92 bc
       0.026227597 -0.03133524 0.051072832 -0.017825421
000310 a2 30 fb bc f3 0f 97 3c 14 3c c0 bc f2 14 df 3c
       -0.030662838 0.018440222 -0.023466147 0.027231667
000320 56 c5 04 bc af 64 28 bd 37 28 6e 3d a2 9d 9d bb
       -0.008103689 -0.041111644 0.05814382 -0.004810051
000330 c4 3f e0 3d fb a3 13 3b 18 16 68 bd fb 8c a0 bb
       0.10949662 0.002252816 -0.056661695 -0.0048996187
000340 07 8e 1e 3d ba 51 77 bd df df 9a 3d 1f dd 26 3d
       0.038709667 -0.060380675 0.07562231 0.04073822
000350 12 45 6d 3d b5 e3 49 bd ce 2d 5f 3d 82 ea ad 3c
       0.0579272 -0.049289424 0.054487042 0.021229986
000360 f7 e1 94 3d 85 dc 75 3c 52 59 48 bd 68 09 32 bd
       0.07269662 0.015006189 -0.048913307 -0.043466
000370 0c 58 ba 3d 22 cb 81 3d 9f cd c5 3c f2 d2 4e bd
       0.09098825 0.06337573 0.0241459 -0.050494142
000380 4f 1f 44 bd a4 f9 46 bd 86 43 1a 3d b5 72 7b bc
       -0.04788142 -0.04857792 0.03766205 -0.0153471725
000390 52 56 01 be 8b c0 a6 bd d3 69 41 be b8 29 61 bd
       -0.12630585 -0.081421934 -0.18888025 -0.054971427
0003a0 29 2e 52 3d 9d b6 ae bd 76 ab 86 bd 58 7c 11 3c
       0.051313553 -0.085309245 -0.06575672 0.0088797435
0003b0 b5 be 2f 3b 24 62 9b bd c9 4c e5 bd 0d 73 8c bd
       0.002681655 -0.07587078 -0.11196286 -0.06857882
0003c0 ac 3c 8b bd 95 22 8f bd 6e be d8 bd 89 de bc bd
       -0.067986816 -0.06989018 -0.105831966 -0.09222133
0003d0 79 2f 8d bd 4f cf 1f bd 72 3d 0f be d4 71 82 3c
       -0.0689382 -0.039016064 -0.13988283 0.015923418
0003e0 7f d4 de bd ad 52 92 bc e7 64 72 bd 15 8b ab bc
       -0.10880374 -0.017861689 -0.05917826 -0.020940343
0003f0 f4 ea 2c 3d b4 6c 9a 3d 85 f2 e1 3d 11 ec 06 3c
       0.042216256 0.07540265 0.11032585 0.008234994

net_list.3.bias f4 [16]
000000 b4 28 c8 3d dc 16 96 3d 24 a7 0c bd bf fe e0 3d
       0.097733885 0.07328579 -0.034339085 0.10986089
000010 35 0e 86 3d b4 b9 73 bd 26 1a 48 bc d1 59 38 be
       0.065456785 -0.059503272 -0.0122132655 -0.18003012
000020 8c 1f 74 3e b0 d6 01 bd 4c e5 a7 3d 39 da 95 bd
       0.23840159 -0.031698883 0.08198032 -0.07317013
000030 fe 6c 9e bc 9d a1 b4 3c a8 10 f6 3b 62 66 08 3d
       -0.01933908 0.02204972 0.00750931 0.033300765

net_list.5.weight f4 [8, 16, 3, 3]
000000 21 ad 4f bd 9f c1 09 bd c4 b1 0e bd 81 69 24 bd
       -0.050702218 -0.033631917 -0.0348375 -0.04013968
000010 f1 c7 04 3d 58 3b 03 bd 45 fc 91 bd d8 30 08 be
       0.03241724 -0.032039016 -0.07128195 -0.13299882
000020 6f 10 da bd c4 1c fe ba 83 ee 6a bd c4 57 93 bb
       -0.10647666 -0.0019387235 -0.05735637 -0.0044965465
000030 8a 17 b0 bb c5 98 62 3d 54 90 ac 3d fc 4c 56 3c
       -0.0053739 0.055321474 0.08425966 0.013079878
000040 21 e4 23 3d 24 07 e6 bc 3c eb 22 3d f5 71 7c bd
       0.040012483 -0.028079577 0.03977512 -0.061632115
000050 a8 03 99 bd 09 87 39 bd e7 44 af 3c b9 2a c9 bc
       -0.074714005 -0.045294795 0.02139516 -0.024556505
000060 bd 0b 3f be 2f 2f c5 bc cf a1 a4 bd 8a 0e 50 3c
       -0.18656822 -0.02407035 -0.08038675 0.012698779
000070 c8 49 b2 bc c8 8b be 3d db 70 d8 bd f1 6c d0 bd
       -0.021763697 0.09304005 -0.105684005 -0.10177029
000080 22 01 85 3d ec da ce bd 7c 0e ca bd 18 88 06 bd
       0.06494357 -0.1010035 -0.09866044 -0.032844633
000090 e9 21 0a 3d f1 68 3a 3c 03 60 ba 3d 4f 38 f4 3b
       0.033723745 0.011377559 0.09100344 0.0074530016
0000a0 6a 81 99 3d 26 82 b1 3d 8a 10 51 3d c5 5b 80 bd
       0.07495387 0.08667402 0.051041164 -0.06267504
0000b0 69 1b 81 3d c9 f1 7b bd 0d 78 83 bd d1 a0 97 bc
       0.06304056 -0.06150988 -0.06419382 -0.0185093
0000c0 9a bb 14 3d 4c 86 47 bd b6 fc b6 3d be 01 da 3d
       0.036311723 -0.04871206 0.089349195 0.106448635
0000d0 14 fd 6d bd 3c 29 b0 3b 51 1d 91 be 30 fa 22 be
       -0.058102682 0.0053760093 -0.2834268 -0.15915751
0000e0 b1 95 4c be 83 7e 23 be ff 19 15 be c6 a9 41 be
       -0.19978978 -0.15966229 -0.14560698 -0.1891242
0000f0 90 c3 20 be 3a 34 47 be 7d 5b 20 be 7c 1e 59 3e
       -0.15699601 -0.19453517 -0.156599 0.21203035
000100 82 82 03 3e 9b eb a3 3d a3 f8 78 bb 4e 7b 13 3e
       0.12842754 0.080039226 -0.0037989996 0.14402506
000110 57 47 3d bc f0 d5 98 3d 83 3b 72 3d 1d d4 71 bc
       -0.011552653 0.0746268 0.059138786 -0.014760044
000120 a0 65 af bc 4f ab 08 bd ca 3e 61 3d a3 82 74 bd
       -0.021410763 -0.033366498 0.05499152 -0.059694897
000130 3f b8 fb 3c a7 0e ab bc 8b b4 b5 3d 06 7b 8d 3c
       0.030727504 -0.02088101 0.088723265 0.017270576
000140 c9 5a b4 bd cc 93 0a 3e cc e9 c4 3c 65 b9 ae 3c
       -0.088063784 0.13532943 0.024037264 0.021328637
000150 36 9d 09 3e 84 f1 0b 3e 8c 96 25 3e b8 a2 eb 3d
       0.13438877 0.1366635 0.1617071 0.115056455
000160 c7 4a f5 3d a6 ce 8f 3d 45 2d 91 bd 56 29 e0 bc
       0.11977153 0.07021837 -0.070887126 -0.02736346
000170 69 72 82 bd b0 1f 0e 3d 6e ad 0b bc 85 fb 38 3d
       -0.06369478 0.03469819 -0.008525236 0.045161743
000180 c5 a5 e4 bd 7f 23 f8 bd f0 1c bf bd 87 e3 72 3c
       -0.111644305 -0.12116145 -0.09331691 0.014824755
000190 79 a7 e2 bc a0 32 86 bd 6f b5 68 3d 28 a5 01 3c
       -0.027667748 -0.06552625 0.056813654 0.0079129115
0001a0 cb 93 97 3a 80 62 e6 3d 70 1f 9b 3d c7 f8 0e 3d
       0.0011564431 0.11249256 0.075743556 0.03490522
0001b0 7c 1d ec 3d 89 8a ea 3c eb e4 51 3d 2d be 0c 3d
       0.11529061 0.028630512 0.051243704 0.034361053
0001c0 5d 91 06 3e 1a c9 12 3e 49 10 c5 bc 60 05 98 3c
       0.13141389 0.14334527 -0.024055617 0.01855725
0001d0 63 f3 38 bc 09 60 87 be ea 5d bf bd 35 c2 4c bd
       -0.011288497 -0.26440457 -0.093440846 -0.049989898
0001e0 15 6c 3e be b2 d9 4b bd 49 7d a3 bd 9e f5 75 bd
       -0.18595918 -0.049768157 -0.079828806 -0.060048692
0001f0 55 d7 23 3b 07 17 60 3d 2d 28 d1 bd 9c 33 80 bd
       0.0025000174 0.05470946 -0.10212741 -0.06259844
000200 71 5b c2 bd 6b 05 43 be 60 5e 34 be 21 18 44 bd
       -0.09490097 -0.19045036 -0.17614126 -0.047874574
000210 6c 0d 32 bd 01 15 c3 39 d8 d4 5d bd f2 18 c2 3d
       -0.04346983 0.00037208947 -0.05415806 0.09477414
000220 72 cd 5c 3d 9d 45 f5 bc 63 6e 9b 3d e5 0f 05 3d
       0.053906865 -0.02994042 0.07589414 0.03248586
000230 ac 15 09 bd 8d 9e 1b 3d c9 19 80 3d 88 fa 45 3d
       -0.033467934 0.037993003 0.06254918 0.04833463
000240 7f de 85 be 9a 8d f7 bd bb 81 2d be 02 06 02 be
       -0.26146314 -0.12087555 -0.1694402 -0.12697604
000250 a6 16 41 3c b7 19 b5 bd ca 3e 36 be a0 b2 09 be
       0.011785185 -0.08842795 -0.1779739 -0.13447046
000260 2c 1b 86 be 05 01 b8 3d b1 1e 2f bc 12 49 d5 3d
       -0.26192605 0.089845695 -0.01068847 0.10414328
000270 51 ca bd bc a8 3e 10 3d 67 29 ba 3d 34 d4 95 3d
       -0.023167761 0.035216004 0.09089928 0.07315865
000280 fb 08 e6 bc a1 89 19 bd 24 85 8f bd 75 60 41 bc
       -0.028080454 -0.03748477 -0.070078164 -0.011802782
000290 2f ee 5f be b7 57 07 be 0d ad 63 be 9a 84 46 be
       -0.21868204 -0.13217054 -0.22233982 -0.19386521
0002a0 4f 15 95 bd ae c4 ac bd 9c fa 01 be aa a7 bc b9
       -0.07279455 -0.08435951 -0.12693256 -0.00035983074
0002b0 85 3f 83 bd 79 99 9c bd 16 5a 2e 3c d0 04 db bc
       -0.064086 -0.0764646 0.010641595 -0.026735693
0002c0 21 94 fa bd 14 67 d1 bd 04 45 34 3d af 25 8d bc
       -0.122352846 -0.10224739 0.04401113 -0.017229883
0002d0 9a 3b 31 3d ed 23 7c bd a8 b7 6b 3c 71 ef aa bb
       0.04326973 -0.0615577 0.014387049 -0.005216532
0002e0 82 87 ed bc 0b 90 d1 bc 35 b8 af bd 2f 84 60 3d
       -0.02899528 -0.02558138 -0.085800566 0.05481356
0002f0 7d 43 03 3d aa 10 8d 3d 3b 81 d2 3c 0e f8 78 3d
       0.032046784 0.06887944 0.025696388 0.06078344
000300 7a 66 52 3d 9f 23 29 3d 6f 51 8e 3d 9d bf a9 bd
       0.05136726 0.041293737 0.06949126 -0.082885005
000310 ea 1a a0 bc d3 d4 85 bd 8d 99 8a be 61 36 0c bd
       -0.019544084 -0.065347336 -0.27070275 -0.034231547
000320 c1 20 02 bd f7 5e 39 bd fa d8 04 bc ca ff 1a bd
       -0.031769518 -0.04525658 -0.008108372 -0.037841596
000330 e1 02 88 be fe 1e a7 be aa b4 87 be f0 f6 02 3e
       -0.26564696 -0.32640833 -0.26505023 0.12789512
000340 85 a0 71 3d 79 93 10 3d 4e 76 d9 3c 04 b5 82 bc
       0.058990974 0.03529689 0.02654567 -0.015955456
000350 8e 4d 71 3d 71 38 67 bd e6 cb 78 3d 36 d0 03 3d
       0.058911853 -0.05645031 0.060741328 0.032180987
000360 38 fb c7 3d f4 c0 68 3d da 29 81 bd 9a 65 28 bd
       0.09764713 0.05682464 -0.06306811 -0.04111252
000370 76 90 55 bd 98 02 8d bd 6e 2e a1 3d f4 50 d6 3d
       -0.05213972 -0.0688526 0.07870184 0.10464659
000380 d3 6e 1a 3c 22 27 4b 3d a2 a9 a0 3c 50 9b f4 3d
       0.009425837 0.049597867 0.019612137 0.11943686
000390 7e 50 76 3d 1b 77 9d 3d 53 26 c9 3c 9a 52 ea 3d
       0.060135357 0.07688733 0.024554407 0.11441536
0003a0 a7 15 10 bc cc 7e 49 3d 99 cc 16 be fc 85 0e be
       -0.008794225 0.04919319 -0.14726485 -0.13918298
0003b0 8e 27 72 be 64 1f 26 be de 4a d2 bd b7 4e ca bd
       -0.23647901 -0.16222912 -0.10268186 -0.09878295
0003c0 27 69 c8 be 9c a4 41 be 8d 8d a1 be 65 4b b5 bb
       -0.39142725 -0.1891045 -0.31553307 -0.0055326694
0003d0 19 00 b4 3b 0d 3e 6f 3d e4 65 22 3d 02 52 a5 3c
       0.0054931757 0.058408786 0.03964795 0.020180706
0003e0 de c2 c6 3d 46 6f ba 3d e5 e6 34 bc 7b 31 01 3e
       0.09705137 0.09103255 -0.011041378 0.12616532
0003f0 f1 19 aa 3d b0 41 8e 3d ab 40 38 3d d7 e7 3f 3c
       0.08305729 0.06946123 0.044983547 0.01171299

net_list.5.bias f4 [8]
000000 59 11 f4 3c e3 c3 d4 3c 14 76 08 3e de 07 40 be
       0.029793428 0.025972312 0.13326293 -0.18753001
000010 98 0a 87 3d 03 c9 01 3e 75 e4 b0 3d ed 65 d2 3d
       0.065938175 0.12674336 0.08637325 0.10273347

net_list.7.weight f4 [1, 8, 3, 3]
000000 8c d3 1d 3e ff 56 1a bd 75 a9 f9 3c 45 1e 08 3e
       0.1541273 -0.037680622 0.030476311 0.13292797
000010 01 1b 02 3e a3 2a 95 3d 63 0d 4e 3a 6e 2a c2 3d
       0.12705614 0.07283523 0.0007860271 0.09480749
000020 a7 a3 ed 3d e0 83 1f 3e 84 f0 30 3d ee 44 15 3c
       0.1160348 0.1557765 0.043198124 0.009110672
000030 60 80 d5 bc ea 29 82 3c b4 f0 10 3e 51 ee b7 3d
       -0.02606219 0.015889127 0.14154321 0.08981002
000040 c1 c8 5c 3e b6 90 6a 3e 32 3f ff bd a0 dd ec bd
       0.21560957 0.22906765 -0.124632254 -0.11565709
000050 d2 f3 31 bd ae 5f 0a be 6d a1 72 bd b6 22 01 3c
       -0.043445416 -0.13513061 -0.05923598 0.007881811
000060 70 da e7 3d 4e bf b0 bc ac a2 cc bd 19 40 2e 3e
       0.113209605 -0.021575596 -0.09991965 0.17016639
000070 99 9a 32 3e 4e 35 15 bf e1 c9 51 bd b3 0a 46 be
       0.17441787 -0.5828446 -0.051217917 -0.19340019
000080 01 4f 0e bf 69 15 d4 3e c5 ec 41 3d 80 96 d8 be
       -0.555893 0.41422585 0.04734494 -0.42302322
000090 75 f7 40 3e 02 08 2b 3e 0e 41 1d 3e 16 30 be bd
       0.18844397 0.16702273 0.15356848 -0.092865154
0000a0 84 9c fd 3d 19 e2 3a 3e 67 3b 0e bc 6b 44 1a 3e
       0.123833686 0.18250312 -0.008681155 0.15065162
0000b0 24 a9 c3 3d 08 57 3c be 27 04 14 bd 71 86 06 3d
       0.095537454 -0.18392575 -0.036136772 0.032843057
0000c0 1c f1 e7 bb 8c 02 33 3e e0 b8 76 bd 0e 1c 7e bd
       -0.007078303 0.1748144 -0.060234904 -0.062038474
0000d0 c0 02 92 bb 78 2d 57 3e 10 28 2c 3e 84 76 1a 3e
       -0.004455894 0.21013439 0.16812158 0.15084273
0000e0 5c c6 19 3d 84 2f e5 3d 25 02 9b bb 16 40 1e 3e
       0.037542686 0.111907035 -0.0047304803 0.15454134
0000f0 81 46 8e 3b 5b 00 11 3e 4d 22 5e 3d 71 78 ae 3b
       0.004341901 0.14160292 0.05423193 0.0053244163
000100 fd 76 70 3e 2f 6c 3a 3e 9d b1 f0 bd a1 ae 91 bd
       0.2348289 0.18205331 -0.11752627 -0.07113386
000110 a1 a9 12 3d b2 9a b6 bd ce 71 85 be d0 57 66 be
       0.035806302 -0.089162245 -0.2606339 -0.22494435
