QIENetV1_0_0/QIENet_Conv6.pth (torch, 219137 bytes, 11 tensors)

net_list.0.cell_list.0.conv2d.weight f4 [64, 22, 3, 3]
00000000: a643 c83d 6176 7dbc d364 dc3d b7c9 303b
00000010: bf0f 1d3d 16c8 d53d c58c 213c 457a b03d
00000020: 2de1 0a3d ae1f 20bd 0c7b 283d fd99 033d
00000030: 5e02 8fbc 8a43 ab3d 6250 0dbc 3559 61bb
00000040: 4c8f db3c 6da7 23bd 1204 883d 890c dbba
00000050: a1d6 40ba 87d7 a4bc ac5d c7b9 32bd 8e3d
00000060: 9b80 eb3c f4b7 4a3d eb18 6d3d d8bc c9bc
00000070: 3d9c 8f3a c575 aebc e87c 993d 20b2 9e3d
00000080: 4ae5 423d 34cd 0dbc a5a8 c9bc 45e3 643d
00000090: d178 fb3c bc36 5a3d ac86 523d 0fcc 203d
000000a0: c839 9dbc 85be d6bc ad53 353d ccf2 213d
000000b0: 34f3 663d d1d9 99bc b920 25bd 1070 24bd
000000c0: 7de3 413d e8cc 7fbc 23ad 1b3d cd43 28bd
000000d0: 3ac1 08ba b6c2 be3d 5a96 86bd 1645 663d
000000e0: cc00 553d cf7c 97bd ff84 5abd 04bf 2e3c
000000f0: bd6c 41bc 87fb 063b 0873 8bbd 81b2 613d
00000100: ac94 9a3c 3487 8e3d cde4 653c d662 57bd
00000110: 6e4a c93b 5138 a8bd 10c1 5f3b 0e5a 3b3d
00000120: c77a 8e3d 46e8 273d 5f58 8cbd 6d64 393d
00000130: cd49 943d 274c 40bd 116a 643d e09c 15bd
00000140: 7447 32bd eb6a 3e3d 1c9f 35bd 54d4 453d
00000150: 54cd 993d d0a5 cd3c ef91 41bd 32fb 613c
00000160: c8ef 523d 5552 7dbc 054a d0bc 1a7d 143d
00000170: 1dab 703d 5601 e2bd b46f 73bd 3e90 a5bd
00000180: 4776 45bd d45d d8bd 85f7 29bd 51f5 08bd
00000190: 4e77 3e3c 937c bebc 0531 a93d 60b6 99bc
000001a0: 65c9 f2ba 90e3 5a3d 0da2 7a3d b291 ebbb
000001b0: b16e 80bd 624b 87bd 20c6 e4bc 8644 ae3d
000001c0: b4d7 d3bb 87e9 173d 6ac6 c13d 27ba df3d
000001d0: 37a8 083d 5879 493c da92 a7bd 8234 98bc
000001e0: a51e 0d3d 1e30 1dbc 8618 a0bd f632 443d
000001f0: bdd6 2d3b 7add 9bbd 07a2 31bd a176 633d
00000200: adf1 7d3c 8420 4cbc 25fb ce3c 4fd0 4b3d
00000210: 8a56 e4bc b4e0 3ebb dbe4 9e3d 3ba7 4e3d
00000220: 0ecd a13d 07ac 88bc 321b e63d 00ac 303d
00000230: 42f3 ab3d 64a3 f03d c67f 50ba 6dfc be3b
00000240: 69b5 133e 9b1d 033e 528b ad3d a3c7 563d
00000250: 87a8 c2bc 9860 333d 47d6 f63c 2245 583d
00000260: f83e 84bd faa3 41bd f6ce 963d 1220 ae3d
00000270: 9d2c bd3b 00dd 3f3c 276d 1f3e 3b27 bdbb
00000280: b12b 4f3c 08ce 9e3d e332 2dbc 5e86 43bd
00000290: 3dcc 663c 4c3a ccbd 4e13 193d 0dee 2f3d
000002a0: a109 c6bd 6def d0bd 9a5a 3cbd dad4 a73d
000002b0: c271 4bbc 3dda 253d b4e2 e1bb a26c a13c
000002c0: 12bb 5d3d 13ec 6d3d 46c3 553d 3e96 0b3d
000002d0: 9364 83bd 36c9 02bd 36c1 c63c df3d bdbc
000002e0: 0121 ebbb 7db8 163d daf1 8abd a9b9 7c3d
000002f0: d6bd 46bc 0643 f3ba 2d73 883d cf01 b4ba
00000300: dfc9 77bd e4a5 41bd 49b4 243b 57f6 9dbd
00000310: e098 6d3d 907b 46bd 5035 31bd c1a6 1bbd
00000320: 6b7d f53c b838 953c 8cb4 43bd 6d5a 9b3d
00000330: 6f14 50bd 2ced 5dbc 27f3 08bd 884c f13d
00000340: a618 9b3c 29cc 963d 250f b03d d143 4c3d
00000350: 9c53 993d a197 da3b b726 c33c 6191 843d
00000360: 5a08 7ebd 1ea0 a2bd 3c14 8aba 50d3 743d
00000370: d75f 90bd 40b7 663c 90b8 7abc c29e 6dbc
00000380: e047 64bd 7e38 2dbb 1987 1b3d 84dc 973d
00000390: 46c0 f63c 936d 533d 2bb5 933c 6c93 243d
000003a0: 47a4 323d 0e91 453d 52d0 a53c 7696 913d
000003b0: 5a53 88bd 5b32 473d 98e1 db3c 3032 633d
000003c0: bbb4 bb3c 1c1a 803d 1f2e b43c 8bdf c1bc
000003d0: e88e 45bd c17c 93bc c1ea a53d 01ea ffbc
000003e0: 1857 19bd 2901 9a3c f11f 28bc 7f53 02bc
000003f0: c8fd 9d3c 542a 4fbc 5e4c 2b3d 6ae6 663c
0.09778528 -0.015470118 0.10761418 0.00269757 0.038345095 0.10438554 0.009860222 0.08617071
0.03390615 -0.039092712 0.04113297 0.032129277 -0.017457183 0.083624914 -0.008625122 -0.0034385447
0.026801728 -0.03995459 0.06641401 -0.001671211 -0.0007356201 -0.020122303 -0.0003802603 0.0696968
0.028747847 0.049491838 0.05788509 -0.02462618 0.0010956597 -0.021296391 0.07494527 0.077488184
0.04758195 -0.008654881 -0.024616549 0.055880804 0.030697258 0.053274855 0.051397964 0.039257105
-0.019192591 -0.026213894 0.044269253 0.03953819 0.05638428 -0.01878062 -0.04031441 -0.040145934
0.04733609 -0.015612818 0.038006913 -0.041080285 -0.0005216781 0.09314482 -0.06571646 0.05621823
0.052002713 -0.07396852 -0.05334949 0.010665659 -0.01180571 0.00205967 -0.0680905 0.055101875
0.01886972 0.06959382 0.014031601 -0.05258449 0.006142906 -0.082138665 0.0034142174 0.04574018
0.06957012 0.040992998 -0.06852793 0.04526179 0.07240639 -0.046947625 0.055765215 -0.03652656
-0.043525174 0.046488684 -0.04434119 0.048298195 0.07509866 0.02510348 -0.047258314 0.0137928
0.051498204 -0.015461524 -0.02542592 0.03625212 0.058756936 -0.11035411 -0.0594327 -0.08084153
-0.0482085 -0.10564771 -0.04149582 -0.033437077 0.011625124 -0.023252761 0.08261303 -0.018763721
-0.0018523155 0.053439677 0.0611897 -0.007188999 -0.06271113 -0.06606175 -0.027926505 0.085091636
-0.006464923 0.037087943 0.094616726 0.109241776 0.033363547 0.012296997 -0.081823066 -0.018579725
0.034453053 -0.009593992 -0.078171775 0.047900163 0.00265257 -0.07610603 -0.043367412 0.055533055
0.0154995145 -0.012458924 0.02526624 0.049759205 -0.027873296 -0.0029125633 0.077584945 0.050452452
0.07900439 -0.016683592 0.11235656 0.043132782 0.08396007 0.11749914 -0.000795361 0.0058284313
0.14424671 0.12804262 0.08473839 0.052436482 -0.023762 0.04379329 0.030131472 0.052800305
-0.06457323 -0.04727552 0.073636934 0.08502211 0.0057731406 0.011710405 0.15568982 -0.005772499
0.012644694 0.07754141 -0.010571214 -0.047735564 0.01408678 -0.09972057 0.037371926 0.042951632
-0.09669805 -0.10201917 -0.045984842 0.08194895 -0.012417259 0.04049133 -0.00689348 0.01970512
0.054133482 0.058086466 0.05218818 0.03407883 -0.064156674 -0.03193017 0.024262052 -0.023100791
-0.007175565 0.036797035 -0.06784411 0.061700497 -0.012130221 -0.0018559403 0.06662593 -0.0013733449
-0.060495254 -0.047277346 0.0025131872 -0.07713001 0.05800712 -0.048457682 -0.043263733 -0.038000826
0.02996703 0.018215522 -0.047779605 0.07585607 -0.050800737 -0.013545316 -0.033435013 0.11782175
0.018932652 0.07363159 0.085966386 0.049869362 0.0748665 0.0066709076 0.023822172 0.06473041
-0.062019683 -0.07940696 -0.0010534595 0.059771836 -0.0704953 0.014081776 -0.015302792 -0.014503183
-0.055732608 -0.0026431377 0.037970636 0.07415107 0.03012098 0.05161817 0.018030724 0.040179655
0.0436137 0.048234038 0.020240936 0.07108776 -0.06656523 0.048632007 0.02684097 0.055467784
0.022913327 0.0625498 0.021994649 -0.023666164 -0.04823199 -0.018003823 0.081014164 -0.031239511
-0.037436575 0.018799381 -0.010261522 -0.007954477 0.019286051 -0.012644369 0.041820876 0.014093021

net_list.0.cell_list.0.conv2d.bias f4 [64]
00000000: ac14 3ebd 009e 72bd 56d5 0fbd afb6 ab3d
00000010: 1b4f a13c 4396 113e 3b51 2c3d 236e 163c
00000020: 6490 c7bc 2e8f ae3d 7c74 433e 6589 7f3d
00000030: 904c 42bd f25d 07bc c271 d03d ef8e 633d
00000040: c7af 9dbd 969f 55bc 34fb b03d ea7a 613e
00000050: 1544 283e fe6d 4e3d 8ce5 f63c 4f7b ee3d
00000060: 027a 9d3c 2097 bc3d e1f8 023e 0b10 873e
00000070: 14dc 5a3a 0809 443d aa00 d53c 9410 9d3d
00000080: c1da 45bd fc98 6abc 01b5 afbd 6755 08be
00000090: e123 eebd 4c21 41bc ad41 293d d3dd 9a3d
000000a0: e38d ea3c 05ac a7bd 85e9 323d 80dc 93bd
000000b0: bf94 273d 3444 553d 4330 88bd e52a a63d
000000c0: 59e0 4fbd a468 c83c ced0 853e 3c36 4d3e
000000d0: a5e6 5d3d 733a 8a3d 09db 063e 6a4f 233e
000000e0: 0065 c53d 8ba3 943d 54bf 9e3e f9cb 3a3e
000000f0: 4ca1 1c3d 7272 233e 4821 4d3e 52c4 cd3d
-0.046406433 -0.05923271 -0.035115562 0.083844535 0.01969104 0.14217477 0.042069655 0.009181532
-0.024360843 0.08523403 0.19087404 0.06238689 -0.047436297 -0.008262144 0.101779476 0.055556234
-0.076995425 -0.0130385365 0.08641663 0.22019544 0.16432221 0.050397865 0.030138753 0.11644613
0.019223217 0.09208512 0.12790252 0.26379427 0.0008348834 0.047860175 0.026001293 0.07669178
-0.048304323 -0.014318701 -0.08579446 -0.13313828 -0.11627937 -0.011787724 0.0413224 0.07561841
0.02863211 -0.08187107 0.043679733 -0.072197914 0.04091334 0.052066997 -0.0664983 0.0811365
-0.050751064 0.024463959 0.26135868 0.2004022 0.054175038 0.067494296 0.13169493 0.15948263
0.09638405 0.07257756 0.31005347 0.18241872 0.038239762 0.15961626 0.20032227 0.10047211

net_list.0.cell_list.1.conv2d.weight f4 [64, 32, 3, 3]
00000000: abff e53a c77c 00bc c2be 983d 360e 8cbd
00000010: f700 10bd 07a7 a3bc c954 2cbd c483 9abd
00000020: 8b94 0f3b 5fee c43d 847e 183e fc1f e43d
00000030: 502b 263d 9ecd 403c ae5c c73d 8f21 103d
00000040: 4f08 aebc 32da 423d 3954 fd3d 5e3a d13d
00000050: 5ae4 7d3d fd67 4e3d 5966 1cbc 8f0c 9fbc
00000060: 224e 92bd 98e0 6cbd 7428 10bd 84a6 003e
00000070: 48c8 dc3d 4f34 40bd 459a 3bbd 3554 b4bd
00000080: 094f fbbd 0e69 8dbd 72bc fdbd 3604 04be
00000090: aadf c43b eabc 2cbd 3722 1cbd 167e c03c
000000a0: 689e cd3b 2fb5 46bd 3c51 3ebd b9d5 74bd
000000b0: bd1b 4cbc bd6e 2d3d 1dc4 af3d 3953 bb3c
000000c0: 89cd eebb 546c d23d 0692 b03b fdcf 8f3d
000000d0: 4af8 d23d 5124 1f3d d334 eb3d 348e 0a3c
000000e0: 2899 78bd ead1 ea3c 654b 803d bab5 033e
000000f0: 2656 9b3d 8c1a 873d 40ee 4c3e 1713 15be
00000100: e4d1 cebd 5139 03bd 4ffb 77bd 7b53 b03a
00000110: 4c04 bbbd c363 0e3d 4112 353d e7d9 873c
00000120: 29c2 aa3c ba02 9b3c b022 5abd a98b acbd
00000130: 7ac6 dabd 62be dabd 66c8 e4bd c714 20bd
00000140: 434b 5cbe 5f92 08bd 46d1 a3bd 7a39 be3b
00000150: a3c7 2cbc 9e6a d6bb 06aa d7bc 8c0a 6f3d
00000160: 6822 d53d d574 6e3d 6a15 06be 2efe 39be
00000170: 11c8 863d 1553 07be 72de 35be 5d33 d9bc
00000180: b6ef 243e 4421 ccbd 85b6 2abe 3443 3d3e
00000190: 0be1 f03d 4029 87bd 2a79 633b 4afc 62bd
000001a0: 74ff 26be 29bb 7b3d 118e 06be d2ca 4ebe
000001b0: ffcd cdbc f4fb 96bc 5777 553c e95e d43d
000001c0: 9b0b fabc e8b4 56bd 0fc5 f13d cd18 643d
000001d0: ca5d c7bd d8eb ec3d 30d7 683d 0034 153d
000001e0: 5692 a23d c0b9 bf3c 996d ff3c 7333 183d
000001f0: 3b5c b63c fdf4 dbbd 0060 2fbd 25e6 95bd
00000200: d7a2 053a c15a 8bbd 6757 6fbd 7d71 0abd
00000210: dae6 bfbc 9e04 193d 0657 9f3c a68c 6f3c
00000220: 75e9 b73d 8212 b53d a53a ab3d 475e 2a3d
00000230: 3f04 fe3d d8d6 0ebd 7c57 0a3d 112b 9e3d
00000240: 4adf 493c 93c5 2dbd 2a19 29bd beb7 22bd
00000250: faa9 6dbd 3234 a7bc 092d 16bd 44ef 0d3b
00000260: e4b0 1a3d 5535 11bd 6bc2 0ebd 6122 6b3c
00000270: e991 093c f36f 293d 2c38 b83c 56ef 293d
00000280: 73f5 03bc 513b 2f3d c782 40bd a293 a9bc
00000290: d850 54bd cb97 de3c faff a8bc cf98 5fbd
000002a0: 99cf 41bb c310 eb3a cd80 0c3d 90b8 033d
000002b0: cd51 b93c 7864 9fbc fac8 2cbd 65c9 453d
000002c0: 001e 003d 49b8 71ba 411f 8b3d b394 e43c
000002d0: 52c5 e43c 469d d93b 96ae bdbd 9d32 5abc
000002e0: f6f4 98bd ef43 e9bd 2512 553d 0737 1cbd
000002f0: 5f15 193c c2a2 56bd 602e 703b 8e81 b5bb
00000300: 4c8b 81bd a0b9 19bc 725f cf3c 1ff5 86bc
00000310: 5cc0 d93c 7c51 7dbb 0d6a 903d 2ba0 56bd
00000320: 98d9 94bd bc9e e0bd be38 a2bd 3b0a 04be
00000330: 28ce 943d 60fd 033e ca5e 7d3e 517d 523c
00000340: f419 99bd 1b18 0b3d e6bd 423d 6f79 c8bc
00000350: 81b3 113d e9a4 e33c 5902 7e3b d9f3 973d
00000360: cf26 3ebd 6add 89bd d50b bfbd 98db eabc
00000370: 9a39 233d 6b41 a53a 3ed5 0e3d 547a cb3c
00000380: c763 88ba 56e7 68bd 68d4 94bd 2d6a 12bd
00000390: 584f fb3b 3e73 40bd 9694 923d 057a 36bb
000003a0: d61f 98bc 4a19 30bd 726e 0dba edef 21bc
000003b0: 0b5a 4b3b 1136 843c ee3e 0d3d 55fe d43d
000003c0: a6e8 2b3d 79bc 15bd 1b1a 183d 1642 003d
000003d0: f8e6 52bd ee71 9dbd 60e5 3ebd f698 bebd
000003e0: 7bcf b5bd 99f7 aa3c 71f0 e8bd ded1 68bd
000003f0: 8a4d e0bd 1ebf 85bd 927f 5dbb 851a 68bc
0.0017547508 -0.007842249 0.07458259 -0.06838648 -0.03515717 -0.019977106 -0.042073045 -0.075446635
0.0021908607 0.09615778 0.14892012 0.11138913 0.04056865 0.011767773 0.09734474 0.035188254
-0.021244196 0.04757137 0.1236958 0.10216211 0.06198535 0.05039214 -0.009545886 -0.019415168
-0.07143809 -0.057831377 -0.03519483 0.1256352 0.10780388 -0.046924885 -0.04580142 -0.08805124
-0.12270934 -0.06904803 -0.12389459 -0.12892231 0.006008108 -0.04217235 -0.038118567 0.023497622
0.006274987 -0.048512634 -0.04646419 -0.059774134 -0.012457785 0.042341936 0.085823275 0.022866832
-0.0072876853 0.10274568 0.005388501 0.070220925 0.10301264 0.038852993 0.11484685 0.008456755
-0.060692936 0.028664548 0.0626438 0.12862292 0.07584791 0.0659686 0.2001276 -0.14558063
-0.10098627 -0.032037083 -0.0605424 0.0013452613 -0.09131679 0.03476311 0.04420686 0.016583396
0.020844536 0.018922199 -0.053255737 -0.084250756 -0.10682388 -0.10680844 -0.111710355 -0.039082315
-0.21513085 -0.033342715 -0.079989 0.0058051916 -0.010545644 -0.0065434715 -0.02632619 0.058359668
0.10406953 0.05821689 -0.13094106 -0.18163368 0.065811284 -0.13215287 -0.17760637 -0.02651375
0.16107067 -0.099672824 -0.16671188 0.18482667 0.117616735 -0.06599665 0.003470967 -0.055416383
-0.16308385 0.061457787 -0.13140132 -0.20194557 -0.02512264 -0.018430687 0.013028941 0.10369665
-0.030523112 -0.05241862 0.11805164 0.055687714 -0.09734686 0.11568421 0.056845844 0.036426544
0.079380676 0.023404002 0.03118019 0.03715844 0.022260776 -0.10740087 -0.042816162 -0.07319287
0.00050978124 -0.06804419 -0.058432963 -0.033799637 -0.023425508 0.03735792 0.019450676 0.014620936
0.08980075 0.08841421 0.08360795 0.041593816 0.12403154 -0.03487286 0.033774838 0.07723058
0.012321303 -0.04242475 -0.041283764 -0.03972601 -0.05802343 -0.02041063 -0.036664043 0.0021657506
0.037766352 -0.035451252 -0.03485338 0.014351458 0.008396604 0.04136653 0.022487722 0.041488014
-0.008054125 0.042781178 -0.04699972 -0.02070028 -0.05183491 0.02717199 -0.020629872 -0.05458909
-0.00295732 0.0017934073 0.03430252 0.032158434 0.022622013 -0.019457087 -0.042183854 0.048287768
0.03127861 -0.0009220881 0.067930706 0.027902937 0.02792612 0.006641063 -0.09261815 -0.013317731
-0.074685976 -0.113899104 0.052019257 -0.038138416 0.009343474 -0.05240131 0.0036648735 -0.0055391258
-0.06325397 -0.009382635 0.025314067 -0.016474305 0.026580982 -0.0038653305 0.070514776 -0.05239884
-0.07268065 -0.10967776 -0.07920979 -0.12894528 0.07265884 0.12889624 0.2474319 0.012847261
-0.07475653 0.033958536 0.047544383 -0.024471967 0.03557158 0.027788596 0.0038758724 0.07419557
-0.04642373 -0.067316845 -0.09328429 -0.028669164 0.039849855 0.0012607997 0.034871332 0.024838604
-0.0010405713 -0.056861244 -0.07267076 -0.03574579 0.0076693706 -0.046984904 0.07157247 -0.0027843725
-0.018569868 -0.042992868 -0.0005395181 -0.009883863 0.0031029012 0.016139062 0.034483843 0.104000725
0.041969918 -0.036556695 0.03713427 0.031313024 -0.0514898 -0.07687746 -0.046605468 -0.09306519
-0.088774644 0.020870017 -0.113739856 -0.05684077 -0.109522894 -0.06530593 -0.0033797962 -0.014166479

net_list.0.cell_list.1.conv2d.bias f4 [64]
00000000: 6158 ad3c c1d1 713d eef4 ffbc 3822 84bd
00000010: 52fd 7cbc f705 223d f5ad b0bb eb4e 1fbd
00000020: 89e1 223d f383 93bc bab1 f6bc 5f97 7d3a
00000030: fbdb 0b3d 1855 bfbc e471 6d3d df3f 5bbc
00000040: b000 1e3d e82d 003e a5fa 803d a14e ab3c
00000050: 4ea4 9b3d 1331 d0bc 684f e43d e32a 7ebd
00000060: fc96 e03c 3bc6 3b3c 4ad9 b7bc 2212 ea3b
00000070: 3a4e e23c c0ce cc3d 88cd adbc 58a9 0f3c
00000080: 739c 4bbc e37a 9b3b e7e2 823d 629e 8f3d
00000090: a2b8 45bd faf8 8c3d 58d5 29bc 666e 123c
000000a0: 9db7 cf3c b7f7 943d a380 98bb 033a 8e3d
000000b0: b913 8ebd b27f 78bd 6124 bb3d 7ae2 60bd
000000c0: a4ad 543d 1811 923d 6b07 373d b717 5a3d
000000d0: 4dc2 233d f2c1 443c 0eb2 e43d 799a 66bd
000000e0: 6fbc 963d 6c3e 5abc a56c 6a3d f3bf 0f3c
000000f0: 608f aa3d 6a18 643d efd8 ccbc d733 c0bb
0.021160306 0.059037928 -0.031244721 -0.06451839 -0.015441256 0.03955647 -0.005391831 -0.03889362
0.03976587 -0.018007254 -0.030114044 0.000967374 0.034145337 -0.023356006 0.057969943 -0.013381927
0.038574874 0.12517512 0.06297807 0.020911517 0.07599698 -0.025414025 0.11147958 -0.06205262
0.027415745 0.011460836 -0.022442479 0.007143275 0.027625192 0.10000372 -0.021216169 0.008768402
-0.012427437 0.004744874 0.063909344 0.07012631 -0.048271783 0.06883426 -0.0103658065 0.008937454
0.025356108 0.0727381 -0.0046540066 0.069446586 -0.069373555 -0.060668655 0.09137798 -0.054903485
0.05192341 0.071321666 0.04468481 0.053245272 0.03998022 0.012009131 0.11166774 -0.05629966
0.073601596 -0.013320547 0.057232518 0.008773792 0.08328128 0.055687346 -0.025005786 -0.005865555

net_list.0.cell_list.2.conv2d.weight f4 [64, 32, 3, 3]
00000000: 4b6e 24be d87e 54be 2a7a 4dbe f219 acbe
00000010: fbfb 80be 225d 21be 3329 59be 3e4f 45be
00000020: f3a0 92bd 77b1 44bb 9132 06be 802d fdbc
00000030: b3f7 cb3d 6dcf ecbc f302 a23b 4959 083d
00000040: c06c 473d f0d5 e03c 8eaf 133e 32c4 023c
00000050: a10c 46be 199b 253e b7c8 4c3d 9c1c a43c
00000060: dd73 823e d298 b23d 56cf db3b fbe7 bcb9
00000070: 5a95 a4bd 5046 4ebc c3fb 1c3d 0be8 4a3d
00000080: 4f0a 36bd 574c 213e f7e8 863d aa2d 833d
00000090: 94f1 5d3e 8959 aa3d ad75 0e3e cc96 013e
000000a0: 2aa0 fc3d e17c 243c 4756 273e d306 033e
000000b0: ba65 813c 3a50 92bd 1192 ca3c 0e44 95bc
000000c0: 60ca 5dbd 5b6e afbd 4ebe 84bd 3216 0cbe
000000d0: 5ecc 0ebe 3d24 d7bc af9c c13e 2a22 913e
000000e0: 7f71 5e3d 2109 1d3e 971f 273e c0ce fe3d
000000f0: ce5c 043e 76ae 483e bdcd 9d3d bb03 1b3d
00000100: ded7 ccbc 8d76 dabb 852f 0a3d 78f1 9f3a
00000110: bd3e 68bd 1ee0 c73d f4f7 6b3d 6cac 653c
00000120: 1920 193d 2dd5 133d 9bca e33b e0e2 363d
00000130: 992a a53d 3804 023d a8b0 493e b488 543e
00000140: a076 c53d e2b1 08be 18f9 61bc 1458 85bd
00000150: dbd9 81be 8dab 8cbd 060b 5f3a 25d4 bdbe
00000160: 85e9 14be 1fe9 2c3c aa1b 6a3d cd3c 023d
00000170: 4aee 023d 9a8b e63d 8975 70bd 5b4c 4bbd
00000180: 6dc7 653d 95f0 733c eece 81bc 7905 7e3d
00000190: eeb4 e9bd 8359 ac3d da9a 3bbe 0da6 58be
000001a0: 1163 0dbd dffa 61be 9617 3dbe 7972 94bd
000001b0: 2e81 433c a5e6 653d c19c c23d e3aa abbc
000001c0: 950f f03b 337e d63d d45b 0e3d 9ab1 f9bb
000001d0: d47d 3a3d 69f0 033e 3f88 05bb 2bfb d63d
000001e0: 7aa0 393e 9a4a c53d 0ee0 233d 33e0 0f3e
000001f0: 2c8c d13d a03a 113e 77a3 abbd b33f 323c
00000200: 5f49 cfbd fd54 f4bb e0a4 ec3d 0120 8dbc
00000210: 85ad d43d 3e38 2e3e 839d ee3d a188 3b3d
00000220: 8df0 883d 3acf 7cbd d851 053d c0bd f13d
00000230: 6c4d 1a3e b8d9 8a3b 92be 0a3e 790c 5a3e
00000240: e9b1 90bc cb4a e0bd 09e5 19be 995e ca3d
00000250: fb92 503d ab3e b63c 2b65 423e 565a 473e
00000260: 8fd8 6e3e 618e 49bd 3b82 2e3b e7fb 8c3c
00000270: 1e7b 21be 5acf b6bd a039 1abe 724a e4bd
00000280: 51b4 20be bc13 9bbd 559e 5bbe 6ff5 e43a
00000290: 11b3 86bd 8c5f 35be 9a0b 64bd ead7 a2bd
000002a0: ba72 cebd 6378 9fbc 4904 fabd 0028 663b
000002b0: 0e80 49bd 9f17 73bc eae0 c2bd 4434 0abd
000002c0: 5c81 bfbc ab46 2cba 47bc 13bd a5f1 b9bd
000002d0: d29d 0f3e b6a3 cc3d a2b2 203d 7f66 b03d
000002e0: 5cb6 173e f610 8e3d 3b82 d03d 608b 403e
000002f0: 3c67 203e 16ac 56ba 4934 8f3c 5fb7 7c3d
00000300: 7977 923d 8881 663d 388a 6e3d e7d2 803c
00000310: 335a 533c e9e7 a33c 4a0d d23d 3fb2 02bd
00000320: 82ce 803d ddd4 353c f0b9 f2bc 9abb b4bc
00000330: 8627 133d ecc4 14bd 851a 52b9 3414 b63d
00000340: 555d 163d 4183 f93c dabe 0d3c 1268 4d3c
00000350: d128 153d d892 4a3c 1dfb 473d f183 b2bc
00000360: 0409 bb3d 1e34 aabb b64d fb3b a010 833d
00000370: aa84 a63c e8eb 63bd 6717 923d dae4 343d
00000380: 74e4 a2bd 6a89 a5bd 31a4 83bd 8919 41bd
00000390: 11fc 7cbd 3a88 dcbd c2a3 85bd 5fdf debd
000003a0: 12b0 77bd f7f6 85bd fcf1 6c3d cc0f d53d
000003b0: 62e7 bf3d 77e2 a53d 82ce d93d d641 353e
000003c0: f509 a1bd e58d b53d dfeb c0bc c749 f93d
000003d0: b298 233e 414d e93d d5b5 6b3e 0476 4f3e
000003e0: 29e4 263e fa0d 293e c55b 9f3d 8859 133d
000003f0: bda5 5fbb da87 3a3d d01d cbbc 24da aabd
-0.16057698 -0.20751512 -0.20066133 -0.33613545 -0.25192246 -0.15758184 -0.21207123 -0.1926851
-0.07159605 -0.0030013004 -0.13105227 -0.030905485 0.09959354 -0.028907502 0.004944199 0.033288274
0.048687696 0.027445763 0.14422438 0.007981347 -0.19340755 0.16172446 0.049996104 0.020033173
0.25479022 0.087205544 0.006708066 -0.00036030993 -0.08036299 -0.012590006 0.038326036 0.0495377
-0.044443425 0.15751778 0.06587403 0.06405194 0.21674186 0.08317859 0.13912077 0.1265518
0.12335236 0.010039539 0.16341506 0.12795572 0.015795577 -0.07144208 0.024727853 -0.018220928
-0.054148078 -0.085659705 -0.0648161 -0.13680342 -0.13945147 -0.026262397 0.37814853 0.28346378
0.054307457 0.15335514 0.16320644 0.12441778 0.12926027 0.19597802 0.07705257 0.037845355
-0.025005277 -0.0066669644 0.033736724 0.0012202701 -0.056700457 0.09759544 0.057609513 0.014018159
0.037384126 0.036091972 0.0069516427 0.04464996 0.080647655 0.031742305 0.19696295 0.20755273
0.096417665 -0.13349107 -0.013792299 -0.0651094 -0.25361523 -0.06868658 0.00085084175 -0.37075916
-0.14542206 0.010553627 0.05715529 0.031796265 0.03196553 0.11257096 -0.05870584 -0.049633365
0.05609839 0.014888902 -0.015845742 0.062016938 -0.11411463 0.084155105 -0.1832079 -0.21157093
-0.034518305 -0.22068356 -0.18466029 -0.072483964 0.011932654 0.056128163 0.09502555 -0.020955509
0.0073260763 0.10473289 0.034755543 -0.0076200487 0.045530155 0.12884678 -0.0020375398 0.10497125
0.18127623 0.0963337 0.040008597 0.14050369 0.10231814 0.1418252 -0.08380788 0.010879445
-0.10121416 -0.0074564205 0.11554885 -0.017227175 0.10384659 0.17013642 0.11651137 0.045784596
0.066865064 -0.061721064 0.032548755 0.1180377 0.15068597 0.00423738 0.1354926 0.2129382
-0.01766296 -0.109517656 -0.15028776 0.09881324 0.05092142 0.02224668 0.18983905 0.19468054
0.23324798 -0.04920805 0.0026627916 0.01720996 -0.15769622 -0.08926268 -0.15061045 -0.11147012
-0.15693785 -0.075721234 -0.21447118 0.0017468164 -0.06577123 -0.1771223 -0.055675127 -0.079513386
-0.10080476 -0.019466585 -0.122078486 0.0035119057 -0.049194388 -0.014837175 -0.09515555 -0.03374125
-0.023377113 -0.00065718096 -0.036068227 -0.09079293 0.14025047 0.09992163 0.039232858 0.086132996
0.14815658 0.06936829 0.101810895 0.18803167 0.15664381 -0.0008189095 0.017480986 0.061698314
0.07151694 0.056275874 0.058237284 0.015725566 0.012899923 0.020008044 0.10256441 -0.03190827
0.06289388 0.011098114 -0.029629678 -0.022062112 0.035926364 -0.03632061 -0.0002003704 0.08890572
0.036710102 0.030458095 0.00865146 0.012537019 0.03641588 0.012364112 0.048823465 -0.02179143
0.09132579 -0.005194201 0.007669176 0.06399655 0.020326931 -0.0556449 0.0713337 0.044163562
-0.0795373 -0.0808285 -0.064278014 -0.047143493 -0.061763827 -0.10768171 -0.06525375 -0.108824484
-0.060470648 -0.065412454 0.05784796 0.10403404 0.09370305 0.08099835 0.10635091 0.17700896
-0.07863227 0.08864955 -0.023549972 0.12172275 0.15976217 0.11391688 0.23018582 0.20259863
0.16297974 0.16509238 0.077811755 0.035974056 -0.0034125887 0.045539714 -0.02479449 -0.08342388

net_list.0.cell_list.2.conv2d.bias f4 [64]
00000000: dbfd 82bd ac5c 5dbd 6bfe 953d 2d86 6dbc
00000010: 3884 853d 0377 6c3c 5197 32bd 0af1 f1b8
00000020: 2277 2fbd 22ed 36bb 5764 f53c d341 153d
00000030: 10a0 91bd cc10 e33c d6e8 833d b8a5 cbbd
00000040: c5df e93d 6bd4 253d 708d 61bc d1a4 973d
00000050: a437 9e3d 4c64 e63c e7a7 273c 6958 763d
00000060: 0a51 833d 7673 213d 7b12 de3d 6615 173e
00000070: 07c1 0cbd 0493 fe3c cbb4 49bc 5f8d c7bc
00000080: e420 b53c 531a 383d 8d6f a63d de3c 0e3e
00000090: 1ddc 1cbe b86a 11be 51cb c53d 6738 43bd
000000a0: 5d9a 953d 2118 d43d e007 b93d bb78 48bd
000000b0: 8b5a 833d 8a4d 3e3d b85f 91bd 9837 e93b
000000c0: 63fb 053e 252d b33d ab00 7dba a29e ae3c
000000d0: 1118 d13c 2d01 863c 9cc3 38bc 99f2 193d
000000e0: 6287 733d 20c5 2f3d f96e 7e3d 8ceb d03d
000000f0: 9a54 d63c 2917 ffbc 485c 9b3b c32d abbc
-0.06396075 -0.054043457 0.07323917 -0.014497322 0.06519359 0.0144326715 -0.043601338 -0.000115366725
-0.042838223 -0.0027912338 0.029955072 0.036439728 -0.071106076 0.02771797 0.06440894 -0.09943718
0.11419634 0.04048578 -0.0137666315 0.07404483 0.07725456 0.028123997 0.010232902 0.06014291
0.06411941 0.039416753 0.108433686 0.14754257 -0.034363773 0.031075962 -0.012311171 -0.024359403
0.02211041 0.04494698 0.081267454 0.13890406 -0.15318342 -0.14200866 0.0965792 -0.04766121
0.07304833 0.10356165 0.09034705 -0.048943263 0.06413754 0.046460666 -0.07098335 0.007117223
0.13084178 0.08748845 -0.00096512836 0.021315876 0.025524171 0.016357983 -0.011277106 0.037584875
0.059455283 0.042912602 0.06211755 0.10201177 0.026163388 -0.031138973 0.0047412254 -0.020895844

net_list.3.weight f4 [16, 19, 3, 3]
00000000: 5448 9d3c 3eb0 2fbd 1b14 1fbd 07ce 583d
00000010: c2f0 90bd db07 05be 493c 703d 3847 e5bd
00000020: 1f69 1bbe f200 ec3d be75 333d 6412 293c
00000030: a5bd 673e d771 993d 6881 76bc 4078 113e
00000040: 0f9c 5f3c e012 8ebb d31d 45be 0286 eabd
00000050: 46f4 13bd 9fac 04be 77e7 9c3d ea94 ed3d
00000060: 54f5 cabc 6a33 033e 8707 ae3d e4d8 e237
00000070: 9e28 8a3d 2307 a33c bfbd 71bc 5e66 833d
00000080: ba86 343d dfbb 23bd 5280 8b3c d7e4 e3bc
00000090: f736 b8ba 724b a6bd c737 0cba ba54 4abd
000000a0: b20c f8bc 163c 90bd a244 083d 8277 483c
000000b0: 6aeb 94bc 7af4 27bc afb8 59bd 97ba 16bd
000000c0: 9632 95bd 9700 4bbd c6cf 2ebd 2217 6b3d
000000d0: 0898 91bd d7c6 893c f2bc 79bc ca6e a03d
000000e0: 2d4a fc3d 81cd 213d b2ed 483d cc70 d7bc
000000f0: 418a a0bd 2227 74bd 39f5 933d f145 adbb
00000100: 43ec 6cbc de70 35bb 2600 083c 1560 5abd
00000110: 025c cebb 99a3 32bd 6716 54bc 926f 22bd
00000120: b8a4 2ebd 63a5 c4bd cbb5 96bd 4105 3a3d
00000130: 98e4 89bd 25ba 1bbd 6f80 643d 98dd 43bd
00000140: 6b8c 0b3d 5698 a4bc 4382 703c a54e 7f3d
00000150: 62cc 82bd c275 78bd 02a4 3b3d 24cb a23d
00000160: 438f 9a3d 039a 55bc d670 c93d e0d9 463d
00000170: 44f3 6e3b 706f 2f3e f506 cf3d db37 663d
00000180: e7b3 4abd 9e83 11bd 8b9d 1d3e 3853 4bbe
00000190: 55df 2cbd b6bf 25bd 91a6 44be c3e3 2ebd
000001a0: 54b9 8dbd 5767 ddbd 63c9 d23b a1ae fabd
000001b0: 203d 38bd 0b53 4f3c c490 1abb 6d12 a4bd
000001c0: d60f 9d3c 2a29 8abd 1285 dbbc b860 13bc
000001d0: 3393 443d 4363 00bd 3e72 59bd 59fb 83bd
000001e0: 44a5 7abc 7e3a dcbd c31d 3abd b308 5cbc
000001f0: bde7 a5bc b103 89bb 1567 babd e749 2dbd
00000200: 26cf ffbb 5524 a6bd 8415 f63c c19b d7bd
00000210: fa94 5cbd 918e de3c a058 a8bd 30b7 bebd
00000220: 74ba 6cbd 471b a5bd 5ec8 a4bd 0519 90bc
00000230: 296a c03d 42a5 8f3c bcb5 333d b4a8 b4bb
00000240: a62a 8bbd 95dc 19be 0689 15be c152 1abe
00000250: 7124 19be 3968 efbd 943b 24be 5a60 13be
00000260: d0ff 16be d59e 813c ca00 553d f4cd 8bbd
00000270: 6f31 c03c 51c0 8bbd 6553 503c bd2a 10bc
00000280: 3a2d f13c a2f2 54bc 3d2c 433d 6590 f6bc
00000290: bf81 aa3d cddc 09bc 6b2b 763d f4f7 18bc
000002a0: 81f0 413d d24e 413d 6637 413d e80e 26bd
000002b0: 3700 a23c 0468 e23d 98d8 6a3d b2c2 e33c
000002c0: 2f01 34bd 9f90 9cbd 5aee e63b f7f3 3c3d
000002d0: 3ad6 1cbd a3eb 253d da4d cfbc e500 b03c
000002e0: b116 033c 3c92 dbbc 1cc5 c9bc 319a cbbb
000002f0: a66c 80bc e859 c03d 6a4e b73d a1e3 4b3d
00000300: a4e7 f83c b164 923c 4b73 253c e461 913d
00000310: fb34 a73a 2c83 f23b 86ff 3a3d 08bf a93c
00000320: 08d1 8b3d 0852 c2bb cab6 323d 0e42 d83d
00000330: 9419 a23d f111 803b d366 aebc f6f3 30bd
00000340: a784 cabb 2a30 9cbd 2512 55bc d3a5 1dbd
00000350: a144 513d b927 f3bd f282 b03c 4392 e4bd
00000360: d059 18bd 1b4e d7bd 15f6 49bd 92fa 613c
00000370: 6c1f dbbd 52ad bcbc 8c53 e7bc ab34 a6bc
00000380: 2e91 25bc 368a 233d 2a59 0c3d 43d2 b8bc
00000390: 7237 61bd 05b1 53bd 66f3 94bd 06e2 f73c
000003a0: 6598 8f3c 3466 ecbc 3f36 ccbb 08c8 f43c
000003b0: 6043 9bbd 5cad 54bd cc39 03bd b7ce 8dbd
000003c0: 2e64 a2bd 2635 36bc f7eb 98bb 1f92 8ebd
000003d0: fac0 84bd 37e8 a3bd ede0 0237 b438 99bd
000003e0: f6d2 f53c 3b98 513b fb66 77bc 0eee a4bc
000003f0: 4366 a1bb 0257 623d 10f5 543d 7d99 d43d
0.019199528 -0.042892687 -0.038837533 0.052930858 -0.07077171 -0.12991278 0.058651242 -0.111952245
-0.1517682 0.11523618 0.04381346 0.010319326 0.22630937 0.07492416 -0.015045501 0.14206028
0.013648047 -0.004335746 -0.19249658 -0.11451341 -0.03612163 -0.12956475 0.07661336 0.11600669
-0.024775185 0.12812582 0.084975295 2.7042297e-05 0.06746028 0.019900864 -0.014754712 0.06416009
0.044073798 -0.03997409 0.017028961 -0.02781908 -0.0014054467 -0.08119859 -0.00053488876 -0.049397208
-0.030279491 -0.070427105 0.03326858 0.012235524 -0.01817866 -0.010251159 -0.053154644 -0.03679904
-0.07285039 -0.04956111 -0.042678617 0.057395108 -0.07109076 0.016818447 -0.015242802 0.07833631
0.123188354 0.039502624 0.04905481 -0.026298903 -0.0783887 -0.059607632 0.07224507 -0.0052878787
-0.014460626 -0.0027685682 0.008300817 -0.053314287 -0.0062975893 -0.04361305 -0.012944794 -0.039657183
-0.042637557 -0.096018575 -0.07358893 0.045415167 -0.06733054 -0.038019318 0.055786546 -0.04781875
0.03406946 -0.02009217 0.014679494 0.06233086 -0.06386639 -0.060659178 0.045810707 0.07948902
0.07546856 -0.013037208 0.09835975 0.048547626 0.0036460916 0.17132354 0.10108749 0.05620561
-0.049487974 -0.03552591 0.15392129 -0.19855964 -0.042205174 -0.040466033 -0.19204165 -0.04269768
-0.06920114 -0.10810726 0.0064326986 -0.12240339 -0.04498017 0.012654076 -0.0023584822 -0.08011327
0.01917259 -0.06746133 -0.026796851 -0.0089952275 0.047991943 -0.031344663 -0.053087465 -0.06444425
-0.015298191 -0.10753344 -0.04543854 -0.013429808 -0.020252103 -0.0041813483 -0.091016926 -0.042306807
-0.0078066764 -0.081123985 0.030039556 -0.105277546 -0.053853013 0.02716759 -0.08220029 -0.09312284
-0.057795003 -0.08061843 -0.080460295 -0.017590055 0.093952484 0.017534856 0.043874487 -0.005513275
-0.06795244 -0.15025552 -0.14603052 -0.1507063 -0.14955308 -0.11689801 -0.16038352 -0.14392224
-0.14746022 0.015822807 0.052002706 -0.06826392 0.023461072 -0.06823791 0.012715195 -0.008799252
0.029440511 -0.012997301 0.04764961 -0.03009815 0.08325528 -0.008414459 0.0601 -0.00933646
0.047348503 0.04719431 0.047171973 -0.04054156 0.019775493 0.11054996 0.057335466 0.027802799
-0.04394644 -0.07644772 0.0070474567 0.0461311 -0.03829024 0.040507924 -0.025305677 0.021484802
0.0080010155 -0.026803128 -0.024630122 -0.0062134494 -0.015676808 0.09392148 0.08950503 0.04977763
0.030383892 0.017870279 0.010098289 0.07098749 0.0012756878 0.007400891 0.045653842 0.020720974
0.06826979 -0.005930189 0.043631352 0.10559474 0.07915035 0.003908389 -0.021289265 -0.04320141
-0.006180364 -0.07626374 -0.013004814 -0.03848822 0.05109084 -0.11872811 0.021546815 -0.1116071
-0.037195027 -0.10512944 -0.049306948 0.013792651 -0.106993526 -0.023031864 -0.02823808 -0.020288786
-0.010105414 0.03992673 0.03426472 -0.022561198 -0.054984517 -0.05168249 -0.07272987 0.030259144
0.017528722 -0.028857328 -0.0062320526 0.029880539 -0.0758121 -0.05192314 -0.03203754 -0.06924193
-0.07929264 -0.01112107 -0.004666801 -0.06961464 -0.0648212 -0.08003276 7.800973e-06 -0.074815184
0.03000782 0.0031981606 -0.015100236 -0.020133045 -0.0049255206 0.05525876 0.051991522 0.10380838

net_list.3.bias f4 [16]
00000000: 2c47 8aba 236e 2cbc 8310 4c3d dcf6 123e
00000010: ac82 a0bd 0fba 213d d2a0 c93d d34e 083e
00000020: 2d25 493d a4c5 403b 12c1 bfbd fb25 0b3d
00000030: 19a9 b5bd 4cc1 a4bd 20a7 2d3d 7e86 2e3d
-0.0010549775 -0.0105243055 0.049820434 0.14351982 -0.07837424 0.03948408 0.09845127 0.13311319
0.04910772 0.0029414678 -0.09362997 0.033971768 -0.088701434 -0.08044681 0.04239571 0.04260873

net_list.5.weight f4 [8, 16, 3, 3]
00000000: fd2b 2cbe f261 1bbe c540 61bd a97f 23bc
00000010: cb0f 0cbe 8a80 82bd 9e3f c23b 2371 ffbc
00000020: 06a3 58bc eef4 1c3d 9f84 de3d a886 91bc
00000030: d931 4d3d 5503 d73d c4cc 093d 12e6 af3d
00000040: f2ba b83d dd55 ad3d 90a3 d53d 2508 033d
00000050: 0037 d03d a860 78bd a1d4 da3d 1b6e 113d
00000060: 3de1 b73d 40a3 59bd a905 dc3d f3f9 5dbe
00000070: 161a 6fbe 9b36 6dbe 65fd 8dbe 5303 52be
00000080: 704e 41be 8519 9abe 8925 75be e0d2 85be
00000090: 4c4c 46be 8d5c 5ebe a7eb 41be 518b 83be
000000a0: 6950 91be cd1d 27be 7a99 88be 9ec5 5cbe
000000b0: 7f24 80be e6f2 a63d dec2 e43d 8a8d 7b3d
000000c0: e190 973d 7bc6 8f3d 6c6b 3f3d df1c 68bb
000000d0: 8711 e43c e56c 4fba a3f8 cabd c151 07be
000000e0: 690a a4bd ef76 dbbd dd2f b4bd 7ceb a7bd
000000f0: c25d efbb adca 99bd c94a 44bb 105f 98be
00000100: d8ad 8dbe aaff 8ebe 1dfe 82be 3314 98be
00000110: 304d 81be eba3 97be c520 acbe f233 90be
00000120: ab76 de3d 6a8b ae3d c178 233d f38f 7a3c
00000130: fc09 c63c bac7 cf3d 8449 75bd aca9 5dbd
00000140: e1e3 c73d fb3b 52be 9226 1dbe 9423 fbbd
00000150: 5bf9 56be efe6 28be c8dc 17bd 9a63 53be
00000160: efaf 85be 1c8b 1bbe d25a 3cbc 9613 c0bd
00000170: fc7c 6dbd 2f81 c939 8ec7 00be fd59 e4bd
00000180: 5f5f ecbc dd6d 36be a653 bbbd 8500 82bc
00000190: 2d52 b93d 8fee 1f3d a7bc a23d 9188 a43d
000001a0: e2f9 8f3d a147 8c3c 217b bcbb 634f c13a
000001b0: da17 8e3d 3004 013d 7146 243d a060 dbbc
000001c0: fb6f 9c3d 0311 52bd 7a13 773d 3902 99bd
000001d0: dc6f 5f3d 0e0c 093e 8e5e 9c3e c9f0 af3e
000001e0: 0cf2 ed3c a613 1a3e ca07 a43e 7afa 6abd
000001f0: fd40 88bb ec74 a73d d3b9 a4bd 1e9f 6b3d
00000200: a136 97bd b9ad 09bd b08b 8ebd a184 83bb
00000210: 0a36 19bd e536 5fbd 67f4 d33d ccdc 5bbd
00000220: eb8f c7bd 4e63 bebd f569 52bd a46f 99bd
00000230: f93f dabd 609a dfbc df8c 70bd b6ac 8d3c
00000240: 7e24 5cbd e6db 22bd 28ee 003d 9856 57bc
00000250: 4683 583d 7246 2b3d 00f9 a8b9 4094 c73b
00000260: 005c a139 30b8 bc3c 9342 50bd 6823 89bd
00000270: 3ceb 83bc 1624 b0bc e0de 903c ba61 603d
00000280: 9208 593d aa37 0a3d 4adf 83bd 3621 bdbc
00000290: c075 5abd f755 aa3d 8001 2dbd ce57 5a3d
000002a0: 409f e93b 9039 8e3b ca99 543d a0dd 39bd
000002b0: c6da e3bc b69c 16bd a1e6 a83d 0840 2ebc
000002c0: e06f a33c 929f 7c3d 03f7 79bd 80ac 0cbb
000002d0: 4e3a f13c df65 173d 09bd cc3b ffed 7e3d
000002e0: 72de 37bc b831 87bd 3f13 11bc 8065 063b
000002f0: 2e54 443c 0841 7fbd 40a0 0a3c 585c 76bc
00000300: 88ff 173d d26f 9abd 241f 8bbc d72a 8a3d
00000310: 9a60 0e3d 36f6 29bd 2b7a 66bd 1f26 923d
00000320: 00c0 b4b9 70fd 1ebd 2b2b a2bd 9bfb 0ebd
00000330: e594 833d 7ca6 8b3c fe14 4a3d 2011 8bbd
00000340: b096 35bd 03ba 90bd 4b1b 44bd 24c9 f23c
00000350: 1ba1 69bd 1063 d63b 9c91 c9bc 3887 273c
00000360: dd96 24bc 9382 883d cb0d 0b3d 5721 67bd
00000370: ef80 bbbd 8f69 abbc 8b0b 93bd 477d 45bc
00000380: cc34 6ebd 10c9 5abd bd2c a1bd e829 3cbd
00000390: 2e2a 0b3d 6ec3 723d 563f 843d 4f44 80bd
000003a0: b1e6 193d 1def 6b3d fabe 183d b877 45bc
000003b0: 7827 4ebc d88e 53bc d6ef f8bc c8ef 36bc
000003c0: 08c6 a2bd 78fa b7bd 7f26 a4bd aa39 86bd
000003d0: c11d 94bc 84fe f2bc 298f a3bc 7d8f eb3c
000003e0: b5d2 9bbd cffd 8e3c bdfa 1f3d 2c1d 0d3d
000003f0: 80b8 823c ab32 87bd fe22 95bd 12ad 073d
-0.16813655 -0.15174082 -0.05499341 -0.009979167 -0.136779 -0.06372173 0.005927994 -0.031181877
-0.013222462 0.03831952 0.10865139 -0.017764404 0.050096367 0.104986824 0.033642545 0.08588804
0.09020032 0.08463643 0.10431588 0.03199019 0.101667404 -0.060639054 0.10685087 0.035505395
0.08978508 -0.053134203 0.10743267 -0.2167738 -0.23349795 -0.23165362 -0.27732387 -0.2050908
-0.18877578 -0.30097595 -0.239401 -0.26137447 -0.19365042 -0.21714993 -0.1893755 -0.25692227
-0.2838166 -0.16319962 -0.26679593 -0.2155976 -0.25027844 0.08151798 0.111699805 0.06141428
0.0740068 0.07020279 0.046733305 -0.00354176 0.027840389 -0.000791265 -0.09910705 -0.1321478
-0.08009798 -0.10716044 -0.08798192 -0.08199212 -0.007304878 -0.075093605 -0.0029951802 -0.29760027
-0.27671695 -0.2792943 -0.25584498 -0.2970291 -0.25254202 -0.29617247 -0.3361875 -0.2816463
0.10862478 0.08522685 0.03991008 0.015293109 0.024174683 0.10145517 -0.059884563 -0.05411689
0.09760261 -0.20530693 -0.15346745 -0.12262645 -0.20993559 -0.16494344 -0.037075788 -0.20643464
-0.2611079 -0.15189785 -0.011496263 -0.09378736 -0.057980523 0.00038433957 -0.12576124 -0.111499764
-0.02885407 -0.17815347 -0.09146814 -0.015869388 0.09048877 0.039045867 0.07946139 0.080338605
0.07030083 0.017124 -0.005751983 0.001474839 0.06938143 0.031498134 0.04010624 -0.026779473
0.07638546 -0.051285755 0.06032131 -0.07471127 0.054550037 0.13383505 0.3054089 0.34363392
0.029046081 0.15046558 0.32037193 -0.05736778 -0.004158138 0.08176598 -0.08043256 0.057524793
-0.073834665 -0.03361294 -0.06960237 -0.0040136133 -0.03740505 -0.05449571 0.103493504 -0.053677365
-0.09744247 -0.092962846 -0.05137058 -0.07491997 -0.10656733 -0.027295291 -0.058728095 0.017294269
-0.05374574 -0.039760493 0.031477123 -0.013143204 0.052859567 0.04181523 -0.00032228976 0.006090671
0.00030776858 0.023037046 -0.05084474 -0.06696206 -0.01610338 -0.021501582 0.0176844 0.0547807
0.05298669 0.03374449 -0.064390734 -0.023087125 -0.05333495 0.08317178 -0.04223776 0.053306393
0.00712958 0.004340358 0.051904477 -0.045377374 -0.02781428 -0.036770545 0.08247114 -0.010635383
0.019950807 0.061675616 -0.061026584 -0.0021465123 0.029446747 0.036962386 0.0062481207 0.06223869
-0.011222469 -0.0660128 -0.008854686 0.0020507276 0.011982961 -0.062317878 0.008461058 -0.015036665
0.037108928 -0.07540859 -0.016982622 0.06746452 0.034760095 -0.04149457 -0.056268852 0.07136177
-0.00034475327 -0.038815916 -0.0791839 -0.03490792 0.06424884 0.01704716 0.049336426 -0.06790376
-0.04433316 -0.07066729 -0.04787759 0.029636927 -0.057038408 0.006542571 -0.024605565 0.01022511
-0.010045734 0.0666553 0.0339487 -0.05642828 -0.091554515 -0.020924358 -0.07179936 -0.012053794
-0.05815582 -0.053414404 -0.07869861 -0.045938402 0.033975773 0.059268408 0.06457393 -0.06263029
0.03757352 0.057601083 0.037291504 -0.012052469 -0.012582652 -0.012912475 -0.0303878 -0.011165567
-0.07947928 -0.0898332 -0.08015155 -0.06553967 -0.018080594 -0.029662378 -0.019965725 0.028754944
-0.076085486 0.01745501 0.039057482 0.03445165 0.015957117 -0.06601461 -0.07282065 0.033124037

net_list.5.bias f4 [8]
00000000: 660e 04bd c4a5 86bd c84a b73d 700f 9a3d
00000010: 90f5 59bd c6dc 0c3e 2c34 093d 8b71 0dbd
-0.032240294 -0.06574586 0.0894981 0.07522476 -0.053212702 0.13756093 0.03349702 -0.03453211

net_list.7.weight f4 [1, 8, 3, 3]
00000000: cc05 cd3d fb3f d13d 7de6 443e b3f8 e23d
00000010: 4dd5 483e f10f b93d 4585 493e 2f06 6b3e
00000020: bdd6 fc3d ee89 05bd da1e 7f3c f764 87bd
00000030: 0f36 abbd 208d 03bc d3fd b6bd a682 233d
00000040: bc00 c43c d0b9 85bc 6467 38bd 8a18 b83d
00000050: 747a 03bd 3ca9 1b3d 47d3 f33d 95e5 e53d
00000060: 3fc4 3f3e 9edd 933d 438b 243e 984d ce3d
00000070: 68eb b03d f02b e73d 2349 fc3d 56ed ff3d
00000080: 020e e03d 4a0a b5bc cebe 523e f6b8 1c3e
00000090: 4b00 acbd 7b07 2cbd be53 d8bd 4710 ca38
000000a0: dba9 a93d 52a5 09bd d5bd b2bd 98d7 cd3c
000000b0: 7c03 fcbd 685b 6a3e 179f 7e3e 5e5d 013e
000000c0: fb9c 3e3d 7123 223e 86a1 8a3e ffe1 193e
000000d0: 7583 813e 9da6 d83d 6ff2 a6bd 0b94 12be
000000e0: 4517 20bc 7b0b 933d 0e65 91bd 7afa f3bd
000000f0: e120 9a3b ce8c d03c eaa3 80bc c17c 22bd
00000100: e17f e9bc 150f b6bd ae67 67bd 9b79 8bbd
00000110: d943 acbd 2925 ea3d 8ac3 85bd c6e2 073d
0.10010871 0.102172814 0.1922855 0.11082592 0.19612618 0.09036244 0.19679745 0.22951578
0.123456456 -0.032602243 0.01557132 -0.066110544 -0.0835992 -0.008029252 -0.08935132 0.039919518
0.023926131 -0.016323954 -0.045020476 0.089890555 -0.032099202 0.03800319 0.11905532 0.1122543
0.18727206 0.072200045 0.16068749 0.100733936 0.0863865 0.11287677 0.12318637 0.1249644
0.10940172 -0.022099633 0.20580599 0.15304932 -0.083984934 -0.04199932 -0.105628476 9.6351425e-05
0.082843505 -0.033604927 -0.08727614 0.025127217 -0.12305352 0.22886431 0.24865375 0.12633273
0.046536427 0.15833832 0.27076358 0.15027617 0.25295606 0.10578654 -0.08151709 -0.14314286
-0.009771173 0.07179924 -0.07099353 -0.11913009 0.0047036265 0.025457766 -0.01570316 -0.039669756
-0.02850336 -0.088895954 -0.05649536 -0.06810304 -0.084113784 0.11432869 -0.06531437 0.033175252
