QIENetV1_0_0/QIENet_FC7.pth (torch, 28755 bytes, 17 tensors)

net_list.0.weight_ih_l0 f4 [64, 6]
00000000: 9d6c aebd c69a 5a3f 6da3 06bf 9f47 f43e
00000010: b4e5 2b3f 1b96 873e 01bd e5be 4ddd 9f3f
00000020: 3d59 613c 6b7e 7f3f 9c05 713d dc93 81bf
00000030: b17e 2cbe 995b c9be db6d 873d fb28 95ba
00000040: ac3a 20be 65a6 c83e 9b5b 75bc 39b2 f4bd
00000050: 607b 9e3e d41b 79be 3c0f c43d f70a c53d
00000060: 6697 15be 790e b03e bb02 553e a7be 9f3e
00000070: db5f 53bd 76ca acbe cf70 2f3e 2a08 303e
00000080: d80c 9ebc d9f4 483e 7727 c43e d22b 803e
00000090: 3a19 13bf 4b5e 973e a58e bc3e 12d0 d73e
000000a0: d337 41be 0635 1cbe e71e 943d 5e49 963d
000000b0: ee79 b4be 6bf0 4cbd 859e 493e be90 83bd
000000c0: c7f2 f83d 424f 05be 82c3 6c3c 5b27 913e
000000d0: 3bb7 ba3d 8db0 a2bd ed95 29bd 5ba7 b43e
000000e0: 4616 523e 6934 6cbe cf42 4ebd 8060 6b3d
000000f0: fdf0 29bf 8be5 413f 2d02 1a3f 904e 3e3f
00000100: 71cb d83e 8fef a33e c313 f53e 0131 3e3c
00000110: 6251 e23e 1762 cb3c 727f cdbc c4d0 b53e
00000120: 1c0a 21bf ee9f 653e 4d98 473e 3e1a bc3d
00000130: 2d57 4abe d5a2 8b3d 519e 623e 2bf6 9dbd
00000140: 6da8 8b3e 8870 813d ed57 bc3d 801d a53e
00000150: b99b 58be cb90 23bf 3ed5 1bbe 2293 2ebd
00000160: 4501 503f f18f 8d3f bc0b 923c 8fe1 b2bc
00000170: dd56 febd 5acd 263d 7b09 f83c 60bf c93d
00000180: 7cb4 323d 0c1e ccbe 0231 07bf 4b3c b9be
00000190: 4ff6 b03d f553 7abe 1c39 f13d 28f8 f63b
000001a0: aa92 ec3d 12ed 113b c5ff 173e 2cdd 9bbe
000001b0: 9d78 cfbd 2e43 cebe e678 693e 0de4 c6be
000001c0: defa 943c fb1a 743e 2685 e33e 88a9 ccbe
000001d0: bd17 dcbd 0de0 57be 6ab4 2dbe 2f32 163d
000001e0: 6a67 6dbd b066 3c3d 1528 f8bd f90b b63d
000001f0: f833 983d 6bb1 0d3d f361 6bbe 3b1e 08be
00000200: 332c 5b3e 6cc2 21bd e525 23bd 4518 19bd
00000210: 0043 a13e 8c32 9ebb e9bf a2bd e84d b9be
00000220: db64 873e caae db3d 03df ec3e 062d 03bd
00000230: 7b9f ccbe d130 babe cebd 483e 2e1a 103f
00000240: df9a 083d 1d23 01bc 1a14 983d d4c6 69be
00000250: e30a bdbe 6273 9abd 35ba e13e fd05 95bd
00000260: 9782 90be 1868 8fbd ab0d 183e edaa b4be
00000270: 6895 fbbd 6d26 69be 2a1c 113d 455f 62be
00000280: da4d 26be 386a 0abd 5091 8b3d 95ed 3d3d
00000290: 83d4 693e 13a2 6d3c d4c2 0fbd 092d 9a3e
000002a0: d6c7 09bf e019 b03e 5f7c 513e dcd1 b73d
000002b0: d612 12be f734 74be 6588 ddbd df56 0dbe
000002c0: b2dd a53a 10e8 97bc 7d91 f7bb 57cb adbe
000002d0: cd96 6abe 9a32 543d 1e60 bebd eb01 2b3e
000002e0: 1c1a d7bd ce3b adbe af4f 4cbc 44ee 81bd
000002f0: ce06 443e 0d90 153e eafe 803c 2911 12bd
00000300: c03b d0be 5b7c e23e 28f2 3fbd 84b6 fe3e
00000310: 1c61 34bd a6de 38be be50 eebe 4c49 9b3e
00000320: 0b6a 6d3d 8456 ee3d e735 c0bd f259 d0bd
00000330: 552d cdbe 51ab aebe ab03 843e 1dda 00bc
00000340: 5c59 2ebe a066 db3d 1337 213e 8300 38be
00000350: 1a2c c53d 38c9 aabe 87ec 2b3e 9753 833e
00000360: 41a9 8fbe f604 4e3e f110 e03d dbfc 72be
00000370: b864 133e ac23 11be f87b 173e d812 d83c
00000380: f965 e0bd 77c5 5b3e 1d1a 933d 23a2 cfbe
00000390: 3a05 033f 9226 23bf bad4 f53c f86b 3bbe
000003a0: 006d 14be c056 f13e 7c96 f6bd 9cfd 433e
000003b0: fe5c 9c3e ab9b bab9 db1a 4d3d 2dfb eabe
000003c0: e3c3 ca3e 44d9 323e e390 19be 762d 483e
000003d0: b49a 36be 5611 b5be 8b2b 333e 87b7 e53d
000003e0: f923 22be 6908 723e 57da 863e 0018 523e
000003f0: 77f6 22bf 58de 53bd 4298 72bc 3591 ad3e
-0.0851681 0.85392416 -0.5259312 0.47710893 0.67147374 0.2648171 -0.4487076 1.2489411
0.013754186 0.99802274 0.05884324 -1.0123248 -0.16845204 -0.39327696 0.0661275 -0.0011380011
-0.15647382 0.3918945 -0.014975454 -0.11948056 0.30953503 -0.24327022 0.09573218 0.09621232
-0.14608535 0.34386042 0.20801823 0.31200144 -0.051605087 -0.33748215 0.17132877 0.17190614
-0.019293234 0.19624652 0.3831136 0.25033432 -0.5746037 0.29564127 0.3682758 0.42150933
-0.18868951 -0.15254602 0.07232457 0.073382124 -0.35249275 -0.050033968 0.19689377 -0.06424092
0.12155681 -0.13018516 0.01445091 0.28350338 0.0911698 -0.07943831 -0.041402746 0.35283932
0.20516309 -0.23066868 -0.050356682 0.057465076 -0.66383344 0.7574088 0.6015957 0.74338627
0.42342713 0.32018706 0.4786664 0.011608363 0.44202715 0.024827046 -0.025085185 0.35510838
-0.6290605 0.2242429 0.19491692 0.09184693 -0.19759817 0.06818167 0.22130705 -0.077129684
0.27276936 0.06320292 0.09196458 0.3224907 -0.21153153 -0.6389281 -0.15218064 -0.042620786
0.8125194 1.1059552 0.017827861 -0.02183607 -0.124189116 0.040723182 0.030277958 0.09850955
0.043629155 -0.39866674 -0.52809155 -0.36178812 0.0864073 -0.2444609 0.11778471 0.0075369067
0.115514114 0.002226655 0.14843662 -0.30442178 -0.10130427 -0.4028563 0.22800025 -0.38845864
0.018186029 0.23838417 0.44437522 -0.39973092 -0.10746715 -0.21081562 -0.16963354 0.036668953
-0.05795995 0.045996368 -0.1211702 0.08889002 0.07431787 0.034593027 -0.22986583 -0.13292782
0.2140358 -0.039492056 -0.03983106 -0.03737666 0.3149643 -0.004827803 -0.0794676 -0.3619225
0.26444134 0.10726698 0.46263894 -0.03202536 -0.39965424 -0.3636537 0.19603655 0.5628995
0.03335082 -0.007881907 0.07425709 -0.22829753 -0.36922368 -0.07541539 0.44087377 -0.07276533
-0.28224632 -0.07002276 0.14848964 -0.35286656 -0.12284356 -0.22768565 0.03542725 -0.22106655
-0.16240636 -0.033792704 0.068148255 0.046369154 0.22834973 0.014503974 -0.035097912 0.30112484
-0.5382055 0.3439474 0.204576 0.089755744 -0.14264998 -0.2384833 -0.10817031 -0.1380267
0.0012654571 -0.018543273 -0.0075551854 -0.33944198 -0.22909088 0.05180607 -0.09295677 0.1669995
-0.10503027 -0.3383469 -0.01247017 -0.06344274 0.19143221 0.14605732 0.015746552 -0.035660896
-0.40670586 0.442355 -0.046861798 0.49748623 -0.044037923 -0.18053684 -0.46545976 0.3032936
0.05796246 0.11637595 -0.09385281 -0.10173406 -0.40073648 -0.3411508 0.25784048 -0.007864502
-0.17026275 0.107129335 0.15743665 -0.17968945 0.09627552 -0.33356643 0.16789447 0.2564971
-0.28058818 0.2011908 0.10940731 -0.23729269 0.1439389 -0.14173764 0.14793384 0.026376173
-0.1095695 0.21462046 0.07182715 -0.40553388 0.5117985 -0.6373073 0.030008662 -0.18302906
-0.14494705 0.47136497 -0.12040421 0.19139713 0.30539697 -0.00035592666 0.05007444 -0.45894757
0.39602575 0.17465693 -0.14996676 0.19548592 -0.17832452 -0.3536479 0.17497079 0.11216646
-0.15834035 0.2363602 0.26338455 0.20516968 -0.63657326 -0.051725715 -0.014806809 0.33899847

net_list.0.weight_hh_l0 f4 [64, 16]
00000000: c67c e93d de18 b5be f77e 63bd e09b 18be
00000010: de5b 02be ed37 9dbd 3485 1fbe e628 38be
00000020: 38ba d43d af61 81be d2ca 2fbe 77a0 48be
00000030: f09d 1bbc 4057 22be bd40 1c3d 8fb4 863e
00000040: 5a2f c13d 6020 cdbe 41be 62bc 9369 723c
00000050: 3258 a3be 2cca 8d3c c82e afbe 54df 773e
00000060: 061b aebe ae41 a23b f04b debe 0554 c1bd
00000070: e7e3 2bbe ffd5 c63d b4c1 943d ba96 97bd
00000080: b825 8c3c a26f d7bd 718f 0a3d 8de9 8abc
00000090: fe49 8e3e fa94 e4be cf19 b33e bb8e 02bd
000000a0: e4c7 0b3e 90ac babd 8686 07be 32c4 123e
000000b0: bee5 533d de04 a73d 8fb8 59be 843c c13e
000000c0: 8cb8 b6be 18b9 33be f016 d73e 8ad3 cb3d
000000d0: 4852 523e 50c9 c2be ccdc 41bd 686e 29be
000000e0: 1fbe a73e e479 87be c9e5 a4be 390b af3d
000000f0: b3d5 543e ff75 a93d 068d e7bd dba1 383e
00000100: bb32 0ebe 1f81 4dbe 6976 7bbe b9dd b9be
00000110: bd98 20be b3c8 da3d 65f3 9dbd a08c 1d3d
00000120: 636e dd3d 6e1b 7f3d 31de dc3e 4639 acbe
00000130: 0414 98bc 87e4 6ebe 927a c63d f77d 27be
00000140: fc2d bbbe 5b85 08be 198e 32bc 828d a93e
00000150: f375 0abe dbf7 2bbe 5805 a2bc a32c 1abd
00000160: c5dd c33e e8e1 1abd 84e5 08bf 63c4 22bd
00000170: 4c7a 723d 899b c4bc 87ca e3bc cff7 e53c
00000180: f033 a9bd b789 64bd e45f 233e fa0c 263e
00000190: 3f8c 8b3e 9119 10be bf46 473e 2a17 86be
000001a0: 6029 d93d 7948 47be 7e25 8fbc b986 6c3e
000001b0: 4085 f53e 170b 013e 02f3 07be 7c93 903e
000001c0: 0006 95be 780e 473e 4f9a 2a3e bfba 9e3e
000001d0: 8c20 ef3e 7589 b8bd ab8f 793e 3908 a33d
000001e0: 6117 0cbe 406a d9bd 9689 d3be 7d01 4dbd
000001f0: d5eb d03e 69f0 7e3e 4c7c eabd 2c09 ee3e
00000200: 3fa5 1ebe e119 8a3e a92f e13e da6c ef3d
00000210: 563f 033f 843b 96be 9ebe 87be f64e afbe
00000220: 0dc8 93bb 1227 11be c642 b33c 331b 4a3e
00000230: e66f ca3e 79b0 d93d 6cff b2bd 99d6 f53e
00000240: 1b1a 033e bc13 21be 32ea b3bd aa5e 84be
00000250: af6b 8a3e 4cd4 bd3d 3a46 8f3d 6a58 513e
00000260: 4b3e adbe c556 823d 85bf d1bd b591 133e
00000270: fd93 37be 5a12 af3e bea7 72bd 6030 233e
00000280: 58d2 cdbc e013 38be 04de 07bf e3dc 02bf
00000290: 3d68 abbe 9038 cd3e eb70 53be b8c6 df3e
000002a0: 3841 24bf bb14 af3e a4b4 dbbe 48f5 82be
000002b0: 23cc debe 9c61 f6be 2ebd 083c a2f4 b7be
000002c0: 1af2 0e3e 9abe a4be 7cd4 94bd f51f b13e
000002d0: 68de 0fbe 6c4c a9be 9bc1 343e 220f 103d
000002e0: 516e eb3d b7a0 d5bd b828 963d 86ee 6a3d
000002f0: 7e39 e53a 7703 123e d4ae 223e 2fe3 b13d
00000300: 10f9 543d 4b2e 6bbd f263 bfbd 35ca 5e3e
00000310: ff0d aa3e 293c c0bc 590f 3f3b b1ca abbe
00000320: ea1b 6d3c 9f3d c23d 352a e8be 1fb4 e03d
00000330: fc1f df3c 3713 9b3d 76eb b7be 5249 203d
00000340: 7ad7 a3be edb5 aa3d 839a 53be 49a6 0e3e
00000350: 2dbe 21be 2ccd 1cbe 3392 ccbd 8442 0c3e
00000360: b2eb 3cbd 07a3 71be 479e 2a3e 7550 3c3e
00000370: bd53 26be c804 d4bd 9880 11bd 705f 66bd
00000380: 9cab 343c 7080 143e fcdd fcbd 6461 25be
00000390: b854 1cbe cb80 4b3d 47d7 27be b8f0 bd3d
000003a0: 347a 993d a295 f5bd ccd3 4fbd c7fb 35be
000003b0: c342 c5bc 2fdf ad3d 4f95 d1bc 3043 ebbd
000003c0: abbb f1be f07c 4cbe 0264 d53e 50ae e23e
000003d0: d507 933d f883 9fbe 5593 033f 401b dcbd
000003e0: 67e0 063f 5c8b eb3d fd67 2abe eb8c fbbd
000003f0: d1a2 013e 7910 d93e 87a9 b3be 7cbc 223f
0.11400752 -0.35370535 -0.055541005 -0.14903212 -0.12730357 -0.076766826 -0.15578157 -0.17984352
0.10387081 -0.2526984 -0.17167214 -0.19592462 -0.009498104 -0.15853596 0.038147677 0.2630963
0.0943286 -0.40063763 -0.013839305 0.014795679 -0.31903225 0.017308317 -0.3421538 0.24206287
-0.34004992 0.0049516773 -0.4341731 -0.094398536 -0.16786157 0.09708785 0.072635084 -0.07401796
0.01710783 -0.10519339 0.033828203 -0.016957069 0.27790827 -0.4464491 0.34980628 -0.0318744
0.13650471 -0.09114945 -0.1323491 0.14332655 0.05173277 0.08155225 -0.2126181 0.37741482
-0.35687673 -0.17551076 0.42009687 0.09952457 0.205392 -0.38044214 -0.04732971 -0.16546023
0.32762238 -0.26460183 -0.32206562 0.085470624 0.20784645 0.08274459 -0.11306195 0.18030493
-0.1388654 -0.20068787 -0.24556889 -0.36301973 -0.15683265 0.106828116 -0.077124394 0.03846419
0.1081207 0.06228202 0.4313827 -0.33637446 -0.018564232 -0.23329364 0.09691347 -0.16356646
-0.3655852 -0.13332121 -0.0108981365 0.33115774 -0.13521557 -0.16793768 -0.019777939 -0.037640225
0.38255134 -0.037813097 -0.53475213 -0.03973807 0.059198663 -0.023999946 -0.027806534 0.028072266
-0.082618594 -0.055795398 0.15954548 0.16215888 0.27255437 -0.14072253 0.19460581 -0.26189548
0.10603595 -0.1946124 -0.017473932 0.23098268 0.47953224 0.12601887 -0.13276294 0.28237522
-0.2910614 0.19439113 0.16660427 0.3100185 0.4670452 -0.09010593 0.24371211 0.07960553
-0.13680793 -0.10615969 -0.41315907 -0.050050247 0.40804926 0.24896397 -0.11449489 0.46491373
-0.15492724 0.2697287 0.43981674 0.11690684 0.5126852 -0.29342282 -0.26512617 -0.3423993
-0.004509932 -0.1417506 0.021882426 0.19736938 0.39538497 0.106293626 -0.08740124 0.48015288
0.12802927 -0.15730184 -0.087849036 -0.25853473 0.2703528 0.09269008 0.069958165 0.20443884
-0.33836588 0.06364206 -0.102416076 0.14411052 -0.17927547 0.3419369 -0.059242003 0.15936422
-0.025124714 -0.17976332 -0.53073144 -0.51118296 -0.33477965 0.40082216 -0.20648544 0.43706298
-0.64162016 0.34195504 -0.42911255 -0.2557776 -0.4351512 -0.48121345 0.008345885 -0.35928828
0.13959542 -0.32176667 -0.07267091 0.34594694 -0.14049685 -0.33066118 0.1765198 0.03517068
0.114956506 -0.104310445 0.07331985 0.05735638 0.0017488447 0.14259134 0.15887004 0.0868591
0.051995337 -0.057417195 -0.09345235 0.21756823 0.33213803 -0.023466187 0.0029153435 -0.3355308
0.014471987 0.094844095 -0.453447 0.10971855 0.027236931 0.07572024 -0.3592183 0.039132424
-0.32000333 0.08335481 -0.2066441 0.1393062 -0.15795203 -0.15312642 -0.09988823 0.13697249
-0.046123214 -0.23597346 0.1666194 0.18390067 -0.16242881 -0.103524745 -0.035523027 -0.05624336
0.011027243 0.1450212 -0.12347028 -0.16150433 -0.15266693 0.049683373 -0.16390716 0.09274429
0.074940115 -0.11991431 -0.050739095 -0.17771827 -0.024079686 0.084898345 -0.025583891 -0.114874244
-0.47213492 -0.19969535 0.41677862 0.44273615 0.07179228 -0.31155372 0.51396686 -0.10747385
0.5268616 0.1150119 -0.16641231 -0.12282737 0.12659766 0.4239538 -0.35090277 0.63568854

net_list.0.bias_ih_l0 f4 [64]
00000000: 6258 91bd b47c 18bd 440a 6c3e dd44 63bd
00000010: 1de3 c4bd 08c9 b13e eb82 b23e 9e49 6f3e
00000020: ffa8 b53e 276e 773e 0f0e 13bf 4a9e 49bd
00000030: 9cbc 6d3e 001f 993e fe37 a3be 5ebf 763f
00000040: 8000 41be 68a9 ce3d 47f1 ca3d 0ffa b7bd
00000050: c2b3 60be 12e9 653e f9fe 1d3d dc23 ecbd
00000060: 2744 f1bc 9839 733e 4451 98be a644 56bd
00000070: 5dfe 093d 1f40 aa3d 5528 5bbe d34f 013f
00000080: 6076 91be 7d24 0c3e c4b3 bb3e 41f6 aa3e
00000090: f20d 213d 4891 fcbe 82b8 03bd 1d54 34be
000000a0: 9792 f33e 3eb7 5fbe 2da6 6f3b 9038 243d
000000b0: 0135 a83e e274 173e d6a9 1bbd aa15 4a3f
000000c0: 979e 053e c5b0 003e 891c 1a3e 7ea4 203e
000000d0: 1e88 77be 16c0 4a3e 5c64 a63e b22f 2a3e
000000e0: d03b 803e 8eda 7abb d8b2 4bbe 8db0 763d
000000f0: b6d9 133d f6bf 7f3e 99fa 0f3c a6a7 ce3e
-0.07096936 -0.0372283 0.23050791 -0.055485595 -0.09613631 0.34723687 0.34865507 0.23367926
0.35480496 0.24163114 -0.57443327 -0.04922322 0.2321648 0.29906464 -0.31878656 0.96385753
-0.18847847 0.100909054 0.09909301 -0.08983242 -0.21943572 0.2245219 0.03857324 -0.11530277
-0.029451443 0.23752439 -0.297495 -0.052311562 0.033689845 0.083130114 -0.21402104 0.5051243
-0.28410625 0.13685794 0.36660588 0.33391002 0.03931994 -0.4932959 -0.032158382 -0.17610212
0.47572777 -0.21847245 0.0036567554 0.040093005 0.3285294 0.14790681 -0.038003765 0.78939307
0.13048778 0.12567432 0.15049948 0.15687749 -0.24173018 0.19799837 0.32498443 0.16619757
0.25045633 -0.0038277241 -0.19892442 0.060226966 0.036096297 0.24975571 0.0087877745 0.4036228

net_list.0.bias_hh_l0 f4 [64]
00000000: 7426 46bd dafc 3f3d d686 783e 56a7 273e
00000010: dd71 cfbd ee65 ff3e fec7 613e 4c79 cd3e
00000020: ce5c 033f 4345 833d 3378 0ebf 7cae efbd
00000030: f23b df3c 6bf2 713e 6db6 153e 6d8e 9a3f
00000040: d826 95bb 67a1 1f3d caf3 4dbe 15bd 833d
00000050: cf0d 24be f1d9 9a3e 30a1 3f3d 1de9 673e
00000060: 3a36 c13d 6915 5abe 076d c7bc 60bb 55be
00000070: c7ba 423e 65a3 28be d1f6 52be bf1f 0a3e
00000080: b11f edbd a0e0 2d3e f5aa 723e 3e6c e13d
00000090: f18d b23e d5df debe 47cb df3d b44a 9dbe
000000a0: 6566 f43d 2c0b 8d3d 6831 e9bd 6224 363e
000000b0: 754c b53e 8d03 e93c 1fec 0ebe db36 633f
000000c0: 768e f8bc ecdf 853c dfe4 173e dc64 8e3d
000000d0: 5d15 1f3e be9e d23e 28b1 cc3e e980 b03e
000000e0: f972 613e 0e17 59be 6523 4ebe 7f96 a9bd
000000f0: 500d 0a3e 9457 2fbe 2aae 013d b164 293e
-0.048376516 0.046871997 0.24270186 0.16372427 -0.101291396 0.49882454 0.22048947 0.40131605
0.51313484 0.06409695 -0.5565216 -0.11703202 0.027250264 0.23627631 0.14620371 1.2074715
-0.0045517497 0.038972285 -0.2011253 0.06432549 -0.16020893 0.302444 0.04678458 0.2264752
0.09434171 -0.2129723 -0.02434398 -0.20872259 0.19016562 -0.1646858 -0.20601965 0.13488673
-0.1157831 0.16980219 0.23698027 0.11006974 0.34873918 -0.43530145 0.10927444 -0.30721056
0.11933593 0.068868965 -0.113863766 0.17787316 0.35409895 0.028444076 -0.1395726 0.8875558
-0.030341368 0.016342126 0.14833401 0.06952831 0.15535493 0.41136736 0.3997891 0.3447335
0.22016515 -0.21200201 -0.2013069 -0.08280658 0.13481641 -0.17123252 0.031660236 0.16542317

net_list.0.weight_ih_l1 f4 [64, 16]
00000000: dfac c13d a192 35be 8659 d03b d547 2a3e
00000010: 219d 013d bb86 923e 9ccf 2c3e 2bd1 a9be
00000020: bb37 423d 6246 de3c 8b77 1fbe 8b2e b9be
00000030: c373 3a3e f006 3d3c de6b debe 96fb 19be
00000040: 044a b1be e29a a63d 21e7 32be 1c7b 183e
00000050: 1d44 bbbe 1f63 05be f05a bd3d cde1 f1bd
00000060: 843e 383d 9248 39be 68e8 02bf e87c 6fbe
00000070: 5415 5d3e b982 aa3d b631 17bf 0e65 ae3d
00000080: 1e2f 23bd e809 923e db51 203e 0f7e bd3e
00000090: e78f 00bd 3fef adbe ad32 d83c c1b0 e9be
000000a0: 963c 903e 75bb 853e b92b 60be 5365 b73e
000000b0: 8047 453e b122 2ebe c109 a8be a680 573e
000000c0: 7134 aabe ef98 aabe 91c9 a5be 77b2 a03e
000000d0: 8c78 483e dea5 843e d1f2 3b3e 132c 79be
000000e0: 02e7 95bd d36b dfbe 5046 36be 93ad 09bf
000000f0: b93d 8a3e 36e9 73be cb4a 83bf 2c3f 823e
00000100: 52f1 9dbe 927a 03bf 464f b6be 43f2 8d3e
00000110: fe00 2abe bf8d 5c3e 88fd c73e 581c 8fbe
00000120: c049 ce3c 7c58 c5bd 847f 30be ba91 debe
00000130: 3753 f83c 7aa6 83be f2e3 71bf 3059 7e3e
00000140: 86f0 89be 556c e5be c3b1 75be 1dd4 a2bd
00000150: 2dc2 b6be a967 b03c d855 f73e 0baa 79be
00000160: 9584 933e 305a 9d3d dfa8 98be 65e4 0c3a
00000170: 20ab 6abc 874c a9be bbab 36bc 103f 8abd
00000180: 23b0 62bf a9c7 f13b 4dce 7d3d f9ec fe3e
00000190: 7aec ba3c 84ad 193c b398 7c3e 384a fdbd
000001a0: a8e0 0c3e 3fca 28bf d593 10be c449 03bd
000001b0: 247d cc3e ab7f 3ebb d957 383e 7e7f 7b3d
000001c0: f482 413e dc64 973f 61d2 a83e 4dcd 0c3f
000001d0: 6411 383f 9f7e 06bf 861c 38bd 9a41 09bf
000001e0: 82b2 123f 7033 eabe 7790 16bd edfa dc3e
000001f0: 3e53 cf3e a8d4 4e3e 94ea bcbf 5d4c f73e
00000200: 24e6 95be 0d15 213e c447 86bd 827d cd3e
00000210: f587 59be a06e a93d 6fdd 863e 53a1 763d
00000220: da3c e23e 17da ba3d f15e 19bf 7be6 8dbe
00000230: a654 1a3e f54b 10be 7115 07bf 9194 963e
00000240: 0afb 57be aeaf dbbd d6d7 83bc 8512 503e
00000250: 4a68 b83e 7439 da3c aa64 a8bd 9c8e 1bbe
00000260: 71a9 993e 5af0 34be e770 43bd 4af9 113d
00000270: b2fd a33e dc25 22bd d650 b4bf 752e 903c
00000280: ad31 89be fa13 c73d d061 bb3d 67a2 e03e
00000290: ff0d d03e 497b 09bd 2c19 ed3e bf81 f4be
000002a0: 99d5 8d3e 3f89 0dbf 6da0 eebe 1949 a53d
000002b0: 2c7d fe3e d2ef 6a3e 3e97 7cbf 1305 fe3e
000002c0: 3c83 aabe 0c27 3a3e fe56 c33e 7857 673e
000002d0: b10f b23d 10c0 65be 1b73 a93e 037b f2be
000002e0: db71 903e 3db8 c0be 1827 133d 95db 213f
000002f0: 0bbd f83e 7f40 aa3e d187 b93e 6425 a43e
00000300: 5f4d 06bf 235e d7bd 0981 ec3e ce75 093f
00000310: 24bd c9bc 58b7 b1be ce6c 953e fd47 82be
00000320: bea1 a03e 0ea0 fcbe f14e 1ebf 2b28 953e
00000330: 3a0b 213f 22cc 7d3e 7df5 dfbe ceae 693e
00000340: 43a8 883d 1ea0 853e 1e1d f03e 1944 ce3e
00000350: 38f0 b03e 840d febe 5b58 303e 86cf 23bf
00000360: 2d91 f93e 66b3 d4be 865a 103e 64f0 b6bd
00000370: 8140 ed3e 1050 e63e 7226 91bf 3a19 163f
00000380: d4f6 42bf 8ce0 9a3d d672 3abe 6081 853e
00000390: e33a 26be c0fa 2bbd 5f4a 753d 52da 71be
000003a0: 5037 a93e 88cf 0fbf 3859 383d 3f7c 563c
000003b0: f921 8a3e 8aac 9a3d 784a 413d 18bd 253d
000003c0: 8587 273e 8d64 923d e6c3 cb3e 1670 55bd
000003d0: 43b4 853e 1245 24be 4bf0 8fbe 48ee 8e3d
000003e0: ef68 9c3d 00e8 3ebe 73ec 00be 426c 083e
000003f0: e2e8 be3d d539 e53e b389 04be 7e10 f53e
0.09456801 -0.17731716 0.0063583283 0.16628964 0.03164399 0.28618416 0.16876072 -0.33167395
0.04741643 0.02713317 -0.15572946 -0.36168322 0.18208222 0.011537299 -0.4344167 -0.15037379
-0.34626782 0.0813501 -0.17470981 0.14890712 -0.36575404 -0.13026093 0.092458606 -0.11810646
0.044981495 -0.1809409 -0.51135874 -0.23387492 0.21590167 0.083257146 -0.5906023 0.085153684
-0.039839856 0.28523183 0.15656225 0.37010238 -0.031387236 -0.33971593 0.026391352 -0.45642665
0.28171223 0.2611958 -0.21891679 0.35819492 0.19265556 -0.17005421 -0.32819942 0.21045169
-0.33243135 -0.33319804 -0.32380345 0.31386158 0.19577235 0.25907797 0.18354346 -0.24333219
-0.07319452 -0.4363695 -0.1780026 -0.5378048 0.27000216 -0.23819432 -1.02572 0.2543882
-0.30848175 -0.513589 -0.35607356 0.27723894 -0.16601941 0.21538447 0.39060616 -0.27951312
0.025181651 -0.09636018 -0.17236143 -0.43470556 0.030313117 -0.2571295 -0.9448844 0.2483871
-0.26941317 -0.44809213 -0.23993592 -0.07950614 -0.3569502 0.021533804 0.4830768 -0.24381272
0.2881209 0.076832175 -0.29816338 0.00053746096 -0.014323026 -0.33066198 -0.011149342 -0.067503095
-0.88550013 0.0073785377 0.061964322 0.4979017 0.022817839 0.009379748 0.24667625 -0.12367672
0.13757575 -0.65933603 -0.14118893 -0.03205277 0.39939225 -0.0029067795 0.18002261 0.061400883
0.18897611 1.1827655 0.32973006 0.55000764 0.71901536 -0.5253696 -0.044949077 -0.53615725
0.5730363 -0.4574237 -0.036758866 0.4316019 0.40493196 0.2019831 -1.4759088 0.48300448
-0.29277146 0.15730686 -0.06556657 0.40134817 -0.2124327 0.08273053 0.26340815 0.060212445
0.4418705 0.091236286 -0.59910494 -0.27714905 0.15071353 -0.14091475 -0.5276709 0.29410222
-0.21091858 -0.107268676 -0.01609413 0.20319565 0.36017066 0.026638724 -0.08222325 -0.1519112
0.30012086 -0.17669812 -0.047715094 0.03563813 0.32029492 -0.039586887 -1.4087169 0.017600277
-0.26795712 0.09720607 0.09149516 0.43873903 0.40635678 -0.03356484 0.46308267 -0.47755238
0.27702025 -0.55287546 -0.4660677 0.08070583 0.49704874 0.22943047 -0.9866828 0.49613246
-0.3330325 0.18178958 0.38152307 0.2259196 0.08694399 -0.22436547 0.3309563 -0.47359475
0.28211865 -0.37640563 0.035925955 0.6322568 0.48581728 0.33252332 0.36236432 0.32059777
-0.5246181 -0.10516002 0.46192196 0.5369538 -0.024626322 -0.34710193 0.29184574 -0.25445548
0.313734 -0.49340862 -0.61839205 0.29132208 0.62907755 0.24784902 -0.4374198 0.22820589
0.066727184 0.26098722 0.46897215 0.4028633 0.34558272 -0.49619687 0.17221205 -0.6398853
0.48743573 -0.4154312 0.14097032 -0.089325696 0.46338275 0.44982958 -1.1339858 0.5863224
-0.7615788 0.0756236 -0.18207869 0.26075268 -0.16233401 -0.04198718 0.05988538 -0.23618439
0.33050013 -0.5617604 0.04500696 0.013091146 0.26979044 0.075524405 0.04719016 0.040463537
0.1636029 0.07148085 0.39797896 -0.052108847 0.2611409 -0.16041973 -0.28113016 0.06979042
0.07637202 -0.18643188 -0.12590198 0.13322547 0.093217626 0.44770685 -0.12943153 0.47864145

net_list.0.weight_hh_l1 f4 [64, 16]
00000000: e430 d2bd d550 d0bd f234 793e 10fe f23c
00000010: 97ce c33d cb08 45be 1b20 74be 9d8a 56be
00000020: 7634 10bc 4e27 95be 5cba 2a3c e0de 0abe
00000030: 07c6 aa3d 0c80 a33d d8b0 47bd 1e42 733e
00000040: 3db0 52bd 60b7 993d 603f 4a3e 5ec7 903e
00000050: d229 2b3d 0e20 e4bc 5662 d4be a201 19bb
00000060: f593 0c3e 5978 bdbd d268 563e 2226 a4bd
00000070: 36bd bfbd ab86 8a3c 1b13 003f b549 253d
00000080: 5bcc ad3e 8eb5 9ebe b2da 2bbe 2382 a2be
00000090: e2cb 62bd e3b0 67bd bf93 ba3e b242 71bd
000000a0: 0a55 913e 8c94 d23e 41c8 c13e 3b08 4ebe
000000b0: d2f5 003f 36dc 7a3e e75c d4bd 5dbd 0abe
000000c0: 183d b93e 490d a2be 901a a63d d04b 0cbe
000000d0: 5995 b2be 8088 a4be 27f5 88bc 11f1 d0be
000000e0: d881 973d c429 2cbe 0d0c 5d3e adfb 333d
000000f0: e2c1 863e 5824 98bd ef71 b53c 7210 53be
00000100: 3830 203e 63dc 50be 90a8 90bd 65c4 3f3d
00000110: 4c32 773e 384a fcbd a23c 80be de87 503e
00000120: 93de 37be 9b0c 123d 1775 a2bd c507 283e
00000130: 3f4d 88be 5ba8 1d3e 768e 613e 47cb 433d
00000140: f4a7 efbc 7722 f03d a384 663e a8f1 0fbe
00000150: 4862 8c3d 33d9 b63d 2bbc 04bd 58e2 973c
00000160: 3272 953b d6b8 53be 9860 143c 041a 433e
00000170: bc76 86be e012 00be 8640 0bbe ab59 f13c
00000180: 7516 f63e 6772 4dbe 39d5 cf3e a41f f6be
00000190: c2d4 dfbd 8436 6ebe 5542 8fbe 6b3d f83d
000001a0: 8ce7 c73d 0afc 0b3d 0afd db3e d4f2 a53e
000001b0: b6ae 39be 6b80 df3d d8fd cebd 4867 8cbe
000001c0: 338b 9d3e c9a0 56be 2eb3 1f3f 3884 c9be
000001d0: 5d9b 86be 7337 dcbe 64b9 c3be 288d 92be
000001e0: 2e46 113f f31e aa3e 7c5d b93e f752 57bc
000001f0: 9b92 ffbc 5f03 f23e 71a1 623e 2666 9abe
00000200: 2152 c83d 8085 43be 3f96 853d 9e95 723b
00000210: 5080 183d 854a 43be 32f1 de3c 9b2d 283d
00000220: 0613 be3d 12cc 44be 9ac8 953e dbd3 4b3e
00000230: 1bf6 76be e148 eabd 18d9 4d3e 2742 8fbe
00000240: 34f8 8a3e 6867 0cbe 7f0b ac3e c86f de3d
00000250: e50b 2cbd 9eb8 a9be 4d8b e7bc 533d 883e
00000260: 0d8c 053e ffbb c53d 63bf 523e 2041 c93e
00000270: d6b4 62be 51f9 d43e c4be 943c 0c06 85be
00000280: 6306 073e fb41 e7be 89e1 dc3e dcc0 cfbe
00000290: 9e10 e8be 8883 78be 4b57 2d3d e0e5 ee3e
000002a0: f7f8 d93e 6d35 ae3e 91a1 a63e cd68 c43e
000002b0: 4ae6 6dbe a32c 90bd 1621 28be b280 a7be
000002c0: 6ad4 173e 15eb 6bbe 4d47 173f d857 33be
000002d0: 5e01 d6be 1370 fabd d3a1 5cbe 05df 8e3e
000002e0: bb70 053e 4574 dc3e 23a3 c83d 8727 5f3e
000002f0: d894 5ebe 3795 423d 8130 5ebe ae45 0dbe
00000300: 5db1 f43e 39fd 17be 8e21 193f bc5e a0be
00000310: af84 1bbf 9427 ebbe 7bed c53c 9f0e abbd
00000320: c437 173e dd9d ed3e a87c 163f 7a3a 1b3f
00000330: bc4a 94be a509 a03e a344 9bbe 1855 b5be
00000340: 6399 063f 60fa 68be ca35 803e a65a 56bd
00000350: 028c a9be bf2f 80be aca8 03be 4ed3 5f3f
00000360: d363 be3e d86e 6d3e 96bc 1a3f 7a5d 433c
00000370: 565b c3be fc6e 863c 95ac 893e c7e1 2fbe
00000380: d989 bb3e cce6 2abe bf24 963e 3ec5 013e
00000390: 8601 e3be 84fd 39be 025c 763c 2c7a 8f3c
000003a0: 7951 403e 8a48 87be c0e4 223e 403f 1d3f
000003b0: 91b9 dcbe 2c80 7a3e c46b ed3e 3b71 81be
000003c0: abaf 2d3c ad9d c2be 229a 48bc 6a25 68be
000003d0: f1ee 6fbe 483f 80be d56a 243d 60a0 7ebe
000003e0: b160 dd3e 0212 b63c 0ffc 9c3e fa33 1f3f
000003f0: 7573 3cbd 6461 e33e 548e afbd 4166 c83d
-0.102632314 -0.101716675 0.24336603 0.029662162 0.09560888 -0.19241636 -0.23840372 -0.20951314
-0.00880157 -0.2913155 0.010420408 -0.13561583 0.08338552 0.079834074 -0.048752636 0.2375569
-0.051437605 0.07505679 0.19750738 0.28277105 0.04178793 -0.027847316 -0.41481274 -0.002334692
0.13728316 -0.0925147 0.20938423 -0.08015086 -0.09362261 0.016909918 0.5002915 0.040353496
0.33944973 -0.3099789 -0.16782644 -0.3173991 -0.05537022 -0.056565177 0.36440846 -0.058901496
0.28385192 0.41128957 0.37848094 -0.20120327 0.5037509 0.24498066 -0.10369282 -0.13548799
0.36179423 -0.3165076 0.08110535 -0.13700795 -0.34879568 -0.3213539 -0.01671846 -0.4080892
0.073978126 -0.16812807 0.21586628 0.04394119 0.26319796 -0.07428807 0.022149054 -0.20611742
0.15643394 -0.20396571 -0.07063401 0.046818156 0.2414028 -0.123188436 -0.2504626 0.20364329
-0.17955999 0.035656553 -0.07932489 0.16409214 -0.26621434 0.15396254 0.22027001 0.047801282
-0.029254891 0.11725324 0.22511534 -0.14057028 0.06854683 0.08928146 -0.032406013 0.018540546
0.0045607323 -0.20675978 0.009056233 0.19052893 -0.26262462 -0.125072 -0.13598832 0.029461702
0.48064008 -0.20063172 0.40592363 -0.48071015 -0.10929252 -0.23262984 -0.27980295 0.121210895
0.09760961 0.03417591 0.4296649 0.32411826 -0.18133053 0.10913166 -0.101070106 -0.27422547
0.30770263 -0.20959772 0.6238278 -0.39358687 -0.26290408 -0.43011054 -0.3822738 -0.2862332
0.5674771 0.33226737 0.36204135 -0.013142339 -0.031197837 0.47268197 0.22131898 -0.30156058
0.0978129 -0.19093895 0.06522798 0.0037015448 0.037231743 -0.19071396 0.02721462 0.041059118
0.09280972 -0.19218472 0.2925461 0.19905035 -0.2411732 -0.11439682 0.20102346 -0.27980158
0.2714249 -0.13711321 0.3360252 0.10861164 -0.04200353 -0.33148664 -0.028264666 0.26609287
0.13041706 0.09654998 0.2058082 0.393075 -0.22139296 0.41596463 0.01815737 -0.25981176
0.1318603 -0.45167527 0.4314082 -0.40576828 -0.45325178 -0.24268925 0.042319577 0.46659756
0.42572758 0.34025136 0.3254514 0.38361207 -0.2323238 -0.07039764 -0.16418871 -0.32715374
0.14827123 -0.23038895 0.5909317 -0.17513978 -0.41797918 -0.12228408 -0.21546106 0.27904525
0.13031285 0.43057457 0.09796741 0.21792422 -0.21736467 0.047505584 -0.2169819 -0.13796112
0.47791567 -0.1484269 0.59816825 -0.31322277 -0.60749334 -0.45928633 0.024161091 -0.08352398
0.14767367 0.46409503 0.5878396 0.60636103 -0.28963268 0.31257358 -0.30325803 -0.35416484
0.525778 -0.2275176 0.25041038 -0.052332543 -0.3311463 -0.25036427 -0.12857312 0.874318
0.37185535 0.23186815 0.6044401 0.011924142 -0.3815562 0.016410343 0.26889482 -0.17175971
0.36628607 -0.16689605 0.2932491 0.12672898 -0.443371 -0.18163115 0.015036585 0.01751431
0.1878108 -0.2642253 0.15907574 0.61424637 -0.43110326 0.24462956 0.4637128 -0.252817
0.010600965 -0.38010922 -0.012243779 -0.22670522 -0.23430993 -0.2504828 0.040140945 -0.24865866
0.43237832 0.022225384 0.30661055 0.62188685 -0.046008546 0.4441024 -0.08572069 0.097851284

net_list.0.bias_ih_l1 f4 [64]
00000000: 33f6 033e a307 a13d 4529 3a3e 856e 413e
00000010: 235a 5dbe 8e44 93bd db81 cb3e 3577 133f
00000020: ee5d d33e 1b82 5c3d 078e b23e b8b6 203f
00000030: 99a7 063f 1da8 943e 643a d7bd 9eab 773e
00000040: 05bd 13be 67a6 bb3e 2377 083e 9366 3dbe
00000050: 8290 553e c8e7 0bba c318 6bbe 0e1b a83c
00000060: a9b4 e53c 13ab 63be f48e 863d 3f42 7abd
00000070: c3c8 2cbe 7004 93be 4381 22bd 08a5 6cbe
00000080: f606 6e3c f71f ecbd 9420 ab3e 3510 19be
00000090: ad35 3abe 6f88 4bbe c48c 62bd 09bc 653e
000000a0: 91ee 973e 2865 293e 3ce9 9a3b 4344 4b3d
000000b0: 84a9 23be f294 88be 992a 13be 6432 36be
000000c0: 263e c6bc f135 51be 9b23 9d3c e8a5 993e
000000d0: 8cb5 9c3e 5894 8e3c 4d0e ef3e 1d49 dd3e
000000e0: 42f4 1abd fd61 663e 0a18 b53e 0a9c 073f
000000f0: 13e9 da3e fc9a d13e 7817 d33e b03c fb3e
0.12886886 0.07862785 0.18179806 0.18889816 -0.21616416 -0.0719081 0.3974751 0.5760377
0.412826 0.053835016 0.34873983 0.62778807 0.52599484 0.2903451 -0.10509184 0.2418656
-0.14427574 0.36650392 0.13326697 -0.1849616 0.20855907 -0.00053369673 -0.22958665 0.020520713
0.028040247 -0.22233228 0.06570235 -0.061098333 -0.1687346 -0.28714323 -0.039674055 -0.2310983
0.014528027 -0.11529534 0.33423293 -0.14947589 -0.18184538 -0.19876264 -0.055310026 0.22435011
0.296742 0.16542494 0.0047275107 0.049625646 -0.15982634 -0.26676136 -0.14371718 -0.1779266
-0.024199557 -0.20430733 0.019182017 0.3000939 0.3060726 0.01740472 0.46690598 0.43219844
-0.0378306 0.22498317 0.35369903 0.5297247 0.42755947 0.40938556 0.41228843 0.49069738

net_list.0.bias_hh_l1 f4 [64]
00000000: cbdd 223e cb32 473e ab54 213d 6827 0bbe
00000010: 4dab 433e e3bf c43d 2b39 313d 4db5 f23e
00000020: 334d a53e 7ba3 e2bc 47b4 fb3d b1ec 4c3e
00000030: 7174 c73e 17fc 103f 775d 393e f603 9f3e
00000040: ed19 5d3e 7844 793e e043 0a3e 8e69 babd
00000050: 5ec4 42be 3fbe 8a3e 4516 983d 1227 dcbe
00000060: e6f0 803e 40d3 bdbe 0b32 c63d bebf 3bbe
00000070: 3571 b7be e657 f73d 779b 98be 7326 233e
00000080: 1e0c 2f3e e3e9 72bd 982d 413d 6550 583e
00000090: 4925 2ebd a3b9 74be 329a 383e 6566 653e
000000a0: f104 133f 15bc 303e 6e40 ae3d 85c8 6ebd
000000b0: d546 e6bd ee81 8abd 5ba0 6fbd c02c 40be
000000c0: ea39 a1bc 1f8c e53d 864e 48bd 2fe3 9fbc
000000d0: 7fbb 06be c645 a1bc 9911 b43d 0611 0d3f
000000e0: 02bc 94bd 45ee dbbd 37cb 123e 566c d23e
000000f0: 165b 343f 5b53 8d3e 4c2c 3ebb ca8b d03e
0.1590492 0.1945297 0.039387386 -0.13589251 0.19108315 0.09606912 0.04326741 0.47403947
0.3228546 -0.027665844 0.122902445 0.20012166 0.38956025 0.5663466 0.1810206 0.3105771
0.21591921 0.24342525 0.13502455 -0.09102164 -0.1902022 0.2709827 0.074261226 -0.42998558
0.2518379 -0.37075233 0.09677514 -0.18334863 -0.35828558 0.12077312 -0.2980611 0.15932636
0.17094466 -0.059305083 0.047162622 0.21124418 -0.042516027 -0.2389894 0.18027571 0.22402342
0.57429415 0.17259248 0.08508383 -0.0582967 -0.11243979 -0.06763063 -0.058502536 -0.18767071
-0.019680936 0.112083666 -0.04890301 -0.01951751 -0.13157462 -0.01968659 0.08792419 0.551041
-0.07262422 -0.10738806 0.14335333 0.4109828 0.70451486 0.27602658 -0.0029018102 0.4073165

net_list.0.weight_ih_l2 f4 [64, 16]
00000000: c89d 423e e760 4fbc d5e2 0a3f 7979 58be
00000010: 4e82 afbe 9f79 f4bd 0a74 8cbd a97a 0f3f
00000020: a3db f03d aa84 c9be c239 8ebc ceee 0c3f
00000030: 8de6 b9be df0b cc3d 9321 053f 62a8 02bf
00000040: 277d 8a3e 955f d1be e3bd 713c 212c a1be
00000050: 44f1 70be 55ec b3be 06cf 083e fced 36be
00000060: 41ac 393d 4368 713e 66fe 443e ba49 c4bd
00000070: ffd6 233f 7679 903e 2841 b3be 6237 01be
00000080: 9126 ec3d af6a e5be 2713 3a3e 12e3 5ebe
00000090: 216a b9be 8dcc 2bbe 06e7 a73e 5937 c23d
000000a0: 1d3c de3e 9153 503e ed87 d33e f6a8 fcbe
000000b0: 993e d13e a6bf 61bc 3ece 5abf be0f 9dbd
000000c0: b285 3e3e adde 2bbf 1f61 963e 6e85 e6be
000000d0: 5b8f b5be 14b2 d9be 396e d0bd 39ae 0cbe
000000e0: a87a 253f f993 383f 6b70 f23e 0361 8b3d
000000f0: f40f a2bd 128f 163f 858e 8f3e 9cf8 7b3d
00000100: 363f 413d 565a e5bd b5b8 b13e 2116 b3be
00000110: 113d 58be 505f 183d 62f3 b73e 4a7e 603f
00000120: 0e25 0d3c ceeb fb3d 772d d23c 4bf1 d93e
00000130: 005a 10be 2150 c1bd 0d8c 093e c8fd f3be
00000140: f37f 583e 83d6 5fbe c820 013f ad31 d03e
00000150: f143 83be 74aa 1f3c 86ea ce3d 75d6 833f
00000160: 4a6b bebc 0b03 293d 4b0d 473e 5f56 8d3f
00000170: b426 13bf 42c0 27be 1842 1a3f 2ac9 2cbf
00000180: 7efb 0e3f a186 1ebe cbc0 6d3e 3619 9fbe
00000190: dc35 e9be 4fea 11bf 4cc9 1a3f e31c 463f
000001a0: e635 073f b3b7 0c3f 5f95 c53e e332 4dbe
000001b0: 20b0 9e3d 84d2 58be d916 43bf 147d a73d
000001c0: 380e 383e 6c2b 023d 38cf 2b3e f582 6e3e
000001d0: 59ae 1ebe 8491 22bd 55b6 8ebc c2b1 babe
000001e0: 25cb e03d c6b4 45bd 943a d43c 1c6e 813e
000001f0: a7e1 573d 2d92 6bbe 70b3 e7bd 7c11 82be
00000200: 049c 76bd a77b 9ebe 375d 22be 9bb1 79be
00000210: 44cc 1bbe a79e 0d3e 0b91 00be ec58 5c3d
00000220: 843b ba3c 7b01 8e3e c7de babc ba17 003e
00000230: 8ad8 9abb a4fc 9d3d f4bd 4bbe de89 2f3d
00000240: f46e 083e e72b 8ebe 8ea0 a93d abf0 86be
00000250: 235d f6bd dbd2 293e bdd9 893d e5a9 0fbe
00000260: f70b 4e3b 2bc6 103e 93ff 9f3c ec31 2bbe
00000270: 2b17 8d3d 9326 b8ba a125 b4be 7460 5dbe
00000280: 44f0 323f 4b68 e8be e939 ba3e c536 2dbf
00000290: 55e1 4bbf 2135 23bf 7d3a fe3c 58fc 053f
000002a0: f6ac 623f c028 203f 8b64 ba3e a8ca ff3d
000002b0: af55 e23e 5014 26be 8b28 1cbf f26a bebd
000002c0: 7cce 083d 106c 9a3a 456d 9ebe 3857 4bbe
000002d0: a507 e53c f3ee c03c 4484 053f a682 dbbd
000002e0: e08a 46be a770 663e 21c0 e1bb eac2 43bd
000002f0: 1cba e03e 20b4 29be d81c f0bd 4a28 1b3b
00000300: f3ba 9e3e b652 b1be 32f7 9f3e 8e36 073f
00000310: bca7 c0be 166b a2be 8f36 33be 3df8 9f3d
00000320: cb72 d73e 058c f83d ec7f c83e fe3d 813f
00000330: 9dc0 1cbf 1140 183f b791 5c3f 1dcc 80bf
00000340: 4825 ae3e ac79 e1bc e0e1 b4bd af0d 2bbe
00000350: 270a a7be 33e7 d63d 3a52 d3bb b28d 2dbe
00000360: 6a8e 563e 2395 533e 8ce1 183e bd74 95bc
00000370: cce8 533d f6f5 663d 2653 39bd dc61 f03d
00000380: e113 5b3e 29e2 26be f6d9 b53d 290b 2bbe
00000390: adbe e939 a2ca aabe 454f a83c 539d 0c3e
000003a0: 7837 c23e 8666 8a3e 8d02 453e 6e9a 82be
000003b0: 9d9c 23be 81e0 6ebc f70a 313e ac2f 29bd
000003c0: 0725 9d3e bddb bd3d d55a 763e 3d07 1b3d
000003d0: 1195 8abd 874e 55bd 0104 013f f6af 9c3f
000003e0: 4ba9 983e fc70 04be 6cf3 073e fdd3 943d
000003f0: cdab c3be 58b9 e8be 34d5 f93e d22c 0dbf
0.19005501 -0.012657381 0.5425237 -0.21140088 -0.34279102 -0.1193726 -0.0685807 0.5604654
0.117606424 -0.39359027 -0.017361525 0.5505189 -0.3630871 0.09963202 0.52004355 -0.5103818
0.2704861 -0.40893236 0.014754745 -0.3147898 -0.23529536 -0.35141245 0.13360223 -0.17864221
0.04533029 0.23574929 0.1923767 -0.09584375 0.63999933 0.28217667 -0.35010648 -0.12618783
0.115307935 -0.44807956 0.18171369 -0.21766308 -0.36213782 -0.16777249 0.32793444 0.09483213
0.43405238 0.20344378 0.4131464 -0.49347657 0.4086807 -0.013778603 -0.8547095 -0.07669018
0.18605688 -0.6713665 0.29370973 -0.45023674 -0.35460934 -0.42518675 -0.10177273 -0.13738336
0.64640284 0.7210079 0.47351393 0.06805613 -0.07913199 0.5881206 0.2803842 0.06151639
0.047179423 -0.11198871 0.34711233 -0.3497782 -0.21117045 0.037200272 0.35927874 0.876927
0.008614792 0.123008355 0.025656445 0.42566904 -0.14096832 -0.094391115 0.13432331 -0.47654557
0.21142559 -0.21859173 0.50440645 0.406629 -0.25637773 0.009745229 0.101033255 1.0299822
-0.023244519 0.041262668 0.19438665 1.1041983 -0.5748093 -0.16381934 0.602571 -0.6749445
0.55852497 -0.15481044 0.23218076 -0.31073922 -0.45548904 -0.5699815 0.60463405 0.7738783
0.5281662 0.549678 0.38590524 -0.20038943 0.07748437 -0.21174055 -0.7620674 0.08178154
0.17974174 0.03177969 0.16778266 0.23292144 -0.15496196 -0.039689556 -0.017420927 -0.36463743
0.10976247 -0.048268102 0.025906838 0.2527932 0.052705433 -0.2300498 -0.11313522 -0.25403965
-0.06020738 -0.30953714 -0.15855871 -0.24384157 -0.1521464 0.13830052 -0.1255533 0.05379574
0.022733457 0.27735505 -0.022811307 0.12509051 -0.0047255205 0.07714203 -0.1989668 0.04285609
0.13323575 -0.2776787 0.082825765 -0.2635549 -0.12029483 0.16584341 0.067309834 -0.14029653
0.0031440237 0.14138095 0.019531047 -0.16718262 0.068891846 -0.0014049582 -0.3518496 -0.21618825
0.69897866 -0.4539207 0.36372307 -0.67661697 -0.79640704 -0.63752943 0.031033749 0.5233817
0.8854517 0.6256218 0.36404833 0.124898255 0.44205996 -0.16218686 -0.60999364 -0.09297742
0.033400044 0.0011781473 -0.3094274 -0.1985749 0.027957747 0.02355144 0.52154946 -0.107182786
-0.19388914 0.22503911 -0.0068893586 -0.047793306 0.4389199 -0.16572618 -0.117242515 0.0023675137
0.31002006 -0.34633416 0.31243283 0.5281762 -0.3762797 -0.31722325 -0.17501281 0.078110196
0.42079768 0.121360816 0.39160097 1.0097044 -0.61231405 0.5947276 0.86159843 -1.006229
0.34012818 -0.027523838 -0.08832145 -0.16704439 -0.32624933 0.104933165 -0.006449011 -0.16948584
0.20952764 0.2066236 0.1492979 -0.018244142 0.051735684 0.05638691 -0.045245312 0.11737415
0.21394302 -0.16297211 0.088794634 -0.16703476 0.00044583288 -0.33357722 0.020545611 0.1373189
0.37932944 0.27031344 0.19239254 -0.25508446 -0.15977712 -0.014579893 0.17289339 -0.04130523
0.30692312 0.092704274 0.24058087 0.0378487 -0.067667134 -0.052076843 0.50396734 1.2241199
0.2981666 -0.12933725 0.13276452 0.07266996 -0.3821701 -0.45453906 0.48795474 -0.55146515

net_list.0.weight_hh_l2 f4 [64, 16]
00000000: 3e72 9cbe 69eb a23d cf43 243e d574 b0bd
00000010: e5f6 c7be 4d07 153e 595e b2bd 1dbf a63d
00000020: 172f 83be 09ce cbbe 7538 4dbd 8153 a83e
00000030: 5723 043d 82d6 f33e 1a42 a03e df66 bc3e
00000040: 82ac 9dbe 734d 48bd 7ed7 96be 92c8 16be
00000050: 6e4a 8a3d 6b14 063e 3dfc 8bbe 45a5 af3e
00000060: e35a 56be 9f92 72be da20 a6be 2fd3 143c
00000070: 11ac 47bd 3087 853e 2e5b f23d 1b51 4d3e
00000080: 3ca7 4cbe 0932 06be c075 7abe 4eb1 b3be
00000090: 28bf 56be 0046 903e 3409 92be da45 c53e
000000a0: a4fd d0be 8258 8cbe 3bd4 5fbe ad9f c43e
000000b0: 1675 10be 4416 ab3e 1111 013e 4e1f 113e
000000c0: 8a9d c7be 71cc a03e eb1f 313c dbc0 7ebe
000000d0: d412 ddbd 23d8 043f b1d1 b7be 6bd9 d03e
000000e0: f8cf 9abe fd55 17bf c9bd 183c daa1 903e
000000f0: 71f6 633e 8915 1f3f 1516 2a3e 833d b53e
00000100: 37f5 86be 1500 a83e 04de 7c3e 8f32 4d3c
00000110: e2c2 b1bd f1ea 9d3d 4514 94be 005a bf3e
00000120: b456 0ebe a917 a7be 45b4 103e 211e d43e
00000130: 630c 173e 34ad 5fbc 871e 1b3e 48e1 083d
00000140: f97e c6be 980c 483e a7dd d23e 5718 3dbd
00000150: d2c1 acbe 2be4 993e 4246 c4be fdc4 dd3e
00000160: 7d18 2dbe 1073 af3d 47c1 7abe fc2e 6e3e
00000170: a546 dd3e 1563 ab3e 3645 ec3c ca36 10be
00000180: 27cb bcbe 0097 413d 06cb 05bd 3254 56bd
00000190: 03ce 14bd d876 623e e0c5 a1bd b4ce d53d
000001a0: 47e9 5c3d b8c2 a1bb 3704 babe a7f7 bb3e
000001b0: e327 6a3e 52b5 01bd 91e4 c43d 854d fcbc
000001c0: 38c7 9d3d 0656 213e db27 853d 1d06 cbbd
000001d0: 488b 823d 3148 c03e 6b16 d7bd ac95 97bd
000001e0: d951 c2bd 1336 16be 7e58 a53e bd37 d83d
000001f0: ab92 9a3e 4a3a 4dbe dc98 023e b60d ea3d
00000200: 80ae 24be a481 713e 7b56 a0bd c60a 9b3e
00000210: adb9 693e fbdd c73e 1e91 1cbd 6ef5 343e
00000220: 33df 3ebe f0ef 073e 8c03 a9bd af76 d7bd
00000230: 1ace 553d dea1 443e 218b 0e3e dabd 983e
00000240: a6f6 08be 5015 cc3c a8d5 1a3e 541f 4f3e
00000250: 922b 25be 7093 a33e 8b7e 8ebd 9640 e5bd
00000260: 7282 8abe 1655 31be 2126 61be 649b 72bd
00000270: 4a1e 543e 2645 af3d 0fdd 80bc 5a0f 8f3e
00000280: e74d 06bf 454a b33e 6ec7 85bd 9f42 fdbe
00000290: 9140 c8be 2869 f73e 05b1 4dbf 03ba 243f
000002a0: ae84 2dbf a755 01bf 339f 1bbf a15c 0a3f
000002b0: 4ef5 883e 6b11 523f d470 233f 0899 0d3f
000002c0: df01 203e e378 8bbd eaf2 f13b a993 753e
000002d0: 2262 48bd 682c c23d e6ea 88be 80c0 103e
000002e0: 9870 1bbe 51e8 2fbe 5330 37be dc89 7c3b
000002f0: 3c04 06be e451 0bbe a443 56be bd0c dd3d
00000300: 7901 58be 8b91 553e 2dc2 a93e 0958 06be
00000310: 343a 54be 1a99 923e 8054 adbe 8322 173f
00000320: 0fd0 fcbe 3b9b 1cbf c303 01bf 9768 ca3e
00000330: 0585 9c3e d0d4 683e 3bc9 493e 8739 b1bd
00000340: bad4 51bd 1ebf 0a3e 1a42 2d3e 595a 39be
00000350: d06e 7fbc 8ab0 26be 9f31 07be 5805 17bd
00000360: babd 1bbd 115a 0ebe 7c0c ae3d cc9b d8bd
00000370: 1856 64be c89e d8bd 2c31 353e d67f cebd
00000380: 39f3 81be 41ef 993e f6da 853d dd5a 02be
00000390: 4e94 37be 4d12 953e 5bcf 55bd be8a ae3e
000003a0: 6af8 9d3c 8e73 283d ce95 b4bd 38eb e23d
000003b0: 496e 8fbc 3925 85bd 6313 6a3e 85fa 2ebe
000003c0: 771a 2abe 69c9 ff3d bc8b 99be a5a5 393f
000003d0: 91c7 81bd 1baa 713e 3bea 1bbe 31d2 db3e
000003e0: 9940 9ebe 5125 01be 45a4 59bf 3d2a ec3d
000003f0: fc1f b63e 6f26 743e 051f 863d 738d e23e
-0.3055591 0.07955057 0.16041492 -0.08616034 -0.39055553 0.14553566 -0.08709402 0.08141921
-0.25621864 -0.3980563 -0.05010267 0.32876208 0.032260265 0.47624594 0.3130043 0.36797234
-0.30795676 -0.048901986 -0.29461282 -0.14724949 0.067524776 0.13093726 -0.2734088 0.34305778
-0.20933108 -0.23688744 -0.3244694 0.009083553 -0.04874808 0.26079702 0.118337974 0.2005047
-0.1998567 -0.13105024 -0.2445898 -0.3509621 -0.20971358 0.28178406 -0.28522646 0.38529855
-0.40818512 -0.27411276 -0.21858303 0.38403073 -0.14107165 0.33415425 0.12604167 0.14172098
-0.3898738 0.31405976 0.0108108325 -0.24878256 -0.10794607 0.518923 -0.3590217 0.40790877
-0.30236793 -0.5911558 0.009322592 0.28248483 0.22261979 0.62142235 0.16609986 0.35398492
-0.2635896 0.32812563 0.24694067 0.012524261 -0.08679749 0.07710827 -0.28921714 0.37373352
-0.13900262 -0.3263524 0.14131267 0.41429237 0.14750819 -0.013652135 0.15148364 0.03341797
-0.38768747 0.19536054 0.41184732 -0.04616579 -0.33741623 0.3005689 -0.38334852 0.43314353
-0.16903873 0.08566868 -0.24487792 0.2326011 0.4321796 0.3347403 0.028841596 -0.140834
-0.36873743 0.047263145 -0.03266432 -0.05232639 -0.03632928 0.22115648 -0.0789907 0.10439816
0.053933408 -0.0049365424 -0.3633134 0.3671238 0.22866778 -0.03166706 0.09613908 -0.030798683
0.077040136 0.15755472 0.065017425 -0.099132754 0.06374222 0.37555078 -0.10502323 -0.074015945
-0.094882675 -0.14669065 0.32294077 0.10557506 0.30190024 -0.20041767 0.12753624 0.114283964
-0.16082191 0.2358461 -0.07828995 0.30281657 0.22824736 0.39036545 -0.038224332 0.17671749
-0.18639831 0.13275123 -0.0825263 -0.10520684 0.052198507 0.19202372 0.13920261 0.29832345
-0.13375339 0.024912506 0.15120566 0.20226794 -0.16129902 0.31948423 -0.0695773 -0.111939594
-0.27052647 -0.17317614 -0.21987201 -0.059230223 0.2071468 0.08558111 -0.015730409 0.279414
-0.5246262 0.350176 -0.06532179 -0.4946489 -0.3911176 0.48322415 -0.80348235 0.6434633
-0.6778058 -0.5052132 -0.60789794 0.5404759 0.26749653 0.8205783 0.6384404 0.5531163
0.15625714 -0.06810167 0.007383694 0.23982109 -0.04892171 0.09481126 -0.26741713 0.14135933
-0.1517967 -0.17178465 -0.17889528 0.003853432 -0.13087553 -0.13605458 -0.2092424 0.10793445
-0.21094312 0.20856301 0.33155957 -0.1311952 -0.20725328 0.28632432 -0.3385353 0.59037036
-0.49377486 -0.6117436 -0.50396365 0.3953292 0.30570236 0.22737432 0.1970567 -0.086535506
-0.051228262 0.13549468 0.16919747 -0.18100871 -0.015590385 -0.16278282 -0.13202523 -0.03687033
-0.038022734 -0.13901545 0.08498475 -0.10576591 -0.22298467 -0.1057716 0.17694539 -0.100829765
-0.25380877 0.3006535 0.06535904 -0.12729974 -0.17927667 0.29115525 -0.052199703 0.34090227
0.019283492 0.041125827 -0.088176355 0.11080021 -0.017508643 -0.0650124 0.22858958 -0.17087753
-0.16611658 0.12489588 -0.2998942 0.7251838 -0.063368924 0.23600046 -0.1522607 0.429338
-0.3090866 -0.12611891 -0.8501628 0.11531494 0.35571277 0.23842786 0.06548885 0.44248542

net_list.0.bias_ih_l2 f4 [64]
00000000: 9cb1 bc3e eb89 87bb b3a5 913e 9aac f93e
00000010: 6532 6f3d 608a b23e 446c 203f 0445 0e3c
00000020: a834 a8bd 0b1a c53d 4193 103f 4138 0fbd
00000030: c197 fc3e 397a 213e b3b5 923e 3d5f 7e3e
00000040: 5e38 3f3e ec9f 043e 9110 ea3b 9e08 7fbe
00000050: bc29 19be 2c20 8abe af54 bbbd 3632 d1ba
00000060: dc99 163c 1ed4 4e3e c4b8 99be a515 253e
00000070: 77df 93be de2d 56bd 961b f83d 67ba 743d
00000080: 68c0 4dbe df2d 46bd 28b3 d83d 607a 3bbe
00000090: 8878 fc3b c45c d73d 38fa d3be 820c 653d
000000a0: ecbc 86be 0d2b 47be 1d1d 523d e6ce 323e
000000b0: 74a0 0abe 8f00 143e 1358 cd3d bc03 6b3d
000000c0: 658a bd3e b1cc ed3e e80c 8e3e 1c3c 013f
000000d0: 35af e53d 9158 6db9 ebf5 963e 5a0d 80bb
000000e0: 76ba b3bb d8e7 8e3c af61 243f aefb 5a3e
000000f0: 4e1c ae3c 861b 3b3c 1a62 c83d 9ea9 873e
0.36854255 -0.004136314 0.2844673 0.48764497 0.05839767 0.34871197 0.626652 0.008683447
-0.082131684 0.09624108 0.5647469 -0.034965757 0.4933453 0.1576928 0.2865425 0.24841018
0.18673846 0.1295163 0.007143088 -0.24905631 -0.14957327 -0.2697767 -0.091470115 -0.0015960399
0.009191956 0.20198104 -0.30023777 0.16121538 -0.28881428 -0.052289836 0.121146366 0.05974808
-0.20092928 -0.04838359 0.10581046 -0.18308401 0.007704798 0.105157405 -0.4140184 0.05592013
-0.2631601 -0.19450016 0.051297296 0.17461738 -0.1353777 0.14453338 0.100265644 0.05737661
0.3701965 0.4644523 0.27744222 0.50482345 0.11215059 -0.00022635075 0.29484496 -0.0039078416
-0.0054848744 0.017444536 0.64211553 0.2138507 0.021253731 0.011420136 0.097843364 0.26496595

net_list.0.bias_hh_l2 f4 [64]
00000000: 9d4d 063d ce4d 903e c1ce 493e 98c8 013f
00000010: b498 193e 66ea a53e 0b41 473f 24be 323d
00000020: 9ebf 31be 1085 9ebb 7253 393f 60ab 09be
00000030: 01db 5e3e 5b72 6b3e 5795 513e 69ed b03e
00000040: 0924 7ebe 0664 86be 1c20 3bbe 1180 e83c
00000050: 2199 42be ab65 e23c 81d7 923e d02f 5d3c
00000060: 143e 00be dbd4 873c 341e 06bf 071d 1a3e
00000070: eb1f 9bbe 081f afbd f0ce 22be 1282 5fbe
00000080: 8776 72be 5718 ba3d 49e6 2a3c 9802 5cbe
00000090: 869c f6bd d750 6c3e b130 1ebf 3cd6 1b3e
000000a0: 6ada 73be ebf6 adbd c59d 133e edaa 5c3e
000000b0: e15b 2a3e b6b9 203d 5ebc a3bd d08d c1bd
000000c0: 6384 203e bc30 333e e70a b53e 3e92 a43e
000000d0: 24c1 7fbd fe21 843d e3db 92bd e793 25bd
000000e0: cbd1 96bd 5e0c 59be 5b5f 493f e204 2abd
000000f0: 5d57 403e fda8 913d bae0 943d cdcc d03e
0.03278886 0.2818436 0.19707777 0.50696707 0.14999658 0.32405394 0.7783362 0.043638363
-0.17358252 -0.0048376396 0.7239295 -0.1344428 0.21763231 0.22992842 0.20467125 0.3455613
-0.24818434 -0.26248187 -0.18273968 0.02838138 -0.19003727 0.02763637 0.2868004 0.013500169
-0.12523681 0.01658099 -0.52389836 0.15050136 -0.3029779 -0.085508406 -0.15899253 -0.21826962
-0.23678027 0.09086674 0.010430881 -0.21485364 -0.12041573 0.23077713 -0.6179305 0.15218443
-0.23813787 -0.084943615 0.14415653 0.21549578 0.16636612 0.039239608 -0.079949126 -0.09450877
0.15675502 0.1749906 0.3535988 0.32142824 -0.062440053 0.06451796 -0.07170846 -0.040424254
-0.073642336 -0.21196124 0.78661126 -0.041508563 0.18783326 0.0711231 0.07269426 0.4078125
