QIENetV1_0_0/QIENet_FC3.pth (torch, 31315 bytes, 17 tensors)

net_list.0.weight_ih_l0 f4 [64, 16]
000000 9a 6c c1 3d b6 dc 66 3e 2e ff 01 be 6c 88 9d 3e
       0.09444542 0.22545132 -0.12695 0.30768144
000010 cc 93 cd 3d 06 0a 33 be 85 48 00 3e a9 13 d0 3e
       0.10037956 -0.17484292 0.12527664 0.4064
000020 a5 b2 b4 3e 04 fe 34 be 88 a4 00 3f a1 1f 44 3e
       0.35292545 -0.17675024 0.50251055 0.1915269
000030 41 97 4e 3e cf 9a 1c bd 4e cd 5f bc be 6d a8 be
       0.20174886 -0.038233574 -0.013659788 -0.32896227
000040 a9 ed 33 3d e1 5f 14 be d8 49 ef 3d 44 03 92 be
       0.043927822 -0.144897 0.116840065 -0.28518116
000050 0a 81 10 3e 8e bf 46 3e d6 44 60 bf 69 47 7b bf
       0.14111724 0.1940901 -0.87605035 -0.9815584
000060 8c b2 e0 bd 02 12 ae bd 88 38 0b 3f af a8 a8 3e
       -0.10971555 -0.084995285 0.54383135 0.32941195
000070 41 5a 1a 3f 8d 3a 68 3d e9 dc 80 3e 64 6b e4 3e
       0.60293967 0.056696463 0.2516854 0.44613183
000080 f6 b3 50 bf e7 dc 06 bf ac ba 51 bf 52 49 0a bf
       -0.815246 -0.5268082 -0.81925464 -0.5401813
000090 4f 3a e3 be be c7 54 bf 6b 38 b2 be 53 f5 65 bc
       -0.44380423 -0.8311728 -0.34808668 -0.014035541
0000a0 63 c4 91 3a 4e 8d 23 3e 10 9e ae 3b dc de a3 3d
       0.001112115 0.15971872 0.005328901 0.080014914
0000b0 8e f4 18 3e 97 f4 c1 bd ae 49 69 bd a1 63 a8 3c
       0.1493704 -0.0947048 -0.056955032 0.02055532
0000c0 2f 1a 2d bf fd 7f 43 bf f7 57 64 bf 0d d9 06 bf
       -0.6761808 -0.7636717 -0.89196724 -0.52674943
0000d0 12 e9 15 bf 5d 24 59 bf 9f 0b 0e bf f8 2e 40 3e
       -0.5855876 -0.8482111 -0.5548648 0.18767917
0000e0 3d a2 5f 3d 10 19 98 bd 4e 06 ab be 4d ee d4 bd
       0.05459808 -0.07426655 -0.33403248 -0.10397015
0000f0 5a 35 5e 3d 5f 9e 1f bb eb e4 99 3d 04 09 d7 3d
       0.0542501 -0.002435587 0.07514366 0.104997665
000100 b7 4a a8 3e 8c 04 50 3e 04 72 18 3e 87 54 23 be
       0.32869503 0.20314234 0.14887244 -0.15950213
000110 bb 96 81 3e 10 e4 11 3e 1f ca 2f be 19 89 5b bd
       0.2531031 0.14247155 -0.17166947 -0.053597543
000120 36 d0 75 3e 51 3f 21 be 51 c9 cd 3e 02 ba 80 3e
       0.24005207 -0.1574681 0.40192655 0.25141913
000130 d4 87 bd 3e 7f 44 03 3f 1e b0 93 3d 77 e4 89 3d
       0.3701769 0.5127639 0.07211326 0.06733029
000140 9b fd c1 3c 3a b0 7a 3c b3 3e 97 3e 32 e1 ce 3e
       0.023680499 0.015300805 0.29540023 0.40406185
000150 a1 73 39 be 5c 15 16 bd d8 65 7c 3c 9c fb 88 3d
       -0.18110515 -0.036641464 0.015405141 0.06688616
000160 c4 f6 fe bd 30 23 06 3e b9 72 8e 3e 04 0c 5a 3d
       -0.124494106 0.1309936 0.278219 0.053234115
000170 b6 91 eb 3d fb bb 01 3e ef 89 58 3e 4c 19 e4 bd
       0.115024015 0.12669365 0.21146367 -0.111376375
000180 c4 e0 e3 bd db 8e 80 3c e3 58 11 be 04 c2 86 be
       -0.11126855 0.015693119 -0.14194064 -0.26319897
000190 9a 3b 23 3e 00 1e 01 3e 48 20 77 be 16 9b 42 3e
       0.15940705 0.126091 -0.24133408 0.19004473
0001a0 5f 84 2e bd 24 3b 44 be 5f 86 2b 3e 11 95 51 3d
       -0.042606708 -0.19163185 0.16750477 0.05116755
0001b0 93 04 6a 3e 4c ea b1 3e 72 01 a8 3e 86 19 16 3d
       0.22853307 0.34749067 0.32813603 0.036645435
0001c0 6d 1d 0b 3f 2c 4a 16 3f 0b 51 85 3e 49 80 df 3e
       0.54341775 0.5870693 0.26038393 0.4365256
0001d0 bf 03 9a 3d 6c fc ef 3e 87 9d 7c 3d d5 66 91 be
       0.07520246 0.4687227 0.061673667 -0.28398767
0001e0 82 e0 8e bc 55 8c 19 3d e9 3c dc be 41 75 c7 be
       -0.017441038 0.037487347 -0.4301522 -0.38956645
0001f0 d9 27 87 be ef 22 56 be 8b 04 ce bc fd 25 96 3e
       -0.2639759 -0.20911764 -0.02514865 0.29325858
000200 83 8d b9 be bd fa 3f bf 09 6a a0 bf b5 25 c9 bc
       -0.36240777 -0.7499197 -1.2532359 -0.024554113
000210 9a 59 3a 3d ae 58 6a bd 3c 0e 6a be 13 86 16 be
       0.045495607 -0.057213478 -0.22856992 -0.14699583
000220 82 84 57 be 85 64 6e be d1 4b 8c be c7 d1 9c bf
       -0.21046641 -0.23280533 -0.27401593 -1.2251519
000230 8f 8f 85 bd 4f 92 04 3f be 70 d6 3e a8 59 a1 be
       -0.06521522 0.5178575 0.4188289 -0.31513715
000240 2e 4e 23 3e 06 d3 bf 3d 43 76 73 3e dd d3 6c be
       0.15947792 0.093664214 0.23775582 -0.23127694
000250 51 10 bc 3c b8 ba 30 be 1b 22 b6 bf b2 d9 c3 39
       0.022956999 -0.17258728 -1.4229158 0.00037355494
000260 5b de a4 be cb 23 09 bf f5 02 05 3f 1c eb 27 3f
       -0.32200894 -0.5357024 0.5195764 0.65593123
000270 07 bf ae 3e 47 16 03 3e f6 59 6e 3e 45 d5 c0 be
       0.34130117 0.12801467 0.23276505 -0.37662712
000280 3a 6e 8e bd a3 09 8d be b5 98 0c be 75 b8 ca be
       -0.06954618 -0.27546415 -0.13730128 -0.39593855
000290 1b 23 d2 bd 08 64 20 be 93 54 ce bd 1c 4e e4 3d
       -0.10260602 -0.15663159 -0.10074725 0.11147711
0002a0 3c bc d5 3e 91 8b 2a be fe 49 33 3e cd b5 5b be
       0.41745174 -0.16654803 0.17508695 -0.2145607
0002b0 04 cd 09 3e 72 c9 8a 3d 5b b0 99 be e3 af 1f 3e
       0.13457114 0.06776704 -0.3001736 0.15594439
0002c0 3f 3a 78 3d 71 ae f0 3d 9c 63 ab 3e 1c 22 0d 3e
       0.060602423 0.11752022 0.33474433 0.13782543
0002d0 bd 79 fd bd 52 47 f1 3d 5d 70 86 3e ac b7 1e be
       -0.12376735 0.117811814 0.262576 -0.15499753
0002e0 ab 2e be be bb 21 18 be c8 d3 9c 3d a5 aa a6 be
       -0.3714498 -0.14856617 0.076575816 -0.32552066
0002f0 4c 72 cc bd c1 89 c5 be 38 d6 75 be f7 23 a6 3e
       -0.09982738 -0.3858166 -0.24007499 0.32449314
000300 6a 7d 97 be be c5 61 3d 15 51 a6 bd 39 ed 4d be
       -0.2958787 0.055120222 -0.08120934 -0.20110025
000310 5d 6c 9e 3d ca 6d 80 3e ce f9 df 3e 20 66 42 bd
       0.077355124 0.25083762 0.43745273 -0.047460675
000320 2b 1f 65 be fe 5b cc 3d 15 6a 40 be 5a c0 6a be
       -0.22375171 0.099784836 -0.18790467 -0.22924939
000330 98 f2 05 3e d5 08 13 be 67 f7 ec be c6 e2 e3 bd
       0.13080823 -0.14358838 -0.46282503 -0.11127238
000340 e4 d8 2d be 19 22 7f be fd 49 d9 be 58 92 55 be
       -0.16977268 -0.24915351 -0.4243926 -0.20856607
000350 d3 dd 6e be 78 51 ad be 9d 48 a0 bf 5f ad d9 3c
       -0.23326807 -0.33851218 -1.252216 0.026571928
000360 7b a9 3b be 6f 1d ea be 13 42 03 bf c3 d9 7e 3d
       -0.1832637 -0.4572558 -0.51272696 0.062219393
000370 0f af 12 3e ab 30 72 3f ad 12 cb 3f b8 fa bf 3e
       0.14324592 0.9460551 1.5865074 0.3749597
000380 ec 95 31 be b8 3c 6d 3d 0c 88 82 be c4 9c 4d be
       -0.17342347 0.057919234 -0.2549442 -0.20079333
000390 fb 85 bf 3d c6 12 02 3d 86 03 07 3a 5b aa 2d bd
       0.093517266 0.031756185 0.00051503663 -0.04239879
0003a0 60 4a b0 3c 30 06 ed 3d c7 5c 3d 3e 11 ea 95 3e
       0.02151984 0.11573446 0.18492423 0.2928014
0003b0 41 36 46 3e 9c 81 9d 3d 34 a2 4b bd 7f b7 f7 bd
       0.19356634 0.07690737 -0.049715236 -0.12095546
0003c0 15 01 69 bf 74 eb 43 bf 20 c4 1d bf 39 49 6c bf
       -0.91017276 -0.7653115 -0.6162739 -0.9229923
0003d0 16 55 7e bf 89 0f 56 bf ef e8 1a be 7a d4 59 bd
       -0.9934858 -0.83617455 -0.1512792 -0.05318115
0003e0 68 e0 f2 bd 98 40 2f bd eb 1b f4 3d 07 18 90 be
       -0.11859208 -0.04278621 0.119193874 -0.2814333
0003f0 f3 71 a2 be af 9c 34 3d ee 67 84 be ee fa 32 3e
       -0.3172756 0.044094738 -0.25860542 0.17478535

net_list.0.weight_hh_l0 f4 [64, 16]
000000 7c c1 da 3b 8d 5a 35 3e e3 66 e9 bc b9 2c 01 3e
       0.006675897 0.17710324 -0.028491443 0.12614717
000010 e4 2a 52 3d 53 92 59 be 06 3f 31 be 3f 11 ac be
       0.051310435 -0.21247225 -0.17309198 -0.33606908
000020 8a b5 95 bb a1 4d 8c be b1 4f a6 3e 1f 3f 99 3e
       -0.0045687603 -0.27402976 0.32482675 0.2993097
000030 85 fa f5 3d db b1 02 3e 3e 1f ab 3d 70 4d 33 3e
       0.120106734 0.12763159 0.08355568 0.17510009
000040 b0 37 29 3e fd 00 38 3e 0a a3 5d be d4 71 b6 3e
       0.1652515 0.17969127 -0.21644226 0.3563372
000050 f2 04 50 be d6 32 9f be 10 5b aa 3d e6 5d 24 bf
       -0.20314386 -0.31093472 0.0831815 -0.6420578
000060 7e 26 9c be d7 9c e9 be 33 b3 d2 bc cc 94 0e 3f
       -0.30498117 -0.45627472 -0.025720214 0.55695796
000070 35 04 2b be c2 7e a5 bd ea 09 49 be 36 00 5e 3e
       -0.16700824 -0.08080818 -0.19632688 0.21679768
000080 fb 63 17 3f e2 2c d3 3d da 8e 1e be 5f 85 1b 3f
       0.59136933 0.10311295 -0.15484181 0.60750383
000090 41 a2 d3 be 72 97 83 be 69 87 34 be 58 72 a9 be
       -0.41334727 -0.2570148 -0.1762978 -0.3309505
0000a0 f4 e1 0e be d8 90 ac be a3 e9 fd 3d ba 7a 83 3e
       -0.13953382 -0.33704257 0.12398078 0.2567957
0000b0 17 5d da be 89 d3 20 3e f8 a9 2a be 0d 35 f4 3e
       -0.42649147 0.15705694 -0.166664 0.47696725
0000c0 5b 6c 90 3e 60 15 7d 3e 94 01 b8 be fb 35 ec 3d
       0.2820767 0.24715185 -0.35938704 0.115337335
0000d0 da 7b 19 be a8 66 df bd c1 e4 83 3d ab a9 e7 bd
       -0.14988652 -0.10908252 0.06440116 -0.113116585
0000e0 7f ef af be a8 b4 08 be ec d6 d3 3e 98 da 88 3e
       -0.3436241 -0.13350165 0.4137491 0.26729274
0000f0 6b dc ce 3d 09 f8 d8 3d e1 97 a6 3c ef 3d a2 3e
       0.10100635 0.10594184 0.020336093 0.31687877
000100 17 ff 03 3f 76 fd 2e 3f 3b 5f 54 bf 99 a4 00 3f
       0.5156111 0.683555 -0.8295781 0.50251156
000110 fc 1a 0c bd 15 8e 2b bf 2e 82 58 3e f2 e4 d1 be
       -0.03420542 -0.67013675 0.2114341 -0.40994984
000120 e1 28 1e 3e 71 cc 43 bd c7 5d 92 3e 13 41 e6 3e
       0.15445282 -0.047802392 0.2858717 0.44971523
000130 07 10 f8 be 5d 41 d9 be 44 f4 65 be 3e 22 3e 3f
       -0.48449728 -0.4243268 -0.22456461 0.74271
000140 42 b7 f0 3e f7 00 c5 3e 00 7e 03 bf f1 16 40 3f
       0.47014815 0.384773 -0.51364136 0.75035006
000150 de 27 f5 3e 88 6b b0 be 07 0f 01 3f 43 f1 f0 bd
       0.4788198 -0.3445704 0.50413555 -0.11764767
000160 24 71 cb be 87 0a 90 be 45 75 18 be 86 82 28 3f
       -0.39734757 -0.28133032 -0.14888485 0.6582416
000170 c0 1e a0 be 18 fd c6 3e d7 59 a5 be 68 3a 3e 3f
       -0.3127346 0.3886497 -0.32295105 0.7430787
000180 c0 5c ce 3d b5 40 4d 3e 05 87 de 3c 10 3b cb bd
       0.100762844 0.20044215 0.027163992 -0.09923375
000190 89 c0 58 be 44 83 01 be 56 c0 7e be 31 d3 b1 bd
       -0.21167196 -0.1264773 -0.24878058 -0.0868286
0001a0 d5 b7 83 be f2 80 4c be 47 a7 99 3e 83 11 0f 3b
       -0.2572619 -0.19971064 0.30010435 0.0021830506
0001b0 a6 5b 0b be 71 7e 4e 3e 6d 27 d7 bd c9 9d 9a 3e
       -0.1360918 0.20165421 -0.10505567 0.30198506
0001c0 42 4d 95 3d 6d 9f 3a 3e d5 e2 a6 be 77 44 9d 3e
       0.072901264 0.18224879 -0.32594934 0.30716297
0001d0 f4 1f ae be cf 9b f4 3d 5b 0f 96 bd 19 b3 a7 3c
       -0.34008753 0.11943781 -0.073271476 0.020471143
0001e0 66 a5 27 be e2 06 4f bd bb 85 27 3e e0 10 ec bc
       -0.16371688 -0.050543673 0.16359608 -0.02881664
0001f0 ba b1 b7 bb 38 c7 0b 3c b5 93 8c be c0 27 52 3e
       -0.0056059035 0.008531384 -0.27456442 0.20522976
000200 d8 8d 87 3e f1 1f e7 3e 0a ef 21 bf ce 88 08 3f
       0.26475406 0.45141557 -0.6325537 0.5333375
000210 bb 98 67 3e 8a c4 fc be 33 b8 b0 3e c7 ec ca 3d
       0.22616856 -0.49368697 0.34515533 0.09908443
000220 b4 0e f6 bd 67 fd c5 3e dc 79 1b bf c7 69 12 3e
       -0.12014523 0.38669893 -0.6073282 0.14298163
000230 67 2c 09 bf c3 ea d2 3e 9c 13 b4 be 99 7e d2 3e
       -0.5358338 0.41194734 -0.3517121 0.4111221
000240 d6 65 47 bd f7 76 35 3e e1 10 6a be d9 88 37 3e
       -0.048681103 0.17721163 -0.22858001 0.17923297
000250 83 d4 f5 bd bd f3 3f be 2c f5 b7 be 4f ca b1 3d
       -0.12003424 -0.18745323 -0.3592924 0.086811654
000260 1d b0 83 3d dc 62 a8 be 51 1d af 3e 54 7b e4 3d
       0.06430075 -0.32887924 0.34202054 0.111563355
000270 af 1e b8 bd 26 d2 db bc a2 25 89 be 4e dd 30 be
       -0.089902274 -0.026833605 -0.26786524 -0.17271921
000280 ad ae 00 3e b8 f9 9d be 03 09 f1 bc f1 78 60 be
       0.12566634 -0.30854583 -0.029423242 -0.21921135
000290 a0 f6 f1 bd 6e bc cf 3e 71 9c 29 be eb 1e 4c 3e
       -0.11814618 0.40573448 -0.16563584 0.1993367
0002a0 c2 a1 24 bd e7 bc 11 bf ee e1 c0 3e 75 a2 41 be
       -0.040193327 -0.5692887 0.3767237 -0.18909629
0002b0 b9 09 97 3e 5f 58 23 3e a8 00 87 3e 43 c9 83 bd
       0.29499605 0.1595168 0.26367688 -0.06434872
0002c0 8f 78 dd 3e a3 a8 91 3e d8 0a 6f bd f7 d5 02 3f
       0.4325604 0.28448972 -0.05835995 0.51107734
0002d0 88 27 92 be 31 15 cb be ff 75 e2 bd fd 79 a9 bd
       -0.28545785 -0.39664605 -0.11057662 -0.082752205
0002e0 0c f2 8f be 48 76 90 be 01 86 b1 3d 85 18 8b 3d
       -0.28114355 -0.2821524 0.08668137 0.06791786
0002f0 ca e7 eb bd 2d 10 89 bd 56 d1 73 bd 43 f4 ea 3c
       -0.1151882 -0.066925384 -0.05952581 0.028680926
000300 7c b1 21 3f 91 27 0d 3f 83 96 a8 be 91 9c 07 3f
       0.63161445 0.551385 -0.3292733 0.52973276
000310 1a 2e 39 3d ff 42 c6 be 6b 2e eb 3d ba be bb be
       0.04520998 -0.3872299 0.11483463 -0.3666895
000320 28 a1 ac be 00 1a cd be 65 ea 03 3e fc 51 0a 3f
       -0.33716702 -0.400589 0.12882383 0.5403135
000330 58 29 06 be ac c6 bb 3b 98 95 08 bf 68 76 9f 3e
       -0.13101709 0.0057304706 -0.5335326 0.31145024
000340 5b f1 d0 bd 77 2c da 3d 8f 43 ec bd cf 6a 3f bd
       -0.10202285 0.10653012 -0.11536323 -0.04673272
000350 73 c2 0f be 94 7e 85 be 5c bb ab be d7 54 91 bd
       -0.1403902 -0.26073134 -0.3354138 -0.0709626
000360 ba ba 49 bc 6c 83 a0 3c f7 e3 06 3f 1b 50 16 be
       -0.0123125855 0.019593917 0.52691597 -0.14678995
000370 82 20 89 3c 93 b5 84 3c 65 32 64 bd c7 53 98 3d
       0.016739134 0.016199863 -0.055712122 0.07437854
000380 95 c2 d6 3e 26 74 9c 3e 67 7e f5 be 08 e0 89 3e
       0.4194533 0.30557364 -0.47948 0.26928735
000390 e4 e4 8b bc 1b 87 cc be 7d 93 0c 3e 32 f6 10 be
       -0.017076917 -0.39946827 0.13728137 -0.14156416
0003a0 3f 7c 3e bd 91 34 57 3e 05 8c 7b 3d b7 1a a7 3e
       -0.04650521 0.21016146 0.06141283 0.3263757
0003b0 00 e4 5b be 75 0e 44 3e 70 d1 db be 61 8c c1 3e
       -0.21473694 0.1914614 -0.42933226 0.37802413
0003c0 59 45 1d 3e 0a b1 6e 3e 59 82 88 be de 60 a7 3e
       0.15358485 0.23309723 -0.26661947 0.3269109
0003d0 9a dc a5 bc 3d de 4c be 59 9f ed bd d5 b9 8b 3d
       -0.020246793 -0.20006652 -0.11602659 0.06822554
0003e0 6e a0 50 bd 66 2a a8 be ee ff f4 3d 39 23 0e be
       -0.050934248 -0.32844847 0.11962877 -0.13880624
0003f0 fa 83 d3 bd d1 2b 74 3d 05 e9 0d be 79 c8 7e 3e
       -0.10327907 0.0596121 -0.13858421 0.24881162

net_list.0.bias_ih_l0 f4 [64]
000000 f8 34 81 3e 72 9f 39 3f 81 45 ae 3f c4 42 59 3f
       0.25235724 0.7250892 1.3614961 0.848675
000010 99 ec 1b 3f 84 e0 76 3e d6 d7 59 3e 67 e2 de 3d
       0.60907894 0.24109083 0.21273741 0.108830266
000020 92 8a fc 3e 8e 78 10 be c4 13 c9 be 7f bd b9 3e
       0.4932447 -0.14108488 -0.39272892 0.36277387
000030 8c 8a 42 3e 62 83 f6 bd 2a 88 76 3c f4 33 fc 3e
       0.18998164 -0.12036778 0.0150471125 0.49258387
000040 33 22 b3 3c 69 a0 0e be e1 f5 26 3f 7b 4a 6a 3e
       0.021866893 -0.13928379 0.6521893 0.22879975
000050 f9 a6 6b bd a7 78 81 be 25 3a 05 3e c6 68 a8 bc
       -0.057532284 -0.25287363 0.13010462 -0.020557772
000060 5e 2f 2c 3d 4e 64 83 be 0d 90 a8 bd 81 48 5e 3b
       0.04203736 -0.25662464 -0.082306005 0.0033917727
000070 c9 0f 3b be 2e 6d eb be 17 3e 03 3e d1 4f 02 3e
       -0.1826774 -0.45981735 0.12816654 0.1272576
000080 49 1f 1a 3f 4b a6 11 3f 4e be 6f bf 65 5f e7 3e
       0.6020399 0.5689437 -0.93649757 0.45189968
000090 2e 31 3c be 25 6d ec bd 77 b8 ce 3e 65 d2 c7 bd
       -0.18378136 -0.11544255 0.4037511 -0.097569264
0000a0 4e 32 ae bd 3e 1e d7 3c 29 87 8e 3c 49 eb 4c 3e
       -0.085056886 0.026259538 0.017398434 0.20011629
0000b0 72 a7 90 be a7 e1 d1 3e 1d 9d ea 3c 53 db f4 3e
       -0.2825275 0.40992472 0.02863937 0.4782358
0000c0 62 c5 a7 3e 6f a4 d2 3e 26 4d f0 3e af bc 90 3e
       0.3276778 0.41141078 0.4693386 0.28268954
0000d0 81 b4 b5 3d c8 6b 9f 3e ff 8a 6a 3e 56 ff d3 3e
       0.08872319 0.31136918 0.22904585 0.41405743
0000e0 fd 4c 0d 3f 72 fa b4 3e c1 87 d6 3e 81 b7 e4 3e
       0.551956 0.35347325 0.41900447 0.44671252
0000f0 23 d2 32 3e 64 9f aa 3e c9 88 71 3e 04 e6 02 3f
       0.17462973 0.3332473 0.23587336 0.51132226

net_list.0.bias_hh_l0 f4 [64]
000000 2f 93 56 3e 37 52 fe 3e 0d 87 7e 3f 4b 7e 52 3f
       0.20954584 0.496721 0.9942482 0.8222396
000010 2f 95 0e 3f d1 f2 1f 3f cb f3 e0 bd c3 e4 a6 3e
       0.55696386 0.62479883 -0.10984 0.32596406
000020 36 b6 1f 3f 26 84 10 be 35 c1 bf be d3 8a b4 3e
       0.62387407 -0.1411291 -0.37452093 0.35262164
000030 ce fe 15 3f 1d 48 fc 3d 09 70 f2 bd 1e 10 49 3f
       0.58591926 0.12318442 -0.11837775 0.7854022
000040 f2 8a 90 3e b7 f9 1a 3e 87 fd a3 3e 1f 3f 1c 3e
       0.28231007 0.15134321 0.32029364 0.15258454
000050 45 a8 c9 be 01 e0 10 3d 15 a5 9b be 85 29 a0 be
       -0.39386192 0.035369877 -0.30399385 -0.31281677
000060 5d 7c f3 3c 70 82 29 3c f8 a9 d9 3d f1 e2 10 3e
       0.029722387 0.01034604 0.10628122 0.14149071
000070 53 95 3d 3e 44 ca d2 be 77 a0 a5 3e b0 ab a6 3e
       0.18513994 -0.4116994 0.32348987 0.32552862
000080 2d 6a 93 3e 3e 3f d7 3e 19 15 3d bf a2 6b ad 3e
       0.28791943 0.42040437 -0.7386032 0.3387118
000090 ab 62 f7 ba ed c4 95 be 01 41 37 3e 66 e4 65 3d
       -0.001887401 -0.29251805 0.17895891 0.05612602
0000a0 27 2f 43 be d4 da 90 ba 88 83 99 be 0e c8 9c 3e
       -0.19060956 -0.0011051544 -0.29983163 0.3062138
0000b0 1d ea 9b be cb 70 00 3d 0a 69 0f be 71 83 8a 3e
       -0.30452052 0.031357568 -0.14004913 0.27053407
0000c0 ea 5f a2 3e 51 cf 06 3e 7b 80 28 3f fb 66 c0 3e
       0.31713802 0.13165022 0.65821046 0.37578568
0000d0 7f 6d 8a 3e da a4 6b 3c b7 10 78 3e 2f 30 00 3f
       0.27036664 0.014382565 0.24225126 0.5007352
0000e0 25 01 d1 3e 68 16 ca 3e 13 4c b7 3e 55 63 1f 3e
       0.40821186 0.3947022 0.35800228 0.15565236
0000f0 de 32 a6 3e 0e b8 77 3d 8a 73 74 3e aa 37 0c 3f
       0.32460684 0.060478263 0.238722 0.54772437

net_list.0.weight_ih_l1 f4 [64, 16]
000000 bc 9f a3 3f 18 4c 41 3f 85 7b 74 bf f3 9c 9a 3f
       1.2783122 0.75506735 -0.95500976 1.2079147
000010 e7 b0 c6 be 33 59 93 be 75 70 86 3f fd 1b 63 3e
       -0.3880684 -0.2877899 1.0503069 0.22178645
000020 67 5a 19 bf 6d b9 82 3c ec 75 0c 3f 1a 62 80 3d
       -0.5990357 0.015957559 0.54867435 0.062687114
000030 2b 20 3d bf ae c1 b9 be 10 4d c3 3e c9 d7 3a 3e
       -0.7387721 -0.36280578 0.38144732 0.18246378
000040 df d4 0a 3f ed b0 0f 3f 13 c6 11 bf f0 b4 1d 3f
       0.54231066 0.5612934 -0.5694286 0.61604214
000050 70 c6 86 be a3 38 e3 be 07 54 8a 3e b5 f6 e8 be
       -0.2632327 -0.44379148 0.27017233 -0.45500723
000060 b1 74 56 be 9c d4 d4 be 8e 83 f7 3d a6 e3 13 3f
       -0.20942952 -0.41568458 0.12085639 0.5776924
000070 21 16 2d bf d2 3e 94 3d d5 b1 b6 be f2 be 68 3e
       -0.6761189 0.072385445 -0.3568255 0.2272909
000080 11 04 ae bd 1a 84 dd 3d 73 e8 a2 bc d2 4a 0d 3e
       -0.08496869 0.10816212 -0.019886231 0.13798073
000090 93 12 a7 be 76 b5 a8 bd 53 e2 97 3e d7 9d c8 be
       -0.32631359 -0.08237736 0.2966486 -0.39182922
0000a0 86 2e 22 3c e7 1d 1c bf 4e 95 65 be fb 2d 02 3f
       0.009898787 -0.6098313 -0.22420236 0.5085141
0000b0 1e 2c c0 be 8d e5 32 3f 07 39 ac bd 83 10 e8 bb
       -0.3753366 0.69881517 -0.084093146 -0.0070820465
0000c0 8b 69 03 3f d6 23 c4 3e 0f fd 3b bf e8 86 3f 3f
       0.5133292 0.3830859 -0.7343301 0.74815226
0000d0 af 89 10 bf c7 22 79 bd 9d 34 8a be be 42 2e bf
       -0.5646009 -0.060824182 -0.26993266 -0.6807059
0000e0 e1 c3 c5 be 9c 61 e8 bd 77 44 35 3d e2 47 6c 3e
       -0.38626006 -0.113467425 0.044254746 0.23074296
0000f0 62 3a 35 bf 56 c1 0d 3f bd 5b f2 bd d6 da 1c 3f
       -0.7079221 0.5537313 -0.11833904 0.6127142
000100 c2 e7 35 3f ee d4 ed 3e 58 63 49 bf a6 39 29 3f
       0.7105676 0.46451515 -0.7866721 0.6610359
000110 0c 5d fb be 4d 72 4d 3d 2f 7a 1b 3f 10 4b 97 be
       -0.49094427 0.050157834 0.6073331 -0.29549456
000120 49 6a 5f 3d b1 02 98 be 46 4d bf be 96 0d 5e 3f
       0.05454472 -0.29689553 -0.37363642 0.8673948
000130 cf ee 57 bf 5f 9f 0d 3f 7c a3 6a be d6 5b 2c 3f
       -0.8434877 0.55321306 -0.22913927 0.6732763
000140 8a bb 0f 3e 8f d2 f4 3e 55 9c c3 be 04 c1 fc 3e
       0.14036384 0.47816893 -0.3820521 0.4936601
000150 96 c0 e7 be d7 b4 fb bc 70 da 4d 3e fe 25 50 bf
       -0.4526412 -0.03072588 0.20102859 -0.8130797
000160 73 a2 11 bf ec 95 03 3d 84 9e 23 be a9 09 d7 3e
       -0.568885 0.0321254 -0.15978438 0.41999558
000170 4f 0e 9a be e0 39 2b 3f 08 a1 51 be 27 83 f6 3e
       -0.30089042 0.66885185 -0.20471585 0.48146936
000180 f0 65 76 3f 4e 99 13 3f b7 98 6e bf 9b 48 f0 3e
       0.96249294 0.576558 -0.93201774 0.46930394
000190 5b 2e 00 bf 7e a0 ab bd 53 db 30 3f c0 f0 74 bd
       -0.5007073 -0.08380221 0.6908466 -0.05979991
0001a0 e6 fd bf be 60 6b cc bd 11 c6 07 3f aa b1 fa bd
       -0.37498397 -0.09981418 0.530366 -0.12240918
0001b0 42 42 f0 be 74 a4 e5 bd 07 30 f1 3d d0 36 69 3e
       -0.4692555 -0.112130076 0.117767386 0.22774816
0001c0 ad ae 32 3b d4 d0 e7 3e 98 14 54 bf ad 10 3b 3f
       0.002726476 0.4527651 -0.82843924 0.7307232
0001d0 c7 76 5f bf 2d 62 47 bd a3 91 c2 3e 0f 53 57 bf
       -0.87290615 -0.048677612 0.38001737 -0.8411111
0001e0 a0 91 18 bf 19 ed 6d bd c4 2c 16 bf c4 dc 17 3f
       -0.59597206 -0.058087442 -0.58662057 0.59321237
0001f0 c6 60 03 bf ea 12 8c 3f bf f3 e1 be 7b 6b 83 3f
       -0.5131954 1.0943272 -0.44131276 1.0267175
000200 8e 30 c2 bd d7 b5 92 3e d0 e1 9d be de 37 ec 3c
       -0.09481917 0.28654358 -0.30836344 0.028835233
000210 cd 36 a0 3e c2 bd c7 be ed de 77 3e 9a c5 83 3e
       0.3129181 -0.3901196 0.24206133 0.25736696
000220 8d 67 7f bd 49 fc d5 3d 6f 63 a2 bd d6 00 1e be
       -0.062354613 0.1044851 -0.07929122 -0.15430006
000230 ca ec 61 3e c5 eb 02 be 74 50 15 bd 50 69 ff bd
       0.22062984 -0.12785251 -0.03645368 -0.12471259
000240 4c ed 9f 3e 6a 8e 90 bd a3 77 81 be 01 d3 cc bc
       0.3123573 -0.07058413 -0.25286588 -0.025002958
000250 92 82 60 be 21 fd 22 be 3b d4 b2 3e 0e 91 a7 be
       -0.21924809 -0.15916874 0.34927544 -0.32727855
000260 d4 b7 98 bd 59 a9 12 be 05 f4 c8 be 0b 80 83 3d
       -0.074569374 -0.14322414 -0.39248672 0.06420907
000270 e1 fb f0 bc 31 23 ed 3e ec 18 44 be ae da 5f 3e
       -0.02941698 0.4631591 -0.19150132 0.21860763
000280 8e 74 d0 3e 78 3b 71 3d 88 fb f0 be d7 c2 81 3e
       0.40713924 0.058894604 -0.47066903 0.25343964
000290 76 6e 16 bf 52 c6 68 bd d8 a3 5e be 8c 5b fb be
       -0.587623 -0.056829758 -0.21742189 -0.49093282
0002a0 61 f1 27 3e 7c 98 4e be d0 b5 48 be 92 09 e0 3e
       0.16400672 -0.20175356 -0.19600606 0.43757302
0002b0 c8 06 62 be 13 b6 11 3f e8 68 93 3d 2c f5 70 3e
       -0.220729 0.5691845 0.07197744 0.23531026
0002c0 52 33 c6 3e c2 f7 df 3e c0 8e d5 be cc 83 63 3e
       0.3871103 0.43743712 -0.41710472 0.22218245
0002d0 e0 ce 7d be dd f8 7e be e0 af f0 3e ca 50 5d 3c
       -0.24785948 -0.24899621 0.47009182 0.013508031
0002e0 ef e3 73 3e 55 44 2d be c7 5c 28 bf 66 b5 2b 3f
       0.23817419 -0.16920598 -0.65766567 0.6707367
0002f0 96 a0 e5 be a3 0b 18 3f bf 5d bf be de 97 7c 3e
       -0.4484908 0.59392756 -0.3737621 0.24667308
000300 9d ae 2d 3e c2 c6 cf 3d 3b 5b b4 3d a6 3a e3 3d
       0.16961141 0.10145332 0.08806463 0.11095171
000310 63 8b 78 3e ac c4 b0 be 99 f0 a8 be 2a b0 c5 3c
       0.24271922 -0.3452505 -0.3299606 0.024131853
000320 2f 1c 9f be 6e a9 44 bc dd b0 e0 3c 02 38 04 3e
       -0.3107619 -0.012003286 0.027428085 0.1291199
000330 bc f7 92 3e c0 26 aa be e4 c3 df 3d dc f5 3c be
       0.2870463 -0.3323269 0.10926035 -0.18453163
000340 03 4f 2e 3e a0 ba bc 3e 6b b5 b5 be a7 a6 80 bc
       0.17022328 0.36861134 -0.35489973 -0.015704466
000350 97 54 5b 3c 1a c8 88 be 78 d1 bf 3d 1d b0 0c 3d
       0.013386867 -0.26715165 0.09366125 0.034347642
000360 1a 39 06 be db 7b 8d bd 26 a2 13 bd ea b0 0e be
       -0.1310772 -0.06908389 -0.03604331 -0.13934675
000370 ac 98 70 be 25 e5 e2 bd 1b ea b2 3d 6b 01 11 bb
       -0.2349574 -0.11078862 0.08736058 -0.002212609
000380 94 3c 05 3e 42 b9 9d 3e c3 8c 54 be e3 c1 4b 3f
       0.1301139 0.30805403 -0.20756821 0.7959272
000390 fb bb 81 3d 3f 64 f5 be 02 ac dc 3e e0 03 27 bf
       0.063346826 -0.47928044 0.43099982 -0.6524029
0003a0 d3 85 93 be 46 4d 6f 3e 7a 33 99 bf ae 0c 47 3f
       -0.28813037 0.23369321 -1.1968834 0.7775372
0003b0 c3 f7 50 bf eb 13 0c 3f 2c 6f 89 bf 61 c0 9d 3f
       -0.81628054 0.5471789 -1.0737052 1.2324334
0003c0 88 57 07 be 53 08 26 3d ca 58 10 bf 29 e6 0e 3f
       -0.13216984 0.040535282 -0.5638548 0.55819947
0003d0 4f 31 d3 be 9a c8 8d 3e df 7f ac 3e 63 18 c6 be
       -0.41248557 0.2769211 0.33691308 -0.3869048
0003e0 2a 4e c8 be 41 d9 1b be 62 89 28 bf 2e 90 1f 3f
       -0.39122134 -0.15219595 -0.6583463 0.62329376
0003f0 2a cf 88 be f5 76 50 3f 35 67 49 3d c0 da eb 3e
       -0.26720554 0.81431514 0.04917069 0.4606533

net_list.0.weight_hh_l1 f4 [64, 16]
000000 eb 15 cd bd 9b b2 c0 3e f3 9b 1d 3e 25 19 c8 be
       -0.10013946 0.37636265 0.15391521 -0.39081684
000010 4c e1 01 bf bc c4 09 bf 62 de 90 3d 34 a6 1e 3e
       -0.507344 -0.5381582 0.07073666 0.15493089
000020 73 91 5e 3e 5e 21 9b be b1 f5 3d be 58 e1 a0 3e
       0.21735172 -0.30298895 -0.18550755 0.31421924
000030 65 b7 0f bd 85 18 15 3e cb 19 ff 3e b3 e3 d1 3c
       -0.035087008 0.14560135 0.49824366 0.02562127
000040 55 cb ab be 0f e5 7f 3e c1 09 e5 3e 3a f1 17 bf
       -0.33553568 0.24989723 0.44734004 -0.5935246
000050 d2 1f ef be 0f 9e 64 be 84 8a e9 be 14 17 bc 3e
       -0.46703964 -0.2232592 -0.45613492 0.36736357
000060 2b 39 cd 3e 28 74 07 bf c5 46 c1 be 29 c8 27 3d
       0.40082678 -0.52911615 -0.37749305 0.040962372
000070 5d be 15 bf 8c 86 93 3e 0e 12 10 3d a8 3b 40 be
       -0.58493596 0.2881359 0.03517347 -0.18772757
000080 26 a6 1d be 06 b7 1f be 90 bb b4 3d 7c 44 f0 3c
       -0.15395412 -0.15597162 0.08824837 0.02932953
000090 c8 f5 65 3e a5 e2 70 be be 5c c2 3c 73 45 77 3e
       0.2245704 -0.23523958 0.023725864 0.24147587
0000a0 0b a3 47 3e 88 98 ee 3d 16 c7 98 bc de e4 90 be
       0.1949579 0.11650187 -0.01864962 -0.28299612
0000b0 37 ed 30 be 47 8c 56 37 94 6f 65 3d f4 8b 77 be
       -0.1727799 1.2788055e-05 0.056014612 -0.24174482
0000c0 69 c6 14 3c 21 12 78 be b3 e6 5a be fa 70 5d 3e
       0.009080508 -0.24225666 -0.21377067 0.21625128
0000d0 94 b7 2b 3f e5 cc ec 3c be df 0c bf 02 7a 23 be
       0.67076993 0.028906295 -0.55028903 -0.15964511
0000e0 70 89 d5 bc d3 89 d7 3e 92 21 79 3d 1d 82 4c be
       -0.026066512 0.4209734 0.06082303 -0.1997151
0000f0 98 fb b8 bd 43 1c 63 be 34 77 08 be 4d cf 8d 3e
       -0.09032363 -0.2217875 -0.13326722 0.2769722
000100 db f4 2b bf 1c fe 13 3e ca 8e a7 3e e5 c2 7e be
       -0.67170495 0.14452404 0.32726127 -0.24879034
000110 28 a6 00 be f4 8b 0c bf 25 5d 12 bf 60 4d ba 3e
       -0.12563384 -0.5490105 -0.5717338 0.36387157
000120 50 f9 08 3f 8f 12 14 bf 54 e5 04 bf b9 bc 98 bd
       0.5350542 -0.5784082 -0.51912427 -0.07457871
000130 ea df 11 bf 17 d0 7f 3e ee cb 2e be 3f 3f fd be
       -0.5698229 0.24981724 -0.1706998 -0.49462315
000140 8f 56 d8 be 3f a3 0c bf db 8c 4f be a3 8e 3a 3d
       -0.4225354 -0.54936594 -0.20268576 0.045546185
000150 75 02 62 3e 56 7f 5f 3d 56 60 08 bd f8 33 53 be
       0.2207125 0.054564796 -0.033294998 -0.20625293
000160 bb 12 3d 3e c2 9d ab 3e 98 36 85 3e 8b 83 36 be
       0.18464176 0.33518797 0.26018214 -0.17823617
000170 63 da 8e be c2 75 f4 3d 4e 0a 40 be e0 4e 1d 3d
       -0.2790099 0.11936523 -0.18753931 0.0384053
000180 59 1d 54 be 9a 2f 66 3e 3e 90 95 3e 3f 70 d1 be
       -0.2071432 0.22479096 0.2921161 -0.4090595
000190 a2 16 6d be ef 36 d8 be d6 1d 4c be f2 e1 59 3e
       -0.23153165 -0.4222941 -0.19933257 0.21277598
0001a0 fd ed e0 bd b3 ed d1 be d0 30 c8 bd 27 aa 91 3e
       -0.10982893 -0.41001663 -0.09774935 0.28450128
0001b0 a8 2d 2f be 72 2c a2 3d d2 77 d0 3e 4d ac 62 be
       -0.1710726 0.079186335 0.40716416 -0.2213604
0001c0 92 42 f8 bd ee 26 f7 be 89 19 90 be 20 f9 26 3e
       -0.12122072 -0.48271888 -0.28144482 0.16305971
0001d0 80 10 85 3e 74 10 28 3e 8a 3c 50 3e e9 a5 4d bd
       0.2598915 0.16412526 0.20335594 -0.050207052
0001e0 44 d7 47 be b5 95 9e bc a2 33 bf bd 16 0d 85 be
       -0.19515711 -0.019358495 -0.0933602 -0.25986546
0001f0 a3 2a e5 3c 08 d1 07 be 05 57 17 be 82 c8 8d 3e
       0.027974432 -0.13263333 -0.14779289 0.27692038
000200 b4 c0 46 be e8 55 80 3e 5b 81 b9 3d ea b9 c1 bc
       -0.19409448 0.2506554 0.09057876 -0.023648221
000210 f8 ec 5f bc 19 05 3f be 4f 32 4c 3d a6 fd e9 3e
       -0.013667338 -0.18654288 0.049852666 0.4570133
000220 70 f6 42 bd 71 2d a7 be 49 88 37 3d 67 d5 91 3e
       -0.047598302 -0.32651857 0.044807706 0.28483126
000230 a2 9c 8c be 65 2d 33 be 8b fc 66 3e 81 0d 87 be
       -0.2746325 -0.17497785 0.22557275 -0.2637749
000240 db 7f aa be d9 4e ce bd 03 f3 fa bc 6f 63 e7 bd
       -0.3330067 -0.10073633 -0.030633455 -0.11298262
000250 42 ec 2c be 14 a2 02 be 35 2e ce be 2f e4 1d 3e
       -0.16887 -0.1275714 -0.40269628 0.15419076
000260 7c bc 0a bb 8f fd 24 be 13 17 4a be b1 b1 09 be
       -0.0021169474 -0.1611235 -0.19735365 -0.1344669
000270 b5 a6 9b be 39 5c 67 3e c9 69 92 bc 27 48 4a bd
       -0.30400625 0.22593774 -0.017872708 -0.049385216
000280 6d 1f 73 be e6 3d 7c be 4f 79 5c 3b 37 a3 bc 3c
       -0.23742457 -0.24632987 0.0033641641 0.023027046
000290 e7 37 75 3d 8d 48 3c be 50 ff 1f bd cf 5e 02 3d
       0.059867766 -0.18387051 -0.039061844 0.031828698
0002a0 8d 9b 4b 3e 2a be 3b 3e ea 9e 25 3e 5a 06 25 3e
       0.19883557 0.1833426 0.16173902 0.16115704
0002b0 c6 4a 12 3c fd d9 70 3e 65 16 15 3e 78 c7 00 3e
       0.00892896 0.23520656 0.14559324 0.12576091
0002c0 82 d8 07 bf 86 7f 30 bd a2 42 04 3f 03 4c f9 be
       -0.5306474 -0.043090366 0.51664174 -0.48690805
0002d0 e2 01 48 be 12 e6 95 be a0 eb 3c be 28 8a ac 3e
       -0.19531968 -0.29277092 -0.18449259 0.33699155
0002e0 94 59 f6 3e 99 e0 d9 be 78 b7 14 bf 86 f8 07 be
       0.48115218 -0.42554167 -0.5809245 -0.13278398
0002f0 e2 e4 d3 be 5f fd c9 3e 63 29 ae be 39 35 ed be
       -0.4138556 0.3945112 -0.3401595 -0.46329668
000300 60 21 1e 3e a7 97 40 3e 3d df 99 bd 57 47 2d be
       0.15442419 0.18807851 -0.075132824 -0.16921745
000310 f9 bb 9d be a4 b8 e3 3d 6e 2a 6c bc 82 a1 91 3e
       -0.30807474 0.11119202 -0.014414413 0.28443533
000320 d3 59 28 be 3a 5f 18 be 0b 22 bd bd 4c 63 29 3d
       -0.16440515 -0.14880076 -0.09235009 0.041354463
000330 e4 f3 d0 38 51 6b 24 3e f7 8d 71 3e c0 a0 26 3c
       9.963641e-05 0.16056563 0.23589312 0.010170162
000340 cc ce cf bc 19 74 47 be ba eb 42 3e bf 9b a9 be
       -0.025367163 -0.19477881 0.19035235 -0.33126637
000350 fc 58 64 be 0c ae 40 be ee 7d db bd cc d4 fb bc
       -0.2229957 -0.18816394 -0.107173786 -0.030741118
000360 ba 6e 95 3b 95 cb 7b 3e 3c 3e 22 be bc 55 4f 3e
       0.004560319 0.24589379 -0.15844053 0.20247549
000370 d3 f9 fa bd f3 c8 e1 bd cd 14 94 bd 23 7b be be
       -0.122546814 -0.11024656 -0.0723053 -0.3720332
000380 dc 32 38 bf 63 13 85 3d 50 d5 e6 3e ce ed 19 bf
       -0.71952605 0.06497838 0.4508462 -0.60128486
000390 49 2b 3c be cf ad bd be bf 97 05 bf 7e 99 a8 3e
       -0.18375887 -0.37046668 -0.5218467 0.32929605
0003a0 97 6f d9 3e 56 bd a1 be 8a 47 10 bf 51 c0 05 3f
       0.4246795 -0.31589764 -0.5635916 0.52246577
0003b0 01 c8 13 bf f2 80 19 3f b1 20 30 bf 0a 77 31 bf
       -0.57727057 0.5996238 -0.68799883 -0.69322264
0003c0 09 2d 08 3d da 08 09 bf 8f 0c f3 bd 3c 54 d8 3e
       0.033246074 -0.5352913 -0.1186763 0.42251766
0003d0 05 cc 50 3e f0 3f be 3d 8f 4f b5 be b3 23 a4 be
       0.20390327 0.09289539 -0.3541226 -0.32058486
0003e0 1e c1 97 3e d4 d5 58 3d 79 cb 92 bd 6b c2 82 be
       0.29639524 0.052938297 -0.071677156 -0.25538954
0003f0 c0 5c 23 be a5 2f 5c 3d d4 d3 03 be 9c 31 98 3e
       -0.1595335 0.053756375 -0.12873775 0.2972535

net_list.0.bias_ih_l1 f4 [64]
000000 1b 5b 84 3f 4f 14 49 3f d3 ec c5 3d 40 a0 42 3f
       1.0340303 0.78546613 0.09664311 0.7602577
000010 3e 65 74 3f d9 4f 20 3f 0d f2 26 3f de df b6 3e
       0.95466983 0.6262184 0.6521309 0.35717672
000020 a2 fe 09 3e f1 40 8d bd 0d 29 7c 3e 87 14 19 3e
       0.13476041 -0.06897152 0.24625035 0.14949237
000030 2e e8 2b 3e a0 07 31 3e 7a 48 9a bd 65 e5 03 3f
       0.16787788 0.17288065 -0.07533355 0.51521903
000040 cf e9 c3 3e 39 3d 9d be f8 0e 14 3e 01 a5 89 3d
       0.3826432 -0.30710772 0.14458835 0.06720925
000050 a8 7f d2 3d a2 37 78 bd 68 ce 8b bd 05 7a 6b bd
       0.10278255 -0.06059993 -0.06826478 -0.057489414
000060 88 65 9a 3e 6b 53 06 3e e9 cd 89 3d be 6b 18 3d
       0.30155587 0.13117759 0.06728727 0.037212126
000070 3a 00 47 be 95 87 ee 3d b4 d6 bd be e1 07 e8 3d
       -0.1943368 0.11646954 -0.37077868 0.11329628
000080 b9 52 6f bf cb a0 b5 3d 51 74 ac bd 0d 8f d0 3d
       -0.934856 0.088685594 -0.08420623 0.10183535
000090 1f 4e e3 bc e4 54 f2 3c 81 b0 18 be c2 39 25 3e
       -0.027747212 0.029581495 -0.14911081 0.16135314
0000a0 99 46 7e bd 30 05 ef 3d 01 82 65 3d 57 81 1d bd
       -0.062079046 0.11670911 0.056032185 -0.038453426
0000b0 b1 c2 f7 be e6 45 11 bd de ba 74 bd aa ba 61 be
       -0.48390725 -0.03546705 -0.059748523 -0.22043863
0000c0 b8 5c 44 3e 91 7c f0 3e 63 94 10 3e 4e 6d c0 3d
       0.19175994 0.46970037 0.14119105 0.09395848
0000d0 59 93 ed 3e a2 10 70 3d ba 32 fb bd 3a bb 07 be
       0.4640148 0.058609612 -0.12265535 -0.13255015
0000e0 89 b9 25 be fe bb 9b bd 0c 7e 0d 3e 10 0e c8 3e
       -0.16184057 -0.07604216 0.13817614 0.3907323
0000f0 65 d4 2c be 5a 94 35 3e f6 e1 8a 3e f2 59 42 3e
       -0.16877897 0.17732373 0.2712552 0.18979624

net_list.0.bias_hh_l1 f4 [64]
000000 a7 d2 a7 3f 96 4d 48 3f 54 22 d1 3d 24 82 14 3f
       1.3111161 0.78243387 0.10211626 0.5801108
000010 85 f3 f3 3e a5 45 69 3f 9f d4 49 3f 54 a9 f3 3e
       0.47646728 0.91121894 0.7884006 0.47590125
000020 97 94 0f be 0c f6 5e bd 43 93 cf 3e 3e 33 6e 3d
       -0.14021526 -0.054433867 0.4054204 0.058154337
000030 11 ee 4c bd 66 59 9f bd 3a f7 a4 3e 61 00 85 3e
       -0.050031725 -0.07780723 0.3221987 0.25976852
000040 7f 59 6f 3e 83 d3 6f be 0e bc a9 3d 8b e5 c9 bd
       0.23373984 -0.23420529 0.08287822 -0.09858235
000050 7b c7 8f be 3e 19 81 3d a1 b9 9c 3e a3 35 6f 3e
       -0.2808188 0.06303643 0.30610374 0.23360305
000060 32 86 a4 3e 2f f0 3e be 7b c0 20 3e 51 e7 45 3d
       0.32133633 -0.1864631 0.15698425 0.048316304
000070 e9 56 a5 bc 38 9c 45 3e 3c ea c9 be e6 f6 6b 3e
       -0.020183044 0.19297874 -0.3943652 0.23043403
000080 c7 80 3f bf 6d 15 4c bb 94 61 b5 3c e1 e8 4e bd
       -0.74805874 -0.00311407 0.022141255 -0.05051506
000090 95 c5 e1 bd 32 58 95 be 9a 30 d9 be ed 55 98 3e
       -0.11024014 -0.2916885 -0.42419893 0.29753056
0000a0 56 51 20 3e 74 a8 3f 3e 39 4d bd bc 26 54 81 3e
       0.15656027 0.18716604 -0.023108112 0.25259513
0000b0 20 a4 f3 be d2 ad 1f bd 34 f6 82 3e b6 5b e5 3d
       -0.47586155 -0.038984127 0.25578463 0.11199133
0000c0 32 85 2c be 3f ac b2 3e 55 08 bc 3e 39 50 85 be
       -0.16847685 0.34897038 0.36725107 -0.26037768
0000d0 25 fb d6 3e 9b ab 36 bd 10 e8 92 bd 45 36 a7 3e
       0.41988483 -0.04459725 -0.07173169 0.32658592
0000e0 ea 4f 9b 3e 83 8e ae 3e e4 9e b9 bd d0 3f a2 3e
       0.30334407 0.34093103 -0.09063509 0.3168931
0000f0 56 5c 41 3e 54 2b 42 be 1c 8a c5 3e a8 20 b1 bc
       0.1888288 -0.18961841 0.38581932 -0.021622017

net_list.0.weight_ih_l2 f4 [64, 16]
000000 85 7b 86 3d 2b 15 cc 3e 20 ff 68 3e ec 57 24 bf
       0.06566528 0.398599 0.22753572 -0.6419666
000010 ab c1 18 bf df f8 1b bf 14 cf 06 be 7f ea 1b 3f
       -0.59670514 -0.6092662 -0.13164932 0.6090469
000020 33 63 9c 3e 02 df 79 be 7a e2 fd be 65 73 e7 3e
       0.30544433 -0.24401477 -0.4958685 0.45205227
000030 04 e8 4b bd 7d b7 03 3f fe c8 57 3d 6b 6e ba be
       -0.049781814 0.51451856 0.052681915 -0.36412367
000040 70 92 7e be 89 48 a4 3e c6 3e 64 3e 4e a5 67 be
       -0.24860549 0.3208659 0.22289571 -0.22621652
000050 44 ba e2 be 1c 6c 89 be 78 3a 48 be 5d 9b a5 3e
       -0.44282734 -0.26840293 -0.19553554 0.32345095
000060 f8 59 64 3e 9a 86 02 be 86 fc 07 bf 51 5a a6 3e
       0.22299945 -0.12746659 -0.53119695 0.3249078
000070 88 d6 fc 39 e6 9b c3 3d b9 92 fa 3e cd c4 09 be
       0.00048225024 0.0955122 0.48940066 -0.1345398
000080 b5 a4 d1 bc 3b 2d 69 3e b6 02 cd 3d cd 39 26 bf
       -0.025591234 0.2277116 0.10010283 -0.64931947
000090 c3 b6 e1 bd 3d b3 3d be a2 89 39 be 91 94 4a 3e
       -0.11021187 -0.18525405 -0.18118909 0.19783236
0000a0 54 a5 14 3e 34 64 1d bf 9b 08 fb be 8e b8 f9 3e
       0.14516193 -0.6148102 -0.49030003 0.48773617
0000b0 f4 9a a8 3d 72 51 c5 3e 48 14 aa 3f a1 2e 8d be
       0.0823268 0.385387 1.3287439 -0.27574638
0000c0 0c e0 e9 be 45 29 fc 3e 0a 38 9e 3e ed ae 0c bf
       -0.45678747 0.49250236 0.3090213 -0.54954416
0000d0 28 4e d3 be e2 6f d4 be b0 f6 76 be 60 8c 55 3f
       -0.41270566 -0.4149161 -0.24117541 0.8341732
0000e0 1f 0a dd 3e 66 f2 bf be 2e e2 14 bf a3 63 08 3f
       0.43171784 -0.37489623 -0.5815762 0.53277034
0000f0 db 7b 20 be da 23 ed 3e 02 13 c2 3e bd 66 d9 be
       -0.15672247 0.46316415 0.37905127 -0.42461196
000100 06 35 8c be 96 c4 13 3d be 44 79 3e 6b a6 9e bd
       -0.27384204 0.03607615 0.2434263 -0.077465855
000110 46 aa de 3d 8c ac 1a be 6a 51 76 bd 6f 7f de 3d
       0.10872321 -0.15104884 -0.060136236 0.1086415
000120 9b 5e 80 3e d4 d9 56 be 25 f7 81 be 1b 79 14 be
       0.25072178 -0.20981532 -0.2538387 -0.14499323
000130 4b 3d 7b be 3b 48 18 3e 82 97 78 3d ec 74 8a be
       -0.245351 0.14871304 0.060691364 -0.2704233
000140 e2 bd 0e 3c 6b 73 91 3e e1 81 0d 3f f9 60 9f be
       0.008712264 0.2840837 0.55276304 -0.31128672
000150 85 1e 88 be 15 c2 12 bf 8d 6e d5 bd 04 e8 0b 3f
       -0.26585785 -0.57327396 -0.104214765 0.546509
000160 1b 92 63 3e 13 84 e2 be 2d 3f f8 be f2 11 d5 3e
       0.22223704 -0.4424139 -0.484857 0.41615254
000170 9d d2 ac 3d 71 ed aa 3e 2f fa 33 3f bc c0 b7 be
       0.08438609 0.33384278 0.70303625 -0.35889232
000180 08 d2 1e bf 1c ca d3 3d d5 c2 6d 3e 8d d5 9d bd
       -0.6203923 0.10341284 0.23218854 -0.07706747
000190 cc bd 9e be aa b4 b3 be 16 f8 aa be 5f 3f ee 3e
       -0.3100418 -0.35098773 -0.333924 0.46532723
0001a0 c3 e9 3b 3d 41 b3 89 be 38 d6 d7 be 38 24 a8 3e
       0.04587723 -0.26894572 -0.42155623 0.32840133
0001b0 93 a7 15 bf d4 73 f1 bd 22 fd 36 3f 7e 79 94 bd
       -0.5845882 -0.117896706 0.7148 -0.07249735
0001c0 97 d0 01 bf e4 41 75 3d fe 5a ab 3c 04 00 ef be
       -0.5070891 0.05987729 0.020917412 -0.466797
0001d0 be ff 0d bf b5 6c e8 be 91 cd 29 bf 7c c1 1c 3f
       -0.55468357 -0.45395437 -0.66329294 0.61232734
0001e0 be 82 bd 3e 48 0c fe be b4 3e 5f be 20 bc 1f 3f
       0.3701381 -0.49618745 -0.21801263 0.6239643
0001f0 c2 43 ec be 56 2e f2 3e ec a1 48 3f 1f 62 c2 be
       -0.46145445 0.47300977 0.78372073 -0.37965485
000200 a6 c1 cf 3b 8c dd 27 3f 64 f5 1f 3e ba 74 dd be
       0.0063402234 0.6557243 0.15620953 -0.43253118
000210 9f fe dc be f4 ac a7 be de 9f 2d 3d 92 13 11 3f
       -0.4316301 -0.3274914 0.04238879 0.56670487
000220 d7 8d ce 3d d6 e8 a2 be 54 a5 d3 be d8 5e 0c 3f
       0.100856476 -0.31818265 -0.41337073 0.5483222
000230 7a 8f 0f be a6 2d d0 3e 34 4e ae 3e c4 c0 a1 be
       -0.14019576 0.40659827 0.3404404 -0.3159238
000240 31 f5 1f be 35 24 bc 3e df 14 93 3e 0a 4e 96 be
       -0.15620877 0.36746374 0.2872686 -0.29356414
000250 d3 11 0b bf c8 d1 6b be 96 54 66 3e b0 b7 b6 3e
       -0.5432407 -0.23029244 0.22493204 0.35687017
000260 52 e9 d1 3c 32 9f a2 be 9a 6a 97 be a9 15 1c 3f
       0.025623951 -0.3176208 -0.29573518 0.6097055
000270 8d 89 43 ba c1 9b bb 3e e4 08 8f 3e c8 ed 0b be
       -0.00074591563 0.36642268 0.2793647 -0.13664925
000280 cc 9f 15 bf c2 6d 6d be 79 a5 0b be 5f ea 11 be
       -0.58446956 -0.231864 -0.13637342 -0.14249562
000290 1a ab 16 be 39 70 ec be 1d 4d 8d be b8 71 45 3e
       -0.14713708 -0.4617937 -0.27597895 0.19281662
0002a0 7d be c9 3d 39 fa 0e 3e 8d cc 2e 3d 5d 95 97 3e
       0.09850786 0.1396264 0.042675544 0.29606143
0002b0 7d 9c 68 bd 13 3b 36 3e c0 27 91 3e 2a d5 10 be
       -0.056789864 0.17795973 0.2835064 -0.14143816
0002c0 94 43 66 3c 7e 0d 0e be 3c 9b 06 3d 20 63 c9 bb
       0.014054198 -0.13872334 0.032862887 -0.00614585
0002d0 6c f7 b1 bc 2f 31 6e 3e 5f 18 aa 3c d9 39 50 3e
       -0.021724425 0.2326095 0.020763574 0.20334567
0002e0 52 36 4c 3e ed 2e a4 3e 4f a3 26 3e 8d ba 0d be
       0.19942597 0.32067052 0.16273235 -0.13840695
0002f0 07 19 33 3d 90 71 2f 3e 6a 47 0b be 31 ea c7 bd
       0.04372504 0.17133164 -0.13601461 -0.09761465
000300 27 9c 4c be 9b 2a ba 3e 71 d9 c1 3d f1 f8 ff be
       -0.19981442 0.3636063 0.09465302 -0.49994615
000310 99 a2 dd be 99 76 1e bf b6 d4 43 be 5e 77 dc 3e
       -0.43288115 -0.61899716 -0.19124112 0.4305982
000320 e3 f7 8f 3c 99 23 1a be 1a ed fd be a9 96 13 3f
       0.017574256 -0.15052642 -0.49594957 0.57651764
000330 fd dc 9f 3d c6 44 ae 3e 5e 19 03 3f 90 d8 e8 be
       0.07805822 0.34036845 0.5121058 -0.45477724
000340 e7 13 29 3d a8 b9 56 3e 9a 90 cf 3d 53 22 13 bf
       0.041278746 0.2096926 0.101350024 -0.5747425
000350 13 63 89 be fe 4a b4 be 74 4e 86 be a6 e1 11 3f
       -0.268334 -0.35213464 -0.2623173 0.5698494
000360 0c e9 ca 3e 09 bd e4 be 51 b2 4b be 15 c3 b7 3e
       0.39630926 -0.44675472 -0.19892241 0.35891023
000370 ef 15 15 3e b5 c0 a0 3e c6 10 c1 3e 42 c4 dd be
       0.14559148 0.31397024 0.3770811 -0.43313795
000380 f7 57 05 be 19 b5 e9 3d 8a f3 56 3e 12 80 f8 be
       -0.13021837 0.11411495 0.2099134 -0.4853521
000390 2a d4 13 bf d3 92 73 bd 03 bc 71 be 14 bf 96 3e
       -0.5774561 -0.059466194 -0.23606877 0.29442656
0003a0 04 6f 65 3e 35 87 b2 3d ae 42 c8 be 8b 10 fe 3e
       0.2240563 0.08717195 -0.39113373 0.49621996
0003b0 1a 8b 38 3c 97 d8 e4 3d 40 f8 2b 3f 85 0c 85 3d
       0.011263633 0.11174124 0.67175674 0.064965285
0003c0 af e4 54 be 50 f2 31 be ee 7f f8 3b 50 e2 56 be
       -0.20790361 -0.17377591 0.00758361 -0.20984769
0003d0 f4 bb 22 be 3d dd 6f 3e df c3 a9 be 52 7a 72 3c
       -0.15892011 0.2342424 -0.3315725 0.014799671
0003e0 37 75 36 3e 37 28 89 be c1 13 07 be 86 ee cc bd
       0.17818151 -0.26788494 -0.1319113 -0.10006432
0003f0 8f 6f bf 3c f4 58 bd 3c 82 e3 d3 3d e6 d8 56 be
       0.023368625 0.023113705 0.10346128 -0.20981178

net_list.0.weight_hh_l2 f4 [64, 16]
000000 68 7a b4 3e 9e 43 57 be 30 ba 24 3e b0 aa d6 3d
       0.3524964 -0.21021888 0.1608665 0.10481775
000010 9c 9f 5f be 40 15 1f bd 57 23 f3 3d d6 7e fe 3d
       -0.2183823 -0.038838625 0.11871975 0.12426536
000020 f2 13 df bd 07 0a cb bc 14 f2 a2 be d0 c2 01 3a
       -0.10892476 -0.024785055 -0.31825316 0.0004949989
000030 f4 36 f2 bd a4 c9 99 3d 66 f6 da 3d 81 c9 80 3d
       -0.11826888 0.07509163 0.10691528 0.06288434
000040 07 0a 08 3d e6 0a 52 3d 81 68 99 3e 69 e4 47 3b
       0.033212688 0.051279925 0.29962543 0.0030501133
000050 a7 52 d0 3d 39 ce 72 3d d9 08 0c bd 54 f8 be 3d
       0.10172015 0.0592787 -0.034188125 0.093247086
000060 6e df fb 3d ee 16 11 3e 2d f7 cc be 09 8f 46 3e
       0.12298475 0.14168903 -0.4003233 0.19390501
000070 fb 35 7a be 15 ca 7b 3d db f3 68 bd 3f 46 e2 3d
       -0.24434654 0.061472017 -0.056873184 0.11048555
000080 99 d3 02 3e 4d 10 74 be 6f 5e 30 bd 4e 95 14 be
       0.1277603 -0.23834343 -0.04305881 -0.1451008
000090 a6 46 8f be 88 45 2c 3e 2f 9d 8f be b5 4c 65 be
       -0.27983588 0.16823399 -0.2804961 -0.22392543
0000a0 3e e8 7c 3e 22 4d ac 3e 08 21 95 be f6 11 0e 3f
       0.24697968 0.33652598 -0.29126763 0.55496156
0000b0 f6 81 c3 be d0 3c f1 bd 50 22 90 be 3a d2 c3 3e
       -0.3818509 -0.11779177 -0.28151178 0.38246328
0000c0 9d ea 30 3e e8 32 95 3d 88 a3 0a 3e d6 76 9e be
       0.17276998 0.072851 0.13538945 -0.3095004
0000d0 3f ee 18 3b 52 c7 2f bc f9 1d 8d 3d 9f 22 83 3e
       0.0023335365 -0.010728674 0.068904825 0.2561235
0000e0 0a fe dc 3c f6 ae 26 3e 5e 8c e3 bd 9b 38 c3 3d
       0.026976604 0.1627768 -0.11110757 0.09532281
0000f0 ba da 39 bd 83 99 a1 be a4 a5 1c be 2a dd c3 3e
       -0.04537461 -0.31562433 -0.15297562 0.38254672
000100 80 df 55 3e 61 08 89 3d e2 c8 9f bc 0c 64 8d 3d
       0.2088604 0.06691051 -0.019504968 0.06903848
000110 89 9f 8a be 10 28 ab bd a6 b2 19 be 31 6e c9 bd
       -0.2707484 -0.08357251 -0.15009555 -0.098354705
000120 c9 52 1a 3d 02 01 37 3e 52 2a 6c bd a2 59 1b be
       0.037676606 0.17871478 -0.057657547 -0.15170911
000130 55 30 7d be 78 a0 36 be 04 1c 9f bc 76 60 7c 3d
       -0.24725468 -0.17834651 -0.019422539 0.06161543
000140 ba be c6 3e 6a c5 c2 be 70 41 d8 3e a2 13 0d bf
       0.38817388 -0.3804124 0.42237425 -0.5510808
000150 4e ae b1 be f9 f5 fe be 06 e4 bf be 5d 59 8b be
       -0.34703296 -0.49797037 -0.37478656 -0.27216616
000160 6d 34 05 3f 12 b0 09 3f 39 95 2c bf a5 33 23 3f
       0.5203312 0.53784287 -0.67415196 0.6375068
000170 39 69 ec be c7 e6 fc be 13 9a 3f bd 0e 87 9e 3e
       -0.4617403 -0.4939482 -0.046777796 0.30962414
000180 0e 12 4a 3e 90 45 a6 bd 58 33 c7 be 15 6d 6f bd
       0.1973345 -0.08118737 -0.3890636 -0.058453638
000190 16 04 03 be 8c d9 a7 3e d0 fb a3 3d 5e f7 d9 be
       -0.12794527 0.32783163 0.08007014 -0.4257154
0001a0 7a 81 a2 3d ed 3c d2 bd 11 f1 39 3e 0e 2f d4 bd
       0.07934852 -0.10265527 0.18158366 -0.103605375
0001b0 9c 5b 5a bd 1b 5d 48 be 15 c8 5d be 91 00 2a 3e
       -0.05331002 -0.19566767 -0.21658356 0.16601779
0001c0 ab 38 0a 3f c1 2c 88 be c1 ad dc bd 39 19 ef be
       0.5399272 -0.26596645 -0.107753284 -0.4669893
0001d0 d1 33 f9 be 54 d9 52 3e 33 9c 16 be f3 c8 c9 bd
       -0.48672345 0.20590717 -0.14708023 -0.09852781
0001e0 e7 bb 11 3f f4 50 99 3e f2 c7 8a be e6 16 a0 3e
       0.5692734 0.29944575 -0.2710567 0.3126747
0001f0 06 c4 dc be 7e e6 1b be 07 5d af be 5f fc 0f 3f
       -0.43118304 -0.15224645 -0.34250662 0.5624446
000200 f4 e1 96 3e 92 56 ad bb 71 c3 91 3e 8c 45 67 be
       0.29469264 -0.005289861 0.28469422 -0.22585124
000210 fc 4c 70 bd 9c 32 a6 bd 8c b0 90 be a6 0d cd 3d
       -0.058667168 -0.08115122 -0.28259695 0.10012369
000220 4c 06 eb 3d 3e a5 d0 3d 1f 58 a5 3d 4e a5 d7 3e
       0.114758104 0.101877674 0.080734484 0.42118305
000230 6a ff d0 3d 84 62 61 be bf 8b 82 3e b9 a1 a6 3e
       0.10204966 -0.22010237 0.25497243 0.3254526
000240 55 f1 84 bd f2 59 1c bd 39 0d 78 bc 84 8f bb bd
       -0.06491343 -0.038171716 -0.015139871 -0.09158233
000250 9c 70 30 be 06 84 25 3c d5 71 3f be 7a 3b a6 3e
       -0.17230457 0.010102278 -0.18695767 0.32467252
000260 45 1a d9 bc e9 cd 85 be c3 6f 5f 3c 3b 2a d5 3c
       -0.026501784 -0.2613366 0.013637486 0.026021114
000270 af 78 b1 bd 68 83 68 3e c5 b9 e5 bd 47 07 00 3e
       -0.08665597 0.22706378 -0.11217073 0.12502776
000280 6e 6e 34 3e bb a1 9f bc ba be 6a be 4d 31 07 be
       0.1762025 -0.019486299 -0.22924319 -0.132024
000290 b8 2c ee 3c 03 e1 73 3e 91 7c d8 be 10 79 b6 be
       0.029074058 0.23816304 -0.42282537 -0.35639238
0002a0 66 7a 95 3e dc 44 11 3e 49 89 5b be 08 92 ce 3d
       0.29194945 0.14186424 -0.21439089 0.10086447
0002b0 7d d0 98 be 08 19 bd be e3 98 4c be 8a 12 5f 3e
       -0.29846564 -0.3693316 -0.19980197 0.21784416
0002c0 6c 58 bd 3e 82 8b 01 3e 7f fd dd be 5c fb 72 be
       0.36981523 0.12650874 -0.43357465 -0.23728698
0002d0 51 a8 63 be 95 92 40 3b fb da b4 bd e5 dd 9f be
       -0.22232176 0.0029384245 -0.0883083 -0.3122398
0002e0 1f fa d0 3e 79 df d4 3c 8a cc 19 3c d9 00 61 3e
       0.40815827 0.025985466 0.009387145 0.2197298
0002f0 33 18 2d be bd 86 da bd 8a d7 5f be 01 ac ce 3d
       -0.16903763 -0.106702305 -0.21859565 0.10091401
000300 95 4c 0c be 96 e6 2e be 8f 6b d4 3e 4a b5 99 be
       -0.13701089 -0.17080149 0.4148831 -0.30021125
000310 fb 2e 79 be 67 42 b6 bd 3f 92 8e be fe 1c ae 3e
       -0.24334328 -0.08899384 -0.27845952 0.34006494
000320 af 49 2a 3d 77 2a 89 3e 36 14 4b be 94 43 c7 3c
       0.041574176 0.2679021 -0.19831929 0.024324216
000330 17 ce 27 3d 69 4a 08 3c 30 af d3 3c ad dd 86 3e
       0.040968027 0.008318522 0.025840372 0.26341
000340 7e cf a0 3e 26 35 ac 3d f1 e7 b7 bd d8 49 df bd
       0.31408304 0.08408575 -0.08979786 -0.109027565
000350 8b d3 b6 be 38 49 af 3d 25 6b 12 3e ee 59 37 3e
       -0.3570827 0.08558887 0.14298685 0.17905399
000360 c6 e3 22 bd ce 8e 15 3e 32 00 46 bd 3b 36 b5 3c
       -0.039768003 0.14605257 -0.04834003 0.022120586
000370 b0 26 8b be 49 12 79 3d 20 b2 97 bd e0 5d 8a 3e
       -0.27177954 0.060808454 -0.074070215 0.27024746
000380 8f f5 0e be da 1b 21 3e 05 82 6a be e5 a3 07 be
       -0.1396086 0.15733281 -0.22901161 -0.13246115
000390 d4 b9 42 3d 0d 5d b6 bb 85 fd 8c be 4d 4f 92 3c
       0.0475405 -0.0055652917 -0.2753717 0.01786008
0003a0 2f 70 be bd a3 ce 1a 3e 32 34 35 3e ca 78 40 bd
       -0.09298741 0.15117888 0.17695692 -0.046990193
0003b0 5b 23 a1 be 46 44 51 3c 0d 88 4c 3e 8f 6b fc bd
       -0.31472287 0.012772625 0.19973774 -0.12325203
0003c0 43 50 10 be d9 1a 5e bd 07 85 4f be bc ee db bd
       -0.14093117 -0.054224823 -0.2026559 -0.10738894
0003d0 a6 f3 11 3e 28 b3 0b be 21 76 85 3e 13 02 e4 bd
       0.14253101 -0.13642561 0.26066688 -0.11133208
0003e0 74 ad 97 3d 35 bb 17 be d5 d9 e9 3d 75 97 6f bd
       0.074061304 -0.14817508 0.11418501 -0.05849405
0003f0 76 a3 69 be 45 ab 1f 3e b7 57 d3 bd 6e ed 86 3e
       -0.22816262 0.15592678 -0.10319465 0.2635302

net_list.0.bias_ih_l2 f4 [64]
000000 8b 9f bc 3e cc 35 5c 3e 2d 11 ca 3e 1f 35 8d 3e
       0.36840472 0.21504897 0.3946623 0.2757959
000010 c6 21 bb 3c 46 55 bf bd be 11 50 3f 5e 24 27 3f
       0.022843253 -0.093424365 0.8127707 0.65289867
000020 3f c5 db 3d 00 61 74 3e 8f b4 af 3e 40 c7 8c 3e
       0.10730981 0.23865128 0.34317443 0.27495766
000030 f9 ab 72 3e 69 dc 38 3e 65 cb 33 3d 6b db 9c 3e
       0.23698415 0.1805283 0.043895144 0.30636153
000040 f6 c9 2d 3e d6 20 5b bd e1 6d a7 be c5 70 80 3d
       0.16971573 -0.05349811 -0.32701018 0.06271509
000050 d6 e5 28 3e aa 03 6e be b5 1f 1a bd df ee 86 be
       0.16493925 -0.23243585 -0.037627894 -0.2635412
000060 86 a1 a3 38 02 5a 11 be f8 d0 7a bc 2f 1e e9 3d
       7.802532e-05 -0.14194492 -0.015308611 0.1138271
000070 0a b0 01 bd 5a 2e 4a 3d 12 10 87 bd 33 60 fc 3d
       -0.031662025 0.04936061 -0.06594862 0.12323036
000080 85 74 80 3d 22 3d 8d be 14 55 86 bd eb 4a 93 be
       0.06272224 -0.27585703 -0.06559196 -0.28768095
000090 1c 24 64 3d f0 71 c5 bd 99 eb a0 be 8a c0 24 be
       0.0556985 -0.096408725 -0.31429747 -0.16089073
0000a0 26 43 49 3e eb 73 35 3c 97 f8 89 3c 83 a6 76 3e
       0.19654521 0.011075 0.01684217 0.24086957
0000b0 96 4b f6 bd 67 92 7d bd 4a 49 00 be b6 c7 cc 3e
       -0.120261356 -0.0619072 -0.12527958 0.39996117
0000c0 64 b2 85 bd 1a 1c 6d 3e 1e e0 aa 3e 3b 6d 46 3e
       -0.06528166 0.23155251 0.33374113 0.19377606
0000d0 14 27 f3 3d d3 b2 a9 bd 3e 90 66 3e 0c bd 0e 3f
       0.11872688 -0.08286061 0.22515962 0.5575721
0000e0 fb 1a 3b 3e 1c 8c c7 3c e3 69 6f bc 32 7b a1 3d
       0.18272011 0.024358802 -0.014612648 0.07884826
0000f0 0d 76 d2 3d 05 2d 01 3e 21 d2 77 3d ab e3 5d bd
       0.10276423 0.1261483 0.06050313 -0.0541722
