QIENetV1_0_0/QIENet_Conv5.pth (torch, 220865 bytes, 11 tensors)

net_list.0.cell_list.0.conv2d.weight f4 [64, 22, 3, 3]
0	0xbbd1516a	-0.006387879
1	0x3c9d0ae9	0.019170241
2	0xbc7148ff	-0.014726876
3	0xbbf1d720	-0.007380381
4	0xbb996971	-0.004681759
5	0xbc4950ad	-0.012287301
6	0xbd9bccd4	-0.07607427
7	0x3d6910c6	0.056900762
8	0x3caf7e78	0.02142261
9	0x3cbd448b	0.023103973
10	0xbca27ade	-0.019833978
11	0xbd64d6fe	-0.055869095
12	0x3d3b8ae2	0.045786746
13	0xbd96a315	-0.07355324
14	0xbd1cbe43	-0.038267385
15	0x3d2bc9f9	0.041940663
16	0x3d4bde28	0.04977241
17	0xbd5f0785	-0.05445053
18	0xbd8f9d1a	-0.070123866
19	0xbdcb7f03	-0.09936335
20	0xbe55bc67	-0.20872651
21	0x3cc5e991	0.024159225
22	0xbd8174ed	-0.0632113
23	0xbde2ab9d	-0.11067889
24	0x3d233edb	0.039854866
25	0xbde24e97	-0.11050146
26	0xbe077e37	-0.13231741
27	0x3dd15d1b	0.102228366
28	0x3d132560	0.035924315
29	0x3d520107	0.05127051
30	0x3da7662c	0.081737846
31	0x3d572acb	0.052531045
32	0x3d936dc7	0.07198673
33	0x3deb61ac	0.11493239
34	0x3d2f04cf	0.042729195
35	0x3d168250	0.03674537
36	0x3d1c6268	0.038179785
37	0xbd9cc91f	-0.07655548
38	0xbdf68728	-0.12037498
39	0x3c6d8e46	0.014499253
40	0xbd0b3637	-0.03398725
41	0xbdf9029a	-0.12158699
42	0x3d3bd133	0.045853805
43	0xbd25e3ad	-0.04050033
44	0xbd23c7d5	-0.039985497
45	0x3deafe63	0.11474302
46	0x3a892fc8	0.001046651
47	0x3c875d6c	0.01652404
48	0x3d659b3c	0.056056246
49	0xb943221f	-0.0001860936
50	0x3dbcb999	0.092150874
51	0x3d609b4e	0.05483561
52	0x3c4c31c1	0.012463034
53	0x3dd71abf	0.10503148
54	0x3d82ccbd	0.06386707
55	0x3d18a532	0.037266918
56	0x3dbfe03f	0.093689434
57	0x3d1e2539	0.038609717
58	0x3d86e6c7	0.06586986
59	0x3e18c158	0.14917505
60	0x3d0c8d6b	0.034314554
61	0x3e013638	0.12618339
62	0x3ce0953f	0.027414916
63	0xbd5290c8	-0.051407605
64	0x3d585c7a	0.052822568
65	0x3d26b15f	0.040696498
66	0x3c75ae2d	0.01499514
67	0x3d3b3373	0.045703363
68	0xbd7b539e	-0.06135904
69	0xbdc0b206	-0.09408955
70	0x3c8071c7	0.015679253
71	0xbd5046f4	-0.050848916
72	0x3c8757e0	0.016521394
73	0x3e25f91c	0.16208309
74	0x3ddab77c	0.10679528
75	0x3ce13612	0.027491603
76	0x3dd7d775	0.10539142
77	0x3dbbed0a	0.09176071
78	0x3ba61bfa	0.005069253
79	0x3e0bd335	0.13654788
80	0xbcfbb14f	-0.030724196
81	0x3d390460	0.045170188
82	0x3da9919d	0.08279727
83	0xbd0cada5	-0.034345288
84	0x3d15e953	0.03659947
85	0x3ac8f741	0.0015332476
86	0xbd1367a3	-0.035987508
87	0xbc9bd572	-0.019022677
88	0x3d3c255a	0.04593406
89	0x3d4dc3b5	0.05023547
90	0x3dd21e66	0.10259704
91	0x3dc0ad26	0.094080254
92	0x3cb19cc5	0.021681199
93	0xbb92e477	-0.0044828015
94	0xbd0dc4b5	-0.034611423
95	0xbd7eddf8	-0.062223405
96	0xbd648bac	-0.055797264
97	0x3cde69a6	0.027149986
98	0xbdfa0bc5	-0.12209276
99	0xbd4cb5f9	-0.04997823
100	0x3bf15aa1	0.00736554
101	0x3c29fecd	0.010375691
102	0xbd732e24	-0.059370175
103	0xbd3a6412	-0.04550559
104	0xbd802401	-0.06256867
105	0x3ccd5914	0.02506689
106	0xba95380f	-0.0011384505
107	0xbc7bd7fc	-0.015371319
108	0x3ca3bde7	0.019988013
109	0xbd1ce0b1	-0.03830022
110	0xbcb5a614	-0.022173919
111	0x3d517430	0.051136196
112	0xbc6db4d8	-0.014508449
113	0xbccc0b71	-0.0249078
114	0x3d33f640	0.043936014
115	0x3d06f3e1	0.032947425
116	0x3d20cfe9	0.03926078
117	0xbd796d51	-0.060895268
118	0xbc72e3e1	-0.014824838
119	0xbda9a5d7	-0.082835846
120	0xbc87f053	-0.016594088
121	0x3d527e09	0.051389728
122	0x3d7513b3	0.05983324
123	0xbd80d283	-0.06290152
124	0xbd89d858	-0.067307174
125	0xbce2f3f1	-0.027704211
126	0xbbc785fd	-0.0060889707
127	0xbd760775	-0.060065705
128	0xbdcfe51f	-0.10151123
129	0xbd46092d	-0.048348594
130	0xbd493070	-0.04911846
131	0x3bacfbb4	0.005279029
132	0x3ce71445	0.028207907
133	0xbcc36a0c	-0.023854278
134	0xbd80957c	-0.06278512
135	0x3d057ab7	0.032587733
136	0xbbed8a97	-0.007249187
137	0xbcb7ea2c	-0.022450529
138	0xbdbdad9e	-0.092616305
139	0x3cbeaaa6	0.02327473
140	0xbc887882	-0.016659025
141	0xbda47957	-0.08030956
142	0xbe032233	-0.12806015
143	0xbd48e217	-0.04904374
144	0x3e3397ef	0.17538427
145	0x3dccdf14	0.10003486
146	0x3d4bf372	0.049792714
147	0x3c9272e0	0.017877042
148	0x3d6420cd	0.055695344
149	0xbdaaf216	-0.083469555
150	0x3d0f37d2	0.034965344
151	0x3cd10fa2	0.02552015
152	0x3c944bfd	0.01810264
153	0xbd02f3e7	-0.031970885
154	0x3df36a6b	0.11885532
155	0xbdd555ac	-0.10416731
156	0x3ce0bae0	0.027432859
157	0x3df1bfc4	0.118041545
158	0xbdfde7a9	-0.12397701
159	0x3e1af4fa	0.15132514
160	0x3db710be	0.0893874
161	0xbdc9413c	-0.098268956
162	0xbd607cea	-0.054806627
163	0x3ba066fd	0.0048950897
164	0x3cd8aa85	0.026448498
165	0x3c519f4d	0.012794328
166	0xbc1be48e	-0.009514941
167	0x3c9f1624	0.019419737
168	0xbdaa8d90	-0.08327782
169	0xbd8500a8	-0.06494266
170	0xbd18b9a0	-0.0372864
171	0x3e2b3b62	0.16721871
172	0x3dcdd675	0.1005067
173	0x3bc35855	0.0059614577
174	0x3dd84b75	0.10561267
175	0x3e1769b2	0.14786413
176	0xbd50800d	-0.05090337
177	0x3e289f04	0.1646691
178	0x3cdc9bfc	0.026929848
179	0xbd8ce50c	-0.06879625
180	0xbdcbc91f	-0.0995047
181	0xbdc4cd00	-0.09609413
182	0xbd8fbe1a	-0.07018681
183	0xbda4700d	-0.080291845
184	0xbca23bec	-0.019803964
185	0xbcaa29d9	-0.020771908
186	0xbd8aa697	-0.06770056
187	0xbdc4b354	-0.096045166
188	0xbdbb3577	-0.09141057
189	0x3d047729	0.032340202
190	0x3c01281f	0.007883101
191	0x3d37535e	0.04475724
192	0xbd356049	-0.044281278
193	0x3d0feca5	0.03513779
194	0xbd1a54ea	-0.037678637
195	0xbd71c3d2	-0.05902464
196	0xbd16c831	-0.03681201
197	0xbd6e3028	-0.058151394
198	0x3da1c376	0.07898609
199	0x3d375149	0.044755254
200	0x3bf99595	0.0076167085
201	0xbd371ea4	-0.044706956
202	0xbd2c12a7	-0.042009976
203	0x3d62cc17	0.055370416
204	0xbdac971c	-0.08427259
205	0x3cf18289	0.02948119
206	0xbc1a5daf	-0.00942175
207	0x3d4b7a42	0.04967714
208	0x3da8802b	0.08227571
209	0x3db5cb14	0.08876625
210	0xbcdbba73	-0.026822304
211	0x3dcdf55e	0.10056566
212	0xbb852b24	-0.0040639807
213	0x3da0a9de	0.078448996
214	0x3d855f04	0.065122634
215	0x3cb467b7	0.022022111
216	0x3e05fb50	0.1308415
217	0x3cd31e96	0.02577142
218	0x3d791e14	0.0608197
219	0x3cd9b7b8	0.026576862
220	0x3ded92f9	0.116002984
221	0x3d2d8823	0.04236616
222	0x3d366bd1	0.044536415
223	0x3cbf59f8	0.02335833
224	0x3d9cd365	0.07657508
225	0x3d59b84b	0.05315427
226	0x3d57691f	0.052590486
227	0x3ae9848b	0.001781599
228	0xbb10ad91	-0.002207611
229	0x3d1ad256	0.03779825
230	0x3d029dee	0.031888895
231	0xbd42259a	-0.04739914
232	0xbcf824aa	-0.03029092
233	0x3d29e5cd	0.04147892
234	0xbcf99911	-0.030468496
235	0xbc68d5c5	-0.014211123
236	0xbceba36e	-0.028764453
237	0x3c57fb27	0.013182438
238	0xbda1dde0	-0.079036474
239	0xbd5092c9	-0.050921235
240	0xbd9a68d6	-0.07539527
241	0xbdd86aca	-0.105672434
242	0xbd4e0e95	-0.050306875
243	0xbd42bd17	-0.04754361
244	0xbda63987	-0.08116441
245	0xbd8ba727	-0.06818991
246	0xbdf8d8d1	-0.121507294
247	0xbde57054	-0.112030655
248	0xbe146148	-0.14490235
249	0xbddd43ab	-0.10803922
250	0xbe022b49	-0.12711824
251	0xbe279329	-0.16364731
252	0x3bb3d963	0.005488561
253	0x3dd9f037	0.106415205
254	0x3c66e364	0.0140923
255	0x3ce3b5a5	0.027796576

net_list.0.cell_list.0.conv2d.bias f4 [64]
0	0x3cef63e6	0.02922244
1	0x3d144a48	0.036203653
2	0x3e235589	0.15950598
3	0x3dc27602	0.094951645
4	0x3d3ce460	0.046116233
5	0xbcf32dcc	-0.029684924
6	0x3c6ebc8d	0.014571321
7	0x3d8557ac	0.06510863
8	0x3b493d61	0.003070675
9	0xbd5b3ea4	-0.053526536
10	0x3cf1c513	0.029512918
11	0x3e8466de	0.2585973
12	0xbc85ec5a	-0.016348053
13	0x3d173621	0.036916856
14	0xbbe0038a	-0.0068363594
15	0xbcd44c1d	-0.0259152
16	0x3e07c80f	0.1325991
17	0x3e19885d	0.14993425
18	0x3d0c8d28	0.034314305
19	0x3d339d9c	0.04385148
20	0x3e0fa37f	0.14027213
21	0xbbdc6453	-0.0067258268
22	0xbcd33cc7	-0.025785817
23	0x3e69ccaf	0.22831987
24	0xbd4dbe90	-0.050230563
25	0xbd61df87	-0.055144813
26	0x3dc8b8bd	0.09800861
27	0x3ec35bf9	0.38156107
28	0x3ddc6ee4	0.10763338
29	0x3e5b45e0	0.21413374
30	0xbcc43bf4	-0.02395437
31	0x3cb8aec6	0.022544276
32	0x3d60efde	0.054916255
33	0x3df42e96	0.11922948
34	0xbb1413ae	-0.0022594738
35	0x3cd2099f	0.025639353
36	0xbd830c13	-0.06398787
37	0xbdbc7033	-0.09201088
38	0x3d62ead7	0.055399742
39	0x3c2d1cf8	0.010565989
40	0x3d17df31	0.037078086
41	0xbcf61ffa	-0.030044544
42	0xbdb9770a	-0.09055908
43	0x3dff51ee	0.12466799
44	0x3caf97fd	0.021434778
45	0x3c7f8e34	0.015597869
46	0x3ca814ea	0.020517785
47	0x3df6c450	0.120491624
48	0x3dc4c21c	0.09607336
49	0x3e7e1730	0.24813533
50	0x3e3d0791	0.18459918
51	0x3d93121c	0.071811885
52	0x3cab219c	0.02089005
53	0x3c49ffc3	0.012329045
54	0x3d9f5909	0.07780654
55	0x3e05be24	0.13060814
56	0xbdcf8d4d	-0.10134373
57	0x3cebacd7	0.02876894
58	0x3e947e2e	0.29002517
59	0x3ee63671	0.4496341
60	0x3dbc4608	0.09193045
61	0x3dd25ff7	0.1027221
62	0x3dc1da4d	0.09465466
63	0x3e3d84ea	0.18507734

net_list.0.cell_list.1.conv2d.weight f4 [64, 32, 3, 3]
0	0x3d8824e7	0.066476636
1	0x3d492dec	0.04911606
2	0x3dd38f95	0.103301205
3	0xbce82538	-0.02833806
4	0x3ab6cd22	0.0013946632
5	0x3dface95	0.12246434
6	0xbcc9302e	-0.024559107
7	0x3dae92d7	0.08524101
8	0x3c94667e	0.018115278
9	0xba8fec9b	-0.0010980548
10	0xbd152f65	-0.036422152
11	0xbc7099bb	-0.01468509
12	0xbd910d20	-0.070825815
13	0xbcb8bb65	-0.022550294
14	0xbcacecf9	-0.021109091
15	0xbdabf8d1	-0.08397067
16	0x3ce03a82	0.027371649
17	0xbddae6c9	-0.1068855
18	0xbe044ddc	-0.12920326
19	0xbd0628a1	-0.03275359
20	0x3d89f51a	0.067362025
21	0xbdf46967	-0.119341664
22	0xbde04d97	-0.10952299
23	0x3e09067d	0.13381381
24	0xbdfc5ca5	-0.12322358
25	0x3d390165	0.045167346
26	0x3dda7670	0.106671214
27	0xbd3ba51b	-0.045811754
28	0x3db46fa8	0.08810359
29	0x3d8a0f54	0.06741205
30	0x3cda00f7	0.026611788
31	0x3dd64cca	0.10463865
32	0x3d81085d	0.06300423
33	0x3d81a963	0.06331136
34	0x3e025ec5	0.12731464
35	0x3dbfff48	0.09374863
36	0xbe1f2f7d	-0.15545459
37	0x3cba705d	0.022758657
38	0xbcdbd25c	-0.026833706
39	0xbdeec47c	-0.1165857
40	0xbcc87796	-0.024471086
41	0x3d00fa86	0.031488918
42	0xbb6b539f	-0.0035907996
43	0x3d5dbb74	0.054133847
44	0x3db0d1c6	0.08633761
45	0x3d395613	0.045248102
46	0x3d2a594b	0.041589063
47	0xbcce3078	-0.025169596
48	0x3c6ae500	0.014336824
49	0xbd417a76	-0.04723593
50	0xbd46e4c4	-0.04855801
51	0xbc945422	-0.018106524
52	0x3d721a0c	0.05910687
53	0xbd285e8a	-0.041105784
54	0xbd076092	-0.03305108
55	0xbcc51b73	-0.02406094
56	0xbe158bab	-0.1460406
57	0x3e36ac95	0.17839272
58	0x3e29c406	0.16578683
59	0x3dab5f54	0.08367792
60	0x3e2d337f	0.16914175
61	0x3e31b915	0.1735576
62	0x3d974baa	0.07387479
63	0xbd138bb1	-0.036021892
64	0xbe1f5041	-0.15557958
65	0xbda9e37b	-0.082953416
66	0xbe08c7fa	-0.13357535
67	0xbdfc1e1d	-0.12310431
68	0xbd603b47	-0.05474403
69	0xbdeb4143	-0.11487057
70	0xbe217fb6	-0.15771374
71	0xbda18c69	-0.07888109
72	0xba944815	-0.0011312986
73	0xbd9a4f8c	-0.075347036
74	0xba1f2cf1	-0.00060720654
75	0xbd5d180a	-0.053978004
76	0xbda694d8	-0.081338584
77	0xbcf7e924	-0.030262537
78	0x3d36c186	0.044618152
79	0xbbcd1d68	-0.006259609
80	0x3d913df6	0.07091896
81	0x3de99b23	0.11406543
82	0xbc46924e	-0.012119843
83	0x3d4e3e55	0.050352413
84	0x3d8e761e	0.06956123
85	0x3d279269	0.040911112
86	0x3cc5d639	0.02415
87	0x3dac7950	0.08421576
88	0x3c49543a	0.012288148
89	0xbd8914f0	-0.06693447
90	0xbcb6ac06	-0.022298824
91	0x38355307	4.3231088e-05
92	0x3d5b5a78	0.053553075
93	0xbd0f66ac	-0.035010025
94	0x3d89e42f	0.06732976
95	0x3dbd2a08	0.092365324
96	0xbcd0dc18	-0.025495574
97	0x3d48e653	0.04904778
98	0x3cd2f330	0.025750726
99	0xbdced05e	-0.10098337
100	0xbd253740	-0.040335894
101	0x3df0a3b5	0.11749975
102	0xbd7b5b1a	-0.061366178
103	0xbd4299cd	-0.047509957
104	0x3e253a7b	0.1613559
105	0xbd73ec8d	-0.059551764
106	0xbda294f9	-0.079385705
107	0x3e3b6fae	0.18304321
108	0xbd2b8a06	-0.041879676
109	0x3db7451f	0.08948731
110	0x3d5f430a	0.054507293
111	0x3ad13e6b	0.0015964037
112	0x3da2b623	0.07944896
113	0x3db4f6a6	0.08836107
114	0x3c3b04cc	0.011414718
115	0xbb8d1187	-0.004305068
116	0x3bfb8732	0.0076760286
117	0x3d8858ee	0.06657587
118	0x3e258c8b	0.16166894
119	0x3d6ce580	0.057836056
120	0x3df464c3	0.11933281
121	0x3e0721d8	0.13196504
122	0xbcb881b1	-0.02252278
123	0x3c8151b6	0.015786033
124	0x3bff04b6	0.007782544
125	0xbd436ecc	-0.047713086
126	0xbd999f5c	-0.075010985
127	0xbe3c7a73	-0.18406086
128	0xbe6da694	-0.23208076
129	0x3b39ee8c	0.0028370945
130	0xbdd33d27	-0.10314398
131	0xbe539ab4	-0.20664483
132	0xbc651b58	-0.01398357
133	0xbe23edee	-0.16008732
134	0xbdf0c179	-0.11755652
135	0xbc0df1e3	-0.008663627
136	0x3aba8d24	0.0014232737
137	0xbce14696	-0.027499478
138	0x3c80a678	0.015704378
139	0x3d2cc27a	0.042177655
140	0xbd027ad5	-0.031855423
141	0x3c5fb4f7	0.013653985
142	0x3bdaed2f	0.0066811065
143	0xbd01fbff	-0.031734463
144	0xbd80d290	-0.062901616
145	0xbca068ba	-0.019581188
146	0x3cfba72e	0.030719366
147	0xbd1cd800	-0.03829193
148	0x3b626412	0.003454451
149	0x3d2cc456	0.042179428
150	0xbc0baede	-0.008525578
151	0x3d8a06d3	0.06739583
152	0x3d161ebb	0.0366504
153	0x3e37fd2b	0.1796767
154	0xbb047411	-0.0020210783
155	0xbd0d9fab	-0.0345761
156	0x3d9c7591	0.076396115
157	0xbcc1553c	-0.023600213
158	0xbc27312c	-0.010204595
159	0x3dd6cd04	0.104883224
160	0xbccfc459	-0.02536218
161	0x3d5223e4	0.05130376
162	0x3cd37344	0.025811799
163	0xbd8f7068	-0.07003862
164	0xbd3dc6ee	-0.046332292
165	0x3d355f2f	0.044280227
166	0x3ca6aa77	0.020344956
167	0x3d0498fc	0.03237246
168	0x3d902d16	0.070398495
169	0xbda96bd3	-0.08272519
170	0xbd9ec77f	-0.077528946
171	0xbd95b691	-0.073102124
172	0xbd3637a1	-0.044486646
173	0xbcd12f80	-0.025535345
174	0xbd8ac5cc	-0.06776008
175	0xbb5331f4	-0.003222582
176	0xbd462ddd	-0.048383582
177	0x3d2f3284	0.042772785
178	0xbc9b1aec	-0.018933736
179	0x3d713c42	0.058895357
180	0xbca254b0	-0.019815773
181	0xbd77cbf3	-0.060497236
182	0x3a19c787	0.00058662187
183	0xbd36dae7	-0.044642355
184	0xbce49600	-0.027903557
185	0xbd38f8eb	-0.04515926
186	0xba940f7d	-0.001129612
187	0xbd10c982	-0.035348423
188	0xbb92ae4d	-0.0044763447
189	0xbbf64d06	-0.007516506
190	0xbcab6ed9	-0.02092688
191	0xbcef9aa6	-0.029248547
192	0x3cefbf42	0.029266004
193	0x3d88ef39	0.06686253
194	0x3d4e9420	0.05043423
195	0x3da4078f	0.08009254
196	0x3c478567	0.012177802
197	0x3d153434	0.036426738
198	0xbc1c5b33	-0.009543228
199	0xbd7058f4	-0.058678582
200	0x3d1c4af0	0.038157403
201	0xbd8a8f03	-0.067655586
202	0x3d1efee2	0.038817294
203	0x3d4b6d41	0.04966474
204	0xbd823156	-0.06357066
205	0xbd78ec1a	-0.06077204
206	0xbcad6dd2	-0.02117053
207	0x3d409171	0.047013704
208	0x3d0ca14b	0.03433351
209	0x3d7cecdb	0.06174932
210	0x3d8c87ba	0.06861825
211	0x3d9f76d4	0.077863365
212	0x3dbd3ca4	0.09240082
213	0x3e0c0fe1	0.13677932
214	0x3d900bc9	0.07033498
215	0x3daf9113	0.085725926
216	0xbcf4cdc3	-0.029883271
217	0x3d932b86	0.07186036
218	0x3c257e0e	0.010100855
219	0x3d59a465	0.053135294
220	0x3bb81f22	0.0056189457
221	0x3da0d9e1	0.07854057
222	0x3b2261a7	0.0024777444
223	0x3cccb7ca	0.024989981
224	0x38ed419c	0.00011313261
225	0x3cacdcfe	0.021101471
226	0xbd93c36d	-0.07215009
227	0xbda341a1	-0.07971502
228	0x3d94a466	0.07257919
229	0x3d690f07	0.056899097
230	0x3d94b5bb	0.07261225
231	0x3e25981d	0.16171308
232	0x3d5b743c	0.053577647
233	0x3dfb9d91	0.12285913
234	0xbe1acc43	-0.15116982
235	0x3d958797	0.07301252
236	0xbbb959de	-0.005656465
237	0xbca93630	-0.020655721
238	0x3db16965	0.086626805
239	0x3cf398db	0.029735973
240	0x3ce12e87	0.027488006
241	0x3dc77f58	0.09741086
242	0x3c484679	0.012223833
243	0x3b49f5f4	0.0030816766
244	0x3b9e6fb9	0.0048350957
245	0x3da91a2c	0.08256945
246	0x3ac07e77	0.0014686127
247	0x3da7fb41	0.0820222
248	0x3d16433b	0.03668521
249	0x3db2c7fc	0.0872955
250	0x3d14ed38	0.036359042
251	0x3d786c35	0.06065007
252	0x3da15a50	0.07878554
253	0x3e2f8862	0.1714187
254	0x3dd12979	0.102129884
255	0x3da0710a	0.078340605

net_list.0.cell_list.1.conv2d.bias f4 [64]
0	0xbcb21520	-0.021738589
1	0x3d18f233	0.037340354
2	0xbbf9c70a	-0.0076226043
3	0x386d2c9d	5.6546753e-05
4	0x3d826815	0.06367508
5	0xbd7f8675	-0.062384088
6	0xbd89cac2	-0.06728126
7	0x3d1e374f	0.038626965
8	0x3d255687	0.040365722
9	0xbc80d8b0	-0.015728325
10	0x3cdc6f7f	0.026908634
11	0xbda10ae9	-0.07863409
12	0x3d32fe25	0.043699402
13	0x3cfb5a2f	0.030682651
14	0x3cf439f7	0.029812796
15	0x3d49129f	0.049090024
16	0xbd68824c	-0.056764886
17	0x3d44d283	0.048052322
18	0x3d62ea7a	0.055399396
19	0x3bb3304a	0.005468403
20	0x3dab2ade	0.08357786
21	0x3d7ca058	0.061676353
22	0xbd207077	-0.039169755
23	0xbc67fae0	-0.014158934
24	0x3e2ac6aa	0.16677347
25	0x3e05429a	0.13013688
26	0x3d6be3af	0.057590183
27	0xbd85b3d3	-0.065284394
28	0x3d0a4b09	0.033762965
29	0x3da89d48	0.08233124
30	0x3d418841	0.047249082
31	0x3bccd17f	0.00625056
32	0x3b1718d4	0.002305557
33	0xbd93a9be	-0.0721011
34	0x3db9adf2	0.090663806
35	0x3ba5b616	0.0050571067
36	0xbda0f5c9	-0.0785938
37	0xbd3aacf8	-0.045575112
38	0x3cb0ffe6	0.021606397
39	0x3c41f4f6	0.011838188
40	0xbe026964	-0.12735516
41	0x3cdc2aaa	0.026875813
42	0x3c0dfa7b	0.008665676
43	0x3b222e77	0.0024746933
44	0x3d83a0d1	0.06427158
45	0x3d41daae	0.04732769
46	0x3da38005	0.07983402
47	0xbda9e753	-0.08296075
48	0x3bfefedb	0.007781846
49	0x3d931c6b	0.07183155
50	0xbc380cb2	-0.011233496
51	0xbc19c579	-0.00938546
52	0x3d946da7	0.07247477
53	0x3dadf359	0.084936805
54	0xbd5fb705	-0.0546179
55	0x3c32a4f6	0.010903588
56	0x3e23a00e	0.15979025
57	0x3e7e6ab0	0.24845386
58	0x3dd19671	0.102337725
59	0xbd2120de	-0.039337985
60	0x3cea842f	0.028627483
61	0x3d012872	0.031532712
62	0x3debaed2	0.11507954
63	0x3de68e67	0.1125763

net_list.0.cell_list.2.conv2d.weight f4 [64, 32, 3, 3]
0	0xbd2410f6	-0.040055238
1	0x3cfc2a12	0.03078178
2	0xbd26ca07	-0.040720012
3	0xbd3d6f64	-0.04624881
4	0x3c86a2e4	0.016435094
5	0xbc108595	-0.008820911
6	0x3c277dda	0.010222876
7	0xbd8d4047	-0.068970256
8	0x3c1f905b	0.009739007
9	0x3c4b3639	0.012403064
10	0xbc91accf	-0.017782597
11	0xbac67a21	-0.0015142598
12	0x3cf5c947	0.030003203
13	0xbca9a931	-0.02071056
14	0x3d196938	0.03745386
15	0xbca310e6	-0.019905519
16	0xbc318c34	-0.01083665
17	0x3d84e0a8	0.06488162
18	0xbcd8d9d4	-0.026471056
19	0x3d2a1340	0.041522264
20	0xbd5e77ea	-0.054313578
21	0x3d5de204	0.054170623
22	0x3ca563f6	0.020189267
23	0xbd652208	-0.055940658
24	0xbca137ae	-0.01967987
25	0xbd89b653	-0.06724229
26	0xbd58d1b2	-0.052934356
27	0x3c328752	0.010896521
28	0xbd200e89	-0.03907636
29	0xbdef20e7	-0.116761975
30	0x3caa8810	0.020816833
31	0xbc934ed6	-0.017981928
32	0xbaf48cbb	-0.0018657664
33	0xbcea847c	-0.028627627
34	0x3cb9ee94	0.02269677
35	0xbd6bec47	-0.05759838
36	0xbbc972fb	-0.00614774
37	0xbc0ef134	-0.0087244995
38	0x3d32e181	0.04367209
39	0x3d86ca7f	0.06581592
40	0x3d7ef64b	0.062246602
41	0xbd5fb1ef	-0.05461305
42	0x3d7de5c2	0.061986692
43	0x3ccc8589	0.024966018
44	0xbd71e25c	-0.059053764
45	0x3c24bc05	0.010054593
46	0x3d00826f	0.03137439
47	0x3d102fb4	0.035201743
48	0xbceea100	-0.029129505
49	0x3d6b9a07	0.05751994
50	0xbd306a83	-0.043070327
51	0x3d612b0f	0.054972704
52	0xbd262c54	-0.04056962
53	0x3caeb960	0.021328628
54	0x3cfa9608	0.030589119
55	0xbc474cd0	-0.01216431
56	0x3d3d7a74	0.04625936
57	0xbd0de08e	-0.03463798
58	0xbd40d278	-0.04707572
59	0x3b302010	0.002687458
60	0xbd60c570	-0.05487579
61	0x3c15bc63	0.009139153
62	0xbaf9c1b7	-0.0019054924
63	0xbd09e0b4	-0.03366156
64	0x3c5eb2ac	0.013592403
65	0x3d08a594	0.033361033
66	0xbd47ffbd	-0.048827875
67	0xbcb13399	-0.021631049
68	0x3b1df71a	0.0024103583
69	0x3d31d4cc	0.04341583
70	0x3c83ce56	0.0160896
71	0x3d1c606e	0.0381779
72	0xbdc775be	-0.097392544
73	0xbd024c51	-0.031811062
74	0xbd1db01a	-0.03849802
75	0xbd6d4060	-0.05792272
76	0xbd705d5c	-0.058682784
77	0x3ccc391a	0.024929572
78	0xbb311356	-0.0027019582
79	0xbcf5c9c6	-0.03000344
80	0x3d3e37cc	0.04643993
81	0xbd8fbbd8	-0.0701825
82	0xbd29072d	-0.04126661
83	0x3c58d202	0.0132336635
84	0xbddbc5a7	-0.107310586
85	0xbd03da7b	-0.03219078
86	0xbc5c53d8	-0.013447724
87	0xbdadea7c	-0.0849199
88	0xbcbfb202	-0.02340031
89	0xbd7aa247	-0.061189916
90	0x3c723efb	0.0147855235
91	0xbda5b614	-0.08091369
92	0xbd8fdc89	-0.070244856
93	0x3d95eee7	0.07320958
94	0xbcd79ecc	-0.026320837
95	0xbcf86be2	-0.03032488
96	0x3d1cb358	0.038256973
97	0x3d5108f4	0.05103393
98	0x3d49d9e3	0.04928006
99	0xbce463dd	-0.02787965
100	0x3d27733b	0.040881377
101	0x3d490c3e	0.04908394
102	0xbd184b5b	-0.03718124
103	0x3d55e370	0.052218854
104	0xbcdffc8a	-0.0273421
105	0x3c849759	0.01618545
106	0x3d94a9f8	0.072589815
107	0x3dac4fd6	0.08413665
108	0xbcf7bcd1	-0.030241402
109	0xbdabf63d	-0.083965756
110	0x3c808641	0.015689017
111	0x3d198939	0.03748438
112	0x3ccc9056	0.024971168
113	0xbd91cc90	-0.07119095
114	0xbd077b4b	-0.033076566
115	0xbdb3aca0	-0.0877316
116	0xbdb3cebc	-0.08779666
117	0xbd601c58	-0.05471453
118	0xbc0964ac	-0.008385818
119	0x3ce70708	0.028201595
120	0xbd2dc31c	-0.0424224
121	0x3d4bc74b	0.049750607
122	0xbcf40b4a	-0.02979054
123	0x3c16923b	0.0091901375
124	0x3d0a52f3	0.033770513
125	0x3d2e6059	0.042572353
126	0xbd0134d6	-0.03154453
127	0x3d54e3fa	0.051975228
128	0xbc6087c4	-0.013704244
129	0xbc611c00	-0.013739586
130	0xbcfc94a6	-0.0308326
131	0x3d442c6a	0.04789392
132	0x3ce815fc	0.028330795
133	0x3d1449a3	0.036203038
134	0x3bb3f245	0.0054915273
135	0x3d277acf	0.040888604
136	0x3d0efbc2	0.034908064
137	0xbbac6618	-0.005261194
138	0xbca076a9	-0.019587832
139	0x3d8fd3a7	0.07022791
140	0x3ceeffb5	0.029174665
141	0xbd50d790	-0.050986826
142	0xbce4a1a8	-0.027909115
143	0xbc71e81c	-0.014764812
144	0x3d060971	0.032723848
145	0xbd467dcf	-0.048459824
146	0xbd4f4d30	-0.05061072
147	0xbd765147	-0.060136106
148	0xbd6e1669	-0.05812684
149	0x3c4c389c	0.012464669
150	0x3b433b53	0.0029789999
151	0x3d099dd3	0.03359778
152	0x3c845c24	0.016157217
153	0x3d1d225f	0.038362857
154	0x3bae8282	0.0053256163
155	0xbd1d54d4	-0.038410977
156	0xbd3585b3	-0.04431696
157	0x3d657c7c	0.05602692
158	0xbcc91189	-0.024544494
159	0x3c4550da	0.012043202
160	0x3cbe627e	0.023240324
161	0xbc9d623d	-0.019211883
162	0x3d184996	0.037179552
163	0x3d2e4107	0.042542484
164	0x3daa1285	0.083043136
165	0x3c5134b3	0.012768912
166	0x3d8a95db	0.06766864
167	0xbc4d3946	-0.012525862
168	0xbc08a9e4	-0.008341286
169	0x3d13d8a1	0.036095265
170	0x3d73bd16	0.0595065
171	0x3d212e90	0.039351046
172	0x3c81548e	0.01578739
173	0x3d6d2668	0.057897955
174	0x3cbc9244	0.023018964
175	0x3b01787d	0.0019755655
176	0x3cd5c8ce	0.026096728
177	0xbd29e815	-0.041481096
178	0x3c0d4baf	0.008624001
179	0x3d478eba	0.0487201
180	0x3c2bf474	0.010495294
181	0x3c83f444	0.016107686
182	0x3d637ccf	0.05553895
183	0xbc7534f9	-0.014966243
184	0x3ccfa1d6	0.025345724
185	0xbb3f1ffa	-0.0029163347
186	0x3d6953d7	0.05696472
187	0x3b971bdf	0.004611477
188	0xbab2ca1b	-0.0013640554
189	0xbda22ef9	-0.079191156
190	0xbd9f20d3	-0.077699326
191	0xbd1f8091	-0.03894097
192	0xbb948281	-0.004532159
193	0xbdb10060	-0.0864265
194	0xbdd5f03b	-0.10446211
195	0xbdb168aa	-0.08662541
196	0xbd924b15	-0.07143227
197	0xbd6829ff	-0.056680676
198	0xbd35d084	-0.04438831
199	0xbdb49a28	-0.088184655
200	0x3c19b5e9	0.00938175
201	0xbdc3097c	-0.095232934
202	0xbbf9bfc3	-0.0076217367
203	0x3d230f2c	0.03980939
204	0xbd791c0f	-0.060817774
205	0xbd351d85	-0.044217605
206	0x3d231afb	0.039820652
207	0x3d5d0bfc	0.053966507
208	0xbd66c7e9	-0.056342993
209	0x3ce3a3d7	0.027788086
210	0x3af3d2e4	0.0018602279
211	0x3d2f1a82	0.04274989
212	0xbca2f0b4	-0.019890167
213	0xbca643b2	-0.020295952
214	0xbca62bbe	-0.02028453
215	0x3c8d74be	0.017267581
216	0xbce44267	-0.027863694
217	0xbd78b785	-0.060721893
218	0x3c762ac7	0.015024847
219	0xbda41c0d	-0.08013163
220	0xbd615d10	-0.055020392
221	0xbcd2e9d2	-0.02574626
222	0xbc7ada56	-0.015310844
223	0xbd309ec5	-0.043120164
224	0xbd038f71	-0.03211922
225	0xbcfb0780	-0.030643225
226	0xbd9da55c	-0.076975554
227	0xbd0310c7	-0.031998422
228	0x3cf67464	0.030084796
229	0xbcefe5b6	-0.02928434
230	0xbd827e48	-0.063717425
231	0xbd99fe9a	-0.075192645
232	0xbd237e76	-0.039915524
233	0xbc3a192d	-0.011358541
234	0xbcf5cfb9	-0.030006276
235	0x3cacf35c	0.021112137
236	0x3dbd9c07	0.092582755
237	0xbd87a74e	-0.06623708
238	0xbd82f3ea	-0.06394179
239	0x3d34a1ca	0.044099607
240	0xbd1d36c0	-0.03838229
241	0xbcd04cb9	-0.02542721
242	0xbdab3e40	-0.083614826
243	0xbd819e72	-0.06329049
244	0xbdcb83e7	-0.09937268
245	0xbdf900ed	-0.1215838
246	0xbd95224b	-0.072819315
247	0xbd1d8515	-0.038456995
248	0xbd757a34	-0.059930995
249	0x3d1859df	0.037195083
250	0xbcf0798f	-0.029354839
251	0x3ba9c6fc	0.0051811915
252	0x3c54b0c1	0.012981595
253	0xbc8ed70e	-0.01743653
254	0xbbec2489	-0.007206504
255	0x3cd88536	0.026430707

net_list.0.cell_list.2.conv2d.bias f4 [64]
0	0xbd036450	-0.032078087
1	0x3e5812d5	0.21100934
2	0x3d8a6ddc	0.06759235
3	0x3d0f72bf	0.03502154
4	0x3d2feaa8	0.042948395
5	0xbbdacfe2	-0.0066776136
6	0xbc71210a	-0.01471735
7	0xbceef85f	-0.029171167
8	0x3b6231c2	0.0034514521
9	0x3c38b219	0.011272931
10	0x3e0c466c	0.13698739
11	0x3bfd4fb5	0.007730449
12	0xbd0ec747	-0.034858014
13	0xbcc37dc5	-0.023863683
14	0xbce8f05c	-0.028434925
15	0xbc3f5d60	-0.011679977
16	0x3d3137ce	0.04326611
17	0x3e6afe7f	0.22948645
18	0x3d7a6093	0.061127257
19	0x3d971e8a	0.07378872
20	0x3d8084cd	0.0627533
21	0x3d69ce1a	0.05708132
22	0xbc62d3cf	-0.013844444
23	0x3d2b9cff	0.04189777
24	0x3d1ab73e	0.03777241
25	0x3d40c027	0.04705825
26	0x3e1d07cf	0.1533501
27	0x3dca5a01	0.09880448
28	0x3d75beb0	0.059996307
29	0x3dc5dc47	0.09661155
30	0x3c07b30f	0.008282437
31	0x3d6f1bce	0.058376126
32	0x3e156ca7	0.14592229
33	0xbe50f68a	-0.20406547
34	0xbe19f24b	-0.15033834
35	0x3d5aabf2	0.053386636
36	0x3b85fe6c	0.0040891673
37	0x3d6dadf5	0.058027226
38	0xbb996fc0	-0.004682511
39	0xbb35d07a	-0.002774267
40	0x3d89fee9	0.067380734
41	0x3d29c15f	0.04144418
42	0x3e2ce5dc	0.1688456
43	0x3d8bf99c	0.068347186
44	0xbd862b84	-0.06551269
45	0xbc44b962	-0.012007089
46	0x3d8457a9	0.06462032
47	0x3cfbde7a	0.030745734
48	0x3d05d6c8	0.032675534
49	0x3e18f1fb	0.14936058
50	0x3d4a2237	0.049349036
51	0x3db02833	0.086014174
52	0xbc7f5403	-0.015583995
53	0x3d355ca3	0.0442778
54	0xbd57b668	-0.05266419
55	0x3e25ac41	0.16178991
56	0x3cf3196c	0.029675208
57	0xbd1bf489	-0.038075004
58	0x3dbbdcd6	0.091729805
59	0x3c9e2ef2	0.019309495
60	0x3dac9522	0.08426882
61	0x3e084158	0.13306177
62	0x3c94ceca	0.018165011
63	0x3e227067	0.1586319

net_list.3.weight f4 [16, 22, 3, 3]
0	0xbc111f37	-0.00885754
1	0xbd339a47	-0.043848302
2	0x3d8e0dfe	0.069362625
3	0x3d838feb	0.064239345
4	0x3ce8beee	0.028411355
5	0xbd247e95	-0.04015978
6	0x3d2a7779	0.041617844
7	0xbb85b3a6	-0.0040802537
8	0xbd6b9dae	-0.057523422
9	0xbc97bcb8	-0.018522605
10	0xbd66d76f	-0.056357797
11	0xbd510b41	-0.051036123
12	0xbd2fdaca	-0.042933263
13	0x3d075678	0.033041447
14	0x3d5d2f81	0.05400038
15	0x3bd21ae8	0.006411899
16	0x3d80157c	0.06254098
17	0xbcad871f	-0.021182595
18	0x3d72cbb1	0.059276287
19	0xbd0557e6	-0.03255453
20	0x3d44393b	0.04790614
21	0x3b6fbba2	0.0036580344
22	0x3c50e0dd	0.012748924
23	0xbd0a3223	-0.03373922
24	0xbc30789f	-0.010770946
25	0x3d9525ee	0.07282625
26	0x3cef1251	0.029183539
27	0xbd5625ca	-0.052282132
28	0xbc3e13d4	-0.011601407
29	0xbc6f8ddb	-0.014621223
30	0xbe1da69f	-0.15395592
31	0xbd8ca5d8	-0.0686757
32	0xbc6007e7	-0.013673759
33	0xbdad0ef9	-0.084501214
34	0xbd226c27	-0.039653923
35	0xbe32a9f1	-0.1744764
36	0x3d7c1721	0.061545495
37	0xbcbb30cb	-0.022850415
38	0x3b38b846	0.0028186007
39	0x3b330233	0.0027314543
40	0x3c4dbf25	0.012557779
41	0x3d904838	0.07045025
42	0x3c8d0fea	0.017219502
43	0x3d133999	0.0359436
44	0x3da95958	0.08268994
45	0x3ceab0b4	0.028648712
46	0xbdbb65db	-0.09150287
47	0x3caff455	0.021478811
48	0xbd9c435a	-0.07630034
49	0xbc84cda4	-0.016211338
50	0xbdc44d5c	-0.09585068
51	0x38959b01	7.1337454e-05
52	0xbd415b4f	-0.04720622
53	0x3c99b120	0.018761218
54	0xbdaf1837	-0.085495405
55	0xbd9cf5e2	-0.07664086
56	0xbdaeba79	-0.085316606
57	0xbdb07201	-0.086154945
58	0xbdf467ca	-0.11933859
59	0xbe167ab3	-0.14695244
60	0xbddd2f08	-0.10799986
61	0x3c27ebe8	0.0102491155
62	0xbd3acfb5	-0.04560824
63	0xbe508f9f	-0.20367287
64	0xbdd90e38	-0.10598415
65	0xbe346dcd	-0.1762001
66	0xbe767af6	-0.24070343
67	0xbdb71dab	-0.089412056
68	0xbe5f44b1	-0.21803547
69	0xbe62d9c5	-0.22153385
70	0xbe1c7016	-0.15277132
71	0xbe6b5fff	-0.22985838
72	0xbd67bcc9	-0.056576524
73	0xbd104572	-0.03522248
74	0xbd054aa0	-0.03254187
75	0xbd53ec8c	-0.05173926
76	0x3cc248b1	0.023716303
77	0xbdb9eebe	-0.090787396
78	0x3c7ef77e	0.015561936
79	0xbd7c47c3	-0.061591875
80	0xbd8253cc	-0.06363639
81	0xbdc4a1a9	-0.09601147
82	0xbd08e50c	-0.03342156
83	0xba4d189a	-0.00078237953
84	0xbdcdafaa	-0.10043271
85	0x3c0ea1db	0.008705582
86	0xbdc8a637	-0.09797328
87	0xbdc2bb5c	-0.09508392
88	0xbdaacc78	-0.083397806
89	0xbdcb2c18	-0.099205196
90	0x3d85ac38	0.06526989
91	0x3e0508cc	0.12991637
92	0x3d1a15f6	0.0376186
93	0x3de3e711	0.11128057
94	0x3e187904	0.14889914
95	0x3e2fe1ae	0.17175934
96	0x3dd7db82	0.10539915
97	0x3dce4f7d	0.10073755
98	0x3e0d37ec	0.13790864
99	0xbc025644	-0.007955138
100	0xbd1db385	-0.03850128
101	0xbceeef6a	-0.029166896
102	0xbd492f31	-0.04911727
103	0x3d90b02f	0.07064854
104	0x3db3d0dd	0.08780072
105	0x3d914853	0.07093873
106	0x3c2a74eb	0.010403852
107	0xbbf1e00b	-0.0073814443
108	0xbc25491c	-0.010088231
109	0xbcb6576a	-0.02225848
110	0x3cdfb112	0.027306113
111	0xbc6a73ef	-0.014309867
112	0xbb282a85	-0.002566011
113	0xbdb9eb92	-0.090781346
114	0xbd0b756a	-0.03404752
115	0xbd973871	-0.07383812
116	0xbe05d61b	-0.13069956
117	0x3e17091a	0.14749566
118	0x3db4494d	0.088030435
119	0x3e06b04b	0.13153188
120	0x3dca53cf	0.098792665
121	0x3d77fffa	0.060546853
122	0x3dcf2953	0.10115304
123	0x3de42442	0.11139728
124	0x3e0a3ec9	0.13500513
125	0x3e076ebd	0.13225837
126	0x3cd003fe	0.025392529
127	0x3ddf0780	0.108901024
128	0x3d933e77	0.071896486
129	0x3d8fbab5	0.070180334
130	0x3d87b257	0.066258125
131	0x3ddc4f88	0.10757357
132	0x3db70500	0.089365005
133	0x3d05a6a5	0.032629628
134	0x3d0b8954	0.034066513
135	0x3e06cf22	0.13164952
136	0x3d707204	0.058702484
137	0x3dd48516	0.10376947
138	0x3db29ebf	0.08721685
139	0x3c8ccfc8	0.017188922
140	0x3d61d53d	0.055135
141	0x3d808f03	0.06277277
142	0x3e288448	0.16456711
143	0x3e0d9859	0.13827647
144	0xbc66a829	-0.014078178
145	0x3c94c508	0.018160358
146	0x3c876ae7	0.016530467
147	0xbbc4b184	-0.006002607
148	0xbb70eba5	-0.0036761549
149	0x3d1ac953	0.037789654
150	0xbc6bacc1	-0.014384449
151	0x3c1a6738	0.009424023
152	0xbc827be2	-0.015928213
153	0x3d60ab36	0.05485078
154	0x39c77778	0.0003804525
155	0xbc8362e6	-0.01603837
156	0xbd892a96	-0.06697576
157	0xbd8bd273	-0.068272494
158	0x3c591ad1	0.013251022
159	0x3d207f3c	0.03918384
160	0x3d3dcbbf	0.046336886
161	0x3cb939fc	0.022610657
162	0xbd94d462	-0.07267071
163	0xbe0138e1	-0.12619354
164	0xbd794e1c	-0.060865507
165	0xbde5d6bb	-0.11222597
166	0xbd6002ee	-0.054690294
167	0xbdaf8cd0	-0.0857178
168	0xbdadb747	-0.08482223
169	0x3b121580	0.0022290647
170	0xbd513120	-0.05107224
171	0x3d11446b	0.03546564
172	0xbcbdcf5a	-0.023170162
173	0x3d16d9e8	0.036828905
174	0xba82e86a	-0.0009987478
175	0xbbcbf71b	-0.0062245256
176	0x3c794e9b	0.015216495
177	0xbd79785f	-0.06090581
178	0x3d089b6c	0.033351347
179	0xbcd40ca5	-0.025884936
180	0x3cbdbcec	0.023161374
181	0x3be6c654	0.0070426855
182	0x3d3aa144	0.04556395
183	0x3c7e6a01	0.015528203
184	0xbd732092	-0.059357233
185	0x3d7586fc	0.059943184
186	0xbd92f199	-0.07174987
187	0x3d4fb7c5	0.050712366
188	0xbbddb67d	-0.006766139
189	0xbd92a1e8	-0.071597874
190	0xbdc7b05c	-0.09750435
191	0xbddc48af	-0.10756051
192	0xbdb00ced	-0.085962154
193	0xbd01cbc1	-0.031688455
194	0xbde9de03	-0.114192985
195	0xbd8e6090	-0.069520116
196	0x3b2fb298	0.002680933
197	0xbdf5029a	-0.11963387
198	0x3cd316dc	0.025767736
199	0x3dc04cfa	0.09389682
200	0x3cfdd926	0.030987334
201	0x3c3c1688	0.011479981
202	0x3d15cf5f	0.036574718
203	0x3dd396a0	0.10331464
204	0xbd5eb824	-0.05437483
205	0x3d966ffc	0.07345578
206	0xbbb16c73	-0.0054145395
207	0xbe026c85	-0.1273671
208	0xbdf55ff2	-0.11981191
209	0xbd8369fd	-0.064167
210	0xbc0bdb00	-0.0085361
211	0xbce686b8	-0.02814041
212	0xbd3a5b51	-0.045497242
213	0xbd3d518c	-0.046220347
214	0xbd2ca3f8	-0.04214856
215	0xbda2dcba	-0.079522565
216	0xbd074456	-0.033024155
217	0xbd8dfc31	-0.06932867
218	0xbd1c4073	-0.0381474
219	0xbdb5dca2	-0.08879973
220	0x3cc002a5	0.023438761
221	0xbdd7a024	-0.10528591
222	0x3bbbea3d	0.0057347105
223	0xbdcf6515	-0.10126702
224	0xbd80f5db	-0.06296893
225	0x3d99f87c	0.07518098
226	0x3d814891	0.06312669
227	0xbcb7d7b2	-0.022441719
228	0x3c8b2c97	0.016989036
229	0xbc90fdf3	-0.017699217
230	0xbd8d3d99	-0.068965144
231	0x3d0dd789	0.03462938
232	0xbd800ace	-0.06252061
233	0x3c2d5d02	0.010581257
234	0xbd90fd96	-0.07079618
235	0xbdc690a6	-0.09695558
236	0x3d51ed64	0.051251784
237	0x3c959c10	0.018262893
238	0x3d3b84fc	0.04578112
239	0x3cf315b6	0.029673439
240	0x3aa611b9	0.0012670077
241	0xbd62e478	-0.055393666
242	0xbd64a6f7	-0.055823293
243	0xbd115848	-0.035484582
244	0xbd0a43da	-0.033756115
245	0x3cb50d22	0.022100989
246	0xbb5dd61e	-0.0033849548
247	0x3ba4a7e7	0.0050248983
248	0xbd0fb06b	-0.035080355
249	0xbc693135	-0.014232923
250	0xbd086e68	-0.033308417
251	0x3d63f7c6	0.055656217
252	0x3d6a2674	0.057165578
253	0xbd85b600	-0.06528854
254	0xbcf2b698	-0.029628083
255	0x3c38dd9a	0.011283303

net_list.3.bias f4 [16]
0	0x3dff55cf	0.124675386
1	0x3dab0236	0.08350031
2	0x3d51616d	0.051118303
3	0x3d2ae060	0.041717887
4	0x3d3a0635	0.045416076
5	0x3c42f483	0.011899116
6	0xbd2ef595	-0.042714674
7	0x3dbf5612	0.093425885
8	0xbd39759b	-0.045278173
9	0x3e18e6fb	0.14931862
10	0xbce3ed80	-0.02782321
11	0x3dbb5545	0.09147123
12	0xbd489cf7	-0.04897782
13	0x3de5a27d	0.11212633
14	0x3d479586	0.04872658
15	0xbcdc8925	-0.026920864

net_list.5.weight f4 [8, 16, 3, 3]
0	0x3df82173	0.12115755
1	0x3dbfc0c3	0.09362938
2	0x3c1f723a	0.009731824
3	0x3bb60e7c	0.005555926
4	0x3d5971fe	0.053087227
5	0xbd111fcf	-0.035430726
6	0x3bd140a1	0.006385878
7	0x3da93e9d	0.08263896
8	0xbda5ab5c	-0.08089325
9	0xbc999df5	-0.018752078
10	0x3d1662f4	0.036715463
11	0xbd011c67	-0.031521227
12	0x3d83b9a6	0.06431894
13	0x3cdc9db2	0.026930664
14	0x3cc84eab	0.024451574
15	0x3da28422	0.079353586
16	0xbd4d9f2b	-0.050200623
17	0x3dab232c	0.08356318
18	0x3d3ebd76	0.046567403
19	0xbcd09442	-0.02546132
20	0xbbd0e13a	-0.0063745053
21	0x3d8c0485	0.068367995
22	0x3ce57b26	0.028012823
23	0x3c4e4b53	0.012591201
24	0x3d46cc14	0.048534468
25	0x3c9004e9	0.017580466
26	0x3c6c5611	0.014424817
27	0xbd4a009f	-0.049317
28	0x3d87db21	0.066335924
29	0xbd77d303	-0.06050397
30	0xbc855ec0	-0.016280532
31	0x3d541dd0	0.051786244
32	0xbd129567	-0.035787012
33	0x3d202c87	0.039104965
34	0x3d94a456	0.07257907
35	0x3c73ea8e	0.014887465
36	0x3d9f9540	0.07792139
37	0x3d418c0c	0.0472527
38	0x3cd68a22	0.026188914
39	0x3d7814d0	0.060566723
40	0x3ddb2c37	0.10701793
41	0xbcc15050	-0.023597866
42	0xbdc7e3f2	-0.09760274
43	0xbdbdd9b8	-0.09270042
44	0xbca029bb	-0.019551149
45	0x3c99df3c	0.018783204
46	0x3b9f7470	0.0048661754
47	0xbcd5d350	-0.026101738
48	0x3d853f25	0.065061845
49	0x3cf4f5e4	0.029902406
50	0x3d9d92dd	0.076940276
51	0x3da08cc5	0.0783935
52	0x3cde4ca4	0.027136154
53	0xbd752297	-0.05984744
54	0xbf4e0368	-0.8047395
55	0xbf2acc9f	-0.66718477
56	0xbe3bd315	-0.1834224
57	0xbecdd37a	-0.40200406
58	0xbe8b328d	-0.27187005
59	0xbe23f86e	-0.16012737
60	0xbe7c5bbf	-0.24644373
61	0xbddf8818	-0.1091463
62	0xbdaa9ea3	-0.08331039
63	0x3cd37ea4	0.025817223
64	0xbd699ae5	-0.057032485
65	0x3d2fde5b	0.042936664
66	0xbd89fa08	-0.06737143
67	0xbc31bc3d	-0.010848102
68	0xbb5961a3	-0.0033169768
69	0xbd8484d4	-0.064706475
70	0xbd6eb05c	-0.05827366
71	0x3ca81224	0.020516463
72	0x3d2e74df	0.042591926
73	0x3d639bff	0.05556869
74	0x3d2277be	0.039664976
75	0x3d985364	0.074377805
76	0x3d5a21f2	0.05325503
77	0x3d1978a9	0.037468586
78	0x3d24b7b6	0.040214263
79	0xbcf7b19b	-0.030236056
80	0x3cdbb04c	0.026817463
81	0xbdb1419a	-0.08655091
82	0x3c511e67	0.012763596
83	0x3d5797d3	0.052635025
84	0xbda27c74	-0.07933894
85	0x3b972f7e	0.004613816
86	0x3cc47452	0.023981247
87	0x3bc4858c	0.0059973653
88	0xbcfeba40	-0.03109467
89	0xbe22cc96	-0.15898356
90	0xbdca3bd1	-0.0987469
91	0xbced2df3	-0.028952574
92	0x3cb650cd	0.022255326
93	0xbdd31b5b	-0.10307952
94	0xbd6e0ef1	-0.058119718
95	0x3b19e64c	0.0023483215
96	0xbbd0879e	-0.006363823
97	0xbdb3a920	-0.087724924
98	0xbdee872b	-0.11646875
99	0xbbe2715d	-0.0069104866
100	0x3d58a72e	0.05289381
101	0x3d1fa9fa	0.03898046
102	0xbd1b0446	-0.037845872
103	0x3d9ea128	0.07745582
104	0xbce33e71	-0.027739735
105	0x3ddaa1a5	0.106753625
106	0xbd2624f7	-0.040562596
107	0xbcef5f23	-0.02922017
108	0xbcfa8c61	-0.030584516
109	0xbd74c4cc	-0.059757993
110	0xbc84319c	-0.016136937
111	0x3d45f3df	0.048328277
112	0xbdbff16e	-0.09372221
113	0xbc18aaca	-0.009318063
114	0x3d14b292	0.03630311
115	0xbdbc0eeb	-0.09182533
116	0xbd1f1984	-0.038842693
117	0xbc85d135	-0.01633511
118	0x3d4ab81e	0.049491994
119	0xbd6ffd76	-0.05859133
120	0xbdccecff	-0.10006141
121	0xbcd53041	-0.026023986
122	0xbd1534f9	-0.03642747
123	0xbaba773b	-0.0014226207
124	0xbd69d534	-0.057088092
125	0xbdbce0fd	-0.092226006
126	0x3df276fd	0.118391015
127	0x3dab4e0f	0.08364498
128	0x3d1cbdd1	0.03826696
129	0x3d95af35	0.07308809
130	0x3c3305d9	0.010926687
131	0x3de3c880	0.11122227
132	0x3d3bd9c0	0.04586196
133	0x3d8c9751	0.06864799
134	0x3e195035	0.14972003
135	0x3d1c48a2	0.038155206
136	0x3c5e39a4	0.013563547
137	0xbc863696	-0.01638345
138	0xbd211037	-0.039322104
139	0xbdd2a751	-0.10285819
140	0x3c3712c0	0.011173904
141	0x3c4f20ef	0.012642129
142	0x3c4c8036	0.01248174
143	0xbd9efae2	-0.07762696
144	0xbe0cf8ad	-0.13766737
145	0xbd78e986	-0.06076958
146	0xbdede2ba	-0.1161551
147	0xbe1d2829	-0.15347351
148	0xbe5c8ce1	-0.21538116
149	0xbd985b00	-0.07439232
150	0xbe519bf7	-0.20469652
151	0xbdcd678c	-0.100295156
152	0xbe013783	-0.12618832
153	0xbd501186	-0.05079796
154	0x3d3c537d	0.045978058
155	0x3cf50ff7	0.02991484
156	0xbc9a10a2	-0.01880676
157	0x3dcf4eb8	0.10122436
158	0x3ded4b8b	0.11586674
159	0x3d2216af	0.039572414
160	0x3bf55dae	0.007487974
161	0xbc4ac5f0	-0.012376294
162	0x3d01c960	0.031686187
163	0xbcf5e277	-0.030015213
164	0x3ca12a19	0.019673394
165	0x3d74bf8d	0.05975299
166	0x3da317ff	0.07963561
167	0x3d85b41e	0.06528495
168	0x3d90ad32	0.070642844
169	0x3db88f0b	0.09011658
170	0x3d4b13ef	0.049579557
171	0xbd0f8ddc	-0.035047397
172	0x3d73b44b	0.059498113
173	0x3da0ac3e	0.078453526
174	0x3daa0de5	0.083034314
175	0xbd3d735f	-0.046252605
176	0x3dcac4e4	0.09900835
177	0xbd4546c4	-0.04816319
178	0x3dae5ff0	0.085143924
179	0x3d494084	0.049133793
180	0xbb155932	-0.002278876
181	0xbe285d28	-0.16441786
182	0xbde98589	-0.11402423
183	0xbd198501	-0.037480358
184	0xbd9674ba	-0.073464826
185	0xbe4ae3b0	-0.19813418
186	0xbce2afc7	-0.027671708
187	0xbdfd6ac6	-0.12373881
188	0xbd873c3b	-0.06603285
189	0x3ccf1d0c	0.025282405
190	0x3c879a1c	0.016552977
191	0xbd4bba80	-0.049738407
192	0xbd62cd2b	-0.055371445
193	0x3d6bf85a	0.057609893
194	0x3d95aaf6	0.07307999
195	0xbc91c440	-0.017793775
196	0x3d8a7c75	0.067620195
197	0x3d1c3ee5	0.03814592
198	0xbebe06c4	-0.37114537
199	0xbeec5efd	-0.4616622
200	0xbebbffb6	-0.3671853
201	0xbec90a50	-0.3926568
202	0xbed760c5	-0.42066017
203	0xbec329fd	-0.38117972
204	0xbec12b9f	-0.37728593
205	0xbec218e8	-0.37909627
206	0xbebf343b	-0.37344536
207	0x3b348463	0.002754473
208	0x3dc14d54	0.09438577
209	0x3dcb0831	0.09913672
210	0x3d885957	0.06657665
211	0x3db7e2a2	0.08978774
212	0x3d2d23b3	0.042270374
213	0xbd013eff	-0.03155422
214	0x3d70ae1d	0.058759797
215	0x3c6fe3d7	0.014641724
216	0xbd9b499e	-0.07582401
217	0xbe1b4003	-0.15161137
218	0xbdb81b9f	-0.08989643
219	0xbd6ac93b	-0.057320815
220	0xbd2ccd1d	-0.0421878
221	0xbd59a6b4	-0.053137496
222	0xbca48b3a	-0.02008592
223	0xbd05331e	-0.032519452
224	0xbe3446d1	-0.1760514
225	0xbec3ccc3	-0.38242158
226	0xbec3b848	-0.38226533
227	0xbeee83db	-0.46584973
228	0xbec79860	-0.3898344
229	0xbeb9ca58	-0.3628719
230	0xbeacfb51	-0.3378549
231	0xbf0905b7	-0.53524345
232	0xbee176cf	-0.44035956
233	0xbee1c1f1	-0.44093278
234	0xbe060aea	-0.13090101
235	0xbdc29379	-0.095007844
236	0x3c835701	0.016032698
237	0xbd9b1785	-0.07572845
238	0xbdf9240f	-0.12165081
239	0xbd0c8308	-0.03430465
240	0xbb43bca4	-0.0029867077
241	0x3ccb2dd5	0.024802128
242	0x3ceb24cd	0.028704071
243	0x3d9eb2ad	0.077489235
244	0x3d3acca0	0.0456053
245	0xbc66cd51	-0.014087037
246	0xbca71158	-0.020394012
247	0xbc11bc83	-0.008895042
248	0x3ca93074	0.020652987
249	0x3d242763	0.040076625
250	0x3d24c10e	0.040223174
251	0x3d983d23	0.07433536
252	0x3c37102c	0.011173289
253	0xbd2d1bc8	-0.042262822
254	0x3d22f5a4	0.039785042
255	0x3d2efb53	0.04272015

net_list.5.bias f4 [8]
0	0x3e03483a	0.12820521
1	0x3debc6e5	0.115125455
2	0xbcc445ff	-0.023959158
3	0x3d8e310d	0.069429494
4	0xbc92ab2c	-0.017903887
5	0x3d08074b	0.03321008
6	0xbd3ce26b	-0.046114367
7	0x3e04b34d	0.12959023

net_list.7.weight f4 [1, 8, 3, 3]
0	0x3bee843f	0.0072789486
1	0x3e04a9c1	0.12955381
2	0x3d03d82a	0.032188572
3	0x3dcd29be	0.10017727
4	0xbd9fb40a	-0.077980116
5	0xbd49ce3c	-0.049268946
6	0xbdac63fa	-0.084175065
7	0xbdf31725	-0.11869649
8	0xbda895c7	-0.08231693
9	0x3e6f0faa	0.23345819
10	0x3e4b3bf0	0.19847083
11	0x3de157d2	0.110030785
12	0x3dff75bf	0.1247363
13	0x3d4b49e7	0.049631026
14	0x3db476eb	0.08811744
15	0x3c5a7fd9	0.013336145
16	0x3dd5d7a4	0.10441521
17	0x3dc55ab8	0.09636444
18	0xbe1d98d8	-0.15390337
19	0xbde3f839	-0.11131329
20	0x3d04b5fa	0.03240011
21	0xb9765e25	-0.0002349546
22	0xbc957a82	-0.018246893
23	0xbd106016	-0.035247885
24	0xbc35ef39	-0.011104398
25	0xbe127151	-0.1430104
26	0x3db4b48c	0.08823499
27	0x3e7a8717	0.24465595
28	0x3e4aeb02	0.19816211
29	0x3dd32111	0.10309041
30	0x3c9a5fb5	0.018844465
31	0x3dc7a1f4	0.09747687
32	0x3e3f1d23	0.18663459
33	0x3e25a2df	0.16175412
34	0x3e432cdd	0.19060083
35	0x3e3bd09a	0.18341294
36	0xbd87d57c	-0.06632516
37	0x3ddc2f97	0.107512645
38	0xbd2f84c4	-0.042851225
39	0x3d8fdc5f	0.07024454
40	0x3d04a316	0.032382093
41	0x3d934491	0.071908124
42	0xbdc02086	-0.09381203
43	0xbdec049e	-0.11524318
44	0xbc67b980	-0.014143348
45	0x3df3ab67	0.11897927
46	0x3da755a7	0.08170634
47	0xbbb6fdb1	-0.0055844416
48	0xbc095e1e	-0.008384256
49	0xbd94f9b4	-0.072741896
50	0xbda97894	-0.082749516
51	0x3da8d73e	0.08244179
52	0xbde6f6d8	-0.112775505
53	0xbdcd2125	-0.100160874
54	0x3ad44519	0.0016194909
55	0x3cbcf581	0.023066284
56	0xbdbc1e75	-0.09185497
57	0x3d1cfcee	0.03832715
58	0xbc80be75	-0.015715817
59	0xbdca40da	-0.09875651
60	0x3d710fb3	0.058852863
61	0x3d119968	0.03554669
62	0xbc55347c	-0.0130130015
63	0x3e46e6ef	0.19424032
64	0x3e40520a	0.18781295
65	0x3df17f31	0.11791838
66	0x3da20735	0.07911531
67	0x3e281671	0.1641481
68	0x3e273b47	0.16331206
69	0x3d663769	0.056205187
70	0x3dcba287	0.09943109
71	0x3d00967a	0.031393506
