QIENetV1_0_0/QIENet_FC4.pth (torch, 31059 bytes, 17 tensors)

net_list.0.weight_ih_l0 f4 [64, 16]
-0.044074316 0.13358557 0.16904539 -0.264941 -0.04111568 -0.06720588 0.6635942 -0.07617935
-0.05557022 -0.06285491 0.011867349 -0.46632242 0.32281008 0.19100675 0.12170368 -0.3124707
0.0797721 0.04403396 0.31010062 -0.24280702 -0.14954425 0.06321504 0.22002143 0.1621431
-0.04690727 0.2226885 -0.082798555 -0.1818953 0.5110337 0.2018051 0.59472966 0.17377427
-0.10082236 -0.35435963 -0.10230072 0.05894145 -0.25727037 -0.49595425 0.12778881 -0.19880477
-0.10597424 -0.23831877 0.19313005 -0.33115277 0.3017373 0.3055729 0.08036506 -0.28867772
-0.23951793 -0.37183002 0.005796048 -0.6113634 -0.122541726 -0.37323615 -0.30508476 -0.26737624
-0.23623466 -0.14337389 0.61037916 0.6724535 0.55401415 -0.10438788 -0.16597778 -0.7417511
-0.15016311 -0.23951529 -0.36014387 0.06637784 -0.41483325 -1.0309329 -0.81691235 -0.08630396
-0.11832626 -0.42337596 0.45548972 0.19851767 0.46876144 0.16866805 0.124044955 0.3289828
-0.26150927 -0.39065987 -0.21138974 -0.28188002 0.038361307 -0.028718399 1.1182424 0.30961728
0.39131272 0.14357595 0.07866708 -0.45520082 0.3735303 0.12864426 0.096320085 0.12616669
0.39985424 -0.020463495 0.15922594 0.048353575 0.051657144 0.3690794 -0.12395232 -0.41025025
-0.16520824 0.04592598 0.35077247 0.33611307 0.01240151 -0.046941996 -0.17650378 0.2828219
-0.15386894 0.058556456 0.090824686 0.05927539 0.037968937 -0.021179322 0.42993304 0.0521078
-0.055744648 0.071674034 -0.4125863 -0.063874625 -0.22280505 -0.111070834 0.36362395 -0.08784509
-0.26104477 -0.53839535 0.16917698 -0.20403473 -0.19292097 -0.09498772 0.3238647 -0.2492683
-0.15997918 0.29136825 -0.28949773 0.4541534 -0.15952738 0.5213419 0.36769035 -0.19326594
-0.934891 -0.93023545 -1.1837643 -1.1222731 -1.1908028 -1.3174019 -0.44433513 -0.15848677
-0.041962843 0.006884726 0.035691813 0.05841611 -0.04654473 0.24071728 0.06084119 0.1068701
-0.53262687 -0.3473501 -0.38940683 -0.50337064 -0.4008585 -0.11599226 -0.108851075 -0.5076082
-0.18158786 -0.007901702 0.19672589 -0.04282045 0.088743 -0.25383425 -0.32451677 0.61871344
-0.023280796 -0.11120586 -0.08576216 0.072143584 0.0416979 -0.034788296 0.08950237 -0.110083826
0.34953877 0.14727989 0.027052026 -0.34619156 0.06321669 0.07681214 -0.013749062 -0.011578628
0.022718566 -0.2743734 -0.1344363 0.15186077 -0.1860665 0.14207159 -0.02347337 -0.052500464
-0.37026367 -0.34860465 0.1792823 -0.06724023 -0.15736021 -0.027384175 -0.008928478 -0.18452884
-0.09903532 0.07562805 0.2884553 -0.14055045 -0.11822665 -0.16451053 0.25810537 0.003906577
-0.33286178 -0.10377237 -0.098455004 -0.24977121 0.008852681 0.17288326 0.28340214 -0.29690388
-1.3399563 -1.184806 -1.3240793 -1.3820633 -1.0497574 -1.1742426 -0.2934299 -0.10455395
0.1648944 0.21711715 -0.08230543 0.021548329 -0.045856234 0.08574528 0.1957443 -0.18395667
-0.31585908 -0.3686272 -0.046955798 -0.22549956 -0.34666333 -0.38297144 -0.8191081 -0.10928848
-0.029514683 0.098579176 0.866239 -0.49722418 1.0563468 0.57647544 0.029271368 0.060678735
00000000: 4587 34bd a8ca 083e 3c1a 2d3e 59a6 87be
00000010: ea68 28bd 3da3 89bd 4fe1 293f eb03 9cbd
00000020: 999d 63bd 13ba 80bd 456f 423c d0c1 eebe
00000030: 5d47 a53e 4697 433e c73f f93d 29fc 9fbe
00000040: 8e5f a33d f45c 343d 82c5 9e3e 67a2 78be
00000050: 2122 19be e376 813d 4c4d 613e d708 263e
00000060: d621 40bd 7408 643e 4a92 a9bd c342 3abe
00000070: 1bd3 023f ffa5 4e3e 3440 183f e2f1 313e
00000080: f47b cebd a06e b5be 0a83 d1bd 976c 713d
00000090: f1b8 83be b7ed fdbe 12db 023e 7a93 4bbe
000000a0: 0609 d9bd d609 74be e2c3 453e db8c a9be
000000b0: 507d 9a3e 0d74 9c3e 7096 a43d 91cd 93be
000000c0: 3044 75be 8160 bebe c6ec bd3b 5082 1cbf
000000d0: 28f7 fabd cf18 bfbe 1234 9cbe 8ae5 88be
000000e0: 80e7 71be 9bd0 12be cf41 1c3f ea25 2c3f
000000f0: dfd3 0d3f 50c9 d5bd 14f6 29be 66e3 3dbf
00000100: 5cc4 19be 7f43 75be c764 b8be 1bf1 873d
00000110: 0665 d4be 9cf5 83bf 2b21 51bf 21c0 b0bd
00000120: 0a55 f2bd bcc4 d8be f335 e93e 3748 4b3e
00000130: 8001 f03e 51b7 2c3e 480b fe3d 6f70 a83e
00000140: 8be4 85be 9204 c8be 8d76 58be 9452 90be
00000150: bf20 1d3d d942 ebbc 9122 8f3f 2886 9e3e
00000160: 245a c83e 9305 133e 351c a13d 1510 e9be
00000170: 5d3f bf3e 52bb 033e 7743 c53d d731 013e
00000180: b2b9 cc3e 0fa3 a7bc 200c 233e 660e 463d
00000190: 7196 533d faf7 bc3e b7da fdbd 520c d2be
000001a0: 592c 29be e11c 3c3d 7398 b33e 0317 ac3e
000001b0: b42f 4b3c 4046 40bd 68bd 34be 08ce 903e
000001c0: d28f 1dbe e5d8 6f3d 4b02 ba3d c0ca 723d
000001d0: 5185 1b3d 4280 adbc 2f20 dc3e fd6e 553d
000001e0: 8054 64bd d6c9 923d 833e d3be b3d0 82bd
000001f0: 0227 64be 1b79 e3bd eb2c ba3e 20e8 b3bd
00000200: a9a7 85be 47d4 09bf bb3c 2d3e 7bee 50be
00000210: 138d 45be ec88 c2bd 98d1 a53e 3040 7fbe
00000220: 95d1 23be 382e 953e 0c39 94be cb86 e83e
00000230: 255b 23be aa76 053f e941 bc3e 82e7 45be
00000240: 0455 6fbf e923 6ebf 9785 97bf a5a6 8fbf
00000250: 3a6c 98bf a0a0 a8bf e57f e3be 5b4a 22be
00000260: 3be1 2bbd 4599 e13b 9431 123d bb45 6f3d
00000270: b0a5 3ebd 977e 763e 9d34 793d b6de da3d
00000280: 3c5a 08bf dfd7 b1be 5560 c7be e6dc 00bf
00000290: 533d cdbe 5a8d edbd 50ed debd 9cf2 01bf
000002a0: 2bf2 39be 2476 01bc 8372 493e 7f64 2fbd
000002b0: e4be b53d 90f6 81be 1027 a6be 0164 1e3f
000002c0: 5eb7 bebc e6bf e3bd 12a4 afbd 04c0 933d
000002d0: 6bcb 2a3d 2c7e 0ebd 054d b73d a173 e1bd
000002e0: bff6 b23e 8ad0 163e 369c dd3c 0540 b1be
000002f0: c177 813d af4f 9d3d bf43 61bc 49b4 3dbc
00000300: 491c ba3c ac7a 8cbe aba9 09be 6481 1b3e
00000310: 3788 3ebe 377b 113e 3a4b c0bc ba0a 57bd
00000320: 3393 bdbe 4f7c b2be c795 373e 3fb5 89bd
00000330: 0923 21be c754 e0bc c048 12bc 21f5 3cbe
00000340: 08d3 cabd e1e2 9a3d 6ab0 933e 75ec 0fbe
00000350: d020 f2bd 7375 28be 6326 843e be02 803b
00000360: dc6c aabe 9c86 d4bd c7a2 c9bd 06c4 7fbe
00000370: d60a 113c 4f08 313e 161a 913e c903 98be
00000380: b083 abbf b9a7 97bf 6e7b a9bf 73e7 b0bf
00000390: 735e 86bf 954d 96bf 723c 96be 6220 d6bd
000003a0: 14da 283e f553 5e3e c08f a8bd 1f86 b03c
000003b0: bfd3 3bbd 399b af3d 3271 483e 235f 3cbe
000003c0: 48b8 a1be b4bc bcbe b954 40bd 5be9 66be
000003d0: db7d b1be d514 c4be 12b1 51bf a3d2 dfbd
000003e0: c7c8 f1bc e1e3 c93d d7c1 5d3f 2b94 febe
000003f0: 5f36 873f e593 133f 82ca ef3c 448a 783d

net_list.0.weight_hh_l0 f4 [64, 16]
-0.46015683 0.058499563 0.081418015 -0.0817262 -0.049358126 -0.019866418 -0.13417925 0.040394012
0.03491814 -0.006003892 -0.023132874 -0.20271245 -0.26682517 -0.24073027 0.14687799 -0.54303294
-0.13310282 -0.283582 0.067188144 0.24331051 -0.11034433 0.033536103 -0.048471715 -0.100605324
0.049630955 -0.061850984 -0.00086264795 -0.21512014 0.112763755 -0.24289924 -0.07569602 -0.19766776
0.08822578 -0.20356026 0.24105532 0.15996958 0.07322067 0.06802793 0.22037336 -0.16458952
-0.015959252 -0.006620977 0.08977463 0.09130059 -0.056682996 -0.15852708 0.16633388 -0.43151477
-0.31666607 -0.35872355 -0.06458049 0.116181746 0.075221844 -0.27596265 -0.20018876 -0.37398985
0.22361763 -0.38367185 0.12706502 0.05781925 -0.29278022 -0.22548127 -0.022036651 -0.45039505
-0.03257455 -0.53040147 -0.12471401 0.0009962354 -0.22454514 0.03566036 -0.13091469 -0.114009164
-0.007988727 -0.17098898 -0.15117994 -0.07227244 -0.14983562 0.08727239 0.3570643 -0.39975178
-0.33181462 0.08643252 0.25112948 0.47577748 -0.19929007 0.048209973 0.008223883 0.1765266
-0.040348478 0.11894948 -0.113015376 -0.029317055 0.24135225 -0.2541088 0.12733363 -0.34223628
0.054742776 -0.063700385 0.03248638 0.08539512 -0.055725217 -0.32231885 0.18752347 -0.051357813
0.16662985 -0.12955028 -0.05799135 0.07585297 0.33842742 -0.037185617 0.08810847 0.084259585
-0.19480607 -0.30579767 0.08032306 0.2449251 -0.049954504 -0.008634389 0.039865356 0.13902774
-0.07198975 0.027302338 0.043577097 -0.3449276 -0.33962932 -0.022645673 -0.038320612 0.13606715
-0.077879444 0.21384527 -0.08705077 -0.03035243 -0.3275971 0.029128173 -0.1448771 -0.17176257
-0.07725948 -0.27926755 -0.15217084 -0.07298905 0.034508552 -0.19723114 0.17531125 0.033819716
-0.03695359 -0.08924073 -0.29778358 -0.07530655 0.009148036 -0.17646146 -0.27056614 -0.20609094
-0.13716018 -0.31315196 -0.5148659 -0.03855262 -0.24746142 -0.36993906 0.32674405 0.15143925
-0.23260948 -0.018752655 -0.3144624 -0.21116361 -0.0833805 -0.25890148 -0.08444733 -0.04146654
-0.14820646 -0.10897264 -0.36377257 -0.1274803 0.024869826 -0.10756382 0.029291974 0.16896151
0.03779426 -0.08187328 -0.12730664 -0.12471665 0.17064984 0.083726205 -0.31265137 -0.23885326
0.06541899 -0.3621217 -0.22130843 -0.2694808 0.24689102 0.040395528 0.40039283 -0.14786176
-0.36281183 -0.42432284 -0.387768 -0.013176072 -0.07295594 -0.122251645 0.08291863 -0.2715097
0.44194198 -0.24867028 -0.024894414 0.048517898 -0.49170452 -0.29099318 0.20585161 -0.27003145
-0.06328272 -0.26454866 -0.10719622 -0.0038630771 -0.19773911 -0.25302327 0.038241267 -0.273406
0.2062495 0.054387916 -0.0025250076 0.081246436 -0.19763039 0.103524275 0.31809688 -0.1879883
-0.056679934 -0.6439799 -0.4713125 0.312334 0.08238018 -0.3195799 -0.4303738 -0.3324066
-0.15514567 -0.5529354 -0.3518298 -0.31823117 -0.16358808 -0.42885837 0.4474632 -0.19569804
-0.1378678 0.23975718 0.36456385 0.22962916 -0.24134445 -0.054499276 0.14976464 0.38925534
0.14471185 0.24050696 0.01829811 0.17371924 0.30005386 -0.09336815 -0.3275193 -0.15747276
00000000: ad99 ebbe 3d9d 6f3d 7dbe a63d 1160 a7bd
00000010: bf2b 4abd e6be a2bc 4966 09be 3174 253d
00000020: 5306 0f3d 4cbc c4bb 2781 bdbc da93 4fbe
00000030: 4f9d 88be ff81 76be 2f67 163e 3504 0bbf
00000040: 1b4c 08be a931 91be f099 893d 6426 793e
00000050: 35fc e1bd 275d 093d 478a 46bd 2a0a cebd
00000060: d449 4b3d 7557 7dbd 5323 62ba 7448 5cbe
00000070: aff0 e63d 94ba 78be 8406 9bbd 6b69 4abe
00000080: b8af b43d 1a72 50be 35d7 763e 11cf 233e
00000090: b8f4 953d 3a52 8b3d 8ea9 613e 288a 28be
000000a0: fabc 82bc c8f4 d8bb c3db b73d cefb ba3d
000000b0: 6e2c 68bd ec54 22be 6e53 2a3e 81ef dcbe
000000c0: 0e22 a2be 9daa b7be c742 84bd b2f0 ed3d
000000d0: e90d 9a3d fa4a 8dbe 48fe 4cbe 997b bfbe
000000e0: 05fc 643e a370 c4be 551d 023e e1d3 6c3d
000000f0: 4ae7 95be 90e4 66be 3586 b4bc 2e9a e6be
00000100: e46c 05bd 64c8 07bf 0f6a ffbd 1d94 823a
00000110: 29ef 65be 9910 123d 800e 06be a37d e9bd
00000120: 26e3 02bc bc17 2fbe eace 1abe 9303 94bd
00000130: 826e 19be debb b23d 22d1 b63e 44ac ccbe
00000140: 9be3 a9be 8803 b13d 0b94 803e 1b99 f33e
00000150: b212 4cbe d277 453d 77bd 063c 64c3 343e
00000160: 7244 25bd c99b f33d 9b74 e7bd 522a f0bc
00000170: 0b25 773e 8c1a 82be bf63 023e 9839 afbe
00000180: f639 603d 5975 82bd 7010 053d a3e3 ae3d
00000190: 2040 64bd fa06 a5be 2706 403e 925c 52bd
000001a0: 04a1 2a3e d4a8 04be 5688 6dbd cd58 9b3d
000001b0: 5c46 ad3e f24f 18bd 3772 b43d 4a90 ac3d
000001c0: 3e7b 47be 8391 9cbe 6b80 a43d a5cd 7a3e
000001d0: 189d 4cbd 4177 0dbc db49 233d 4a5d 0e3e
000001e0: 5d6f 93bd 27a9 df3c e67d 323d 5a9a b0be
000001f0: e5e3 adbe 6b83 b9bc 13f6 1cbd 3055 0b3e
00000200: 427f 9fbd 41fa 5a3e ad47 b2bd a9a5 f8bc
00000210: cfba a7be 359e ee3c aa5a 14be 87e2 2fbe
00000220: 383a 9ebd 28fc 8ebe acd2 1bbe 487b 95bd
00000230: d758 0d3d f6f6 49be cb84 333e 8b86 0a3d
00000240: a65c 17bd d8c3 b6bd 1777 98be 523a 9abd
00000250: a5e1 153c 50b2 34be a587 8abe 8109 53be
00000260: b873 0cbe 7455 a0be 40ce 03bf 5ae9 1dbd
00000270: 8766 7dbe a768 bdbe ff4a a73e e412 1b3e
00000280: 2e31 6ebe 2b9f 99bc 3701 a1be 463b 58be
00000290: 65c3 aabd bc8e 84be b9f2 acbd d2d8 29bd
000002a0: 6fc3 17be 0c2d dfbd 6640 babe 328a 02be
000002b0: cebb cb3c 6c4a dcbd b9f5 ef3c 3f04 2d3e
000002c0: 27ce 1a3d 2ead a7bd ac5c 02be 716b ffbd
000002d0: d5be 2e3e a578 ab3d d713 a0be f395 74be
000002e0: 64fa 853d 0468 b9be ad9e 62be 63f9 89be
000002f0: 00d1 7c3e c875 253d 4a00 cd3e 1369 17be
00000300: 79c2 b9be d840 d9be 8789 c6be 74e0 57bc
00000310: ed69 95bd 125f fabd 3ed1 a93d 5203 8bbe
00000320: 3846 e23e 6ca3 7ebe 5fef cbbc b4ba 463d
00000330: b2c0 fbbe 0ffd 94be c4ca 523e 9041 8abe
00000340: 5f9a 81bd ec72 87be b189 dbbd ae2b 7dbb
00000350: 1f7c 4abe 448c 81be e0a2 1c3d dffb 8bbe
00000360: 1233 533e ddc5 5e3d 997a 25bb 8864 a63d
00000370: 9f5f 4abe 8904 d43d 98dd a23e 0180 40be
00000380: 3829 68bd dedb 24bf df4f f1be 3eea 9f3e
00000390: f1b6 a83d fa9f a3be f459 dcbe 3331 aabe
000003a0: 82de 1ebe 2d8d 0dbf 0923 b4be 32ef a2be
000003b0: a283 27be 5393 dbbe e619 e53e 1165 48be
000003c0: 372d 0dbe e882 753e 1da8 ba3e e823 6b3e
000003d0: 0023 77be a23a 5fbd e75b 193e 7a4c c73e
000003e0: 582f 143e 7547 763e ebe5 953c 75e3 313e
000003f0: a9a0 993e cd37 bfbd 9cb0 a7be 8a40 21be

net_list.0.bias_ih_l0 f4 [64]
0.10913132 0.2843248 0.011245792 0.022347098 0.39978203 0.17671867 0.0706146 0.21714705
0.2783723 1.011014 0.24417567 -0.16575505 0.11142569 0.06892293 1.1359438 -0.20895875
-0.27833295 -0.041336883 -0.06844031 -0.08128104 -0.1459814 0.08143611 -0.3207722 0.18861383
-0.26009792 0.622971 0.28762275 0.2850638 0.09443156 -0.28998512 0.76421696 -0.41231173
0.04978637 -0.27518132 -0.31713542 0.14234991 -0.073515214 -0.44237077 -0.13309206 -0.53583056
0.019283429 -0.86704755 -0.109107204 -0.1040252 -0.16781245 -0.32556665 0.9836578 0.17855813
0.24435337 0.10223659 0.04271322 0.23264392 -0.15208085 0.05299769 0.09326417 0.04162577
0.42182752 0.45602956 0.019227592 0.1730584 0.0106342705 0.06824322 0.488223 -0.39679018
00000000: 3e80 df3d 0593 913e 4540 383c 4311 b73c
00000010: 3bb0 cc3e bdf5 343e 639e 903d cc5b 5e3e
00000020: d086 8e3e e868 813f 3009 7a3e b1bb 29be
00000030: 2733 e43d 7727 8d3d 9b66 913f 48f9 55be
00000040: a881 8ebe dd50 29bd 6f2a 8cbd ad76 a6bd
00000050: 267c 15be fac7 a63d 413c a4be fc23 413e
00000060: 8e2b 85be 077b 1f3f 4a43 933e e2f3 913e
00000070: 5565 c13d ee78 94be b9a3 433f 861a d3be
00000080: cbec 4b3d 91e4 8cbe 935f a2be 2dc4 113e
00000090: 258f 96bd 6c7e e2be 4949 08be 312c 09bf
000000a0: 48f8 9d3c d4f6 5dbf 9973 dfbd 2a0b d5bd
000000b0: 07d7 2bbe acb0 a6be ffd0 7b3f f1d7 363e
000000c0: c537 7a3e 6b61 d13d 0ff4 2e3d 353a 6e3e
000000d0: 15bb 1bbe 1b14 593d 4901 bf3d c97f 2a3d
000000e0: c7f9 d73e b57c e93e 2f83 9d3c 3936 313e
000000f0: 5d3b 2e3c 1ac3 8b3d 5df8 f93e 1528 cbbe

net_list.0.bias_hh_l0 f4 [64]
0.023441002 0.017208505 0.18502267 0.19396995 0.035653114 0.28966907 0.113238625 0.21314284
0.23634112 1.1107634 0.24523887 -0.22999914 0.2281269 0.26742396 1.109012 -0.25904962
0.06769238 -0.03077745 0.20411289 -0.097846836 -0.14375767 -0.022926187 0.025779597 -0.027142199
-0.30290902 0.3946013 -0.07962443 0.25862867 0.04231675 0.09372451 0.44163808 -0.19517802
0.1804151 -0.27522552 -0.29892734 0.13219766 0.32242253 -0.19881913 -0.2665168 -0.24301285
0.27972758 -0.5764246 -0.4410013 -0.18024026 -0.50414294 -0.037322298 0.5495588 -0.11370192
0.23203914 0.36920565 0.23130043 0.37074357 0.21573542 0.10111597 0.2885886 0.23989576
0.10770826 0.3074923 0.21712095 0.05987 0.19252886 -0.10883305 0.26342955 -0.24309471
00000000: 5807 c03c daf8 8c3c 9576 3d3e 0fa0 463e
00000010: 0009 123d 814f 943e a7e9 e73d 1e42 5a3e
00000020: 6803 723e 7f2d 8e3f e61f 7b3e e584 6bbe
00000030: 199a 693e cbeb 883e 1bf4 8d3f 27a2 84be
00000040: 4da2 8a3d fe20 fcbc f802 513e ec63 c8bd
00000050: 3635 13be b3cf bbbc bc2f d33c 5159 debc
00000060: e416 9bbe 2e09 ca3e 2212 a3bd fa6a 843e
00000070: 5454 2d3d a3f2 bf3d 631e e23e bfdc 47be
00000080: bcbe 383e 5cea 8cbe 010d 99be d35e 073e
00000090: 9114 a53e 3e97 4bbe e474 88be 5cd8 78be
000000a0: 7438 8f3e 9090 13bf ecca e1be e790 38be
000000b0: 830f 01bf 44df 18bd e3af 0c3f 8ddc e8bd
000000c0: ab9b 6d3e 8608 bd3e 05da 6c3e 1ad2 bd3e
000000d0: bfe9 5c3e e415 cf3d e3c1 933e 3ca7 753e
000000e0: 2696 dc3d a16f 9d3e f454 5e3e 3f3a 753d
000000f0: 4926 453e dde3 debd 3de0 863e d2ed 78be

net_list.0.weight_ih_l1 f4 [64, 16]
-0.006684391 -0.2721812 -0.27720436 0.29749793 -0.5056375 -0.3552617 -0.2613822 -0.08971782
0.21358834 -0.21839458 0.08022845 -0.17786518 -0.015333145 -0.108495824 0.02294788 0.41905317
0.4996177 -0.40139443 -0.28583544 0.28522497 -0.2826191 -0.6340138 -0.17415798 -0.18403906
0.30885258 -0.76679003 -0.44043237 -0.20885484 -0.379861 0.0379368 0.72955006 0.41785136
-0.25536817 0.042541962 -0.092252634 0.1988455 -0.22747627 -0.33657214 -0.08885726 -0.31951898
0.32935503 -0.07144388 -0.23427662 -0.18950282 -0.45039907 -0.26095995 0.12169175 -0.15596808
0.26856276 -0.6173529 -0.22967474 -0.15121058 -0.23235664 -0.68371487 -0.580171 -0.65616
-0.12074433 -0.4445495 -0.0977841 -0.50846756 -0.5530173 -0.70032674 0.43046215 -0.24795349
0.26968133 -0.72808975 -0.30622956 -0.05144011 0.4607998 -0.37664622 -0.3552758 -0.67838764
-0.25068587 -0.38366103 -0.5101047 -0.35600308 -0.24242577 -0.55952317 0.31139442 0.49234405
0.42213094 -0.093155295 -0.016581288 -0.45955777 -0.3630483 -0.6674447 -0.4839633 0.05766866
0.22630681 -0.45284858 -0.37300143 -0.5699139 -0.26736736 -0.97721833 0.07143425 0.39919493
0.4601905 -0.38762027 -0.20056039 0.30467725 -0.24174796 -0.39368603 -0.22761717 -0.37455437
0.033364706 -0.2560815 -0.15817322 -0.46021596 -0.23039545 -0.61380213 0.48152775 0.12286572
0.051118437 -0.32394546 -0.33138147 0.31089738 0.09293246 -0.43812835 -0.5731479 -0.18981032
-0.2602521 -0.7948597 -0.6449721 -0.748427 -0.25873616 -0.8782509 0.54483396 0.20269307
-0.05680881 -0.0256754 0.2347853 -0.48261315 -0.20946787 0.057969213 -0.16994746 -0.14809012
0.012810773 0.17027888 -0.16403997 -0.055236477 -0.24315701 -0.32177287 0.037074137 0.039353058
0.19058973 -0.20572048 -0.33249944 0.061258767 -0.037099995 -0.24433109 -0.3529415 -0.02023991
0.066025995 -0.34654394 -0.6993402 -0.3192428 -0.26786003 -0.32904202 0.56353307 0.610706
0.04194181 0.054597598 0.024651073 -0.32021323 0.11125993 -0.36382598 -0.06853394 -0.26007086
0.20237188 -0.22240262 -0.07979101 -0.2240065 -0.025672376 -0.18153092 0.26115254 -0.20036596
0.024282714 0.002253075 -0.26208788 -0.122011915 0.29853797 0.051865052 -0.13325839 -0.022791775
0.21612772 -0.21399407 -0.23942119 -0.16007137 -0.1527178 -0.30185917 -0.10586617 -0.2645977
0.0916759 -0.19509685 -0.0495284 0.12318282 0.2436706 0.1936498 -0.008280627 -0.17918022
-0.058928557 -0.06274107 0.032954454 -0.31382337 0.1674152 -0.27951968 0.1462244 -0.14438479
0.3940658 -0.46680135 -0.41996625 -0.09772383 0.21940005 -0.4640899 -0.5629244 -0.60827565
-0.12244176 -0.5010834 -0.26185027 -0.3072928 -0.27850783 -1.0924753 0.2600207 0.38262308
-0.4855153 -0.2925296 -0.43262312 0.5935502 0.14981093 -0.14231955 -0.15997052 -0.46961194
-0.74020857 -0.1670761 -0.5428585 -0.4822712 -0.37168097 -0.17533673 0.39742398 0.31408635
0.4381491 -0.07229134 0.031045126 0.7308482 0.11779282 -0.6469338 -0.27367568 0.101810046
-1.6286402 -0.44634154 0.10108763 -0.46105555 -0.25722998 -0.6260798 -0.12277054 1.2593663
00000000: bc08 dbbb 565b 8bbe bbed 8dbe a651 983e
00000010: 7671 01bf dde4 b5be e3d3 85be fabd b7bd
00000020: e7b6 5a3e d4a2 5fbe d04e a43d 4a22 36be
00000030: df37 7bbc 0f33 debd 31fd bb3c 238e d63e
00000040: e4cd ff3e 9283 cdbe 0659 92be 0209 923e
00000050: 73b3 90be ba4e 22bf 7856 32be bc74 3cbe
00000060: ed21 9e3e 5a4c 44bf 5a80 e1be 0bde 55be
00000070: 247d c2be 9e63 1b3d cbc3 3a3f 9df0 d53e
00000080: 9ebf 82be 7b40 2e3d f3ee bcbd 289e 4b3e
00000090: 8aef 68be 2f53 acbe ccfa b5bd fe97 a3be
000000a0: 39a1 a83e 2b51 92bd 36e6 6fbe 070d 42be
000000b0: b59a e6be 8b9c 85be 8639 f93d 19b6 1fbe
000000c0: 0f81 893e d70a 1ebf db2f 6bbe f2d6 1abe
000000d0: e6ee 6dbe f007 2fbf 1686 14bf 1afa 27bf
000000e0: ce48 f7bd fe9b e3be 0843 c8bd ee2a 02bf
000000f0: 8b92 0dbf 9d48 33bf 8965 dc3e 85e7 7dbe
00000100: ac13 8a3e 1764 3abf 1fca 9cbe ddb2 52bd
00000110: f4ed eb3e c6d7 c0be b6e6 b5be d0aa 2dbf
00000120: e659 80be 386f c4be 3996 02bf 0946 b6be
00000130: 763e 78be e93c 0fbf 176f 9f3e 8514 fc3e
00000140: 8c21 d83e 34c8 bebd 7bd5 87bc 284b ebbe
00000150: 77e1 b9be a8dd 2abf 0aca f7be f935 6c3d
00000160: f9bc 673e c5db e7be 0bfa bebe e1e5 11bf
00000170: 60e4 88be fb2a 7abf 1f4c 923d 4763 cc3e
00000180: 179e eb3e 2a76 c6be b45f 4dbe a8fe 9b3e
00000190: c78c 77be 3791 c9be 7a14 69be 97c5 bfbe
000001a0: 6ea9 083d 1d1d 83be 29f8 21be 6da1 ebbe
000001b0: c9ec 6bbe 2322 1dbf ce8a f63e 06a1 fb3d
000001c0: 9161 513d 2edc a5be d5aa a9be f12d 9f3e
000001d0: 6053 be3d 5c52 e0be d2b9 12bf a35d 42be
000001e0: c33f 85be ed7b 4bbf e41c 25bf e998 3fbf
000001f0: 1179 84be 0dd5 60bf 3d7a 0b3f c68e 4f3e
00000200: 5bb0 68bd 3755 d2bc 8f6b 703e 1219 f7be
00000210: bf7e 56be 2071 6d3d b506 2ebe f0a4 17be
00000220: 47e4 513c 965d 2e3e 18fa 27be a53f 62bd
00000230: 27fe 78be 6abf a4be 0ddb 173d ac30 213d
00000240: f429 433e 64a8 52be 5e3d aabe 79ea 7a3d
00000250: 2af6 17bd ee31 7abe c0b4 b4be 2bce a5bc
00000260: a338 873d 356e b1be f607 33bf cb73 a3be
00000270: f324 89be 3278 a8be b443 103f 3a57 1c3f
00000280: 2dcb 2b3d bba1 5f3d 0cf1 c93c fdf2 a3be
00000290: 3fdc e33d 6647 babe 865b 8cbd 0228 85be
000002a0: 933a 4f3e 83bd 63be 7869 a3bd f661 65be
000002b0: e04e d2bc 3ee3 39be c9b5 853e bc2c 4dbe
000002c0: 8bec c63c 53a8 133b 6230 86be 62e1 f9bd
000002d0: f8d9 983e 7370 543d e374 08be d1b5 babc
000002e0: 9650 5d3e 4321 5bbe d42a 75be c0e9 23be
000002f0: 0e62 1cbe 498d 9abe 5dd0 d8bd 5a79 87be
00000300: 93c0 bb3d 78c7 47be 4bde 4abd 4647 fc3d
00000310: c984 793e 224c 463e 78ab 07bc 057b 37be
00000320: 125f 71bd 647e 80bd 40fb 063d 75ad a0be
00000330: e46e 2b3e 341d 8fbe d9bb 153e 9bd9 13be
00000340: fec2 c93e 9600 efbe d105 d7be 6e23 c8bd
00000350: 68aa 603e 319d edbe d01b 10bf f4b7 1bbf
00000360: bfc2 fabd 0047 00bf 3d11 86be 7b55 9dbe
00000370: 9498 8ebe 3bd6 8bbf 6f21 853e 2ce7 c33e
00000380: 7695 f8be 71c6 95be c780 ddbe e8f2 173f
00000390: 0968 193e 37bc 11be 50cf 23be fa70 f0be
000003a0: 4f7e 3dbf ff15 2bbe c6f8 0abf 40ec f6be
000003b0: f84c bebe 798b 33be 287b cb3e edcf a03e
000003c0: 1455 e03e 7b0d 94bd 5952 fe3c de18 3b3f
000003d0: 5d3d f13d 749d 25bf 381f 8cbe c981 d03d
000003e0: 4877 d0bf e186 e4be 0807 cf3d 790f ecbe
000003f0: a6b3 83be c446 20bf 1f6f fbbd ea32 a13f

net_list.0.weight_hh_l1 f4 [64, 16]
-0.0245616 0.0075005656 0.26611876 0.0794863 0.021678604 -0.27613565 -0.27230346 0.040008977
0.20997119 0.09350402 0.03364327 0.11936301 0.12478172 0.15428898 0.3602162 -0.1578878
-0.01232309 -0.1520081 -0.033262078 0.2754843 0.5325858 -0.18575062 -0.2600575 0.2738884
0.19622427 0.1265179 0.035086814 -0.17857312 -0.01292601 0.21439394 0.5331098 -0.31497216
-0.04471548 -0.18244514 0.052524064 0.107594006 0.25158492 -0.05164183 0.1908847 0.48284468
0.26050338 -0.005448805 0.27040434 -0.41368514 -0.0155454045 0.37017545 0.39561507 -0.08041762
-0.4051689 -0.5283868 0.4647509 -0.3790319 0.22493888 0.15997462 0.27724016 0.1698173
0.45212993 -0.5260121 0.492173 -0.2446845 0.68206316 -0.25255334 0.44098306 0.3834186
-0.42524776 -0.3460705 0.58447725 -0.59650403 0.56226766 0.35320005 0.49497125 -0.50897306
0.7277363 -0.25642675 0.52962327 -0.525329 0.5952597 -0.48605773 0.23096517 0.20645298
-0.31862587 -0.12688828 0.16850504 -0.3355063 0.37079725 0.111335866 0.2895958 -0.08908105
-0.020843474 -0.10880321 0.31728533 -0.13762037 0.30356115 -0.5297725 -0.17732371 0.08187853
-0.20802757 -0.6236961 0.23864894 -0.49429148 0.18927006 0.18578584 0.08021186 -0.21407986
0.13745685 -0.5437281 0.3926764 -0.4545961 0.18042056 -0.10736288 0.40713647 0.10410165
-0.21203251 -0.18066029 0.5257157 -0.47596627 0.25008172 0.49817103 0.27659437 -0.27610418
0.22574453 -0.38377234 0.44364747 -0.49571687 0.3581849 -0.35191488 0.14439347 0.14290722
-0.30582875 -0.3443775 0.19859596 0.16745639 -0.040254384 -0.0944318 0.091627344 0.16969718
-0.051269148 -0.2329313 -0.09861947 -0.17515208 0.011578982 0.06365089 0.45137355 0.23919828
-0.35546234 -0.22781742 -0.041662574 -0.017231606 0.13190968 -0.18287033 0.044483304 0.27307728
0.06694668 -0.15375741 0.086111896 0.062562175 0.40052488 0.28454262 0.46273527 0.28644025
-0.33942115 -0.29971334 0.32333735 0.16799305 -0.13115546 -0.1983827 0.12111589 -0.01812083
-0.172234 -0.017069768 -0.011833119 -0.13353589 -0.06219565 0.025132835 -0.17810334 0.13049078
-0.19168161 -0.22742826 -0.046132877 -0.2412901 -0.08484903 0.25841892 0.15128522 -0.12450804
0.047112774 -0.17984213 0.1061776 -0.0028597654 -0.17592874 -0.39285812 0.11620311 0.17559776
-0.01307584 0.062204152 0.34722176 0.076306105 0.24552266 0.2902991 0.3555891 -0.12214674
-0.002536183 -0.10605448 0.35256225 -0.21788244 0.05170648 -0.076231174 -0.03266221 0.1707013
-0.31606323 -0.47380495 0.16125637 -0.6278675 0.3078807 0.35753933 0.17898141 -0.3326531
0.5399313 -0.2684531 0.20810561 -0.47894755 0.19645742 -0.17477055 0.43259066 0.53355885
-0.6113596 -0.47625613 0.42291948 -0.67740786 0.60915196 0.573245 0.6564601 -0.47834232
0.6219267 -0.65876347 0.530527 -0.46164238 0.18492073 -0.47531956 0.34943503 0.066878706
-0.24942216 0.08660128 0.11005894 0.08723808 0.25926343 -0.14340775 -0.17124227 0.39794528
-0.07595604 -0.31088582 0.14680673 -0.2108772 0.33273602 0.31798357 0.3662837 -0.14061615
00000000: 6935 c9bc 4ec7 f53b b840 883e b7c9 a23d
00000010: 5497 b13c a761 8dbe 5c6b 8bbe 74e0 233d
00000020: b002 573e 097f bf3d 87cd 093d 9874 f43d
00000030: 8f8d ff3d eefd 1d3e 426e b83e 57ad 21be
00000040: c9e6 49bc 03a8 1bbe d13d 08bd 470c 8d3e
00000050: 8b57 083f 6935 3ebe 4226 85be 1a3b 8c3e
00000060: 04ef 483e e98d 013e 31b7 0f3d dfdb 36be
00000070: 9ec7 53bc 168a 5b3e e279 083f 0844 a1be
00000080: 9427 37bd e6d2 3abe 7923 573d 3f5a dc3d
00000090: bdcf 803e 6286 53bd 4777 433e 6b37 f73e
000000a0: b360 853e e48b b2bb 7072 8a3e 8ace d3be
000000b0: 27b2 7ebc a387 bd3e 0f8e ca3e feb1 a4bd
000000c0: 4c72 cfbe 5b44 07bf d4f3 ed3e 7810 c2be
000000d0: 6156 663e 63d0 233e 6cf2 8d3e 96e4 2d3e
000000e0: 937d e73e bba8 06bf 19fe fb3e 938e 7abe
000000f0: b19b 2e3f ac4e 81be 88c8 e13e 714f c43e
00000100: 13ba d9be 2730 b1be 4da0 153f 7db4 18bf
00000110: c6f0 0f3f a3d6 b43e df6c fd3e 0f4c 02bf
00000120: ed4c 3a3f 5e4a 83be 6495 073f f67b 06bf
00000130: f162 183f 8fdc f8be 2282 6c3e 6968 533e
00000140: ee22 a3be 00ef 01be 968c 2c3e 7bc7 abbe
00000150: 23d9 bd3e 0f04 e43d e745 943e 2070 b6bd
00000160: efbf aabc 38d4 debd 3973 a23e 5bec 0cbe
00000170: 5e6c 9b3e 2c9f 07bf 5994 35be eeaf a73d
00000180: 2e05 55be 8caa 1fbf 6360 743e c613 fdbe
00000190: 03d0 413e a53e 3e3e 1e46 a43d c037 5bbe
000001a0: 7dc1 0c3e c431 0bbf e20c c93e d2c0 e8be
000001b0: 2bc0 383e 12e1 dbbd 3174 d03e 3f33 d53d
000001c0: 0d1f 59be 03ff 38be 4e95 063f dab1 f3be
000001d0: b60a 803e 4610 ff3e c79d 8d3e 875d 8dbe
000001e0: 9329 673e cf7d c4be c325 e33e 9ace fdbe
000001f0: 0364 b73e 302e b4be e2db 133e 4556 123e
00000200: 9695 9cbe 3f52 b0be bd5c 4b3e b079 2b3e
00000210: c8e1 24bd 7665 c1bd 1ea7 bb3d 19c5 2d3e
00000220: 99ff 51bd 8b85 6ebe 01f9 c9bd 115b 33be
00000230: c5b5 3d3c 665b 823d 6f1a e73e 65f0 743e
00000240: 29ff b5be f848 69be 60a6 2abd 4c29 8dbc
00000250: 5513 073e 5c42 3bbe 2034 363d c9d0 8b3e
00000260: 571b 893d 9572 1dbe 6f5b b03d 9920 803d
00000270: 9911 cd3e 92af 913e a3eb ec3e 4ca8 923e
00000280: 9cc8 adbe 0774 99be 798c a53e 5f06 2c3e
00000290: 9e4d 06be d624 4bbe 9c0b f83d 2372 94bc
000002a0: 1c5e 30be e6d5 8bbc b3df 41bc a2bd 08be
000002b0: dec0 7ebd 60e3 cd3c b960 36be 609f 053e
000002c0: 2f48 44be f4e2 68be d4f5 3cbd c114 77be
000002d0: 54c5 adbd 7c4f 843e 83ea 1a3e 12fe febd
000002e0: 53f9 403d 8928 38be a473 d93d e76a 3bbb
000002f0: aa26 34be b324 c9be e5fb ed3d e6cf 333e
00000300: 0c3c 56bc c8c9 7e3d 0dc7 b13e 6046 9c3d
00000310: 4b6a 7b3e 15a2 943e c60f b63e 1228 fabd
00000320: 1736 26bb 1733 d9bd 0a83 b43e 931c 5fbe
00000330: 2dca 533d 171f 9cbd cfc8 05bd 52cc 2e3e
00000340: 0ad3 a1be 9096 f2be 6420 253e edbb 20bf
00000350: 8aa2 9d3e 650f b73e e746 373e 8251 aabe
00000360: f038 0a3f af72 89be a319 553e 9d38 f5be
00000370: 222c 493e 0df7 32be 867c dd3e 5097 083f
00000380: 1082 1cbf d8d7 f3be e788 d83e 9a6a 2dbf
00000390: 62f1 1b3f 2fc0 123f c50d 283f 49e9 f4be
000003a0: 9736 1f3f b9a4 28bf 9ed0 073f 645c ecbe
000003b0: dc5b 3d3e 165d f3be 26e9 b23e b4f7 883d
000003c0: 8668 7fbe 035c b13d 9566 e13d e1a9 b23d
000003d0: 2dbe 843e 7bd9 12be 225a 2fbe 7cbf cb3e
000003e0: d78e 9bbd 6d2c 9fbe 8154 163e 31f0 57be
000003f0: 605c aa3e bece a23e 8a89 bb3e aefd 0fbe

net_list.0.bias_ih_l1 f4 [64]
0.0010951399 0.63625723 0.06428131 0.24604662 0.2623943 0.29985756 0.5463977 0.80666035
0.14496867 0.28622848 -0.06889771 0.14118002 -0.03933687 0.34379458 0.39845031 0.13949557
0.0043320945 -0.103647135 0.23955588 -0.06798446 0.06395433 0.10343316 0.110879086 -0.17751823
-0.028865188 0.31058854 0.047035057 0.0474875 0.2646823 -0.15174706 -0.05619505 -0.26980987
0.14564437 -0.68954617 0.15341616 -0.03597896 0.18094105 0.043026406 -0.18737747 0.1527887
0.11628121 -0.5103565 0.23191676 0.04003413 0.44748455 -0.021019047 -0.15434928 -0.015826244
0.25725713 0.45684558 0.21137796 0.5767199 0.18108147 0.4410301 0.20631805 0.74864006
-0.19635893 0.22728272 0.029061228 0.19859132 0.016792107 0.7884695 0.59415853 0.19219615
00000000: cc8a 8f3a c1e1 223f eba5 833d a5f3 7b3e
00000010: 8c58 863e ee86 993e b8e0 0b3f 4b81 4e3f
00000020: ab72 143e 8a8c 923e 3e1a 8dbd 7f91 103e
00000030: b31f 21bd d805 b03e ae01 cc3e edd7 0e3e
00000040: 3ef4 8d3b f344 d4bd 234e 753e 703b 8bbd
00000050: 7dfa 823d c4d4 d33d 9314 e33d 57c7 35be
00000060: b076 ecbc 7605 9f3e d5a7 403d 4182 423d
00000070: 7084 873e 9563 1bbe c82c 66bd 8524 8abe
00000080: cc23 153e 1986 30bf 2019 1d3e ad5e 13bd
00000090: 9c48 393e 753c 303d e1df 3fbe a474 1c3e
000000a0: d824 ee3d b9a6 02bf 967b 6d3e d4fa 233d
000000b0: b21c e53e 2330 acbc bd0d 1ebe 0aa6 81bc
000000c0: 35b7 833e aae7 e93e 7773 583e eaa3 133f
000000d0: 6c6d 393e b3ce e13e 0a45 533e e0a6 3f3f
000000e0: 5112 49be cdbc 683e d011 ee3c 865b 4b3e
000000f0: 9a8f 893c 23d9 493f c61a 183f 11cf 443e

net_list.0.bias_hh_l1 f4 [64]
0.06945555 0.77587646 0.10184448 0.37105978 0.69350165 0.4497442 0.28793648 0.4385072
0.103055395 0.40330386 0.033857398 0.22468251 0.11345361 0.52537435 0.14672889 -0.14169638
-0.18305577 -0.14732134 0.14444126 0.109463684 -0.31638157 0.016678743 -0.11997741 0.036836337
0.24821971 0.30755597 0.052508097 -0.13265997 -0.2135213 0.13325237 0.08007407 -0.15108484
-0.12933104 -0.6750084 0.3125855 -0.12731609 -0.036968715 -0.20766224 0.21015485 -0.10266406
-0.032623444 -0.4374534 0.17020665 -0.12575679 0.06388333 0.10261789 0.22001885 0.27526844
0.2770377 0.13920367 0.3010752 0.58782446 0.35523373 0.5175416 0.18273118 0.8657785
-0.009562168 0.13548289 0.13540837 0.046240386 -0.06570107 0.46720442 0.3190708 0.32837337
00000000: b63e 8e3d d79f 463f d793 d03d 8cfb bd3e
00000010: 5389 313f df44 e63e 696c 933e 0484 e03e
00000020: b50e d33d d87d ce3e 0eae 0a3d 2c13 663e
00000030: 5e5a e83d ef7e 063f 1940 163e db18 11be
00000040: f972 3bbe 68db 16be 69e8 133e 7f2e e03d
00000050: c4fc a1be dca1 883c b7b6 f5bd b3e1 163d
00000060: 4f2d 7e3e fa77 9d3e bb12 573d 04d8 07be
00000070: 54a5 5abe 4f73 083e e0fd a33d fcb5 1abe
00000080: 5b6f 04be 5acd 2cbf 350b a03e 265f 02be
00000090: 826c 17bd 69a5 54be d532 573e 8941 d2bd
000000a0: 29a0 05bd e4f9 dfbe a74a 2e3e 63c6 00be
000000b0: 43d5 823d 5429 d23d 9f4c 613e fcef 8c3e
000000c0: e3d7 8d3e 688b 0e3e 8726 9a3e aa7b 163f
000000d0: 32e1 b53e 9b7d 043f e21d 3b3e a9a3 5d3f
000000e0: a4aa 1cbc 07bc 0a3e 7ea8 0a3e 8f66 3d3d
000000f0: 488e 86bd 6b35 ef3e 3f5d a33e 8e20 a83e

net_list.0.weight_ih_l2 f4 [64, 16]
-0.17324863 -0.2613793 0.26342696 0.025514835 0.29101384 0.47636095 0.531315 -0.059568338
0.11753689 -0.53307474 0.64873207 -0.51765424 0.17490467 -0.18029948 -0.2138921 0.40378347
0.08674631 -0.0564429 0.0975481 0.19991714 0.21313258 -0.29772675 0.051613193 0.25387532
0.2644572 -0.29963908 0.20524074 -0.28976864 -0.011549212 0.06311135 -0.11019728 0.37816736
-0.120290756 -0.2235487 0.017079718 -0.20524813 -0.09143969 0.46484554 -0.081935726 0.055166785
0.20304532 -0.27934834 0.24900486 0.042848058 0.16564631 0.03722498 -0.07712751 0.074122116
-0.05469304 0.033743326 -0.15221436 -0.07893212 0.28489417 -0.09911715 0.10236694 -0.013903665
0.30261558 0.12877774 -0.09382963 -0.42202455 0.23752585 0.2116153 -0.070523866 -0.08468755
-0.39404622 -0.42093244 0.081399314 -0.34806687 0.30738494 0.25933564 0.34817895 0.025133982
-0.012320583 -0.17900985 0.36608037 -0.31851816 0.31089932 -0.11614425 -0.3806469 0.40601537
-0.0959288 -0.2492433 -0.00804149 -0.20968671 -0.008193276 0.41144994 0.30870908 -0.07206628
0.015591412 -0.2694641 0.37906387 -0.053487603 0.31400132 -0.24467035 -0.099374115 0.23001416
0.067652844 -0.39236426 0.12993096 -0.40691945 -0.35427064 0.26355442 0.22457345 -0.4289415
0.077984326 -0.33906052 0.16138536 0.07335122 0.1924825 -0.27516457 -0.6928736 0.48273548
-0.32096916 0.048553467 0.2577451 -0.25724834 0.008013786 0.04389854 0.38396215 -0.39795634
0.11662199 -0.28430352 0.3098563 0.05944261 0.09288137 -0.44987193 -0.2560804 0.26303303
-0.6498615 -0.7426272 0.25128734 0.045013443 -0.24827036 -0.24318911 0.20985857 0.2177976
0.45460325 -0.5130776 0.36232278 -0.53023803 0.25500262 0.24687952 -0.6892181 0.2508295
-0.2997786 -0.60386014 0.28312507 0.02784576 0.17985582 0.08804643 -0.18559596 0.4089283
0.3451087 -0.20500532 0.21252227 -0.2963586 0.34296998 0.43488762 0.25532737 0.38704565
-0.3374978 -0.33948338 0.09666124 0.15164809 -0.035412587 0.02057109 -0.29494688 0.30260414
-0.021471873 -0.34220588 0.26197362 -0.272285 0.15991786 0.31517848 0.3618668 0.22777312
-0.43694496 -0.3966063 0.2643399 0.25166693 0.020055175 0.15343344 -0.09792846 0.3846991
0.057460375 -0.53584594 0.16472599 -0.31245914 0.3456783 -0.18933061 0.2805317 -0.3431827
-0.34318504 -0.057315715 0.4801196 -0.05945609 0.13657013 0.27908036 0.05850647 -0.0110768
0.3603804 -0.32252753 0.28193757 -0.16354185 0.11731014 0.15114594 -0.35814914 0.34766856
-0.09128552 -0.13360527 0.47813153 -0.1557567 0.07134042 0.20983322 -0.10883455 -0.10961481
0.11901771 -0.3375474 0.16609557 -0.17767723 0.1906151 -0.16663405 -0.41165403 0.177891
-0.24485728 0.103144765 -0.19593579 0.46416554 0.041429877 -0.17150716 -0.1141923 0.15918732
0.079262696 -0.18717879 -0.07522411 -0.28438875 0.15044564 0.4106082 0.22890875 -0.15409772
-0.28454617 -0.65275896 0.48569277 0.16755463 0.2542612 0.16911732 0.35110724 -0.184924
0.2513664 -0.6647944 0.4646675 -0.6325277 0.27597037 0.44855893 -0.2577412 0.31533033
00000000: 1768 31be 82d3 85be e6df 863e 7d04 d13c
00000010: c4ff 943e 95e5 f33e 4304 083f eefd 73bd
00000020: 2eb7 f03d 9677 08bf 4e13 263f fd84 04bf
00000030: 361a 333e 6da0 38be 8806 5bbe b5bc ce3e
00000040: 0da8 b13d ac30 67bd 4cc7 c73d 14b7 4c3e
00000050: 6d3f 5a3e a46f 98be 5b68 533d f2fb 813e
00000060: ef66 873e 4b6a 99be a12a 523e 8e5c 94be
00000070: e838 3dbc 8640 813d 1daf e1bd 279f c13e
00000080: 005b f6bd f3e9 64be c4ea 8b3c 912c 52be
00000090: bb44 bbbd 3c00 ee3e ebcd a7bd 91f6 613d
000000a0: 1deb 4f3e bf06 8fbe 21fb 7e3e 7281 2f3d
000000b0: 309f 293e 3879 183d 07f5 9dbd 56cd 973d
000000c0: cf05 60bd 7136 0a3d 15de 1bbe 2aa7 a1bd
000000d0: a6dd 913e effd cabd c2a5 d13d 33cc 63bc
000000e0: 6ef0 9a3e 50de 033e c029 c0bd 9a13 d8be
000000f0: fa39 733e aeb1 583e d16e 90bd ab70 adbd
00000100: 6dc0 c9be 7584 d7be afb4 a63d d235 b2be
00000110: 8f61 9d3e a4c7 843e 8344 b23e c8e5 cd3c
00000120: 45dc 49bc 5c4e 37be e36e bb3e d014 a3be
00000130: 322e 9f3e 09dd edbd 27e4 c2be 3fe1 cf3e
00000140: 5276 c4bd a339 7fbe 74c0 03bc 1db8 56be
00000150: 173d 06bc 91a9 d23e 1e0f 9e3e 7c97 93bd
00000160: 1f73 7f3c 33f7 89be a914 c23e d115 5bbd
00000170: c8c4 a03e dd8a 7abe a884 cbbd d588 6b3e
00000180: 938d 8a3d f8e3 c8be 9f0c 053e bf57 d0be
00000190: f662 b5be 9bf0 863e 95f6 653e 389e dbbe
000001a0: 3fb6 9f3d 5799 adbe 3442 253e 2a39 963d
000001b0: 221a 453e 5fe2 8cbe 2a60 31bf 1b29 f73e
000001c0: 1256 a4be 00e0 463d 2af7 833e 0eb6 83be
000001d0: 414c 033c f5ce 333d b096 c43e efc0 cbbe
000001e0: 83d7 ee3d 3b90 91be 7ca5 9e3e 187a 733d
000001f0: 9638 be3d 9d55 e6be f81c 83be 44ac 863e
00000200: 535d 26bf d11c 3ebf bca8 803e 0460 383d
00000210: 963a 7ebe 9106 79be 2ae5 563e 5606 5f3e
00000220: c2c1 e83e 0e59 03bf 5f82 b93e aebd 07bf
00000230: b48f 823e fccd 7c3e 9970 30bf b96c 803e
00000240: 957c 99be 9496 1abf c5f5 903e cb1c e43c
00000250: 202c 383e b051 b43d de0c 3ebe 0d5f d13e
00000260: 16b2 b03e eaec 51be 709f 593e 50bc 97be
00000270: c399 af3e 97a9 de3e 45ba 823e d92a c63e
00000280: 83cc acbe c4d0 adbe 54f6 c53d a349 1b3e
00000290: ca0c 11bd b484 a83c 4703 97be eeee 9a3e
000002a0: c8e5 afbc 9c35 afbe 6821 863e f168 8bbe
000002b0: 82c1 233e 135f a13e 9b46 b93e 5b3d 693e
000002c0: 40b7 dfbe fb0f cbbe 8f57 873e 7dda 803e
000002d0: c04a a43c a81d 1d3e b78e c8bd 48f7 c43e
000002e0: 925b 6b3d 332d 09bf eead 283e a5fa 9fbe
000002f0: bffc b03e e2df 41be daa1 8f3e a5b5 afbe
00000300: f3b5 afbe e2c3 6abd 3cd2 f53e 3b88 73bd
00000310: 0ad9 0b3e 9fe3 8e3e 7ba4 6f3d 777b 35bc
00000320: c883 b83e 5422 a5be 1f5a 903e 8477 27be
00000330: 4c40 f03d 00c6 1a3e 535f b7be 9d01 b23e
00000340: e7f3 babd d2cf 08be a8cd f43e af7e 1fbe
00000350: ed1a 923d 85de 563e a6e4 debd bb7d e0bd
00000360: 8fbf f33d 03d3 acbe f514 2a3e 05f1 35be
00000370: 9b30 433e 1ea2 2abe 51c4 d2be 0f29 363e
00000380: debb 7abe 903d d33d 64a3 48be 1ba7 ed3e
00000390: 60b2 293d 939f 2fbe a7dd e9bd 0002 233e
000003a0: 7b54 a23d ccab 3fbe 190f 9abd 679b 91be
000003b0: 6c0e 1a3e 3d3b d23e 0e67 6a3e cbcb 1dbe
000003c0: 09b0 91be 361b 27bf b9ac f83e 7193 2b3e
000003d0: 862e 823e 172d 2d3e 54c4 b33e b85c 3dbe
000003e0: 19b3 803e f72f 2abf e6e8 ed3e 56ed 21bf
000003f0: fd4b 8d3e 84a9 e53e a8f6 83be fa72 a13e

net_list.0.weight_hh_l2 f4 [64, 16]
-0.5308683 -0.38503483 -0.24566762 0.37813208 -0.34529963 -0.21888049 -0.103304595 -0.4056697
-0.10929959 -0.71069217 -0.7105575 0.28964385 0.25803208 0.48362023 0.1728776 -0.083308645
-0.023814702 -0.24664024 -0.18782279 0.07290469 -0.2617364 -0.06348311 -0.17387415 -0.0070543345
-0.046683423 -0.37806112 -0.089952685 0.12281838 0.10987414 0.030550601 0.21910831 0.22721307
-0.2931097 -0.09106741 -0.33824503 -0.013744593 -0.038555786 0.058809966 0.03620827 -0.21078697
-0.06430356 -0.08558242 -0.03779405 0.24505033 0.1967448 0.3131873 0.20435044 -0.12079429
-0.059306588 0.06641924 -0.32303885 0.12868321 -0.24880749 0.058195576 -0.2127241 -0.20312522
-0.29896688 0.051471166 0.04118125 -0.06322859 0.05358173 0.21809103 0.008852366 0.23433599
-0.13782287 -0.110665984 -0.12224536 0.47670195 -0.13787012 0.012346359 -0.32299203 -0.10033408
0.10815504 -0.12615387 -0.38427162 -0.10467441 0.17049246 0.26801777 0.35876167 -0.031481765
-0.079756334 0.06725387 0.045824453 0.066514894 -0.10304965 -0.30951032 -0.34978157 0.11702609
0.22122505 -0.18940854 -0.46076742 0.1666038 -0.13965687 0.13587496 -0.08914813 -0.31581464
-0.09292314 0.34939528 -0.055256747 -0.27899793 -0.3063613 -0.20109746 -0.050847158 -0.0071824663
-0.07872633 0.001457538 -0.0216464 -0.23894715 -0.0031706872 -0.17698349 -0.029518448 0.104559235
0.18416783 -0.047648314 -0.3008412 0.5825121 -0.19674031 -0.089402616 -0.13116851 -0.20137483
0.27890682 -0.4714595 -0.46590057 0.40890333 -0.0383809 0.35846514 0.10810578 -0.38220072
-0.5290406 -0.48145604 -0.44043148 0.2957946 -0.4524382 -0.54639095 -0.39306796 -0.37098274
-0.123269126 -0.27749225 -0.66060793 0.18032451 0.12683584 0.59451324 0.40206012 0.12362525
-0.14474566 0.07328717 -0.14835142 0.12932858 -0.310117 -0.05517164 -0.41975385 -0.06385052
-0.10808783 -0.19318436 -0.02343747 -0.3805636 0.33849105 0.21222828 0.04021453 0.21607788
-0.24111739 0.16225652 -0.03168673 0.3576932 -0.051193077 -0.38141403 0.015883425 -0.03386192
-0.5123569 -0.2361117 -0.15733626 -0.3768619 0.10624945 0.29534805 0.07820453 0.46477035
-0.2538939 -0.4002372 -0.24652132 0.28792536 -0.23490576 -0.07680886 -0.4556477 -0.27473706
-0.116295084 -0.17658535 -0.14269537 0.16222599 0.4188579 0.2767599 -0.13202289 0.103027225
-0.048187364 -0.17412911 -0.26587233 0.21959011 -0.20530175 -0.35030183 -0.08318232 -0.07804055
0.10469716 -0.0784564 -0.4845211 0.13287297 0.011639332 0.04062085 0.0798867 -0.13619782
0.17558847 0.06589355 -0.053660568 0.2128985 -0.08266727 -0.07914022 -0.056167375 -0.16838276
-0.3351126 -0.16481608 0.0486325 -0.12815227 0.010214377 0.0059551233 -0.34957838 0.19828457
-0.1544969 0.2788632 0.07930766 -0.14385885 0.3257961 0.123762086 -0.06793672 0.14716186
0.1279166 0.09224599 -0.2467282 -0.18733446 -0.2832076 0.07450972 0.06308258 0.009809253
-0.6276864 -0.2093826 -0.38056427 0.25553697 -0.4303547 -0.22731495 -0.44159424 -0.35275364
-0.43092838 -0.28212625 -0.6009225 0.037666958 0.4189099 0.2763961 0.1528509 0.13094838
00000000: fce6 07bf 4923 c5be 4b90 7bbe 879a c13e
00000010: 1dcb b0be 3522 60be 5c91 d3bd f0b3 cfbe
00000020: 77d8 dfbd ecef 35bf 19e7 35bf 334c 943e
00000030: c81c 843e 129d f73e d306 313e b99d aabd
00000040: 0d17 c3bc 428f 7cbe 9e54 40be 0e4f 953d
00000050: 5002 86be 6f03 82bd 110c 32be 0c28 e7bb
00000060: 1e37 3fbd 3a91 c1be 1d39 b8bd 3488 fb3d
00000070: b105 e13d 4145 fa3c ee5d 603e 8baa 683e
00000080: 7912 96be 8d81 babd 742e adbe 0031 61bc
00000090: acec 1dbd b8e2 703d 1f4f 143d 8ad8 57be
000000a0: 96b1 83bd d645 afbd efcd 1abd 79ee 7a3e
000000b0: 7877 493e 165a a03e 3e41 513e ff62 f7bd
000000c0: 77eb 72bd cf06 883d 5965 a5be 88c5 033e
000000d0: 64c7 7ebe 7c5e 6e3d 59d4 59be 0f00 50be
000000e0: 3012 99be 6ed3 523d acad 283d fe7d 81bd
000000f0: 8478 5b3d 4153 5f3e 8409 113c c6f5 6f3e
00000100: 7021 0dbe d9a4 e2bd c65b fabd 4712 f43e
00000110: d32d 0dbe 6248 4a3c 365f a5be f47b cdbd
00000120: 6480 dd3d 7b2e 01be 40bf c4be 895f d6bd
00000130: 9395 2e3e a039 893e 9caf b73e 06f3 00bd
00000140: 4a57 a3bd 66bc 893d 6cb2 3b3d f638 883d
00000150: b20b d3bd 2378 9ebe 9216 b3be 60ab ef3d
00000160: d288 623e 50f4 41be b5e9 ebbe 309a 2a3e
00000170: 3602 0fbe ce22 0b3e 4b93 b6bd 75b2 a1be
00000180: 7d4e bebd f0e3 b23e e654 62bd d1d8 8ebe
00000190: 63db 9cbe 7eec 4dbe 1c45 50bd e55a ebbb
000001a0: 453b a1bd dc0a bf3a cb53 b1bc 90ae 74be
000001b0: 4ecb 4fbb 293b 35be acd0 f1bc 2723 d63d
000001c0: 7e96 3c3e e12a 43bd dc07 9abe 831f 153f
000001d0: 4b76 49be b818 b7bd 0a51 06be 3435 4ebe
000001e0: e0cc 8e3e 2463 f1be 858a eebe c75b d13e
000001f0: 4a35 1dbd be88 b73e 9066 dd3d d0af c3be
00000200: 346f 07bf 6881 f6be 3c80 e1be 6472 973e
00000210: fba5 e7be 47e0 0bbf 3440 c9be 73f1 bdbe
00000220: 8674 fcbd 7713 8ebe 9a1d 29bf fda6 383e
00000230: 41e1 013e 0532 183f d3da cd3e 3c2f fd3d
00000240: 3538 14be 9517 963d 6fe9 17be b66e 043e
00000250: a8c7 9ebe a8fb 61bd fae9 d6be 10c4 82bd
00000260: 275d ddbd 1fd2 45be f0ff bfbc 3bd9 c2be
00000270: b34e ad3e 5f52 593e feb7 243d 8543 5d3e
00000280: 7ae7 76be 9326 263e f2c9 01bd 9023 b73e
00000290: d5af 51bd b348 c3be f51d 823c ccb2 0abd
000002a0: d229 03bf 44c7 71be c21c 21be 0bf4 c0be
000002b0: 5099 d93d dc37 973e b229 a03d 61f6 ed3e
000002c0: 62fe 81be e4eb ccbe 1670 7cbe f46a 933e
000002d0: 238b 70be f74d 9dbd a84a e9be 56aa 8cbe
000002e0: 1e2c eebd cad2 34be bc1e 12be 921e 263e
000002f0: 8b74 d63e 79b3 8d3e 0231 07be f0ff d23d
00000300: 1d60 45bd e74e 32be 6b20 88be 3bdc 603e
00000310: 9f3a 52be c35a b3be 7e5b aabd b9d3 9fbd
00000320: 776b d63d c0ad a0bd 2613 f8be da0f 083e
00000330: e6b2 3e3c 0c62 263d a39b a33d 7177 0bbe
00000340: 77cd 333e 33f3 863d 2fcb 5bbd 1002 5a3e
00000350: 754d a9bd 4514 a2bd c30f 66bd 886c 2cbe
00000360: e193 abbe 8cc5 28be df32 473d 593a 03be
00000370: 345a 273c 3223 c33b f0fb b2be 1c0b 4b3e
00000380: 6f34 1ebe 28c7 8e3e 0e6c a23d bc4f 13be
00000390: bfce a63e fa76 fd3d 6822 8bbd 99b1 163e
000003a0: 92fc 023e 77eb bc3d 51a6 7cbe 9bd4 3fbe
000003b0: 9600 91be 8d98 983d 7131 813d fdb6 203c
000003c0: 0eb0 20bf 6468 56be 52d9 c2be bed5 823e
000003d0: 7457 dcbe 40c5 68be a418 e2be 209c b4be
000003e0: a5a2 dcbe da72 90be 0fd6 19bf ab48 1a3d
000003f0: 5c7b d63e ca83 8d3e f284 1c3e 5517 063e

net_list.0.bias_ih_l2 f4 [64]
0.33854404 0.44067028 0.37005594 0.059509296 -0.05731111 0.3567633 0.5875185 -0.11282884
0.3704798 0.23153864 0.40486842 0.34803885 0.010859141 0.38662103 0.11196828 0.29632914
0.02749934 0.28477794 -0.032075968 -0.013993024 0.14430888 -0.23989256 0.21985513 0.17577422
0.04098993 -0.16115928 0.17121063 -0.4554415 -0.14758156 0.053720944 0.10951873 -0.2429243
-0.22146934 -0.303539 -0.23369545 0.43116108 -0.18149295 -0.004116503 -0.3226651 -0.07359459
0.041406784 -0.24052566 -0.26486805 -0.111971356 0.13255809 0.30684382 0.12928729 -0.09160917
0.27950364 -0.026672877 -0.015999328 0.10066479 -0.20973116 0.09251002 0.121044084 0.26635212
0.03353101 0.14623778 0.01626782 0.08099146 0.17630894 0.10689464 0.40012118 -0.18199614
00000000: a555 ad3e 899f e13e f977 bd3e 05c0 733d
00000010: 0ebf 6abd aea9 b63e 9d67 163f cf12 e7bd
00000020: 87af bd3e 7718 6d3e ea4a cf3e 2632 b23e
00000030: 8aea 313c 31f3 c53e a04f e53d 74b8 973e
00000040: 4c46 e13c 6ace 913e 1762 03bd ff42 65bc
00000050: b5c5 133e 65a6 75be b421 613e 28fe 333e
00000060: 0fe5 273d f006 25be d751 2f3e a12f e9be
00000070: 9f1f 17be 7e0a 5c3d 5b4b e03d 26c1 78be
00000080: dcc8 62be 7769 9bbe dc4d 6fbe 25c1 dc3e
00000090: 4ad9 39be bbe3 86bb 5c34 a5be c3b8 96bd
000000a0: 299a 293d 5c4c 76be c99c 87be 3d51 e5bd
000000b0: 4fbd 073e a21a 9d3e e363 043e 979d bbbd
000000c0: 1a1b 8f3e 1481 dabc 0611 83bc 5729 ce3d
000000d0: c4c3 56be e575 bd3d f6e5 f73d 4e5f 883e
000000e0: d057 093d 5bbf 153e 1744 853c dade a53d
000000f0: 558a 343e 94eb da3d afdc cc3e 325d 3abe

net_list.0.bias_hh_l2 f4 [64]
0.3965492 0.10451447 0.3502324 0.37442932 0.064422846 0.18164517 0.2610467 0.14346233
0.3554123 0.5507564 0.3951184 0.38314334 0.28166026 0.40738082 0.014711229 0.5216385
-0.04968059 -0.08665593 -0.07563131 0.03411752 -0.096791595 0.008369406 0.11289225 -0.0462491
-0.11205828 0.0693943 0.25550422 -0.3442004 -0.057146665 0.16018146 -0.12993854 -0.008054569
0.18640125 -0.12892956 -0.112170294 0.10645685 -0.15904875 -0.12690264 -0.11002136 0.03347615
-0.016603382 -0.318912 -0.3678376 0.1563988 0.24061589 0.6199971 0.013717772 -0.18569414
0.4630355 0.17566897 0.045455806 0.15125078 -0.18430184 0.33736902 0.056657325 0.040527828
0.27056128 0.38613337 0.0533983 0.539829 -0.00841927 0.4615923 0.25954074 0.16471252
00000000: 7f08 cb3e af0b d63d a951 b33e 33b5 bf3e
00000010: 20f0 833d 3101 3a3e eaa7 853e cae7 123e
00000020: 9af8 b53e 5ffe 0c3f f54c ca3e 5d2b c43e
00000030: c635 903e 3894 d03e 5e07 713c 1a8a 053f
00000040: e07d 4bbd aa78 b1bd 97e4 9abd d0be 0b3d
00000050: ac3a c6bd d51f 093c 0d34 e73d b26f 3dbd
00000060: d07e e5bd 991e 8e3d 73d1 823e 093b b0be
00000070: 9f12 6abd 9c06 243e 9c0e 05be 50f7 03bc
00000080: f8df 3e3e 1c06 04be 8ab9 e5bd 0d06 da3d
00000090: addd 22be c4f2 01be e152 e1bd 4a1e 093d
000000a0: d103 88bc 6f48 a3be 3655 bcbe 0227 203e
000000b0: 0364 763e 21b8 1e3f 82c0 603c 9b26 3ebe
000000c0: fd12 ed3e 91e2 333e de2f 3a3d 7ce1 1a3e
000000d0: 9fb9 3cbe a2bb ac3e 8311 683d 8200 263d
000000e0: 0287 8a3e 46b3 c53e 2db8 5a3d 3c32 0a3f
000000f0: faf0 09bc d355 ec3e 86e2 843e 66aa 283e
