QIENetV1_0_0/QIENet_FC5.pth (torch, 28947 bytes, 17 tensors)

net_list.0.weight_ih_l0 f4 [64, 6]
00000000: 8d45 b93e 3591 6f3e e9c9 d43e 1fc9 c33e
00000010: 3050 323e 1236 81bd d4ef 803f f94b 7bbe
00000020: 7b69 f0be 2856 f93d 8ea9 113f ba0e 6e3f
00000030: 5f2f f4be b95f 88ba 011a 423f 8e16 9b3e
00000040: a829 0c3f 43ba bf3d b467 e63d bf03 e9bd
00000050: 1c1e d5bd 4887 a5bc 96ac 483d be18 b53e
00000060: a525 8e3d b621 be3c ff3a 0d3d 695c 7cbd
00000070: 606f 153e b5c9 93bc cbc1 2cbe f22e 633e
00000080: a5ed 433d f125 263e 1361 6a3a a5a0 e53b
00000090: 03b7 4e3d 37e0 34bf f778 6ebc aacd 1bbf
000000a0: 282f e1bd fd6a 053f f6a4 bdbd 38d9 98be
000000b0: f40d d43e 73ce 34be cc3c 273e 4a20 cf3e
000000c0: 4d02 bf3e 3a55 0d3f f58d 123e 165c bb3d
000000d0: f63f 873e 99c3 85bc 97ae 333e 0e2a 87be
000000e0: 9197 1cbe 9872 09bc 71af 73be 97c4 06be
000000f0: 967f 163e 1ca1 8e3e 0386 333c c819 063f
00000100: 33a0 5ebd 2338 47bd 88d1 983e 19cf 7a3e
00000110: d68d b43e 4808 c5bd fd11 973e 39f6 af3e
00000120: b61d 00be 28a0 113e 9ef2 a4bd 22a4 f6bd
00000130: 64d8 b2bd fbe0 813e 0dd9 71bd 0458 1fbe
00000140: d676 a0bd fa5c 5c3d 7bce 433e 6a05 cc3d
00000150: 6aab de3d c128 d13d 678a b93c f74c 5a3e
00000160: 7a6a 8a3e 4c07 ba3d bf8a ba3e d8c6 9c3e
00000170: ca5d 493e dba2 2e3c 1928 623e c010 a53e
00000180: 80e3 103f 2b1e f4bd 7a71 42be 80b6 88bd
00000190: c84b bdbc 4094 523c bb0e ddbd c393 4e3e
000001a0: ee70 8e3b e0c2 9d3c 4a37 a33d 0a7f f33c
000001b0: 6cfc b9be 0c3b 5ebe f258 46bd 583d 8c3d
000001c0: d810 f23d 2040 44bd 9ecb 76bd 15b2 19be
000001d0: ecc2 f43c 0062 89be c6d9 7f3c c1da 9b3e
000001e0: 5e5e 9e3d 1b4d 373e 3577 043d 4768 3fbe
000001f0: 1293 483d 80ec 8c3d fe5b 513c ea5d 603c
00000200: 95ee bd3d ccdf 2cbe 5685 76bd bea2 06be
00000210: 51b3 86be 4e05 a9be a7b9 213e b91c 42be
00000220: f514 55be f705 983e da39 43bd 3d90 9abe
00000230: 3c8f e8bd 6fa3 4ebc 6cc0 ab3d e262 8dbd
00000240: 0f0e b33e 2b99 943d 0f90 163d 6624 06be
00000250: 472f 17be cb23 e93d abbf 97be 3f08 fd3d
00000260: 5bad 49bd da85 c13d 29be fbbd 4e86 2a3e
00000270: dbfa a0bc afd5 c73d 2f32 20be a8ec 8a3d
00000280: 19a4 063c 0211 82bd 0b36 79be cbbf 6fbe
00000290: 9a41 bfbe 9412 7fbe b531 853c 7c1b 76be
000002a0: 1097 27be 37a1 d1be 64b8 ff3d 03af 4e3e
000002b0: 272c 483d d790 453d 4c57 61bd ce2b 4b3d
000002c0: f29b a23d f8f1 48bd 47b0 37be 3b1c 38be
000002d0: d1a0 813c 089f d0be c331 81be aaf4 c9be
000002e0: d4f8 09be 153d 07be afeb 9dbe 4111 91be
000002f0: 267c 3d3d 687b 03be ab0b fc3d db5a ef3e
00000300: 4b36 6abf 34db 153f faf0 4d3e 66f0 a73e
00000310: 273e a23e 699e e8be 7bba 603f a86b 19bf
00000320: ad5a e73d 9470 a6be 081d 81be a94c 313e
00000330: 37a0 cebe 9ccc f8bd 01e0 ec3c 67fa 1abe
00000340: f289 a8be c7b7 643d 36e1 7dbe 1909 41be
00000350: 5310 503e bee2 cd3c 91cd 2c3d 82e8 0c3e
00000360: a5d4 c93b a5e6 643d ae95 57bc bb84 983b
00000370: 281a 19be f055 163c 70e8 ff3d 0f4a 0fbd
00000380: 23c0 843e de96 60be 89b7 07be edb2 bd3d
00000390: e522 34bd 48c3 02be 6041 be3e 7d09 30bf
000003a0: 7133 9fbe ea05 263d 6e93 31bd 48e9 25be
000003b0: bd2f 27be 0957 dabd 6161 93be 22b4 89be
000003c0: 4a30 0f3f 2738 c5bd ad1f 6abe 26e2 abbe
000003d0: 6f26 9e3e 6d72 be3d 645c 8cbd ef4b bfbd
000003e0: 8437 31be a4ac 36be ef79 d0bb 63c6 5d3e
000003f0: 4a68 67be 8a12 2ebe 43fd 723e 399c 06be
0.36185876 0.23395236 0.41560295 0.3823938 0.17413402 -0.06309141 1.007319 -0.245407
-0.46955475 0.12174636 0.56899345 0.9299122 -0.4769239 -0.0010404504 0.7582093 0.30290645
0.5475106 0.093616985 0.112502486 -0.11377668 -0.104061335 -0.020206109 0.048992716 0.3537044
0.06940774 0.023209434 0.03448009 -0.061611567 0.14593267 -0.018040517 -0.16870801 0.22185877
0.047834057 0.16225411 0.0008940857 0.0070076757 0.050467502 -0.70654625 -0.014555207 -0.60860693
-0.109953225 0.52116376 -0.092599794 -0.29853225 0.41416895 -0.17656879 0.16331786 0.40454322
0.37306443 0.5520817 0.14311965 0.091484234 0.26415986 -0.01632862 0.1754707 -0.26399273
-0.15292193 -0.008389138 -0.23797394 -0.1316093 0.14697108 0.27857292 0.010957244 0.5238309
-0.054351997 -0.04863752 0.2984736 0.24493064 0.35264462 -0.0962072 0.2950591 0.3436754
-0.12511334 0.14221251 -0.08054088 -0.120430246 -0.087326795 0.2536696 -0.059044886 -0.15560919
-0.07835166 0.053799607 0.19121735 0.0996197 0.108725384 0.10212851 0.022649003 0.21318422
0.2703436 0.09083423 0.3643398 0.30620456 0.19664684 0.010658945 0.22085609 0.32239342
0.5659714 -0.119198166 -0.189886 -0.06675434 -0.023107424 0.012852728 -0.10793825 0.20173554
0.0043469584 0.019257963 0.0796953 0.029723663 -0.36325395 -0.21702212 -0.04842467 0.06847638
0.11819619 -0.047912717 -0.06025278 -0.15009339 0.029878102 -0.2683258 0.015615886 0.30440333
0.07732843 0.17900507 0.032340247 -0.18692122 0.048968382 0.06881046 0.01277828 0.013694266
0.092740215 -0.16882247 -0.060185753 -0.13148019 -0.26308683 -0.3301186 0.15793477 -0.1895627
-0.20808776 0.2969205 -0.047662593 -0.3018817 -0.11355445 -0.012612208 0.08386311 -0.06903626
0.34971663 0.07255777 0.03675848 -0.13099822 -0.14764129 0.1138378 -0.2963842 0.123550884
-0.04923759 0.09449358 -0.122921295 0.16652796 -0.019650867 0.09757554 -0.15644144 0.0678342
0.008217835 -0.063509 -0.24337022 -0.23413007 -0.37354738 -0.2490943 0.016259054 -0.24033922
-0.1636622 -0.4094331 0.124863416 0.20183949 0.048870232 0.048233833 -0.055014893 0.049602322
0.079399005 -0.049058884 -0.17938338 -0.17979519 0.015823754 -0.4074633 -0.25233278 -0.39444476
-0.13473827 -0.13206895 -0.30843875 -0.28333476 0.046260975 -0.12840044 0.12306913 0.46749005
-0.91489094 0.585376 0.20111457 0.32800597 0.31688043 -0.45433357 0.87784547 -0.59929895
0.11296592 -0.32507765 -0.25217462 0.173144 -0.4035661 -0.12148401 0.028915407 -0.15134583
-0.32917744 0.055839326 -0.24792942 -0.18851127 0.20318727 0.025132533 0.04218823 0.1376057
0.0061593824 0.055884022 -0.013158245 0.0046544946 -0.14951384 0.0091757625 0.12495506 -0.034982737
0.2592784 -0.21932551 -0.13253607 0.09262643 -0.04397859 -0.12769806 0.37159252 -0.6876448
-0.31093934 0.040532984 -0.04335349 -0.16202271 -0.16326804 -0.10661132 -0.28785232 -0.26895243
0.5593306 -0.09629851 -0.22863646 -0.33570975 0.30888698 0.09299169 -0.068535596 -0.09340655
-0.17306334 -0.17839295 -0.006362192 0.2165771 -0.22598377 -0.1699926 0.23729424 -0.13145532

net_list.0.weight_hh_l0 f4 [64, 16]
00000000: 93b7 a7be 0ec2 a5be 3a65 ae3e 14aa 323f
00000010: d582 1fbf 51df 28bf 9837 e73e a4a4 f63e
00000020: 3713 9d3e 2e61 0b3f f4f1 dcbe ae6b e63e
00000030: d844 d13e e82d 3ebf 964c 25bf a01c cabe
00000040: a2b9 c4be 87c5 2fbe 72ad e03d 0ab1 a03e
00000050: 82a6 eebd f9e4 debe f885 273e f211 17be
00000060: c280 7a3e 9d07 363e d199 93bd 6f68 383e
00000070: 9609 ec3e 1ea5 bbbe a6b1 20be b71b dbbd
00000080: c5a1 6c3e 5e4b 023d 25c1 fa3d 4833 c7be
00000090: 7aec 5f3e 2288 2d3e d4b7 2fbd efad 6bbe
000000a0: 4494 91bd 9749 3b39 2d8d 7dbd 9c81 55be
000000b0: 496d b5be 106d bdbd ca67 0ebe ee49 dabc
000000c0: 73e0 08be 3018 9dbd c45a c3bc b772 1fbb
000000d0: e5bd 863c 4d3b 153e 4fab 1e3e 4b90 443e
000000e0: 8d97 4cbd fba6 c6bd c77d 81be d9fe 30be
000000f0: 42b6 f5bd 128d 73bd 24af 9cbe eeef 383e
00000100: 1b58 91be b22f 20be 64bb 813e 49cd e93e
00000110: f951 81be b1bc ecbe b053 803e 490b 203e
00000120: da9b 483e f372 b43e 403b 1fbe e52c c33e
00000130: 6a7a a83e 500d 0bbe 9988 a6be d914 85be
00000140: 3a6e e3be 62cc 41bd 4fd5 d13d b5fa 973e
00000150: cb9d 83be c6fb 9abe a250 993e 5fdf 26bd
00000160: 5c74 b43e 80f2 e13e 7b16 86be 5642 c7bd
00000170: 0cdd 83bc 6a7f 9fbe 795c b9bd 98ec 7ebe
00000180: c050 d83d 4dc9 7a3e b408 303d e54f c83d
00000190: 2b6e 0c3e a438 333e 1184 f3bd aa40 54be
000001a0: a1c5 7fbd b787 883d 2faa 97bb b795 6bbd
000001b0: 4671 e03c 4d90 f23d 7327 93be 1e8a 203d
000001c0: 88e4 31bc f527 40bd 4a77 abbe bff1 90be
000001d0: 3bd7 e53d 4c91 66be 0c00 3d3d 2275 ddbd
000001e0: 6f1f dc3d 916c e53d 4de9 0fbe fce7 2ebe
000001f0: 7bbb 45be eddd a03d 917c e338 1617 863d
00000200: 0aa6 10bf 3cae bcbe 4d44 cf3e 7396 043f
00000210: cb23 dfbe 0410 30be 40ea b43e 68f2 9b3e
00000220: 1cf8 a33e 8cc8 4b3e 0ab4 35bd 9d22 bb3d
00000230: 335f 1c3f 6533 b5be 5dd1 f2be a9e1 29be
00000240: bbc8 98bc 6081 bfbd a8cd 523e ab14 583e
00000250: e808 efbe 8223 ab3c 3a9d 5c3e 7700 7d3e
00000260: f357 f93d 848f cabc bff1 49be 1c79 9c3e
00000270: 0123 8c3e 3353 2a3b ad3d d6be 73ca b6be
00000280: ad52 0fbe 5b67 b93d 2ebc d73c 0d87 c5bd
00000290: 682b 743e d8eb 603e 4f0f 9a3c db85 dbbd
000002a0: 1622 123e a309 353e 8884 3abe 32fe 283e
000002b0: a751 403e 9fb5 5cbe 8f9c 4dbe a95d cd3c
000002c0: 3caf c7be 7561 c0be 0d70 cd3a 91d0 70bd
000002d0: fc0f 5bbe 2fef f1be 18d7 bf3e 88d0 7ebc
000002e0: 8753 403e 7262 123e 4ff7 aabe 8e20 143e
000002f0: 639b ac3d 98cf cbbe 592d c9be 825b 86be
00000300: 56e0 8fbd 02f0 63bc bb56 07be ac26 163c
00000310: 7ab5 0fbe 3a24 21be 4435 f03d 4a96 88be
00000320: d906 0e3e 1ece 16be 8441 1fbe 3095 98bd
00000330: f041 58be f52c 35be f004 b3bd a731 4e3d
00000340: e12f 44be 97d5 9abc ce41 9abd aa31 16bc
00000350: 0a2d dabe e757 d4bd 2ddb 9e3e c9a0 83bd
00000360: 7b36 afbc 84be bb3e 16ec b5be c93a a53e
00000370: ceb0 03bd ee6c 04be 1057 babb d152 b0bd
00000380: c7d3 83bd 6f57 cfbd bfe7 3e3e 7607 cd3e
00000390: 4fe7 c8be 4e0b b3be 5b96 a43e 7dad bc3d
000003a0: 8038 bc3e cd55 ec3e f6ab 7bbd 3718 453e
000003b0: 693e be3e 4538 d4be 9859 b3be 2c62 92be
000003c0: 5b6a d93c bbb6 e2bd c3c6 c83d 2cca d43e
000003d0: 82bd 61bd 6660 c1be 7cee 893e f9e3 443e
000003e0: 2ef3 d0bb 7f94 fa3e e738 8cbd 0e67 4e3e
000003f0: be2a dc3e 74c7 f5be f614 f6be 1666 99be
-0.32757244 -0.32374614 0.34061605 0.6979077 -0.6230901 -0.65965754 0.45159602 0.48172486
0.30678722 0.5444516 -0.43153346 0.45004028 0.40872836 -0.742888 -0.64569986 -0.39474964
-0.38422877 -0.17165194 0.10970582 0.3138507 -0.116528526 -0.43534067 0.16359699 -0.1475294
0.2446318 0.17776342 -0.072070725 0.18008588 0.46101063 -0.36649412 -0.15692768 -0.106986456
0.23108585 0.031810157 0.12243871 -0.38906312 0.21867552 0.16946462 -0.04289992 -0.23015569
-0.071083575 0.00017861124 -0.061902214 -0.20850223 -0.3543494 -0.09249318 -0.1390678 -0.02664658
-0.1336687 -0.07670629 -0.023846991 -0.002432985 0.01644797 0.14573403 0.15495037 0.19195668
-0.049949218 -0.09699818 -0.25291273 -0.17284717 -0.119976535 -0.059460707 -0.30602372 0.18060276
-0.28387532 -0.15643194 0.2533828 0.45664433 -0.25257853 -0.4623771 0.25063848 0.15629305
0.19590703 0.3524395 -0.15549946 0.3812019 0.32905895 -0.13579297 -0.3252609 -0.25992468
-0.44420034 -0.047314055 0.102457635 0.29683462 -0.25706324 -0.30270213 0.2994433 -0.040740367
0.35245025 0.44130325 -0.26189026 -0.097294495 -0.016096614 -0.31151897 -0.09050841 -0.24894941
0.10562277 0.24490853 0.04297705 0.09780864 0.137139 0.17502075 -0.11890424 -0.20727792
-0.062444333 0.066665106 -0.0046284418 -0.057515826 0.027397763 0.118439294 -0.28741035 0.03919422
-0.010857709 -0.046913106 -0.33489448 -0.28309438 0.112226926 -0.22516364 0.046142623 -0.10813357
0.10748183 0.11202348 -0.14053841 -0.17080683 -0.193098 0.07854829 0.00010847406 0.06547372
-0.56503356 -0.3685168 0.40481797 0.5179207 -0.43581995 -0.1719361 0.3533497 0.3045838
0.3202523 0.19900721 -0.04436115 0.09137461 0.6108276 -0.35390773 -0.47425357 -0.16589989
-0.018650403 -0.09350848 0.20586264 0.21101634 -0.46686482 0.020890955 0.21544352 0.24707209
0.12174978 -0.024726637 -0.19721125 0.3056115 0.27370456 0.0025989532 -0.4184393 -0.35701331
-0.13996382 0.090529166 0.026334848 -0.096448995 0.23844683 0.21964967 0.018806128 -0.1071889
0.14270815 0.17679457 -0.18214619 0.16503218 0.18781148 -0.21553658 -0.20079254 0.025069075
-0.3900088 -0.37574354 0.0015673653 -0.058792654 -0.21392816 -0.47252795 0.3746879 -0.015552647
0.18781863 0.14295366 -0.33391806 0.14465544 0.08428075 -0.3980682 -0.3929241 -0.2624169
-0.070252106 -0.013912203 -0.13216679 0.0091644935 -0.14034072 -0.15736476 0.117289096 -0.2667716
0.138698 -0.14727065 -0.15552336 -0.0745033 -0.21118903 -0.17692931 -0.08741176 0.05034032
-0.1915889 -0.018900676 -0.075320825 -0.009167114 -0.42612487 -0.103683285 0.31026593 -0.06427152
-0.021388283 0.3666879 -0.35531682 0.32271412 -0.032151036 -0.12932178 -0.005686648 -0.08609546
-0.06436878 -0.101240985 0.18643092 0.40044755 -0.39238974 -0.34969562 0.32145962 0.09212778
0.36761856 0.4615921 -0.06144329 0.19247518 0.3715699 -0.4144918 -0.35029292 -0.28590524
0.026539972 -0.11070009 0.09803536 0.41560495 -0.05511237 -0.3776886 0.26939762 0.1922759
-0.0063766455 0.4894142 -0.06846791 0.201565 0.4300136 -0.48003733 -0.48062867 -0.29960698

net_list.0.bias_ih_l0 f4 [64]
00000000: de03 0e3f ed35 183e 4bb5 a8be 17bc f6ba
00000010: f332 a03f 4953 543f 9b85 693e 0314 323e
00000020: 4311 263f fd06 623e d882 d2bd d623 853d
00000030: 03df 703e 0b82 6b3e ccf8 c43e 1508 d73d
00000040: eaaa 54be eb71 9dbd 8e75 aabd c597 7b3e
00000050: b371 0c3e c770 683e 796b 23bd e59e 78bd
00000060: 898a 53be e675 9f3d b982 89be 5181 7fbe
00000070: 47e3 8e3e 6569 e33d 307b 943e 3d4a d9bd
00000080: 4b97 40be 79c0 34bd f0b4 573e 2119 883e
00000090: fca6 39bf 026e fabe c165 3abe f6c2 2f3e
000000a0: 28c8 853d c1d1 f63e d6d4 c5bc 954e 513e
000000b0: e408 cb3d 0083 bebe 8001 5cbf a0b1 70be
000000c0: 066e 073f aa1a 9d3d 90c8 63bb 3d70 b93e
000000d0: d16e c23e 36bc aa3a 6452 9c3e f535 ee3d
000000e0: 40c7 973e 9971 b5bd f4a1 2f3e cd16 6c3e
000000f0: 4422 c63e 40a8 9c3e 02b2 403e b3cf 9dbd
0.5547465 0.14864321 -0.32950816 -0.0018824366 1.2515548 0.82939583 0.22804873 0.17390446
0.6487009 0.22072978 -0.10278863 0.06500976 0.23522572 0.22998826 0.38471067 0.104995884
-0.20768324 -0.07687744 -0.08323203 0.24569614 0.13715248 0.22699271 -0.039897416 -0.06069841
-0.20658316 0.07786159 -0.26857546 -0.24951674 0.27907774 0.11104087 0.29000235 -0.10609863
-0.18807714 -0.04412887 0.21065116 0.26581672 -0.7252042 -0.48912054 -0.18202879 0.17164215
0.065323174 0.48206905 -0.02414934 0.20440133 0.09913805 -0.3720932 -0.8593979 -0.23505259
0.5290226 0.076711014 -0.0034756996 0.36218444 0.3797517 0.0013026062 0.3053161 0.11631385
0.29644203 -0.08859558 0.17151624 0.23055573 0.38698018 0.30597115 0.18817905 -0.07705631

net_list.0.bias_hh_l0 f4 [64]
00000000: ef1e d93e 9c46 a63e 1158 0dbe fa7c ac3e
00000010: e2a5 a93f faa8 353f df85 1b3e 9866 cfbd
00000020: 9045 193f 3225 dc3e 3ba9 1d3e 10b4 933e
00000030: 04d0 983d bc8a c33e def9 2b3f 13b1 913e
00000040: 0aaf 4cbe f44b afbe 0717 69be 96ae 1e3e
00000050: 78dc a83e b889 0a3e ab66 23be f43a cfbd
00000060: 2c77 7fbd 7ba7 753e 80bd c1be ad5d 2bbe
00000070: edbf 4ebe 3eb1 3dbd b6af 603e 1697 e8bd
00000080: f807 59be 31f5 5e3e 1149 b8bd 5f30 533e
00000090: fceb 44bf bcd7 22bf 42fd 2f3e 8eb0 933c
000000a0: 516d c93c 6936 8b3e 62ad 7ebe 36f3 bc3e
000000b0: 9f99 913e d014 d4be b6c3 e7be c8f3 3dbe
000000c0: c435 343e 9125 463e 88d1 2a3e 5301 a83d
000000d0: 3500 bb3e 4331 2abd 3ee3 823e 807b b63d
000000e0: a187 c23c c245 913e 8418 af3e a9d4 b2bc
000000f0: 585d c53d 7c50 5b3d 0a45 413e b09e b13d
0.42406413 0.32475746 -0.13803126 0.336891 1.3253748 0.7096096 0.15187787 -0.1012699
0.5987177 0.42997128 0.15396588 0.28848314 0.07461551 0.38191783 0.6717814 0.2845541
-0.19988647 -0.34237635 -0.2276269 0.15496287 0.32980704 0.13529098 -0.15957133 -0.10118666
-0.06236951 0.2398967 -0.3783989 -0.16734953 -0.20190401 -0.04631161 0.21942028 -0.11356942
-0.21194446 0.2177322 -0.08998311 0.20623921 -0.76922584 -0.63610435 0.17186454 0.018028524
0.024588259 0.2718995 -0.24870828 0.36904305 0.28437516 -0.4142213 -0.45266503 -0.18550026
0.17598635 0.19350268 0.16681492 0.082033776 0.36523595 -0.041550886 0.25563997 0.089102745
0.023746314 0.28373533 0.3419839 -0.02182992 0.096369445 0.053543553 0.18873993 0.08672845

net_list.0.weight_ih_l1 f4 [64, 16]
00000000: eb3b 13bd acd7 d7be d3a1 563e 324f 8c3e
00000010: f157 f0be 04eb 0ebf aa21 863e c541 60be
00000020: a56c 013d 170d 773e 8608 1ebe 43c7 b13e
00000030: 5809 983e f218 b3be e342 5dbe 4d54 edbe
00000040: 9ac2 a4bd 561e 95be 787c 08bf 43a5 b13d
00000050: 2789 f7be bee5 21be ddf2 77bd ca20 d8be
00000060: 876b 4d3e eee2 003e 8f57 07bf 3c78 afbe
00000070: 214c 86bd 0844 253c d6d1 e8be 1724 86be
00000080: 0a78 a4bd b3c2 c2bd ef13 33bf f40b c53e
00000090: a2cc 10bf 2190 c1be 4f9e 873d 65cd adbe
000000a0: c52c 0d3f dbe2 343d aa32 5abe daf3 b6be
000000b0: 809b ba3e db69 0bbe d0e7 49be 1f15 8cbe
000000c0: bea8 e3bd aa69 4fbe 3a6f 413e 8807 0abc
000000d0: 0a27 aabd 2172 73be fac7 123e ed4f 493e
000000e0: 190a 15be 2062 20be 5c21 c9bd e935 13be
000000f0: 9eb3 983e 08fa 143e 3a34 56bd b58b 913e
00000100: f412 953e c791 62bd 2fed f1bc bfe1 233f
00000110: 8489 11bf b37f f0be 6a6b fb3d 8ea2 ef3d
00000120: 6a90 c7be 3d5f de3e 32eb 0fbe 53d8 b93e
00000130: 3310 b33e 751d f5be ab74 9fbe b1ed f4be
00000140: e5c4 e33d a0cf d33c ebc7 8d3e 8215 ffbc
00000150: b99c a6be 2153 08be 1306 f33e 0a43 a33e
00000160: 7ffa a9be 4e18 643e 217f 873e 1dea bc3e
00000170: 57ed 983e 16a9 92be a23f 2fbe 96a1 08bf
00000180: e134 ddbe ca9d b73c 6b2f a13c 0fc9 ee3e
00000190: 61a4 28bf 81a9 8abe 5208 ac3e 9055 3b3e
000001a0: 2fcb 5fbd 0d60 103f 2f2c cbbd 3b49 883d
000001b0: a393 173e 7150 2bbe 9f37 dabe cad8 73be
000001c0: ee23 7f3d c55d ccbd fbe1 8abc c4b5 113f
000001d0: 5ec3 babe f4d6 91be b01b f53e 7e13 17be
000001e0: ef1e 913e d00c e23e b0cd 62bd 400a 0d3e
000001f0: 0366 933e 25fe 18bf c4b7 bdbc 99a6 4cbf
00000200: 21e8 fdbe 9cb8 0abe 0f04 3fbf d8cc f83e
00000210: aa35 67bf 9a36 3abf 3adf 603e 80b8 c8be
00000220: 59ca 323f 4575 da3e bd68 2bbf 2aff 22be
00000230: 4673 e93c 1bf9 71be e5cc 1fbf 3f7b 31bf
00000240: dac1 b93d 2f7b cf3e 5797 ad3c d22b 493e
00000250: b6b3 a7be 4bf7 8cbe ea9b 113e c041 663e
00000260: d2bb 81be 32b6 b23e 20bb ec3d 205e e43e
00000270: 3cd4 83bd 4e15 053d 0928 08bd c9f2 16bf
00000280: 54fe b53c 9091 b9bd 2912 86bd 365f 883e
00000290: ce52 2ebf 69ba 22bf 24a2 cc3e da20 703e
000002a0: 9020 a5be a544 ca3e 34f8 14be e0a9 fd3e
000002b0: a39a 293f cbbd edbe 2847 9abe 5bb0 2fbf
000002c0: 0a1f 62be 9e89 ecbd a796 04bd 275f 9f3e
000002d0: 0271 d1be 776e 1abf 841c 083e 327f 34be
000002e0: 3591 493e 166b b43e 04db d4be 80a3 e73e
000002f0: efc7 b23e 36e5 0abf 11b6 d1be 37c1 71be
00000300: 23c4 3bbf d86c 27be 445c a1be 169a 233e
00000310: ec1e 743c 40ec d53d 6fb1 1a3e a1a5 dd3c
00000320: dbd9 c43e 1ac0 cf3d 62b8 8abd a34d 1d3d
00000330: e1c6 ed3b dd08 6cbd afa5 9fbe 3269 9c3e
00000340: 0330 14bf c447 b83c a5ba 00bf 5cd9 143f
00000350: 4354 82bf deb3 44bf b61f ea3e c136 c4be
00000360: 6f41 f03e 1ce3 eb3e 2485 51bf c4d5 6c3d
00000370: 09a7 0e3f 3a64 22bf c741 6bbf 5dff 59bf
00000380: 4fc9 f23e 1ae7 03be 23b4 553e 3d9b c43e
00000390: 47c3 e3be 527a dcbe 5726 c73d 5fb3 843d
000003a0: 90e6 0cbf 46ae 143f 0407 773d 5569 323f
000003b0: 52fc 063f 76e7 b7be 5d28 59be 3c71 0ebf
000003c0: efd5 b9be e390 bfbc 3c9f 2fbf 074a 103f
000003d0: 462c 10bf a2e9 02bf 8fff a93e 5ce0 e1be
000003e0: cfbd 113f 5b27 303e b33f ebbe e8db c0be
000003f0: 86fe b13e 523d 7bbe 7a45 6bbf 9c47 4bbf
-0.035945814 -0.42156732 0.20960169 0.2740417 -0.46942094 -0.55827355 0.2619756 -0.21900089
0.031597752 0.24126087 -0.15432939 0.34722337 0.2969463 -0.3497997 -0.21607547 -0.4635338
-0.0804493 -0.29124707 -0.53314924 0.08674099 -0.48346826 -0.15810296 -0.060534347 -0.42212516
0.2006055 0.12586567 -0.5286798 -0.3427142 -0.06557489 0.010087021 -0.45472592 -0.2619941
-0.08030708 -0.09509792 -0.6995229 0.38485682 -0.56562245 -0.37805274 0.06621992 -0.33945766
0.5514644 0.04416166 -0.2130839 -0.3573292 0.36446762 -0.136146 -0.19717336 -0.27359864
-0.111161694 -0.20255151 0.18890086 -0.008424647 -0.08308227 -0.23774005 0.14334098 0.19659396
-0.14554633 -0.15662432 -0.09820816 -0.14376034 0.29824537 0.14548504 -0.0522959 0.284269
0.29116023 -0.055314805 -0.029532043 0.64016336 -0.5685046 -0.46972427 0.12276347 0.11700927
-0.38977367 0.43432036 -0.14054564 0.36297855 0.34973297 -0.47874036 -0.31143698 -0.47837594
0.11121539 0.02585584 0.27691588 -0.031138185 -0.32541445 -0.13312961 0.47465572 0.31887084
-0.33198926 0.22274897 0.2646418 0.36897364 0.29868576 -0.28644627 -0.17114118 -0.5337156
-0.43204406 0.022414107 0.019675931 0.4663777 -0.6587582 -0.27082446 0.33600098 0.18294358
-0.05463713 0.5639656 -0.09920537 0.066545926 0.14802413 -0.16729905 -0.4262056 -0.23813167
0.062290125 -0.099788226 -0.016953459 0.5691798 -0.36477178 -0.2848431 0.47872686 -0.1475353
0.28343913 0.441504 -0.05537194 0.13773441 0.28788766 -0.59762794 -0.023158915 -0.7994171
-0.49591163 -0.13546985 -0.7461557 0.48593783 -0.9031626 -0.72739565 0.21960154 -0.39203262
0.6984001 0.42667595 -0.6695669 -0.1591765 0.02849735 -0.23630182 -0.6242202 -0.69328684
0.090701774 0.4052367 0.021190329 0.19645622 -0.32754296 -0.2753242 0.14219633 0.22486019
-0.25338608 0.3490463 0.11559129 0.44603062 -0.06436965 0.03249102 -0.033241306 -0.5896421
0.022216 -0.09060967 -0.065464325 0.2663514 -0.680951 -0.6356569 0.39967453 0.23450032
-0.32251406 0.39505497 -0.14547807 0.49543667 0.6625158 -0.46433863 -0.30132413 -0.6862847
-0.22082153 -0.11549686 -0.032370236 0.31127283 -0.4090653 -0.60324806 0.13292128 -0.17626646
0.19684298 0.3523795 -0.41573346 0.45241928 0.34918162 -0.54256 -0.40959218 -0.23608862
-0.73346156 -0.16350114 -0.31515706 0.15976748 0.0148999505 0.10445452 0.15106748 0.027056517
0.3844746 0.10144062 -0.067734495 0.03840412 0.007256374 -0.05762564 -0.31181094 0.30549008
-0.5788576 0.022495158 -0.50284797 0.58144164 -1.0181965 -0.76836956 0.4572732 -0.38323024
0.46924922 0.46071708 -0.8184378 0.05782105 0.55723625 -0.63434184 -0.91897243 -0.8515528
0.4741921 -0.12881127 0.20869498 0.38399687 -0.44484922 -0.43062073 0.097241096 0.06479525
-0.5503931 0.5807842 0.060309425 0.69691974 0.5272876 -0.35918778 -0.21206804 -0.5564153
-0.3629603 -0.023384517 -0.6860235 0.56362957 -0.56317556 -0.51137745 0.33202788 -0.44116485
0.5693025 0.17202513 -0.45947036 -0.37667775 0.34764498 -0.2453511 -0.9190289 -0.7940614

net_list.0.weight_hh_l1 f4 [64, 16]
00000000: 335b c2bc 59fe 9cbe 517c 923e 763f 01bf
00000010: fbe2 05bf 235d 20bc 64fe 27be 6f52 89bd
00000020: 6e2e cabd 5466 803e e867 2c3e acc4 97bd
00000030: e63a f9be 0738 5ebe ef88 09bf be1d c8be
00000040: 2864 f9bd b5d3 9abd 01e5 b03e ae50 81be
00000050: 52b5 b5bc 5d89 87be 5d95 acbd 2d3f 70bd
00000060: 64ee 943c 8625 a23e b213 c13e ff24 80be
00000070: 1024 99bd 225a 8e3d df6c bc3c 7d5e 68be
00000080: cab9 b0be cbf9 6cbe fceb c33d e186 e03c
00000090: f7e5 013d 7c4a 8dbe 5931 453d 65f8 23bd
000000a0: f8cc 403e 168f 103e 5ae4 683d 0b0a 0fbe
000000b0: e4f9 23be 44d9 8cbe 1985 8abe 5afe 36be
000000c0: df2c c23c 34d6 15be eb44 ce3d 921d 87be
000000d0: e222 7abe 5fd3 01be fe5b 4c3e 7ce0 f73d
000000e0: 843f 89bb c387 ff3d 03a9 893d fb4b a1be
000000f0: 7243 e8bc 5a42 40be f0e2 6bbe 9f02 0bbd
00000100: 82f9 0c3d 7c78 bfbe 0afd cc3d 65d2 c43c
00000110: 2d7b d6be 7241 163d 2f02 1bbe 9627 f7bd
00000120: b94a abbc 23d8 2c3e 9f9b b23e 111a a2bc
00000130: d9a8 a6be ad1c bcbb 80ae 70be ca89 46be
00000140: d040 8a3d 191d 9abe 4ca6 0bbe 64b7 9e3d
00000150: 9a28 033e 6668 a7bd d219 bfbd ca20 11bd
00000160: ad3f 843e e64f 683d a22b e4bd 53b7 53bb
00000170: 36f3 b3be a3e8 a83d cae1 96be 6be9 30bd
00000180: ee20 e2bd 1cd7 cfbe dcc3 033f 075a e2bd
00000190: 8839 c2be 4b27 23be a2fb a5be 84fd eebe
000001a0: c47b d8bd 4a10 243e ee5c ff3e 1e60 723d
000001b0: acea bebe 3a29 b8be 0981 eabe eee3 70be
000001c0: fc94 61be 1e2e 5dbe 9a43 753e 1dd1 62be
000001d0: 1b45 bfbe 1ec0 82be 9bae 7ebe f1f3 63be
000001e0: f129 273e e252 5f3e ef35 8a3e 989f ba3d
000001f0: 9f18 07bf 6d02 f5be 66ca 0ebd 08bb c9be
00000200: 44b2 9bbd 53ba 8bbe 92bb fa3e 89dc 93be
00000210: 5cd8 16bf 8357 0fbf 71ec 05bf 7d25 60be
00000220: a17a ba3c 6aac 893d b5bf 0c3f 2736 5ebe
00000230: 3895 18bf 2250 15bf 15ef e8be ac55 c3be
00000240: 1d11 963e 4291 e8bd 7e1a 503e 789f 79be
00000250: 0fe5 ec3d a614 343e 5567 083e 8654 803e
00000260: b463 c8bd 364b 7b3e 62cf 463e fe38 3ebe
00000270: bfdb 953c cefb 6dbe ca88 4e3e 4767 92bd
00000280: 3db1 4f3e 9f34 d2be 12ab fb3d 7435 29be
00000290: b130 ed3d ed82 b9bc a76d 3dbe 0e6a 8a3e
000002a0: 4ccc d7be a209 423e 0c47 203e 28bf 9d3c
000002b0: bb2a 73be f40c 2abe 7ea4 523c 9e35 0b3c
000002c0: 8065 d8be 4195 8cbe ce0a 1a3f 49e0 b1bd
000002d0: 3078 3ebe b936 dabe 1ef4 a0be dbce 3cbe
000002e0: ab8a 15be b5f2 ad3d 85df f53e b56d 29bd
000002f0: 45ff a1be 9a09 fabe bba8 fcbe b6f2 8fbd
00000300: 75e7 45be 6934 313e b535 73bd 7851 ae3d
00000310: d5d7 1e3e 5e35 e0bd 9f1b ef3d 106c a7be
00000320: d3ed b4be 890c 233e bd90 633d 60e7 5bbe
00000330: 85fe 1fbc 2053 fabc 959a 8abe 1da1 96be
00000340: 2144 1fbb 6326 17be fabf e33e b046 5ebe
00000350: 25df eebe dbe9 2abe b63e 00bd 7f0e b5be
00000360: 0345 443e ce58 653e 888b a43e a4d4 e83d
00000370: 80a7 4cbe 0cbb ecbc d8e4 92be 1991 61be
00000380: 0cad 803e 53d8 d1be 7d58 e73e 98f9 83be
00000390: 4aeb b0be fa77 39be 8370 083e 11f1 86bb
000003a0: fdf5 aabe 759d ab3e 27cd 553e 167e 883e
000003b0: c311 e5be 019f b1be a2eb 9cbe b926 bcbe
000003c0: 2f6c e3be 98a4 4abe a54f 183e 04e7 fc3d
000003d0: 8418 b0bc 3cfa 71be 4b2c 08be afa0 28be
000003e0: 31ad d3bd d074 c33d c65f e13e 4aea 0dbe
000003f0: 4ef3 57be 44fc ddbd 904a 4bbd acf6 a0be
-0.023725128 -0.30662802 0.2861047 -0.5048746 -0.5229947 -0.0097878305 -0.16405636 -0.06705176
-0.09872137 0.2507807 0.16836512 -0.07410559 -0.48677748 -0.2170106 -0.5372457 -0.3908519
-0.121773064 -0.07559911 0.34549716 -0.25256866 -0.022181187 -0.26471987 -0.08426926 -0.058654
0.01818008 0.31669253 0.3771034 -0.25028226 -0.074775815 0.06950785 0.023001133 -0.22692294
-0.34516746 -0.23142163 0.09566495 0.027408065 0.031713452 -0.2759589 0.048142765 -0.04003181
0.1882819 0.14117083 0.056858398 -0.13968675 -0.16013294 -0.2750951 -0.2705467 -0.17870465
0.023703037 -0.14632493 0.10071739 -0.26389748 -0.24427369 -0.12678288 0.19956967 0.12103364
-0.00418848 0.12477066 0.067216896 -0.3150328 -0.028352473 -0.18775311 -0.23035789 -0.033938047
0.034417637 -0.3739661 0.10009201 0.024026105 -0.4189085 0.036683507 -0.15137552 -0.12068097
-0.020909654 0.16879325 0.34884354 -0.01978782 -0.32550696 -0.005740723 -0.23504066 -0.193885
0.06750643 -0.30100325 -0.13637656 0.07749823 0.12808457 -0.08174209 -0.09331097 -0.03543166
0.2582983 0.056716822 -0.11141135 -0.0032305315 -0.35146493 0.08247497 -0.29469138 -0.043191355
-0.11041437 -0.40593803 0.5147073 -0.110523276 -0.37934518 -0.15932958 -0.32418543 -0.46677792
-0.105704814 0.16021839 0.49875587 0.059173696 -0.37288415 -0.35968953 -0.4580157 -0.23524448
-0.2202949 -0.21599624 0.23951569 -0.22150083 -0.3735741 -0.255372 -0.24871294 -0.22261025
0.16324593 0.21808961 0.26994273 0.09112471 -0.52771944 -0.47853413 -0.03486099 -0.39400506
-0.07602361 -0.27290592 0.4897123 -0.28879192 -0.5892389 -0.5599291 -0.52313906 -0.218893
0.022763552 0.067223385 0.5498002 -0.21700345 -0.5960269 -0.583254 -0.45494905 -0.381513
0.2930993 -0.11355831 0.20322606 -0.24377239 0.11567127 0.17586002 0.13320668 0.25064486
-0.09784642 0.2454041 0.19415048 -0.18576428 0.01829326 -0.23240587 0.20169368 -0.07148605
0.20282455 -0.41055772 0.122884884 -0.16524297 0.11581553 -0.022645438 -0.1849886 0.27034038
-0.42148054 0.18948987 0.15652102 0.01925619 -0.23746769 -0.16606504 0.012856601 0.00849667
-0.42264938 -0.27457622 0.60172737 -0.08685357 -0.18600535 -0.42619875 -0.31436247 -0.18438284
-0.14603679 0.08493558 0.48022094 -0.04136439 -0.31640068 -0.4883545 -0.4934748 -0.07028715
-0.19326575 0.17305149 -0.05937739 0.08511633 0.15512021 -0.10947679 0.1167519 -0.32699633
-0.35337695 0.1592275 0.055557955 -0.21474981 -0.009765272 -0.030557215 -0.27071062 -0.29419795
-0.0024302083 -0.14760737 0.44482404 -0.21706653 -0.4665462 -0.16690771 -0.031309806 -0.35362622
0.19166951 0.22397158 0.32137704 0.11368683 -0.19985771 -0.028897785 -0.2869022 -0.22028007
0.25132024 -0.40985355 0.451847 -0.25776362 -0.3455451 -0.18112174 0.1332417 -0.004118093
-0.333908 0.33518568 0.2087904 0.26658696 -0.44740114 -0.34691623 -0.30648524 -0.36748293
-0.44418475 -0.1978935 0.14874132 0.1234875 -0.021496065 -0.23630613 -0.13298146 -0.16467546
-0.10335768 0.095437646 0.44018382 -0.13858905 -0.21088907 -0.108391315 -0.049631655 -0.31438196

net_list.0.bias_ih_l1 f4 [64]
00000000: b9f8 843e cccb 4f3e cb15 003f 7865 fc3d
00000010: cd23 433f 15f3 233e 006b ba3e b538 f73e
00000020: 6faf 473f f01b e53e ca77 7d3f be92 063f
00000030: add1 2f3d b2a9 5e3f fafe da3e 5223 1c3f
00000040: 2723 a3be de64 9d3e 5e5a 863e a5f8 703e
00000050: a4d6 eabd 2108 b5bd 3d5b 273d 8f88 173e
00000060: 2fa5 c4be 7d78 913e 360a 833e 1bd7 ccbd
00000070: f7f3 533d d85a 003f 91d4 3a3e ffe5 1d3e
00000080: 236b 953d 5904 26bf 66a1 443f 9b84 3bbd
00000090: d038 82bd b843 6cbe d66c babd 99f6 10be
000000a0: b515 373e 2754 cb3e f68b 033f fb9a 0e3e
000000b0: bc1e bcbe 4ae8 6cbf 3d5e f7be 4ab7 13bf
000000c0: e4b2 533e 4ffd a8bd ff23 073e 38ab 00be
000000d0: 972c 9e3e 80d3 4b3e 60bd 5c3e 29b9 e83e
000000e0: d35f 573f 4730 9cbb 05e1 273e f23b c53e
000000f0: 2249 2cbd b24a 633e 20b5 393d ee2a 973e
0.2597101 0.20292586 0.50033253 0.12324041 0.762265 0.16010697 0.3640976 0.48285452
0.78002065 0.44747877 0.9901091 0.5256766 0.04292457 0.86977684 0.42772657 0.60991395
-0.31862757 0.30741018 0.2624082 0.2353235 -0.11466721 -0.08839441 0.040858496 0.14798187
-0.38407275 0.28412238 0.25593728 -0.100019656 0.051746335 0.50138617 0.1824515 0.15419768
0.07295825 -0.64850384 0.76808774 -0.04578076 -0.063584924 -0.23072708 -0.0910279 -0.1415657
0.17879374 0.3971264 0.5138544 0.13926308 -0.36742198 -0.92541945 -0.48314086 -0.5770155
0.2067371 -0.0825144 0.13197325 -0.12565315 0.30893394 0.199049 0.21556616 0.45453766
0.8413059 -0.0047664973 0.16394432 0.38522297 -0.042061932 0.22196463 0.04533875 0.2952494

net_list.0.bias_hh_l1 f4 [64]
00000000: 8aec de3e f7ba 173e 7eaf b03e c1e6 5b3e
00000010: 604e 163f 585a 643e 336e 0d3f c75c 253f
00000020: 5214 003f 2dc8 3c3e 2ff0 213f ebb3 2f3f
00000030: 5b94 b93e 6798 623f f693 2a3f 987f 0a3f
00000040: 57b4 41bc ea4f 4ebd 25db 273e 6fc3 ad3d
00000050: 5932 c63c 95d1 22be cffa 0abe 5b32 82be
00000060: 6232 3dbe 46a5 783e 7130 cbbd 2dce 54bc
00000070: 1a46 0dbe 9dda f03e 5743 ffbd 4ac3 a93e
00000080: f0ce 50be e9eb 1dbf 6409 413f c977 053e
00000090: 7f68 b8be 045d 3ebe 437c e83d bdb5 fe3c
000000a0: 12ff 5bbe 7590 e93e 314e 173f ad72 a3bd
000000b0: 979a 96be df6c 19bf 2bc6 92be 20dc ebbe
000000c0: b0f0 e93e 2bf1 7b3b d0c1 63bc 5079 703d
000000d0: 890e 153d b9b2 3f3d 6294 963e 87f9 023f
000000e0: bd94 123f 8aeb 033e 6d8c 033e b867 1f3f
000000f0: 186c 053e eff7 213d 1f5e b0bd 3895 1cbe
0.4353984 0.14817415 0.3450889 0.21474744 0.5871334 0.22300088 0.55246276 0.6459469
0.50031006 0.18435736 0.63257116 0.6863391 0.36246 0.885138 0.6663202 0.5410094
-0.0118227815 -0.05036918 0.16392191 0.084845416 0.02419393 -0.15900262 -0.13572238 -0.25429043
-0.18476251 0.24281797 -0.09921349 -0.012988609 -0.13796273 0.4704179 -0.12464016 0.33156806
-0.2039144 -0.61688095 0.75404954 0.13033976 -0.36017224 -0.1859017 0.11351826 0.031092519
-0.2148402 0.45618024 0.59103686 -0.07980857 -0.29414818 -0.5993175 -0.28666815 -0.4606638
0.45691442 0.0038443308 -0.013901189 0.058709443 0.036390815 0.046801303 0.29410082 0.51162
0.57258207 0.1288282 0.12846537 0.6226764 0.13029516 0.03954309 -0.08611702 -0.15291297

net_list.0.weight_ih_l2 f4 [64, 16]
00000000: 13ed d43c 1e92 e7bc 59c1 973e 2bf5 febd
00000010: 9e66 4fbe 2828 51bc b3f4 fdbd a19b 0fbd
00000020: 06a2 a9bd c0b6 3cbc 565d a63e 2c9c 9dbe
00000030: 8a57 c8bd 03d5 bfbe 0c91 a2be f7af 30be
00000040: 65e0 9c3c 43f8 16be 6155 873d 612f 35be
00000050: cd94 e0be 4fdf 25be 7d5a b8bd 232d 72bd
00000060: c6db e13d 12ab 893e f290 613e 9508 02bd
00000070: 071f b83d 1643 633d 55ad d9bd 3ae7 683d
00000080: b7e8 033d a7bb 4cbe 1f0d b83e 3f45 95be
00000090: ae40 2bbd e1be a3be 1575 fa3d 0514 0a3e
000000a0: 808e 0fbe 6f58 ce3c deb9 5c3e 57f9 b5bc
000000b0: 5229 68be 7bd5 c0be fc8e ac3d 3205 f63d
000000c0: 5f75 73be afb3 11bf 37ca 053f f4f7 45be
000000d0: c247 2dbe d9d0 01bf 3489 c9bd f1b0 e7be
000000e0: 9e70 82bd 8e62 613e c5a3 a73e 737f 3bbd
000000f0: 1336 dbbe bc52 31be efae 25be 6590 3fbe
00000100: 8536 223d d604 7ebf 2a09 5c3f bb26 14bf
00000110: 25be c1be 750f b9bd 376e 313f dee5 cf3e
00000120: 9436 84bf 7190 343f fc41 0d3f 7a7b 173f
00000130: c0d8 26bf 95b9 04bf 534b b8be a4f3 32bf
00000140: 5793 e8be b49a dcbe 64a9 e23e f508 9ebd
00000150: f75f 86be ce5e 36bf 08d4 05bf 8edc 3abf
00000160: 95c6 7abe 8e9e e33e a644 933e 8518 95bc
00000170: 85f8 a1be c007 d1be abf0 a7be 28be 69be
00000180: c4fe a1be 81aa a2be d797 9c3e a3a9 a1be
00000190: c835 04bf 9fae 9dbe 4e5c 4dbe 8e66 fcbe
000001a0: 8750 8c3d 8cb7 513e f2ef da3e 235e f4be
000001b0: 8a93 87be 056e a5be a8b0 febe 67b7 51be
000001c0: f21d 2ebf ed29 a0be 5b34 a93e 33ac 223d
000001d0: c1cf 5abf 9c9b 10bf e660 c7be 5c01 4ebf
000001e0: f35e 203f 5aff 9d3e bb13 e03e 28e4 0bbf
000001f0: ae70 10be 9c63 91be 639d 04bf b575 f7be
00000200: bb49 88bd 2a5a 84be 1cee f03d 6101 26be
00000210: ac26 36be b8f7 f5be 3742 1e3e 9b7d 83be
00000220: 7fed 8fbe 2c10 e83e d978 3e3e 7bf3 0c3e
00000230: bc84 21bd 34cc d1be 8380 38be de1d eabe
00000240: aff0 e7be 93d6 20bf a689 6c3f 6769 c1be
00000250: 4bcc 0ebf ea01 3bbf b18b afbc 4f5b 3ebf
00000260: f7a0 a5bd 36da 0f3f 745c 683f ce48 d3be
00000270: fbbf cdbe d9d5 52bf 8aea 15bf 784b 41bf
00000280: 8ea4 84bd ad4c d1bd be5d d13e bb8d 8f3d
00000290: 8009 5abe d7a9 debe b9f7 d7be be50 3bbf
000002a0: 7892 a0be fa1d 923e 8e76 ac3e ee51 b8be
000002b0: 20fa cbbd 4fc1 4dbe dba4 f4be 82fd 14be
000002c0: 4216 afbe d616 b2bd 6f5e 4d3e a536 c5bd
000002d0: 9415 3ebe 0d14 92be 2a83 e3bd b35f ebbe
000002e0: a1d7 1b3f ea23 1b3d 10c7 3e3e 3d42 8dbe
000002f0: 897d bcbe 36d3 48be a0a3 fdbd 34ed 1cbe
00000300: d834 99be 2007 8cbd e92d 1bbe 73ba 67be
00000310: ee49 14bd a2c7 a9be 0178 103d 5bc7 dfbe
00000320: f23f 4e3f 3316 b23e b290 893e 0d55 53bc
00000330: 3b8a 91bc 7db5 dabd 4dfc 02be 4d44 5e3e
00000340: 1188 27bf c2a4 0bbf 1886 153f 48f8 86be
00000350: 8a8c 4abf 7711 29bf 9b92 b9be ac6d 40bf
00000360: 11f8 c73e 7afe 243f 3cf6 303f faf0 00bf
00000370: 0240 14bf 4794 22bf 896e 09bf f99c 00bf
00000380: 28b2 c5bd e7e1 453e 2c29 aabd a3fa 053e
00000390: caca c5be a06c 8bbd 58e4 70bd 1083 b03b
000003a0: 641b 863e 5ae4 23bd 5c8a 163e f781 e33d
000003b0: 8545 7abe d1e8 56be bca4 283d 2383 82bd
000003c0: 1b68 16bf 0a94 28bf 3b54 0b3f c6cb 1f3d
000003d0: 41ae 42bf e3b3 20bf b9d4 e1be 5031 24bf
000003e0: e0ed 223f 0881 363f 82f4 8f3e 1925 fbbe
000003f0: faf7 e8be 7549 2ebf 02f4 f6be 38ae debe
0.025991952 -0.028267916 0.296397 -0.12449106 -0.20253989 -0.012765922 -0.12400188 -0.03506053
-0.08282857 -0.01151818 0.32493085 -0.30783212 -0.09782322 -0.37467203 -0.31751287 -0.17254625
0.019149968 -0.14743142 0.066080816 -0.17693855 -0.43863526 -0.16198467 -0.09001634 -0.059125077
0.110282466 0.2688833 0.22027948 -0.031746466 0.08990293 0.0554839 -0.106287636 0.05686114
0.032204356 -0.19993459 0.3594751 -0.29154393 -0.04180973 -0.31981567 0.12229363 0.134842
-0.14019203 0.025188653 0.21555278 -0.022213621 -0.22672012 -0.37662873 0.084257096 0.1201271
-0.23775242 -0.569148 0.5226168 -0.19332868 -0.16921905 -0.507093 -0.098406225 -0.45252183
-0.06369136 0.22010252 0.32742134 -0.045775842 -0.42814693 -0.17316717 -0.16180013 -0.18707426
0.039602775 -0.9922613 0.85951483 -0.578716 -0.3784038 -0.09036151 0.693088 0.40605062
-1.0329156 0.705329 0.5517881 0.59172785 -0.65174484 -0.51845676 -0.35994968 -0.69903016
-0.4542491 -0.4308678 0.4426986 -0.07716552 -0.2624509 -0.7123841 -0.5227666 -0.7299279
-0.24489816 0.44456905 0.28763312 -0.018200168 -0.31634918 -0.40826225 -0.32800803 -0.22826445
-0.31639683 -0.3177071 0.30584595 -0.31574735 -0.51644564 -0.30797288 -0.20054743 -0.49296993
0.06851297 0.20480174 0.4276119 -0.4772807 -0.2647975 -0.323105 -0.49744153 -0.20480119
-0.6801444 -0.31281987 0.33047757 0.039715003 -0.8547326 -0.5648744 -0.38941115 -0.80470824
0.6264488 0.3085888 0.43765053 -0.54645014 -0.14105484 -0.28396308 -0.51802653 -0.4833199
-0.06654688 -0.2585004 0.11764166 -0.16211464 -0.1778819 -0.48040557 0.15454946 -0.25681767
-0.28110883 0.45324838 0.18600787 0.13764755 -0.039433226 -0.40976107 -0.18017773 -0.45725912
-0.45300815 -0.62827414 0.92397535 -0.37775728 -0.55780476 -0.73049796 -0.021428915 -0.74358076
-0.08087342 0.5619234 0.9076607 -0.41266483 -0.40185532 -0.82357556 -0.58561003 -0.7550578
-0.06476699 -0.10219703 0.40891832 0.07009455 -0.21292686 -0.43488953 -0.42181185 -0.7317008
-0.31361747 0.28538495 0.336842 -0.36000007 -0.09959817 -0.20093273 -0.47782025 -0.1454983
-0.3419667 -0.08695762 0.20055555 -0.09629563 -0.18562919 -0.28530923 -0.11109002 -0.4597145
0.608759 0.037876047 0.18630624 -0.27589598 -0.36814526 -0.1961182 -0.123847246 -0.15324861
-0.2992313 -0.068372965 -0.15154232 -0.22629718 -0.036203317 -0.3316012 0.035270695 -0.43706784
0.8056632 0.34782562 0.26868206 -0.012898696 -0.017766109 -0.106791474 -0.12791558 0.21705742
-0.65441996 -0.54548275 0.58407736 -0.263613 -0.79120696 -0.66042274 -0.36244664 -0.75167346
0.39056447 0.644508 0.69125724 -0.503677 -0.5791017 -0.63507503 -0.5368429 -0.5023952
-0.09653121 0.19324456 -0.08308634 0.13083892 -0.38631278 -0.06807828 -0.058811516 0.0053867176
0.26192772 -0.040012695 0.14701217 0.11108773 -0.24440582 -0.2098725 0.041172728 -0.063726686
-0.587526 -0.6585089 0.544254 0.039012693 -0.7604714 -0.62774485 -0.44107607 -0.64137745
0.6364422 0.71290636 0.28116232 -0.4905174 -0.4550169 -0.68080837 -0.48233038 -0.43492293

net_list.0.weight_hh_l2 f4 [64, 16]
00000000: 1bbc 8cbe f61b bc3e d929 113e 9202 933d
00000010: eca1 a9be 9bc2 6bbe e353 83be 9dc2 cdbc
00000020: 4a19 92be 2ced ce3e d6af 293e 5e9a 9fbd
00000030: 0eb4 28bd 37c6 debd 5456 033e 4324 90be
00000040: 26be b13e 8910 01be b606 573d 8ce5 0fbe
00000050: d084 033e e987 723d 4950 63bc 8b81 0ebe
00000060: 13fd f83d 44d4 c1b9 e5ab 073d 0002 d43b
00000070: 2958 003e 2e4b 053e 9ba3 183e d057 0cbe
00000080: 404f 1abe d1e1 0dbe 18e0 403e 538b 1f3e
00000090: a95b 63be e2d4 4e3e 18e3 67be 88f0 2ebe
000000a0: e685 203e 2b7e c23d 3cf9 fabc dccd 93bd
000000b0: 81aa a23e 2b1f 86bd 91ca f73d 2b67 7c3d
000000c0: 2702 3f3e 1a33 c63e 1f94 8abd 2d57 efbd
000000d0: 5f56 2bbe 339b 55be 2dc8 7fbe aaf2 55bd
000000e0: 5801 37be 7364 af3d 7dd6 103e 303d 01be
000000f0: 1c59 bd3e 7387 0ebe 8c7a 473e 78e5 bebd
00000100: 45e1 82be f717 493e 7583 40be d835 5d3e
00000110: 8dab 4ebe 8bb5 afbe 6c53 b6be 8236 81be
00000120: bc2c 55be 3372 933e bc54 cd3d 09fe b5be
00000130: c5aa d33e 2fcc ecbe 1968 ab3e a053 9cbe
00000140: f197 c5bd de0b 9d3e 13cc 073e 2963 1a3e
00000150: 49dd c0bd 52da 87bc 1453 b9be 466f 64be
00000160: 24f0 84be 30ae bf3e 31e4 923e 88a7 0dbf
00000170: cedd 1e3e 9a7f c3be 6fbb 843e 7ff3 8dbd
00000180: ff3f 3f3e 33ee 303e 44c7 8fbd 85b0 debd
00000190: 6bdb e3be c31e 73bd 5248 2d3e b414 66be
000001a0: 6a18 7ebd 1b57 aabc bcc2 0e3e 3c7b 96bd
000001b0: b166 dabc 6d4a 153d a24d 1d3e adab 99be
000001c0: 7ba7 c13e 2270 243e 8050 be3a 6837 28bd
000001d0: dae9 bebd d4f9 af3e 0d9b f53c e711 81be
000001e0: fa28 9bbe e2bf 9c3e 6bed 2ebe 756c 14be
000001f0: b63f ad3e 92d0 e7be bdb6 553e 3202 c9bd
00000200: 7b09 72be 41cc a33d c1a9 8cbb c1a0 603e
00000210: 171e 9abe 02a5 91bd 3669 e6bc 9d8c 08bd
00000220: d88f 08be 10ac 2c3e 327b 703e ee17 46be
00000230: eb58 123e e23d 8f3c 0245 823e 2b20 35be
00000240: f83e 0f3e cd83 523c 6a19 fcbd 73aa ed3a
00000250: 25fb 40be d152 0c3c 9a2d 2bbd be36 d5be
00000260: 187c 61be 4e01 1c3d ae7d 8cbc 3b0c 5ebe
00000270: 8121 d1bc 15b0 21be 3260 c83d 6b18 c5be
00000280: 93e9 c6bc b19c bc3d 4524 a1be a86d 413e
00000290: 40b8 cfbe 1344 0a3d f766 b7bd 0c9d a6be
000002a0: 22ad 92bd 2a61 9f3e e491 803e 1e7b a0be
000002b0: 8d3e 2b3e 38cb ccbd 26ac 2fbe f6f2 a2be
000002c0: 8c17 1e3d a12b 993e 55e7 873e 039c cb3e
000002d0: f090 28bd 5cf6 623e 9dcc a4bd 202d b6be
000002e0: 41cf 5ebe 5bc7 893e 477e 8f3e d407 cc3d
000002f0: 79fa dd3e 3599 833c 65bd aa3e 2467 abbd
00000300: 1574 9d3e 84bb 533e 33d4 3dbe ef00 9dbc
00000310: 8c39 013e 342a b03e 3e3a edbd 036a 0ebe
00000320: ae24 2cbe afb6 963d 5a15 633e ab67 9abd
00000330: 1c70 9e3d c58e 5ebe 6ff0 9d3e 1b85 943d
00000340: e682 873e 5766 953e 0f20 e03d aa14 25bd
00000350: e615 ccbe d1df 793e 4560 85be 32f8 c4bd
00000360: aee7 bcbe d067 a23d a334 433e aab1 7bbe
00000370: 9dd7 2f3d ae7e 19bc 2ce5 773e 62a2 2cbd
00000380: af21 273f fe16 01be 2849 d7bd 1a49 56bc
00000390: cd3e 92bc a66b 003f 2f7c 843e b15b 17be
000003a0: 306c 62be a2f8 6ebe 4753 9abe 8997 34bd
000003b0: c3a1 18be fd45 b63d dbae cebd 27de 67be
000003c0: 12c4 223d 8984 c7bd ee22 dabc 327a a8bd
000003d0: 17e2 b0bc c437 9b3e 0d6c d43a 4ed4 f0bd
000003e0: a0b2 ecbe a76d a83e f9f2 88bd 7d1b 073e
000003f0: 36bc 513d 7e75 a9be 8d34 213e 2f3e 7cbe
-0.27487263 0.36740083 0.1417612 0.071782246 -0.3313135 -0.23023455 -0.25649938 -0.025117213
-0.2853492 0.40415323 0.16570982 -0.07793115 -0.04118734 -0.1087765 0.128259 -0.28152665
0.34715384 -0.12603964 0.052496634 -0.14052409 0.12843633 0.059211645 -0.013874122 -0.13916604
0.12157645 -0.0003696998 0.033122916 0.006469965 0.1253363 0.1301696 0.1490616 -0.13705373
-0.15069294 -0.13855673 0.18835485 0.15580492 -0.22202934 0.20198396 -0.22645223 -0.17083943
0.15676078 0.09496721 -0.030636422 -0.07216999 0.3177071 -0.065489136 0.12099183 0.061621826
0.18653165 0.38710862 -0.06766533 -0.11686549 -0.16732167 -0.20859985 -0.24978705 -0.052233376
-0.17871606 0.08564081 0.14144321 -0.12620997 0.36982048 -0.13918857 0.19480342 -0.093211114
-0.25562492 0.19638048 -0.18800147 0.21602571 -0.20182629 -0.34318194 -0.3561052 -0.252369
-0.20817846 0.28798065 0.100259274 -0.35545376 0.41341224 -0.4624953 0.33477858 -0.3053255
-0.09648121 0.30673116 0.13261442 0.15076889 -0.09417207 -0.016583595 -0.36196196 -0.22308072
-0.25964463 0.37437582 0.2868972 -0.5533376 0.155143 -0.3818329 0.2592425 -0.06931209
0.18676756 0.17278366 -0.07020429 -0.10873512 -0.4450334 -0.05935551 0.1692212 -0.22468835
-0.062035 -0.020793488 0.13941473 -0.07347724 -0.026660295 0.03644793 0.15361646 -0.3001379
0.3782309 0.160584 0.001451984 -0.041068465 -0.093219474 0.3437029 0.02998116 -0.2520897
-0.303047 0.30615145 -0.17082755 -0.14494498 0.3383767 -0.45276314 0.2087049 -0.09814872
-0.23636429 0.07997943 -0.004292697 0.21936323 -0.30101082 -0.07111551 -0.02812634 -0.033337224
-0.13336122 0.16862512 0.23484495 -0.19345066 0.14291732 0.017485563 0.25443274 -0.17688052
0.13988864 0.012848807 -0.12309535 0.0018132463 -0.18845804 0.008564667 -0.041791536 -0.41643327
-0.22019994 0.03808718 -0.017149772 -0.21684353 -0.025528671 -0.15789826 0.09783973 -0.38495192
-0.024281299 0.09209574 -0.31472984 0.18889487 -0.4057026 0.033756327 -0.08955186 -0.32541692
-0.07161929 0.31128818 0.25111306 -0.3134393 0.1672308 -0.099996984 -0.17155513 -0.3182599
0.038596675 0.299161 0.2654368 0.39767465 -0.04115385 0.22164291 -0.080468394 -0.35581303
-0.21758749 0.2690991 0.2802603 0.099624306 0.43355158 0.016064266 0.33347622 -0.08369282
0.30752626 0.20677 -0.18537979 -0.019165484 0.12619609 0.34407198 -0.115833744 -0.13907628
-0.16810867 0.07359063 0.22176114 -0.07539304 0.07736227 -0.2173415 0.308475 0.0725195
0.26467055 0.29179642 0.10943615 -0.04030291 -0.39860457 0.24401785 -0.2605001 -0.09617652
-0.36895508 0.07929957 0.19063048 -0.24579492 0.042930234 -0.009368582 0.24208516 -0.042147048
0.6528577 -0.12606427 -0.10512 -0.013078952 -0.017852211 0.5016426 0.25875995 -0.14781071
-0.22111583 -0.23337033 -0.3014166 -0.044089828 -0.14905457 0.08900068 -0.10091945 -0.22643338
0.03973777 -0.09742076 -0.026627984 -0.08226432 -0.021592183 0.30315983 0.0016206518 -0.11759244
-0.4623003 0.32896158 -0.06686968 0.1319408 0.051204883 -0.33097452 0.15742703 -0.24633096

net_list.0.bias_ih_l2 f4 [64]
00000000: 30e5 6b3e 176d e8bc 7bb1 f13d d6e8 943e
00000010: 8ccc 383f e583 0d3f ba79 e1bb 4487 b33e
00000020: 9a8f ff3e d352 883f 3363 063e 07db 573e
00000030: c966 013e c602 643f 04aa 133a 80b5 313f
00000040: 8ffb 87be 012d 1abe dc8d 383e dac0 2a3e
00000050: 0289 4b3e 9b3f acbe 88fa 9ebe 89d8 a23e
00000060: 4975 593e 8bb2 713e 49ca 12bd a4c8 e83d
00000070: 89be 14be c6bf 7e3e 9c4a 963e 7b97 e43d
00000080: 49a7 563e e5be f93d 61d6 b23e 630e debd
00000090: 0c64 1abf 784f 8f3e 1a51 833d f103 2ebe
000000a0: 9a54 08be c06d c73e 8b2e 793d 7551 903d
000000b0: 01b3 9a3e 6351 08bf a7dd ac3e c81d 72be
000000c0: 217e b83e 7d8a b9bd e6d6 ca3e affe 8bbd
000000d0: bbe3 da3e ef7e fe3e 7364 56bb 7ac9 a23d
000000e0: 8599 773e eba3 3bbd 3ebc 623e eba4 8c3b
000000f0: 5ea3 63bd c219 603e e778 d7bc de92 da3e
0.23036647 -0.02837233 0.1180143 0.2908389 0.72187114 0.5527938 -0.006880966 0.35064137
0.49914247 1.0650276 0.13123779 0.21079646 0.12636866 0.8906673 0.0005632939 0.6941757
-0.2655911 -0.1505623 0.18022865 0.1667513 0.19876483 -0.33642277 -0.31050515 0.31805828
0.21236147 0.23603265 -0.035837445 0.11366394 -0.14525808 0.24877843 0.29353797 0.11161705
0.20962252 0.12194613 0.34929183 -0.10842588 -0.6030891 0.27990317 0.06411953 -0.16993691
-0.13313523 0.3895092 0.060835402 0.07046787 0.30214694 -0.53249186 0.33762857 -0.23644173
0.3603373 -0.09059618 0.3961708 -0.068356864 0.4275187 0.49706218 -0.003271368 0.07948585
0.24179657 -0.04581062 0.22142121 0.0042921207 -0.05557572 0.21884826 -0.026302768 0.42690176

net_list.0.bias_hh_l2 f4 [64]
00000000: 01e6 e93e f770 97bd 74f9 c53e a0d2 203f
00000010: dccf 323f 7a46 ce3e c0cf ef3e 31f5 273f
00000020: d479 3b3e 9f88 4d3f 87cd ee3e 6ce2 0b3e
00000030: 2a6f 893e c465 313f 1635 5c3e 0f15 313f
00000040: 067a 50be 2503 a83c 4ef5 ca3d 60f5 863e
00000050: e098 283e d0fa dfbd 2943 a0be 9c2f e53e
00000060: a9c8 bd3d e564 463d 6c98 36be d657 9ebd
00000070: d5af f93d 95ab f43d e3f7 b03c 4274 eb3d
00000080: 2c8b 34bd f48c 16bc a9b3 f439 e877 93bd
00000090: 5931 14bf 1897 c33d 6ed2 5ebe 338a b9be
000000a0: 7ac6 efbe 6d2a 1c3f 7b14 c8bd f106 9fbd
000000b0: 4517 883e 8df3 c5be 40d8 a03e 3ec4 29be
000000c0: 3cc0 653d b38f b3bd d9bb b93b d602 153e
000000d0: f1e3 3e3e 73ea 0c3f 1d36 c13e 97c7 a13e
000000e0: 740c 163e 3949 343e 598f bc3e 13a2 283e
000000f0: dd76 0e3e db95 073e 2e83 d83d 0c40 503e
0.45683292 -0.07394593 0.3866688 0.6282139 0.6984842 0.40288144 0.46838188 0.6560851
0.18308192 0.8028659 0.4664118 0.13660592 0.26842624 0.6929591 0.21504626 0.6917276
-0.20359048 0.020509312 0.099100694 0.2635908 0.16464567 -0.109365106 -0.3130124 0.44762886
0.092667885 0.048436064 -0.17831582 -0.07731597 0.121917404 0.11946789 0.021602577 0.11496784
-0.044078037 -0.009188879 0.00046673164 -0.07200605 -0.578878 0.09550303 -0.2175996 -0.3623825
-0.46831113 0.61002237 -0.09769531 -0.07764996 0.26580253 -0.38662377 0.31414986 -0.16578767
0.056091532 -0.08767643 0.005668145 0.14551863 0.1864164 0.5504524 0.37736598 0.31597587
0.14653188 0.17606057 0.36828116 0.16468076 0.1391253 0.13240759 0.105718955 0.20336932
