QIENetV1_0_0/QIENet_Conv8.pth (torch, 217345 bytes, 11 tensors)

net_list.0.cell_list.0.conv2d.weight f4 [64, 22, 3, 3]
-0.009348435 0.07941262 -0.0010379029 -0.029748775 -0.004420014 -0.0011553862 -0.038620826 0.029076187
-0.036728617 0.005840989 0.04923842 0.087735526 -0.037813485 0.08085255 0.0059091384 0.034465834
0.06445778 0.057593748 0.021069549 -0.035593215 -0.013195566 -0.023372788 -0.05921143 0.010826861
-0.038214255 -0.029612465 -0.058621198 0.014391813 -0.0065148594 0.07062052 -0.00054808665 -0.034638453
-0.053758472 0.034710243 0.019942636 -0.024817223 -0.0022315052 -0.029457502 0.052874945 -0.052361857
-0.022568213 -0.066589005 0.053753432 -0.03176864 -0.012656945 0.09436667 0.043831002 0.058830906
0.08634234 -0.029024849 -0.040182903 -0.046266366 0.07094416 0.07515062 -0.037005786 0.019853253
-0.03867711 0.012124595 0.09329619 0.06921458 0.02244298 -0.019147186 -0.0104576275 -0.051323574
-0.040804762 -0.09386801 -0.09214244 -0.0385397 -0.035579592 0.0008217345 0.010960361 0.0075137564
0.27415138 0.17905542 0.14465886 0.12941478 -0.10523129 -0.0016571215 -0.030341469 0.007387507
-0.036967434 -0.011477335 0.007346124 -0.09766463 -0.09129662 -0.19986747 -0.23722823 -0.2734119
-0.32183698 -0.19439024 0.040628463 0.08745987 0.15889983 0.072171666 0.09636051 0.12576132
-0.08893785 0.06805195 0.100183055 -0.06811001 -0.21709856 -0.2443777 -0.100640625 -0.025151953
-0.034699157 0.045554515 0.010383351 0.099799454 -0.08329357 -0.09551292 -0.10450968 -0.048873913
-0.05508527 -0.044670958 -0.013722275 0.011766906 0.0037709437 0.092766225 0.017147034 -0.020928172
0.08133867 0.030386465 0.09963406 0.10615333 0.13107514 0.0895139 -0.018402422 -0.1092677
-0.079807095 -0.14700733 -0.08312109 -0.048556026 -0.07711312 -0.1648055 -0.08038935 0.027897479
0.068770565 -0.014096559 0.0478995 0.10631249 0.07597994 -0.009202304 0.082829975 -0.0054471716
0.11121286 0.087871715 0.1056089 0.040780906 0.15046138 0.10944127 0.11268147 0.1507222
0.15520307 0.029640744 -0.015011071 -0.021655045 0.07329518 0.026043428 -0.051510334 0.031680644
0.0063641453 0.04241242 -0.021112973 0.012555789 -0.06880629 -0.060899653 -0.114923246 -0.09883958
-0.053874534 -0.06583774 -0.008124591 0.031191666 0.07254716 -0.019263819 0.025110574 0.04965302
0.062418193 0.051287137 0.04024438 0.07295927 -0.04660821 -0.021960044 0.05002227 -0.036663227
-0.09150761 0.0054448526 -0.057834283 0.025332201 0.03041359 0.07461443 -0.017171359 0.028338991
-0.023740113 0.023430834 -0.055732977 0.03482108 0.019733593 -0.095774755 0.0013622203 0.038585614
-0.06104748 0.074462414 0.024530627 0.022824116 0.016276862 0.10994442 0.08337832 0.05437071
0.100846216 0.038557094 0.048340805 0.080281734 0.005555976 0.083188415 0.13042247 0.041277885
-0.019334257 -0.12762825 -0.008790374 -0.08613251 -0.113906674 -0.006117318 0.009879275 -0.05167625
-0.0330473 0.009019282 -0.0053210747 0.000363877 -0.0056739207 -0.016989922 -0.051279012 0.056322698
-0.009339912 0.05481518 0.029851327 0.07814155 0.01659005 0.053297613 -0.033233646 0.008469423
0.08085472 -0.014252768 -0.025674902 -0.025972761 0.021803766 0.008298308 0.035189535 0.06402984
-0.06434773 0.07941491 -0.012701252 0.020088285 -0.028098743 -0.06801746 -0.031886082 -0.07601932
00000000: 2e2a 19bc 15a3 a23d 3e0a 88ba b4b3 f3bc
00000010: c4d5 90bb 5470 97ba df30 1ebd 2f31 ee3c
00000020: bf70 16bd c465 bf3b 3aae 493d afae b33d
00000030: 50e2 1abd 0696 a53d 72a1 c13b 0c2c 0d3d
00000040: 7102 843d 6ce7 6b3d 0c9a ac3c 31ca 11bd
00000050: 3732 58bc 4a78 bfbc af87 72bd 2563 313c
00000060: 8d86 1cbd d795 f2bc c81c 70bd a4cb 6b3c
00000070: 9a7a d5bb 7ea1 903d 79ad 0fba 0de1 0dbd
00000080: d831 5cbd 542c 0e3d bd5e a33c 7d4d cbbc
00000090: 723e 12bb dc50 f1bc 6693 583d 6379 56bd
000000a0: f9e0 b8bc d15f 88bd 8f2c 5c3d d51f 02bd
000000b0: 135f 4fbc 5043 c13d 2388 333d adf8 703d
000000c0: 41d4 b03d 85c5 edbc d496 24bd cd81 3dbd
000000d0: 2c4b 913d 91e8 993d 6193 17bd 4aa3 a23c
000000e0: e46b 1ebd 3da6 463c 1312 bf3d 60c0 8d3d
000000f0: 57da b73c 8fda 9cbc 7856 2bbc ab38 52bd
00000100: e522 27bd df3d c0bd 2db5 bcbd cedb 1dbd
00000110: e8bb 11bd ab69 573a 1693 333c f535 f63b
00000120: 925d 8c3e 4e5a 373e 7421 143e 4f85 043e
00000130: 8183 d7bd c533 d9ba ac8e f8bc e612 f23b
00000140: 2a6b 17bd 6f0b 3cbc c1b7 f03b 6504 c8bd
00000150: b9f9 babd 0faa 4cbe f5eb 72be a5fc 8bbe
00000160: d1c7 a4be 3c0e 47be 086a 263d 291e b33d
00000170: a3b6 223e bdce 933d a958 c53d 93c7 003e
00000180: 0c25 b6bd d25e 8b3d c62c cd3d 437d 8bbd
00000190: 164f 5ebe 263e 7abe ac1c cebd 780b cebc
000001a0: b420 0ebd 5f97 3a3d ee1e 2a3c a863 cc3d
000001b0: d295 aabd 479c c3bd 2c09 d6bd 0330 48bd
000001c0: 18a1 61bd e5f8 36bd 65d3 60bc fbc9 403c
000001d0: f021 773b 38fc bd3d f077 8c3c 8f71 abbc
000001e0: e394 a63d 09ed f83c f10c cc3d eb66 d93d
000001f0: 9038 063e 1053 b73d adc0 96bc bec7 dfbd
00000200: e771 a3bd 1789 16be 643b aabd afe2 46bd
00000210: 7ced 9dbd c6c2 28be 2ca3 a4bd 4189 e43c
00000220: 95d7 8c3d 41f5 66bc 4432 443d 5dba d93d
00000230: 5f9b 9b3d 43c5 16bc c3a2 a93d 307e b2bb
00000240: 91c3 e33d 16f6 b33d 7b49 d83d e109 273d
00000250: 8c12 1a3e bf22 e03d 8bc5 e63d ec56 1a3e
00000260: 8eed 1e3e 25d1 f23c fff0 75bc ec65 b1bc
00000270: c91b 963d 0759 d53c 80fc 52bd 90c3 013d
00000280: 528a d03b a5b8 2d3d 1df5 acbc ccb6 4d3c
00000290: 50ea 8cbd ea71 79bd e15c ebbd 686c cabd
000002a0: 8bab 5cbd f0d5 86bd 011d 05bc aa85 ff3c
000002b0: 9b93 943d 28cf 9dbc b1b4 cd3c f760 4b3d
000002c0: 38aa 7f3d 7612 523d 4ad7 243d ab6b 953d
000002d0: 40e8 3ebd 8de5 b3bc 27e4 4c3d 2e2c 16bd
000002e0: 5868 bbbd bc6a b23b a4e3 6cbd 7a85 cf3c
000002f0: ec25 f93c 73cf 983d f3aa 8cbc 2c27 e83c
00000300: a07a c2bc 05f2 bf3c 4348 64bd 8ca0 0e3d
00000310: 58a8 a13c 8e25 c4bd 878c b23a f30b 1e3d
00000320: ec0c 7abd c07f 983d 74f4 c83c a4f9 ba3c
00000330: 0e57 853c 8a2a e13d 41c2 aa3d d2b3 5e3d
00000340: 7688 ce3d 0bee 1d3d 0201 463d c06a a43d
00000350: e80e b63b b05e aa3d 788d 053e 0013 293d
00000360: e062 9ebc fbb0 02be 8005 10bc 3e66 b0bd
00000370: e747 e9bd c873 c8bb afdc 213c 7aaa 53bd
00000380: 9b5c 07bd 9cc5 133c 695c aebb bfc6 be39
00000390: 4cec b9bb 732e 8bbc f109 52bd a1b2 663d
000003a0: 6e06 19bc e285 603d c58a f43c ad08 a03d
000003b0: dbe7 873c 994e 5a3d 0120 08bd 56c3 0a3c
000003c0: 2997 a53d 7184 69bc 2c54 d2bc d4c4 d4bc
000003d0: d09d b23c a0f5 073c e722 103d 1422 833d
000003e0: bec8 83bd 49a4 a23d e918 50bc 3090 a43c
000003f0: 562f e6bc bd4c 8bbd fb9a 02bd 04b0 9bbd

net_list.0.cell_list.0.conv2d.bias f4 [64]
0.014820774 -0.028505312 0.028818235 0.090094246 0.0007294153 -0.015815606 -0.054339856 -0.005870347
-0.017075697 0.056867186 0.037182614 0.023427386 0.011377395 -0.0048286123 -0.08119015 0.13431858
0.10447455 0.07215365 0.14415425 0.050715525 0.06394029 0.21063036 -0.06832992 -0.06536539
0.15201542 0.06136797 0.053780846 -0.0055390936 -0.013817491 0.06991422 -0.045495324 0.06541413
-0.019330515 0.012409758 0.11137448 -0.030194351 -0.08521399 0.0032611724 0.11858059 -0.11109286
0.025464408 -0.081472635 -0.06400255 -0.033059414 0.0476841 -0.08467688 0.082437545 -0.03694192
0.063553534 0.10593549 0.22109094 0.060565714 0.09758818 0.2807546 0.02181076 -0.01329688
0.15474674 0.16092467 0.16682976 0.08032938 -0.04479504 0.032946493 -0.068565905 0.38356245
00000000: d5d2 723c f983 e9bc 3814 ec3c 5583 b83d
00000010: 3b36 3f3a bb8f 81bc 7893 5ebd 0a5c c0bb
00000020: 55e2 8bbc 91ed 683d cc4c 183d caea bf3c
00000030: 4168 3a3c 5639 9ebb 0547 a6bd cf8a 093e
00000040: c1f6 d53d 4bc5 933d 2c9d 133e 15bb 4f3d
00000050: 20f3 823d 7caf 573e 8ff0 8bbd 4ade 85bd
00000060: eea9 1b3e fb5c 7b3d 4e49 5c3d 4981 b5bb
00000070: c262 62bc 302f 8f3d 4e59 3abd d8f7 853d
00000080: 075b 9ebc 4c52 4b3c 4e18 e43d 255a f7bc
00000090: ac84 aebd 65b9 553b 61da f23d a784 e3bd
000000a0: bc9a d03c 20db a6bd c513 83bd 4f69 07bd
000000b0: 6750 433d 126b adbd 04d5 a83d 6950 17bd
000000c0: 5b28 823d b5f4 d83d aa65 623e c113 783d
000000d0: 50dc c73d 11bf 8f3e 7bac b23c 28db 59bc
000000e0: ee75 1e3e 70c9 243e 6cd5 2a3e bb83 a43d
000000f0: 017b 37bd e7f2 063d 486c 8cbd 4c62 c43e

net_list.0.cell_list.1.conv2d.weight f4 [64, 32, 3, 3]
-0.08514855 -0.067974456 -0.080359556 -0.06452268 -0.016490532 -0.017418252 0.0057744263 -0.022504842
-0.015936295 -0.032206725 -0.082162954 -0.033426963 -0.05039204 -0.062248662 -0.04460827 0.09224777
0.042189326 -0.0344295 0.21373044 0.23534353 0.0809102 0.36801815 0.17133878 -0.004975312
0.17317946 0.042156894 0.06493761 -0.1436461 -0.018301329 0.052207638 0.049615037 -0.07061867
-0.0008284384 -0.05048894 -0.15744394 -0.1311747 0.10964323 0.14165008 0.0774987 0.08012994
0.14572516 0.16088009 -0.059317213 0.012937955 -0.059688546 0.16892691 0.018707015 -0.062731475
0.15144381 -0.00043689404 0.030977048 0.16009788 0.14328624 0.19039388 0.21346597 0.15510331
0.061200272 0.07004898 0.05346546 -0.02173515 -0.039525814 -0.022997107 -0.05170401 -0.06087408
0.04407726 0.069329694 -0.04849897 0.008352316 0.08287337 -0.054366805 0.0056872615 0.1182896
0.11851647 0.306304 0.4326792 0.14873536 0.2793279 0.33271402 0.1471964 0.18830843
0.18320091 0.14442906 0.21381453 0.14876992 0.119714946 0.09754039 0.18741257 0.028641379
0.13140132 0.058824413 -0.00766398 0.14218956 0.08133584 0.051866125 0.07753224 0.04563561
0.06588761 0.08411626 0.06387498 -0.03273128 -0.049262665 -0.06389272 -0.09224168 -0.11583738
-0.06028748 -0.11726318 -0.039215077 -0.11807079 -0.053661793 0.032921564 0.09766736 -0.019981127
0.00056774705 0.13586414 0.02038934 0.12736478 0.08747034 0.056412168 0.035557393 0.016291779
0.06112364 0.06446656 -0.019610567 0.008658266 -0.046796247 -0.0640627 0.040751256 -0.039787192
-0.046541404 0.00831058 -0.030528573 0.09311785 0.08166924 0.22215837 0.19660154 0.022081584
0.13401759 0.056502093 0.037882507 0.06689332 0.056194846 0.030402487 0.07069867 0.07650207
-0.06604615 -0.0057951044 -0.05433682 -0.027309952 0.0034867856 -0.04068771 -0.051676452 0.022992985
0.035733525 0.15879901 0.059384912 0.029730255 0.09058987 -0.05506703 -0.14947286 0.08704067
-0.111563325 -0.07834627 0.04042638 0.1394778 0.08071959 0.11934262 0.007871608 0.045847885
-0.00993549 0.038377274 0.053894345 -0.090992175 -0.035204332 0.034407396 -0.03130823 0.036384378
0.07473208 -0.02311744 0.046649545 0.018436914 0.08431581 0.082349345 0.015865685 0.07869449
0.13488497 0.10637255 0.07437412 0.058108777 0.05187357 0.07393895 0.07690401 0.15167183
0.012928599 -0.031927824 0.009370976 -0.00033319043 -0.055504296 0.021784242 -0.015683075 -0.103609964
-0.07663883 -0.0978824 -0.06786465 -0.10456843 -0.21343797 -0.037920337 -0.062383454 0.17923285
0.05081836 -0.062770694 0.089392565 0.02808298 -0.09576832 0.0757911 0.053614285 -0.018154388
0.11577848 0.022078773 -0.044026483 0.13995521 0.08491314 -0.005882538 0.12423783 0.04956456
0.115032844 -0.00014157506 -0.028944328 -0.009826324 -0.0199648 -0.0011355454 0.022457404 0.034175657
0.01077581 0.018433694 0.115183786 0.029116869 0.044724863 0.03251503 0.121292226 0.0331105
0.051911134 0.068460904 -0.01651278 0.07449978 0.0022207636 -0.016859144 0.06810532 0.07014434
0.013856912 -0.027374009 -0.0055127526 0.047109522 0.03367886 -0.058336396 -0.028295066 -0.008803106
00000000: 5d62 aebd 3136 8bbd 8d93 a4bd 7824 84bd
00000010: 2717 87bc b9b0 8ebc 6637 bd3b 135c b8bc
00000020: d58c 82bc 33eb 03bd 0d45 a8bd b6ea 08bd
00000030: e267 4ebd 74f8 7ebd 29b7 36bd 66ec bc3d
00000040: b7ce 2c3d f305 0dbd 27dc 5a3e e5fd 703e
00000050: 3fb4 a53d e06c bc3e 6f73 2f3e f107 a3bb
00000060: f555 313e b5ac 2c3d 02fe 843d f717 13be
00000070: abec 95bc add7 553d 2339 4b3d 85a0 90bd
00000080: 8f2b 59ba 7ecd 4ebd fc38 21be a952 06be
00000090: a18c e03d b80c 113e a3b7 9e3d 2a1b a43d
000000a0: fa38 153e c0bd 243e 9bf6 72bd b7f9 533c
000000b0: fa7b 74bd 2dfb 2c3e 743f 993c 5c79 80bd
000000c0: 1614 1b3e ed0e e5b9 94c3 fd3c b3f0 233e
000000d0: a1b9 123e 9df6 423e d396 5a3e 67d3 1e3e
000000e0: 23ad 7a3d d775 8f3d 99fe 5a3d ea0d b2bc
000000f0: d2e5 21bd 6e64 bcbc 96c7 53bd 1957 79bd
00000100: 5b8a 343d bafc 8d3d dba6 46bd 27d8 083c
00000110: 83b9 a93d baaf 5ebd 355c ba3b d141 f23d
00000120: c3b8 f23d e1d3 9c3e 2188 dd3e 154e 183e
00000130: 1104 8f3e 7e59 aa3e a7ba 163e edd3 403e
00000140: 0599 3b3e 36e5 133e 32f2 5a3e 2457 183e
00000150: 1c2d f53d 42c3 c73d 15e9 3f3e 53a1 ea3c
00000160: 118e 063e def1 703d 2022 fbbb 249a 113e
00000170: 6893 a63d 9371 543d 39c9 9e3d 68ec 3a3d
00000180: 15f0 863d 2545 ac3d e3d0 823d 3c11 06bd
00000190: a6c7 49bd 30da 82bd 35e9 bcbd 263c edbd
000001a0: 01f0 76bd ae27 f0bd fd9f 20bd 19cf f1bd
000001b0: 78cc 5bbd c3d8 063d d305 c83d 76af a3bc
000001c0: dcd4 143a f81f 0b3e 8c07 a73c ea6b 023e
000001d0: a623 b33d 7210 673d a1a4 113d 5676 853c
000001e0: c85c 7a3d 0b07 843d 57a6 a0bc 66db 0d3c
000001f0: 6cad 3fbd 4e33 83bd caea 263d e5f7 22bd
00000200: 33a2 3ebd 1929 083c 0f17 fabc 92b4 be3d
00000210: 3442 a73d 7c7d 633e ea51 493e 70e4 b43c
00000220: e83b 093e bd6e 673d b02a 1b3d 5dff 883d
00000230: 912c 663d a30e f93c 77ca 903d 1ead 9c3d
00000240: 3443 87bd dce4 bdbb 4990 5ebd 1fb9 dfbc
00000250: 8e82 643b 28a8 26bd b0aa 53bd c95b bc3c
00000260: 515d 123d 359c 223e 983d 733d dd8c f33c
00000270: 2f87 b93d f78d 61bd 6a0f 19be 6142 b23d
00000280: 507b e4bd 0274 a0bd 2296 253d 45d3 0e3e
00000290: 5050 a53d e769 f43d ebf7 003c feca 3b3d
000002a0: 77c8 22bc 7d31 1d3d 51c0 5c3d 1b5a babd
000002b0: 6b32 10bd c5ee 0c3d 0f3d 00bd c907 153d
000002c0: 220d 993d c960 bdbc 9813 3f3d 0309 973c
000002d0: c4ad ac3d c6a6 a83d c1f8 813c 942a a13d
000002e0: 491f 0a3e dad9 d93d 7551 983d 7803 6e3d
000002f0: 6179 543d 4e6d 973d d97f 9d3d dc4f 1b3e
00000300: 79d2 533c c0c6 02bd b988 193c 10b0 aeb9
00000310: 7958 63bd de74 b23c cb79 80bc 7631 d4bd
00000320: d2f4 9cbd 9176 c8bd 9ffc 8abd f927 d6bd
00000330: 7c8f 5abe 5b52 1bbd cb85 7fbd d188 373e
00000340: ea26 503d ec8d 80bd 7313 b73d 470e e63c
00000350: 2e22 c4bd 5d38 9b3d a79a 5b3d 83b8 94bc
00000360: 451d ed3d 8bde b43c 1d55 34bd 6b50 0f3e
00000370: f1e6 ad3d 4ec2 c0bb 6770 fe3d 3504 4b3d
00000380: 5796 eb3d c473 14b9 a81c edbc 97fe 20bc
00000390: 388d a3bc 95d6 94ba 97f8 b73c c6fb 0b3d
000003a0: 068d 303c 4202 973c 7ae5 eb3d 8086 ee3c
000003b0: 6b31 373d 7b2e 053d 0f68 f83d e09e 073d
000003c0: c5a0 543d 3b35 8c3d cf45 87bc 5793 983d
000003d0: 3b8a 113b 301c 8abc cd7a 8b3d d6a7 8f3d
000003e0: 1a08 633c 753f e0bc 52a4 b4bb eaf5 403d
000003f0: d8f2 093d 25f2 6ebd 0ecb e7bc e73a 10bc

net_list.0.cell_list.1.conv2d.bias f4 [64]
0.053112797 0.07739818 0.06053276 -0.02339534 -0.0887045 0.024159648 0.10225677 -0.026697032
0.004357355 -0.07344672 -0.09582465 0.06837425 -0.042459935 -0.05152724 -0.008381756 0.0377271
0.15393974 0.10636336 0.0213652 0.056107305 -0.053304516 0.05023837 0.16658863 -0.02610668
0.12500021 0.12457601 -0.041762352 0.05513834 -0.05388343 0.20845091 -0.07870616 0.08793245
0.20175679 0.025508903 -0.10364114 -0.04179134 -0.072998926 0.004524869 0.118867055 0.02811075
0.06453824 0.10936002 -0.021359855 0.025788862 0.082873695 0.09715055 0.020213848 0.03176702
0.11165432 0.28785986 0.048090182 -0.010654488 -0.13303734 0.020007709 0.09797963 0.05089797
0.15705095 0.15650097 -0.09610941 0.062233906 -0.10558458 0.21285911 -0.044193953 0.0484486
00000000: ce8c 593d f082 9e3d 33f1 773d 96a7 bfbc
00000010: b4aa b5bd 74ea c53c ff6b d13d bcb3 dabc
00000020: 25c8 8e3b 3c6b 96bd b73f c4bd cc07 8c3d
00000030: 78ea 2dbd 3a0e 53bd a253 09bc bb87 1a3d
00000040: 61a2 1d3e 09d5 d93d 1206 af3c c6d0 653d
00000050: d655 5abd c0c6 4d3d 3696 2a3e addd d5bc
00000060: 0e00 003e b521 ff3d 000f 2bbd bdd8 613d
00000070: dfb4 5cbd 2874 553e b230 a1bd ee15 b43d
00000080: 5599 4e3e 0cf8 d03c ce41 d4bd 652d 2bbd
00000090: 7680 95bd 5a45 943b 9270 f33d 8448 e63c
000000a0: a02c 843d 25f8 df3d ddfa aebc 2a43 d33c
000000b0: afb9 a93d def6 c63d 8397 a53c 221e 023d
000000c0: 05ab e43d 5e62 933e 36fa 443d 2990 2ebc
000000d0: f13a 08be 35e7 a33c 8ba9 c83d 647a 503d
000000e0: f7d1 203e ca41 203e 03d5 c4bd fbe8 7e3d
000000f0: ba3c d8bd bdf7 593e b804 35bd 0a72 463d

net_list.0.cell_list.2.conv2d.weight f4 [64, 32, 3, 3]
0.19872913 0.16656 0.019900901 0.12098894 0.09315586 0.05882925 -0.06379469 -0.062259957
0.061574116 -0.19288732 -0.16677733 -0.19723104 0.21357948 0.056306385 -0.07570552 0.07330413
-0.1581176 -0.10191402 0.056090306 0.10621145 0.0616303 0.21165565 0.07313261 0.08406901
0.1372535 0.023627628 -0.0059081283 0.09437431 0.100647695 0.08824675 0.16507588 0.06954118
0.038625784 -0.031079112 0.01164199 -0.038518373 -0.100912966 -0.03713894 0.051971946 -0.07892232
-0.064609826 -0.041462887 0.002232547 0.05994462 0.012807897 -0.11866987 -0.15184914 -0.096296005
-0.059337426 -0.10514192 0.01035819 -0.112072706 -0.08370334 -0.047499813 0.052414678 0.14221634
-0.01767416 -0.1328693 0.07604221 0.049453724 0.04385267 0.11304127 -0.013793706 -0.028992405
-0.11113194 0.045821916 -0.1314596 -0.19349267 0.041239016 -0.073582016 -0.04812003 0.068171516
-0.044997226 -0.036905926 0.008335668 -0.06840708 -0.049539186 -0.09505864 -0.014787911 -0.06955474
-0.08590725 0.02304698 -0.116676524 -0.14026426 -0.06591755 -0.11913949 -0.07481092 -0.07847195
-0.1525762 -0.09314686 0.037327945 -0.01857911 0.02629332 0.075871676 -0.004859015 -0.034916133
0.15788798 0.07533791 0.11179783 -0.21640803 -0.103433624 0.0465373 0.024529552 0.07018731
0.024719946 -0.12274586 -0.021959892 -0.08133278 -0.22509575 -0.21995246 -0.25035983 -0.13204128
-0.04068599 -0.024561431 0.013403026 -0.064460926 -0.05007918 0.1049109 0.0827371 -0.10641932
0.10117887 0.06303039 -0.093303725 0.17254165 0.0043508234 -0.14793222 -0.30810872 -0.15524724
-0.06560434 -0.08933319 0.03900605 0.090623565 -0.16043808 -0.12507816 -0.09180647 -0.02813012
-0.025892716 -0.0029226865 0.058768712 0.05060396 0.13922587 0.044094037 0.06883723 0.19229323
0.0487065 0.00234998 0.09777452 0.052016627 0.04158399 -0.00054181897 -0.022335045 -0.052437063
-0.03625797 -0.0514923 0.020662693 0.08094346 0.015977506 -0.015293097 -0.049194098 0.0181091
0.035885744 -0.039813314 -0.089666255 -0.018344687 -0.047517627 -0.08723841 -0.030652383 0.009390231
-0.034051336 -0.0632475 -0.090588495 -0.07808684 0.027532222 -0.04758535 -0.05660985 -0.04432689
-0.061466396 -0.07552808 -0.0026789915 -0.07588589 0.023678262 0.033298496 0.045575507 -0.09959036
0.06131976 0.029177608 -0.028207783 0.03491643 0.05204216 0.12322666 0.07835313 0.049018983
0.07650513 0.038387388 -0.008920531 -0.016056031 -0.065079875 0.06120833 -0.13681097 0.047296476
-0.087716594 -0.09699962 -0.05604965 -0.044616114 -0.014771858 0.007249542 0.03812137 -0.056401994
-0.08321926 0.012308504 0.008482153 -0.0059489114 -0.054805152 0.032803766 -0.015141465 -0.13121857
0.18365836 0.08364286 0.06892529 0.3566468 0.15592547 0.03515757 0.27015072 0.04951469
0.03987132 -0.030377854 -0.029841159 -0.18356322 -0.04865021 0.055099916 0.00819409 -0.012257622
0.08611516 0.08288079 -0.10118177 -0.04442 -0.12915212 -0.13794333 -0.045676578 -0.12856244
-0.09373483 -0.044763204 -0.019573636 -0.027325507 -0.090515964 0.005230923 -0.021222817 -0.1007546
-0.027501436 0.008075738 -0.13894854 0.036328986 -0.05174217 0.013043473 0.07582964 -0.043766767
00000000: a67f 4b3e b48e 2a3e 3707 a33c 0dc9 f73d
00000010: 80c8 be3d f1f6 703d caa6 82bd 4c04 7fbd
00000020: 2435 7c3d 4184 45be adc7 2abe eff6 49be
00000030: 94b4 5a3e 86a1 663d 7f0b 9bbd 7a20 963d
00000040: 95e9 21be 4cb8 d0bd f3be 653d 6485 d93d
00000050: 0e70 7c3d 42bc 583e 8dc6 953d 602c ac3d
00000060: 2e8c 0c3e ba8e c13c f998 c1bb 5147 c13d
00000070: 6120 ce3d b6ba b43d a709 293e 9b6b 8e3d
00000080: 1236 1e3d 9f99 febc 0cbe 3e3c 71c5 1dbd
00000090: 75ab cebd 001f 18bd 89e0 543d 06a2 a1bd
000000a0: 2852 84bd fdd4 29bd ec4f 123b 7d88 753d
000000b0: 37d8 513c 3009 f3bd 577e 1bbe d736 c5bd
000000c0: cd0b 73bd a654 d7bd 66b5 293c 6086 e5bd
000000d0: a86c abbd 2a8f 42bd c6b0 563d 29a1 113e
000000e0: 66c9 90bc e40e 08be 05bc 9b3d fd8f 4a3d
000000f0: db9e 333d 2e82 e73d fffe 61bc 7b81 edbc
00000100: 2499 e3bd c3af 3b3d 589d 06be f122 46be
00000110: 3eea 283d 2bb2 96bd 8219 45bd 829d 8b3d
00000120: 034f 38bd ab2a 17bd 5392 083c 0319 8cbd
00000130: 9ae9 4abd 1bae c2bd ff48 72bc b772 8ebd
00000140: 24f0 afbd 05cd bc3c 1af4 eebd 6fa1 0fbe
00000150: c8ff 86bd 68ff f3bd 7836 99bd e7b5 a0bd
00000160: ef3c 1cbe c8c3 bebd 30e5 183d 3833 98bc
00000170: 1765 d73c 9c62 9b3d 5f38 9fbb 3804 0fbd
00000180: 63ad 213e c34a 9a3d 43f6 e43d 119a 5dbe
00000190: 02d5 d3bd e59d 3e3d 33f2 c83c 5dbe 8f3d
000001a0: 7c81 ca3c 2e62 fbbd 3be5 b3bc cd91 a6bd
000001b0: 807f 66be 383b 61be 2a2f 80be d435 07be
000001c0: 5aa6 26bd 0e35 c9bc 5e98 5b3c 1704 84bd
000001d0: d41f 4dbd 87db d63d 1272 a93d 5ff2 d9bd
000001e0: de36 cf3d 1416 813d 0616 bfbd c2ae 303e
000001f0: 5a91 8e3b 8b7b 17be 6dc0 9dbe 22f9 1ebe
00000200: 915b 86bd 52f4 b6bd cfc4 1f3d d998 b93d
00000210: e149 24be 7d14 00be 0805 bcbd 2371 e6bc
00000220: f61c d4bc 8b8a 3fbb 76b7 703d 1946 4f3d
00000230: 3a91 0e3e f39b 343d 89fa 8c3d 84e8 443e
00000240: 7880 473d 1f02 1a3b 023e c83d 630f 553d
00000250: f953 2a3d db08 0eba fcf7 b6bc 3fc8 56bd
00000260: 3d83 14bd 97e9 52bd cf44 a93c afc5 a53d
00000270: 42e3 823c e68f 7abc c07f 49bd 8959 943c
00000280: eefc 123d 4913 23bd f1a2 b7bd 9947 96bc
00000290: d8a1 42bd 0daa b2bd b51a fbbc 7cd9 193c
000002a0: 6a79 0bbd e887 81bd 7686 b9bd feeb 9fbd
000002b0: 418b e13c dbe8 42bd bbdf 67bd 1d90 35bd
000002c0: 30c4 7bbd 77ae 9abd 0592 2fbb 106a 9bbd
000002d0: eaf8 c13c 0164 083d 62ad 3a3d 08f6 cbbd
000002e0: 6e2a 7b3d e105 ef3c 0214 e7bc 8804 0f3d
000002f0: 292a 553d 425e fc3d 9b77 a03d 21c8 483d
00000300: b9ae 9c3d 183c 1d3d 6b27 12bc f087 83bc
00000310: 9948 85bd 96b5 7a3d 2d18 0cbe f3b9 413d
00000320: c2a4 b3bd bda7 c6bd 5194 65bd 63bf 36bd
00000330: aa05 72bc 918d ed3b 2725 1c3d c705 67bd
00000340: dc6e aabd 9ca9 493c baf8 0a3c 16ef c2bb
00000350: 5e7b 60bd 3e5d 063d e813 78bc 295e 06be
00000360: f010 3c3e f34c ab3d b428 8d3d 699a b63e
00000370: edaa 1f3e 6201 103d 3251 8a3e eacf 4a3d
00000380: 1c50 233d fada f8bc 7275 f4bc fff7 3bbe
00000390: 7145 47bd 73b0 613d 8140 063c 31d4 48bc
000003a0: 255d b03d 67bd a93d 6338 cfbd bff1 35bd
000003b0: 7440 04be 0441 0dbe 5d17 3bbd dfa5 03be
000003c0: 0cf8 bfbd 9f59 37bd e458 a0bc bed9 dfbc
000003d0: 6f60 b9bd 2a68 ab3b 79db adbc 6d58 cebd
000003e0: b14a e1bc 1a50 043c 8748 0ebe b4cd 143d
000003f0: 99ef 53bd 4ab4 553c 924c 9b3d c844 33bd

net_list.0.cell_list.2.conv2d.bias f4 [64]
-0.057464752 -0.02206014 0.0070428876 -0.010625361 0.061525453 0.043582484 -0.026182113 0.07761579
0.031015493 0.0043216115 0.02313137 0.042818513 -0.12306249 -0.024973307 -0.040630426 0.038493596
0.06367283 -0.0064269947 -0.044011764 0.11498671 -0.04316006 0.07490342 0.1946198 0.113375634
0.46940562 0.03573601 0.3082417 0.23174156 0.06300061 0.009404017 -0.023999423 0.055765457
-0.047330946 -0.10094226 -0.03553811 -0.037851658 0.046434477 0.002169692 -0.16990948 0.015432121
-0.026287198 0.12315945 0.03825219 -0.013058779 -0.097608894 -0.030678745 -0.08557622 0.012304903
0.11458313 0.05589667 0.046842746 0.043186147 -0.014870732 0.1746832 0.16507879 -0.005128824
0.39656264 0.022624463 0.18738659 0.2518114 0.15870313 0.04107348 0.0085592875 0.037551355
00000000: 2960 6bbd 77b7 b4bc 06c8 e63b ff15 2ebc
00000010: 1d02 7c3d 8c83 323d df7b d6bc 07f5 9e3d
00000020: 3414 fe3c 4e9c 8d3b 007e bd3c 7762 2f3d
00000030: 3008 fcbd d294 ccbc 176c 26bd 76ab 1d3d
00000040: e766 823d 8a99 d2bb ae45 34bd 277e eb3d
00000050: 9ac8 30bd f766 993d 6a4a 473e 7c31 e83d
00000060: ef55 f03e ec5f 123d dbd1 9d3e a94d 6d3e
00000070: 7706 813d 4e13 1a3c 709a c4bc 526a 643d
00000080: 18de 41bd d1ba cebd 6990 11bd 570a 1bbd
00000090: 1432 3e3d 6431 0e3b c0fc 2dbe 02d7 7c3c
000000a0: 4058 d7bc 063b fc3d 54ae 1c3d 7df4 55bc
000000b0: 2ce7 c7bd fe51 fbbc 9642 afbd 819a 493c
000000c0: 8faa ea3d e8f3 643d 2ede 3f3d f5e3 303d
000000d0: 5fa4 73bc 27e0 323e 6a0a 293e b20f a8bb
000000e0: 420a cb3e f056 b93c 45e2 3f3e 6ced 803e
000000f0: 1383 223e aa3c 283d 413c 0c3c 73cf 193d

net_list.2.weight f4 [16, 16, 3, 3]
0.15868708 0.15146503 -0.005838374 0.043141205 0.07225919 0.058446184 0.05601119 -0.03131747
0.27120396 -0.09165917 -0.07201217 -0.026658667 -0.07190988 0.02432151 -0.07084757 -0.03478519
-0.09224879 -0.050377488 0.06891542 -0.04362234 -0.076760545 0.02819206 -0.042636413 -0.11662662
-0.117070176 -0.11639587 -0.14041267 0.020736024 0.03635897 -0.008574069 0.054931454 0.09722897
0.0069204513 0.12358943 0.09104344 0.09952027 0.07199002 0.113100715 0.037221197 0.071603425
0.107840024 0.013290329 0.022912841 -0.074083805 -0.045213193 -0.08826681 -0.018818524 0.015283013
0.030766612 -0.035576854 -0.05777521 -0.052393634 -0.033776447 -0.14631665 -0.11462916 0.013721146
-0.042420004 -0.13116397 0.06382471 0.054121584 -0.054235753 -0.032029737 0.074491225 -0.013794197
0.019912519 0.055897094 0.07041766 0.060842104 0.013031501 0.058014438 0.014425174 0.059359565
-0.043217238 0.13298245 -0.00985649 -0.057495054 -0.09362923 -0.079401486 0.013417524 0.018989056
-0.03582591 0.029457387 -0.025457105 0.073555745 -0.061147597 -0.043147832 -0.069010556 -0.03050192
0.08173473 -0.026842233 0.15855944 0.046739746 0.008728885 0.0050610355 -0.04303521 0.10375813
-0.00028953791 -0.08721581 0.02126935 0.045210753 0.08476521 -0.026333185 0.108535916 0.005899033
0.069260135 0.09630111 0.04522755 0.14877257 0.09279106 0.11411012 -0.0013946687 -0.007429149
0.09429464 -0.061560158 -0.03169014 0.08187213 -0.08394756 -0.08182416 -0.14038476 -0.08298136
-0.018134983 -0.1708813 -0.14616759 -0.07800073 -0.093201555 -0.042103212 0.030226812 -0.060901593
-0.028880637 0.027436307 -0.05808175 -0.026793199 -0.013237858 -0.05035812 -0.09115582 0.15484667
0.09657537 -0.02797485 0.15604255 0.080283426 0.07950626 0.033057634 -0.05957182 0.017433379
-0.16456437 -0.09061496 -0.09692259 -0.15939832 -0.20065719 -0.13934799 -0.21029237 -0.09422175
-0.14070316 -0.09529763 -0.024579233 0.020433476 -0.035279322 0.006665973 0.099156596 -0.090429485
-0.070368476 -0.027887238 -0.095836386 -0.1036249 -0.094904535 -0.08215159 -0.09775817 -0.14823426
-0.15270802 -0.21435936 -0.20339742 0.01788612 -0.022290343 0.09737738 0.1421748 0.0364664
0.08592379 0.070913225 -0.10107396 0.04935803 0.07503686 -0.059274983 0.03242454 -0.06738633
-0.017551683 -0.08142761 -0.04823469 -0.13520113 -0.1061875 0.06993467 0.029008294 -0.087429866
-0.15400892 -0.120634824 -0.1150939 0.021508453 -0.0609858 -0.16918346 -0.05132988 -0.019046264
-0.23400076 -0.08715796 -0.009570527 -0.22990741 -0.18455508 -0.062404484 -0.25844175 -0.058671433
0.12722212 0.020246567 -0.022190267 -0.04049242 -0.011287864 0.09018613 0.09526934 0.061070617
-0.047156006 -0.049254864 -0.0542723 0.0069658924 0.047141906 0.03783075 0.064052984 0.053313207
-0.053657327 0.17977794 0.069848455 0.014440112 -0.07131912 0.040016502 -0.07856896 -0.0072623547
-0.050548494 -0.08848535 0.1044794 -0.014916011 0.18353589 0.09796005 0.029576955 0.043772887
0.03483704 -0.06378314 0.063461356 0.121656194 0.077757165 0.05988076 0.04660718 -0.09840579
-0.060561232 0.0055652745 -0.053246554 0.03145631 -0.1888898 -0.14012995 -0.17537187 -0.17320827
00000000: de7e 223e a619 1b3e d54f bfbb d5b4 303d
00000010: a0fc 933d 4465 6f3d fd6b 653d bf46 00bd
00000020: 3fdb 8a3e ceb7 bbbd 1e7b 93bd 4763 dabc
00000030: 7d45 93bd e73d c73c 8818 91bd ea7a 0ebd
00000040: efec bcbd a058 4ebd 8723 8d3d 57ad 32bd
00000050: a234 9dbd 09f3 e63c 85a3 2ebd f0d9 eebd
00000060: 7dc2 efbd f560 eebd 57c8 0fbe 98de a93c
00000070: 25ed 143d 407a 0cbc ceff 603d fb1f c73d
00000080: f4c4 e23b 741c fd3d fc74 ba3d 49d1 cb3d
00000090: 816f 933d 59a1 e73d 4175 183d d1a4 923d
000000a0: 3bdb dc3d aebf 593c b6b3 bb3c 40b9 97bd
000000b0: 7831 39bd 3bc5 b4bd 4e29 9abc 9a65 7a3c
000000c0: 430a fc3c 09b9 11bd b3a5 6cbd b59a 56bd
000000d0: 2c59 0abd 08d4 15be b1c2 eabd a8ce 603c
000000e0: 99c0 2dbd d94f 06be 88b6 823d 98ae 5d3d
000000f0: 4f26 5ebd 9d31 03bd db8e 983d 0e01 62bc
00000100: 941f a33c 5af4 643d 2237 903d 9235 793d
00000110: 1482 553c 8ca0 6d3d 9157 6c3c 0423 733d
00000120: 8f04 31bd 8d2c 083e 1e7d 21bc ef7f 6bbd
00000130: afc0 bfbd 3f9d a2bd 2dd5 5b3c f08e 9b3c
00000140: 30be 12bd 9e50 f13c 6b8b d0bc 65a4 963d
00000150: e775 7abd c8bb 30bd 6855 8dbd 2adf f9bc
00000160: 8a64 a73d 3ee4 dbbc 685d 223e 2d72 3f3d
00000170: 9903 0f3c 0bd7 a53b b045 30bd 247f d43d
00000180: 1fcd 97b9 349e b2bd 0f3d ae3c e92e 393d
00000190: 6299 ad3d b1b8 d7bc 1448 de3d ad4c c13b
000001a0: 42d8 8d3d 8439 c53d 8640 393d d657 183e
000001b0: 3d09 be3d 91b2 e93d 51cd b6ba 3870 f3bb
000001c0: 8c1d c13d 8126 7cbd 85cd 01bd 93ac a73d
000001d0: b3ec abbd 6d93 a7bd 06c1 0fbe 22f2 a9bd
000001e0: d18f 94bc 82fb 2ebe f5ac 15be d9be 9fbd
000001f0: 75e0 bebd 6b74 2cbd 389e f73c f373 79bd
00000200: 1697 ecbc 1bc2 e03c 21e7 6dbd 697d dbbc
00000210: 9ae3 58bc 5144 4ebd e7af babd 2090 1e3e
00000220: 4fc9 c53d 832b e5bc 9ec9 1f3e a36b a43d
00000230: 2ed4 a23d 7167 073d 9501 74bd 72d0 8e3c
00000240: 9083 28be 5694 b9bd 5a7f c6bd 5039 23be
00000250: 1479 4dbe 3db1 0ebe e256 57be 55f7 c0bd
00000260: 7d14 10be 672b c3bd 635a c9bc 1b64 a73c
00000270: 0d81 10bd 3c6e da3b 9d12 cb3d 1833 b9bd
00000280: 591d 90bd c773 e4bc de45 c4bd 4b39 d4bd
00000290: 4f5d c2bd 183f a8bd 6f35 c8bd b9ca 17be
000002a0: 7e5f 1cbe 0581 5bbe 6a47 50be ea85 923c
000002b0: 3d9a b6bc cb6d c73d 4596 113e cb5d 153d
000002c0: d0f8 af3d f43a 913d ddff cebd a52b 4a3d
000002d0: edac 993d 53ca 72bd 98cf 043d d801 8abd
000002e0: 8cc8 8fbc 85c3 a6bd bd91 45bd 2a72 0abe
000002f0: d578 d9bd e939 8f3d cda2 ed3c 6e0e b3bd
00000300: 84b4 1dbe 640f f7bd 5ab6 ebbd 7f32 b03c
00000310: 3fcc 79bd 6e3e 2dbe 483f 52bd e906 9cbc
00000320: e59d 6fbe df7f b2bd b3cd 1cbc d96c 6bbe
00000330: 02fc 3cbe d89b 7fbd 7a52 84be 7551 70bd
00000340: 8446 023e 21dc a53c 5dc8 b5bc 61db 25bd
00000350: bcf0 38bc 81b3 b83d 921c c33d 2f25 7a3d
00000360: a826 41bd 78bf 49bd a24c 5ebd 2442 e43b
00000370: df17 413d 6bf4 1a3d 362e 833d f35e 5a3d
00000380: c9c7 5bbd b517 383e b50c 8f3d 3896 6c3c
00000390: c20f 92bd 58e8 233d c3e8 a0bd 0cf9 edbb
000003a0: f00b 4fbd cf37 b5bd 4cf9 d53d 4962 74bc
000003b0: d5f0 3b3e 479f c83d 5f4b f23c 334b 333d
000003c0: 49b1 0e3d bca0 82bd 07f8 813d e226 f93d
000003d0: 263f 9f3d 8745 753d 2ce7 3e3d fa88 c9bd
000003e0: 0e0f 78bd e85c b63b 0f19 5abd 55d8 003d
000003f0: 546c 41be 3a7e 0fbe af94 33be 825d 31be

net_list.2.bias f4 [16]
0.053706806 -0.058141146 0.066822365 0.037555344 0.13557228 -0.03678336 -0.061224278 0.056760136
-0.06057341 0.08867534 0.14698558 -0.08736001 -0.066154614 0.0851758 -0.011804772 -0.041284144
00000000: abfb 5b3d 6925 6ebd 2ada 883d a2d3 193d
00000010: 76d3 0a3e 26aa 16bd 4fc6 7abd 517d 683d
00000020: d31b 78bd 6b9b b53d 6383 163e cee9 b2bd
00000030: 127c 87bd a670 ae3d cd68 41bc 9019 29bd

net_list.4.weight f4 [8, 16, 3, 3]
-0.102869414 -0.04152206 -0.047669735 -0.16345635 -0.012557186 -0.16312864 -0.09523696 0.011616358
-0.10298217 -0.14676657 0.050241977 -0.14549209 -0.12445626 0.041259214 -0.05166706 -0.15451705
0.044422444 -0.20077991 -0.027853852 -0.12519144 -0.03594974 -0.17632005 -0.040499397 -0.10192216
-0.09878894 -0.01682122 -0.065839 0.09621503 0.11711752 -0.03420902 0.06051563 0.021511894
-0.060218435 0.085205086 0.087082036 -0.05325339 -0.14896397 -0.1627272 -0.08635514 -0.14669451
0.077313095 -0.07301721 0.18647617 0.14012745 0.14353693 -0.16017123 -0.11290068 -0.073088415
-0.19514595 -0.0978454 0.016187724 -0.24442984 -0.18417217 -0.006600999 0.08941405 0.07242948
0.22548063 0.13239545 0.17587548 0.27996477 -0.05659832 0.025459813 0.06672134 0.017742053
0.080446474 0.04818744 0.06619842 0.09224814 0.10887097 0.3784388 0.31806788 0.37289372
0.023608604 -0.0070045847 0.057385672 0.006434975 0.053028423 -0.04310609 0.08240566 0.072265826
-0.00068676745 -0.017244149 0.11217051 0.12547177 0.12488413 -0.00572614 -0.009762254 -0.012452557
-0.016912716 0.089980856 0.0080669 0.08408096 0.032597505 0.041819897 -0.044944108 0.018254843
-0.008752939 0.05013978 0.07945657 -0.023037512 0.08520359 -0.0651657 -0.0009600163 0.041309714
0.027412733 -0.058540482 -0.010292927 -0.061691597 0.108441755 0.10491645 -0.07993963 0.23962374
0.16906065 0.13793361 0.3195653 0.20818824 0.04565526 -0.10540002 0.028117293 -0.1447462
-0.046536963 -0.0785451 -0.050685987 -0.120367564 0.016736373 -0.15300566 0.10978036 -0.03761041
-0.023888212 -0.008752053 0.06760876 -0.05823352 0.04966177 -0.02359756 0.035117004 -0.20713247
-0.14364327 -0.122812085 0.018673515 0.027975406 0.026352592 -0.12268465 -0.09537603 -0.23614289
0.0242515 0.09577298 -0.03788968 0.09016178 0.02209481 0.08201919 -0.0158759 0.08380569
0.054855328 0.026449004 0.095955364 0.031388942 0.08411501 -0.008433659 -0.046688475 -0.058329675
-0.18617879 -0.075259216 -0.007889906 0.0028735783 0.16247137 0.098692425 0.037521843 0.13366202
-0.030946491 0.08194446 0.027684078 -0.04192125 0.061538395 0.04966853 -0.009067706 -0.028298333
0.0063663144 0.048596755 0.024078732 0.0669946 0.17551188 0.12460879 0.14524522 0.04901405
0.13949229 0.049963277 0.084146 0.060379755 -0.03943156 -0.00082978414 0.07357791 -0.005711502
0.00074935687 -0.023337964 0.0019578035 0.039942235 0.10848264 -0.020568436 -0.10623164 -0.12327935
0.004063257 -0.00059181394 0.037296906 0.029657941 -0.027770897 -0.0011145533 0.06741419 0.07695096
0.112734355 0.09287278 0.057040725 0.042886134 -0.12782843 -0.102275856 -0.15899427 -0.079508856
0.012292416 -0.0547615 -0.030935097 0.08018483 0.066637285 -0.07933977 -0.08784054 0.0024325142
-0.059341803 0.03974503 0.018672936 0.06758633 -0.03065623 0.08681113 0.026462136 0.019050594
0.016891006 -0.0627387 -0.06120836 0.027741656 0.002301895 0.0058057816 -0.056596007 0.012637696
-0.08343505 -0.10850478 0.009364142 -0.07006434 0.023534195 0.047387447 -0.04784682 -0.025874965
-0.07849647 0.026292427 0.05806626 -0.06823884 -0.14024419 -0.07610149 -0.0044335593 -0.021609845
00000000: 33ad d2bd 0913 2abd 5741 43bd 1a61 27be
00000010: a8bc 4dbc 320b 27be 980b c3bd 8952 3e3c
00000020: 51e8 d2bd fa49 16be 88ca 4d3d e1fb 14be
00000030: ece2 febd 6cff 283d d7a0 53bd b839 1ebe
00000040: 4ff4 353d 4099 4dbe c32d e4bc 2f32 00be
00000050: 0940 13bd 3e8d 34be b2e2 25bd 91bc d0bd
00000060: db51 cabd a8cc 89bc 99d6 86bd 630c c53d
00000070: 4fdb ef3d c21e 0cbd 3ddf 773d b639 b03c
00000080: 9ba7 76bd 0180 ae3d 1158 b23d 3a20 5abd
00000090: 038a 18be f6a1 26be f7da b0bd 1637 16be
000000a0: 5456 9e3d 0c8a 95bd 9cf3 3e3e 927d 0f3e
000000b0: 58fb 123e ed03 24be 7938 e7bd 61af 95bd
000000c0: 57d4 47be 2b63 c8bd 1e9c 843c d14b 7abe
000000d0: a197 3cbe 314d d8bb b71e b73d e855 943d
000000e0: 65e4 663e ac92 073e b418 343e 8b57 8f3e
000000f0: a4d3 67bd 1991 d03c 33a5 883d c857 913c
00000100: 1fc1 a43d 3160 453d 0a93 873d 98ec bc3d
00000110: bef7 de3d bbc2 c13e cbd9 a23e edeb be3e
00000120: d566 c13c b786 e5bb 3d0d 6b3d 7cdc d23b
00000130: 5534 593d 0390 30bd 4cc4 a83d 1b00 943d
00000140: 2f08 34ba 9a43 8dbc a7b9 e53d ac7b 003e
00000150: 40c3 ff3d 58a2 bbbb dcf1 1fbc cf05 4cbc
00000160: 898c 8abc e247 b83d 082b 043c a332 ac3d
00000170: f684 053d 574b 2b3d 5017 38bd 2e8b 953c
00000180: 7d68 0fbc 5f5f 4d3d 20ba a23d 2ab9 bcbc
00000190: 387f ae3d 9875 85bd 9aa9 7bba 6034 293d
000001a0: ab90 e03c 25c8 6fbd aaa3 28bc 54b0 7cbd
000001b0: b616 de3d 70de d63d 64b7 a3bd ed5f 753e
000001c0: 3c1e 2d3e 783e 0d3e 109e a33e 4c2f 553e
000001d0: 0301 3b3d f7db d7bd 3d56 e63c 5938 14be
000001e0: 8b9d 3ebd 41dc a0bd 1c9c 4fbd 4583 f6bd
000001f0: b81a 893c 84ad 1cbe 86d4 e03d 600d 1abd
00000200: 36b1 c3bc c564 0fbc 7676 8a3d 4586 6ebd
00000210: 246a 4b3d ac4f c1bc d9d6 0f3d 891a 54be
00000220: 3917 13be e784 fbbd 33f9 983c ae2c e53c
00000230: 64e1 d73c 1742 fbbd 8254 c3bd 71cf 71be
00000240: 15ab c63c a024 c43d 3632 1bbd bda6 b83d
00000250: 2d00 b53c adf9 a73d 2d0e 82bc 51a2 ab3d
00000260: fbaf 603d 95ab d83c 3f84 c43d b191 003d
00000270: 7e44 ac3d 542d 0abc 6a3c 3fbd 19eb 6ebd
00000280: a7a5 3ebe 8121 9abd aa44 01bc a552 3c3b
00000290: e55e 263e 411f ca3d 81b0 193d b2de 083e
000002a0: 7f83 fdbc 7fd2 a73d b8c9 e23c 9eb5 2bbd
000002b0: af0f 7c3d 3a71 4b3d b790 14bc e8d1 e7bc
000002c0: 849c d03b 640d 473d c340 c53c 7734 893d
000002d0: 63b9 333e e532 ff3d 2abb 143e f5c2 483d
000002e0: 11d7 0e3e 4ba6 4c3d bd54 ac3d c350 773d
000002f0: fd82 21bd df85 59ba 04b0 963d 8d27 bbbb
00000300: 7d70 443a 422f bfbc 7e4e 003b 789a 233d
00000310: 252c de3d 237f a8bc f98f d9bd e279 fcbd
00000320: 1225 853b f623 1bba a4c4 183d 36f5 f23c
00000330: cb7f e3bc 3416 92ba 7310 8a3d 7798 9d3d
00000340: 45e1 e63d 1634 be3d 89a3 693d 5fa9 2f3d
00000350: 75e5 02be 0176 d1bd 65cf 22be 8ad5 a2bd
00000360: 2166 493c 984d 60bd 9a6b fdbc f237 a43d
00000370: 2179 883d e47c a2bd bee5 b3bd d16a 1f3b
00000380: 6410 73bd afcb 223d fcf7 983c b46a 8a3d
00000390: c622 fbbc 09ca b13d 1fc7 d83c fe0f 9c3c
000003a0: 025f 8a3c 267d 80bd 9eb5 7abd 7842 e33c
000003b0: 64db 163b 6d3e be3b 37d1 67bd 570e 4f3c
000003c0: ffdf aabd c137 debd 0f6c 193c e57d 8fbd
000003d0: c9ca c03c 5719 423d 07fb 43bd bcf7 d3bc
000003e0: c2c2 a0bd 3763 d73c e3d6 6d3d cec0 8bbd
000003f0: 2c9c 0fbe 19db 9bbd 6447 91bb 2107 b1bc

net_list.4.bias f4 [8]
0.10613201 0.11912301 -0.03709186 0.08005133 0.12095693 -0.003151231 -0.12544027 0.068086
00000000: bd5b d93d c4f6 f33d a2ed 17bd f4f1 a33d
00000010: 44b8 f73d e284 4ebb 6a73 00be ac70 8b3d

net_list.6.weight f4 [1, 8, 3, 3]
0.14513652 -0.00091359974 0.20095459 -0.042774405 -1.6675871e-05 0.10189421 0.13003607 0.12876579
0.18102902 -0.1676979 -0.042208567 -0.052356474 -0.08102534 -0.060297336 -0.13280879 0.02782488
0.05424201 -0.032428935 -0.26185802 0.14090532 0.071825504 -0.24157104 0.21575752 0.021318566
-0.19255924 0.13271128 -0.14076188 0.19826719 0.20026553 0.07047603 0.035397474 0.22481121
0.08756924 0.17710283 0.08052876 0.047433604 0.0084131025 -0.097217865 -0.0065580704 -0.028364493
-0.04773146 -0.06602035 -0.13594383 -0.1072361 -0.13344112 -0.029010132 0.11574083 0.25698823
-0.19522296 0.14404777 -0.024369793 -0.13755497 -0.11029716 -0.053365305 0.12037577 0.21032439
0.032113716 0.06562739 0.08857532 0.1573186 -0.08711487 0.165568 0.07532384 0.07613844
0.090577215 -0.051858686 0.10748499 -0.006052399 0.1336155 -0.015731495 0.17557068 0.107538484
00000000: ab9e 143e a47e 6fba 0ac7 4d3e 3734 2fbd
00000010: 29e3 8bb7 e9ad d03d 2d28 053e 2edb 033e
00000020: ac5f 393e 00b9 2bbe e4e2 2cbd be73 56bd
00000030: 9df0 a5bd 57fa 76bd 07ff 07be 01f1 e33c
00000040: df2c 5e3d 34d4 04bd 4112 86be 7c49 103e
00000050: 4019 933d 665e 77be 8aef 5c3e 46a4 ae3c
00000060: 402e 45be 77e5 073e e223 10be 8e06 4b3e
00000070: 6812 4d3e bd55 903d f1fc 103d e934 663e
00000080: 8057 b33d 725a 353e 43ec a43d bd49 423d
00000090: 1cd7 093c 291a c7bd 15e5 d6bb a75c e8bc
000000a0: 1082 43bd ad35 87bd dc34 0bbe 9a9e dbbd
000000b0: caa4 08be a8a6 edbc 8709 ed3d f693 833e
000000c0: 87e8 47be 4281 133e 29a3 c7bc 36db 0cbe
000000d0: 7ae3 e1bd 9495 5abd 9287 f63d 475f 573e
000000e0: ac89 033d a767 863d fa66 b53d 2118 213e
000000f0: 4869 b2bd a88a 293e 6343 9a3d 78ee 9b3d
00000100: 8c80 b93d c669 54bd 1721 dc3d 3453 c6bb
00000110: 80d2 083e 56df 80bc cdc8 333e 233d dc3d
