QIENetV1_0_0/QIENet_Conv4.pth (torch, 240385 bytes, 11 tensors)

net_list.0.cell_list.0.conv2d.weight f4 [64, 32, 3, 3]
0	0x3d86c586	0.06580643
1	0xbca49534	-0.020090677
2	0x3c812ae5	0.015767524
3	0x3bd5e6cd	0.0065277577
4	0xbc5b78bf	-0.013395487
5	0x3cd55303	0.02604056
6	0xbd8ace37	-0.067776136
7	0xbd921df5	-0.0713462
8	0xbdba2640	-0.09089327
9	0x3a0566f4	0.00050888886
10	0x39f1636a	0.0004604117
11	0x3cd9faed	0.026608909
12	0x3d31d262	0.043413527
13	0x3d374eca	0.044752873
14	0xbcaf7426	-0.021417689
15	0xbd890747	-0.06690841
16	0x39f0459b	0.00045828227
17	0xbae4eaf0	-0.0017465036
18	0xbc739ad1	-0.014868454
19	0x3c0e88ee	0.008699639
20	0x3d3a410e	0.045472197
21	0x3c5fdbf0	0.013663277
22	0xbd0b7319	-0.034045313
23	0xbc1756e3	-0.009237024
24	0x3c8721f0	0.016495675
25	0xbcce6eb4	-0.025199272
26	0xbd1a0e8e	-0.037611537
27	0xbc224368	-0.009903766
28	0xbd763aa7	-0.06011453
29	0xbd94dd58	-0.072687805
30	0xbce93830	-0.028469175
31	0xbcb711e6	-0.022347402
32	0x3c4fe6f4	0.012689341
33	0xbd6ac30e	-0.057314925
34	0xbd9a3db0	-0.07531297
35	0xbcd4681c	-0.02592855
36	0xbc47ee31	-0.012202785
37	0x3ca764b7	0.020433767
38	0xbc6c7446	-0.014432019
39	0xbc0a50d5	-0.008442123
40	0xbd2f91fa	-0.042863823
41	0xbd3c48f0	-0.045967996
42	0x3cb52353	0.02211157
43	0xbbe0e798	-0.0068635456
44	0xbcbffbe6	-0.023435544
45	0x3cde8b5c	0.027166061
46	0x3d999c51	0.07500518
47	0x3d2ea3a8	0.042636544
48	0x3d7d9a1d	0.061914552
49	0xbd45685a	-0.04819522
50	0xbbaf863f	-0.0053565796
51	0xbceaf4a5	-0.028681109
52	0xbcf61dd0	-0.030043513
53	0xbd8ab722	-0.06773211
54	0xbdbc2933	-0.091875456
55	0xbd429e4c	-0.047514245
56	0x3d7e2f9a	0.062057115
57	0xbb7a504d	-0.0038194836
58	0x3ce8beef	0.028411357
59	0xbc10db7d	-0.008841393
60	0x3be39a09	0.0069458527
61	0xbd499eda	-0.04922376
62	0xbd2a6204	-0.04159738
63	0xbdb3491b	-0.08754178
64	0xbd6d5eac	-0.057951614
65	0x3d41bc41	0.047298674
66	0xbddf93b5	-0.10916845
67	0x3d18d1b8	0.03730938
68	0x3d3614d6	0.044453464
69	0xbcbee5fe	-0.023303028
70	0xbc6945cc	-0.014237832
71	0xbd85b019	-0.065277286
72	0xbac33132	-0.0014891981
73	0x3c8a1fa2	0.016860787
74	0x3c7daf00	0.015483618
75	0xbcc7b348	-0.02437748
76	0xbd3542b6	-0.044253074
77	0x3dace1e5	0.084415235
78	0x3cc56086	0.024093878
79	0xbd3a94d7	-0.0455521
80	0x3d41b297	0.047289457
81	0xbcee73b7	-0.029107912
82	0x3d0afa1e	0.033929937
83	0x3dabaf42	0.08383037
84	0x3cb90124	0.022583552
85	0x3cc50a3e	0.024052735
86	0x3d6c27a3	0.057654988
87	0x3d086a30	0.033304393
88	0x3da556b3	0.08073177
89	0x3d9f3b7c	0.077750176
90	0x3cb39492	0.02192143
91	0x3c1df2c1	0.009640397
92	0x3dac481b	0.084121905
93	0x3d44c845	0.048042554
94	0xbcd39dd3	-0.025832092
95	0xbc8a7615	-0.016902009
96	0x3d81c93b	0.0633721
97	0xbae653d6	-0.0017572592
98	0x3cd953fd	0.026529307
99	0xbce2eeb8	-0.02770172
100	0xbcec3809	-0.028835313
101	0x3d18e364	0.03732623
102	0xbd8d1171	-0.06888092
103	0xbda22921	-0.07918001
104	0xbd505e10	-0.050870955
105	0xbd0d35fc	-0.03447531
106	0xbd77aa17	-0.060464945
107	0xbc540f46	-0.012943095
108	0xbd170e4d	-0.036878873
109	0xbbb07179	-0.0053846207
110	0x3d88b003	0.066741966
111	0xbd35d830	-0.044395626
112	0x3d8a772f	0.06761014
113	0x3baa17dc	0.0051908325
114	0x3d944d02	0.072412506
115	0x3c696c44	0.014247004
116	0x3da19814	0.07890335
117	0xbd0d1a6d	-0.03444903
118	0xbd80f1a3	-0.062960885
119	0xbabf7a43	-0.001460858
120	0xbd7252c1	-0.05916095
121	0xbcb230f8	-0.021751866
122	0x3b58ab32	0.0033061025
123	0xbda01e2a	-0.07818253
124	0x3d15b2f2	0.03654761
125	0x3b9dddc4	0.0048176963
126	0xbd86a8e4	-0.06575182
127	0xbb1e419b	-0.002414799
128	0x3cabdbe2	0.020978872
129	0xbd7579eb	-0.059930723
130	0xbde68382	-0.11255552
131	0x3cb77bbb	0.022397866
132	0xbd4d09aa	-0.050058044
133	0xb9c7ed62	-0.00038133102
134	0xbb4f5251	-0.0031634758
135	0xbc764461	-0.015030951
136	0x3c4d593b	0.012533481
137	0x3c557127	0.013027466
138	0xbd1fc5e3	-0.03900708
139	0xbdc19185	-0.09451584
140	0xbd826377	-0.06366628
141	0xbd5b1c8e	-0.05349403
142	0xbd7c5574	-0.061604932
143	0xbd5fd183	-0.054643165
144	0x3c0dc63f	0.008653223
145	0x3d1f9867	0.0389637
146	0x3d5c4713	0.05377872
147	0x3e150098	0.14551008
148	0x3d882a0d	0.066486456
149	0x3d956e28	0.07296401
150	0x3dc4323b	0.09579893
151	0x3e00df9b	0.12585299
152	0x3e04fc43	0.12986855
153	0xbdfc75aa	-0.1232713
154	0xbdae8c93	-0.08522906
155	0xbd826fa0	-0.06368947
156	0xbdc06922	-0.093950525
157	0xbdc6a2c5	-0.096990146
158	0xbdbdc512	-0.09266104
159	0xbda1898b	-0.07887562
160	0xbe122674	-0.14272481
161	0xbe0eeaad	-0.13956709
162	0x3d4e7424	0.05040373
163	0x3cf4bd61	0.02987546
164	0xbdcc8dc5	-0.09987978
165	0x3d2dc2e8	0.042422205
166	0xbcc935de	-0.024561819
167	0xbcbc1bc8	-0.022962466
168	0x39ec77eb	0.00045102774
169	0xbcbd462a	-0.023104746
170	0xbd967aed	-0.07347665
171	0xbd8615a2	-0.06547095
172	0xbe22283d	-0.15835662
173	0xbe37ba6b	-0.17942207
174	0xbdb95fed	-0.090514995
175	0xbdf7f70e	-0.12107669
176	0xbdb74d3f	-0.089502804
177	0xbd73941e	-0.059467427
178	0xbde3493a	-0.11097951
179	0xbdc4a29d	-0.096013285
180	0x3e022ecb	0.12713163
181	0x3e1d7193	0.15375356
182	0x3e4e2cf1	0.20134331
183	0x3e14ab66	0.14518508
184	0x3e13c4d0	0.14430547
185	0x3e281e85	0.16417892
186	0x3da6cd91	0.081446774
187	0x3e4ab2ed	0.19794817
188	0x3e4ff345	0.20307644
189	0x3d2ff4a1	0.042957906
190	0x3e46b713	0.19405775
191	0x3e8f9a8f	0.28047606
192	0xbcb5b529	-0.02218111
193	0x3e084f92	0.13311604
194	0x3e4ec054	0.20190555
195	0x3d1ed04b	0.038772862
196	0x3dc97679	0.0983705
197	0x3df4a7b0	0.11946046
198	0xbcdbbd29	-0.026823597
199	0xbe564f3c	-0.20928663
200	0xbe532e47	-0.20623122
201	0xbdcecdb8	-0.100978315
202	0xbe83f78e	-0.25774807
203	0xbe67301f	-0.2257695
204	0xbdf8c7bd	-0.12147472
205	0xbe33b075	-0.17547782
206	0xbe808566	-0.25101775
207	0xbd0206d6	-0.0317448
208	0x3cc12d09	0.023581045
209	0x3d2fb63e	0.04289841
210	0x3b06e370	0.002058234
211	0x3d53977c	0.05165814
212	0x3cd5006d	0.02600118
213	0xbaf35671	-0.001856519
214	0x3daa2aa3	0.083089136
215	0x3e096f46	0.13421354
216	0xbdb03868	-0.08604509
217	0xbe24b5a2	-0.16084912
218	0xbe23ce45	-0.15996654
219	0xbd1e6ed9	-0.03867993
220	0xbd300469	-0.042972956
221	0xbda68f2b	-0.08132776
222	0xbe194bda	-0.14970341
223	0xbdb68115	-0.08911339
224	0xbd2d9736	-0.042380534
225	0x3d28b467	0.04118767
226	0xbd3c905f	-0.04603612
227	0xbd8d3da1	-0.068965204
228	0xbd6b492c	-0.05744283
229	0x3bf4ffce	0.0074767834
230	0xbd84945e	-0.06473611
231	0x3bf1efa0	0.007383302
232	0xbcad8809	-0.02118303
233	0xbc87a5de	-0.016558584
234	0x3c1acb47	0.009447879
235	0x3d44603f	0.04794335
236	0x3cd28c0d	0.025701547
237	0x3dee1827	0.116257004
238	0x3da499d9	0.080371566
239	0xbd19f56e	-0.037587576
240	0x3d2959d2	0.041345425
241	0x3c24eb68	0.010065891
242	0xbd38faba	-0.045160986
243	0x3e09fd1c	0.1347546
244	0x3dcc897c	0.099871606
245	0x3d3ceaba	0.04612229
246	0x3dc80bcb	0.09767874
247	0x3d52e6bd	0.05148958
248	0x3d850add	0.06496213
249	0x3d91f0f5	0.07126037
250	0x3d2d4613	0.042303156
251	0x3dec9099	0.11551017
252	0xbd996474	-0.07489863
253	0xbd39cdfb	-0.045362454
254	0xbdba6a60	-0.09102321
255	0xbe3553fd	-0.1770782

net_list.0.cell_list.0.conv2d.bias f4 [64]
0	0x3cdf9d7d	0.027296776
1	0x3ca2d30e	0.01987603
2	0xbcbfd0e9	-0.023415046
3	0xbd5bbc1b	-0.05364619
4	0xbdb2a657	-0.08723133
5	0xbd09b90e	-0.033623748
6	0x3cca1871	0.024669858
7	0xbbd4685c	-0.006482167
8	0x3c910502	0.017702583
9	0x3cd59f52	0.026076946
10	0x3d4b74c5	0.049671907
11	0xbd8f0f99	-0.06985397
12	0x3d81d427	0.06339293
13	0x3cd7c6da	0.026339937
14	0x3ad3977c	0.0016143168
15	0x3ce36a77	0.027760727
16	0x3d4a0a94	0.049326494
17	0xbd97b6e3	-0.0740793
18	0x3db5d159	0.088778205
19	0x3e0ac0db	0.13550131
20	0xbabcd282	-0.0014405998
21	0x3e525ec1	0.20543958
22	0xbd85d2cd	-0.06534348
23	0x3cb344ad	0.021883333
24	0x3d76173c	0.06008075
25	0x3ca418e8	0.020031407
26	0x3de2d360	0.11075473
27	0x3c070d63	0.008242938
28	0x3c4f353b	0.0126469685
29	0x3cb56346	0.022142064
30	0x3c53c307	0.012924916
31	0x3e225ca7	0.15855657
32	0xbcbf522b	-0.02335461
33	0xbc7e0203	-0.015503409
34	0xbd859067	-0.06521683
35	0xbcaa9c96	-0.02082662
36	0xbd9c8e43	-0.07644322
37	0xbd6442a6	-0.055727623
38	0x3d2d7a61	0.042353038
39	0x3bb706c5	0.005585524
40	0x3b3acbb3	0.0028502762
41	0x3d9f5180	0.07779217
42	0x3db79cf4	0.08965483
43	0x3d150096	0.036377512
44	0x3d7aa2a5	0.061190266
45	0x3d6e2830	0.058143795
46	0xbd06b14e	-0.032883935
47	0xbc92ffd4	-0.017944254
48	0x3e93ebe2	0.28890902
49	0x3d26aa69	0.04068986
50	0x3e8446cc	0.25835264
51	0x3caf4e0e	0.021399524
52	0xbd8b7eb1	-0.06811274
53	0x3de693e0	0.11258674
54	0x3df02fdf	0.11727881
55	0x3cd4a6f3	0.025958514
56	0x3e2cb172	0.16864565
57	0x3d6126cd	0.054968644
58	0x3dbe9673	0.0930604
59	0x3dcf71b6	0.101291105
60	0xbd0c01e6	-0.034181498
61	0x3cdb9e7f	0.026808975
62	0xbde26352	-0.110541
63	0x3e368349	0.17823519

net_list.0.cell_list.1.conv2d.weight f4 [64, 32, 3, 3]
0	0xb9e11340	-0.00042929687
1	0x3dd19e04	0.10235217
2	0x3d2c918d	0.042130996
3	0xbd863f24	-0.06555012
4	0x3e03bfc2	0.12866119
5	0x3dbf5e22	0.09344126
6	0xbd128827	-0.035774376
7	0xbbd81b8d	-0.006595081
8	0xbdab8cdb	-0.083764754
9	0xbe1c0769	-0.15237202
10	0xbddfc08d	-0.10925398
11	0xbdf2cee2	-0.11855866
12	0xbe0e523b	-0.13898556
13	0xbe01d26a	-0.12677923
14	0xbd962757	-0.07331722
15	0xbde03d53	-0.10949197
16	0xbdb1ff76	-0.086913034
17	0xbdaee7f9	-0.08540339
18	0x3d28b573	0.04118867
19	0x3c0b21e3	0.008491966
20	0x3be89b63	0.0070986017
21	0xbd0f0080	-0.034912586
22	0xbce51aff	-0.027966974
23	0xbc1f3857	-0.009718022
24	0xbcd06ad7	-0.02544157
25	0xbc3832e4	-0.011242602
26	0x3c435696	0.011922499
27	0x3dc99d66	0.098444745
28	0x3d3a129c	0.045427904
29	0x3d112e9e	0.03544485
30	0xbd45f566	-0.048329733
31	0xbd96d9ee	-0.073657855
32	0xbd2bf037	-0.041977134
33	0xbd5e0fad	-0.05421417
34	0x3aa9e021	0.0012960472
35	0x3bd5bc19	0.006522667
36	0xbca544f5	-0.020174483
37	0xbcbd277e	-0.02309012
38	0x3db2fcff	0.087396614
39	0x3d792717	0.060828295
40	0x3df5bcf1	0.11998928
41	0x3d8dc535	0.0692238
42	0x3dea601d	0.114441134
43	0x3e216318	0.15760458
44	0x3e470a93	0.19437627
45	0xbe179011	-0.1480105
46	0xbde6bf4f	-0.11266958
47	0xbe3ac148	-0.18237793
48	0xbe1076ee	-0.14107868
49	0xbd159ce1	-0.036526565
50	0xbe14ce7d	-0.14531894
51	0xbe43af6c	-0.19109887
52	0xbd934f3b	-0.071928464
53	0xbe45f393	-0.19331197
54	0xbe3811e7	-0.17975579
55	0xbe2d8ee2	-0.16949037
56	0xbde91b94	-0.11382213
57	0xbd9a6c7c	-0.07540223
58	0xbe03c91b	-0.12869684
59	0xbde9a33d	-0.11408088
60	0xbe318455	-0.17335637
61	0xbe8be889	-0.27325848
62	0xbdec34f7	-0.1153354
63	0x3cde536b	0.027139386
64	0x3d60ffed	0.05493157
65	0x3bdfb270	0.0068266913
66	0x3d3d6bb0	0.046245277
67	0x3d9bdf00	0.07610893
68	0x3d0f3dfa	0.034971215
69	0x3d7a7080	0.061142445
70	0x3d3e2916	0.0464259
71	0x3cd67d8b	0.02618291
72	0xbda4c7fb	-0.08045956
73	0xbd276421	-0.040866975
74	0xbdb0cbad	-0.08632598
75	0xbd958a84	-0.073018104
76	0x3bc2806e	0.00593572
77	0xbc9bdf46	-0.019027364
78	0xbd7320a2	-0.059357293
79	0xbc8a1fd5	-0.016860882
80	0xbd939e04	-0.072078735
81	0xbd6dfdc8	-0.058103353
82	0xbdcf295b	-0.1011531
83	0xbd984131	-0.07434309
84	0xbcaabdb8	-0.020842418
85	0xbbbc878d	-0.0057534636
86	0xbd0efce4	-0.034909144
87	0xbbdb6954	-0.0066959057
88	0xbdaefff4	-0.08544913
89	0xbbc4a5a1	-0.00600119
90	0x3e394e39	0.18096246
91	0x3dd8805c	0.105713576
92	0x3df90356	0.121588394
93	0x3d52de1e	0.05148136
94	0x3d7efc58	0.062252373
95	0x3d298af7	0.041392293
96	0x3de37e95	0.11108128
97	0x3d826bb4	0.06368199
98	0x3e03ce99	0.1287178
99	0x3d0cbc18	0.034359068
100	0x3d0d5dfd	0.034513462
101	0x3d4df985	0.05028679
102	0x3d23d166	0.03999462
103	0x3d5ade72	0.053434797
104	0x3c28ec7e	0.01031029
105	0xbd97036b	-0.07373699
106	0xbdfa19ba	-0.12211938
107	0xbdf894ef	-0.12137782
108	0xbdf8b3cc	-0.121436685
109	0xbe3033b7	-0.17207228
110	0xbe542651	-0.20717742
111	0xbe2d1d63	-0.16905741
112	0xbe630732	-0.22170714
113	0xbe1e2256	-0.15442786
114	0xbe2a894a	-0.16653934
115	0xbe1291b8	-0.143134
116	0xbdeba222	-0.11505534
117	0xbd0495a8	-0.032369286
118	0xbd17927e	-0.03700494
119	0xbd4c2c8b	-0.049847167
120	0xbafc3e50	-0.0019244645
121	0xbdf3a869	-0.11897356
122	0xbc6fe56b	-0.0146421
123	0xbd3ac8f3	-0.045601796
124	0xbcfbf64c	-0.030757092
125	0xbd023467	-0.031788256
126	0x3c06d29c	0.008228924
127	0x3b0f3d4f	0.002185661
128	0xbcd4b61f	-0.025965748
129	0xbce47f0c	-0.027892612
130	0xbb2cfce6	-0.0026395856
131	0xbc880d04	-0.016607769
132	0xbaebc9ce	-0.001798922
133	0x3c6f6d44	0.014613453
134	0x3b88859e	0.004166319
135	0xbca6a49d	-0.020342166
136	0xbd0bab0f	-0.03409868
137	0x3c737a03	0.014860633
138	0x3d061feb	0.032745283
139	0xbc017e17	-0.007903597
140	0xbc99f0a5	-0.018791506
141	0xbcbddaeb	-0.023175677
142	0xbcc57bcf	-0.024106888
143	0xbcfe8d92	-0.031073365
144	0x3dfa8baa	0.1223367
145	0x3d962601	0.073314674
146	0xbd14f55e	-0.036366813
147	0x3d84e091	0.06488145
148	0x3c74729f	0.014919906
149	0x3ccf14aa	0.025278408
150	0xbc784494	-0.015153069
151	0x3d49c287	0.04925778
152	0x3caa7621	0.020808281
153	0x3d3a77f8	0.045524567
154	0x3cc1543a	0.023599733
155	0xbcafd932	-0.021465871
156	0xbd985519	-0.07438106
157	0xbdd8659c	-0.105662555
158	0xbcc236e7	-0.02370782
159	0xbd6858f9	-0.056725476
160	0x3ba39397	0.0049919593
161	0xbcaa0018	-0.020751998
162	0x3c8704ee	0.016481843
163	0xbd0653bd	-0.032794703
164	0x3b59ef14	0.0033254074
165	0x3d2bdede	0.04196059
166	0x3dcd4a54	0.100239426
167	0x39775d35	0.00023590478
168	0x3d0a40ec	0.03375332
169	0x3ddacda2	0.106837526
170	0x3dec0c1a	0.11525746
171	0x3b7b01c7	0.003830062
172	0x3d75de1d	0.060026277
173	0xbd3609d6	-0.044442974
174	0x3ade312f	0.0016951914
175	0x3c18f8e8	0.009336688
176	0xbdd0718e	-0.10177909
177	0x3c8477f5	0.016170481
178	0xbdb44c8f	-0.08803665
179	0xbdae5293	-0.085118435
180	0xbc17ab01	-0.009257079
181	0x3bda8796	0.006668995
182	0xbc90349e	-0.017603215
183	0xbcf4b357	-0.029870672
184	0xbda2164e	-0.079144105
185	0xbd78db04	-0.060755745
186	0xbd054834	-0.03253956
187	0xbdfe23ee	-0.12409197
188	0xbdb87aaf	-0.09007775
189	0x3d49be1f	0.04925358
190	0xbd16c70e	-0.036810927
191	0xbd5af47e	-0.053455822
192	0x3d449da4	0.0480019
193	0xbdab9921	-0.083788164
194	0xbd35c252	-0.04437477
195	0xbd1ba8ba	-0.038002707
196	0x3b61925a	0.0034419508
197	0xbd79aa5c	-0.060953483
198	0x3ca1a996	0.019734185
199	0xbc98a820	-0.018634856
200	0x3e0200fa	0.12695685
201	0x3d4fbbfa	0.050716378
202	0xbc39402c	-0.011306804
203	0x3c1df47c	0.009640809
204	0x3cc39c01	0.0238781
205	0x3dedaa2a	0.11604722
206	0x3e00d1f0	0.12580085
207	0x3d9833c3	0.07431748
208	0xbd9d4591	-0.07679284
209	0xbd3841de	-0.04498469
210	0xbc78e4cf	-0.015191271
211	0xbdedd323	-0.11612537
212	0xbcb68881	-0.022281887
213	0x3d6dbe79	0.058042977
214	0xbde8d3b9	-0.11368508
215	0xbda53da7	-0.080684
216	0xbd4fca8d	-0.050730277
217	0xbcfe7f44	-0.031066544
218	0xbd43322d	-0.047655273
219	0xbdaa902b	-0.08328279
220	0xbd6597f3	-0.056053113
221	0xbaff5c19	-0.0019482403
222	0xbdc80846	-0.09767203
223	0xbda0c03e	-0.07849167
224	0xbbc8811f	-0.006118908
225	0xbd8cc3cc	-0.06873283
226	0xbd32d240	-0.04365754
227	0x3cf77749	0.030208247
228	0xbd5a2fd3	-0.053268265
229	0x3dac8b67	0.084250264
230	0x3da4eee7	0.080533795
231	0x3d117677	0.035513368
232	0x3cedc6c9	0.029025452
233	0x3cf42f08	0.029807582
234	0xbd8ad6a8	-0.06779224
235	0xbd9f97c7	-0.07792621
236	0xbddca0a3	-0.107728265
237	0xbd96b651	-0.07358993
238	0xbd837d30	-0.06420362
239	0xbdd7b0f1	-0.10531796
240	0x3c7051ab	0.014667909
241	0xbdb5ffe6	-0.088866994
242	0xbe0dde08	-0.1385423
243	0x3d7f368a	0.062307872
244	0x3e166e8b	0.14690606
245	0x3e1101ca	0.14160839
246	0x3da74b26	0.0816863
247	0x3d3fa10d	0.04678445
248	0x3d6baeed	0.05753987
249	0x3ccdc0a3	0.02511627
250	0x3e0d4472	0.13795641
251	0x3d08b0d8	0.033371776
252	0x3e49bcfd	0.19701
253	0x3da159b4	0.07878438
254	0x3dca6a21	0.09883524
255	0x3e3d16f0	0.18465781

net_list.0.cell_list.1.conv2d.bias f4 [64]
0	0xbc8a0015	-0.016845742
1	0xbd05e7c0	-0.032691717
2	0xbda4c201	-0.08044816
3	0x3e13cdff	0.1443405
4	0xbce194be	-0.027536746
5	0xbda603d6	-0.081062004
6	0xbd61c2b1	-0.055117313
7	0x3c69770a	0.0142495725
8	0xbae4f9e7	-0.0017469496
9	0x3ca574f7	0.020197375
10	0x3bf4715c	0.0074598026
11	0xbc0e7709	-0.008695372
12	0x3b8d6298	0.004314732
13	0xbcc54021	-0.02407843
14	0x3d0d3c0c	0.034481093
15	0xbd1c7e2f	-0.038206276
16	0x3d5088c1	0.05091167
17	0x3e20d521	0.15706302
18	0x3e2db20e	0.16962454
19	0x3cb6478f	0.022250919
20	0x3befb056	0.007314722
21	0x3dbe45ab	0.09290632
22	0x3d1e94d5	0.038716156
23	0x3e8b0a95	0.2715651
24	0x3d79aee4	0.060957804
25	0x3dc04550	0.0938822
26	0x3da7d512	0.08194937
27	0xbd138ac9	-0.036021028
28	0x3d663257	0.05620035
29	0x3d541132	0.05177421
30	0x3c5a0ce0	0.013308734
31	0x3e0ccb75	0.13749488
32	0x3d367a7f	0.044550415
33	0x3bf17022	0.0073681036
34	0x3db42760	0.08796573
35	0x3d848231	0.064701445
36	0xbd75eb73	-0.060038995
37	0x3c9b2c94	0.018942155
38	0xbdbad292	-0.09122194
39	0x3d918be4	0.0710676
40	0xbc6e4ba7	-0.014544404
41	0xbda24914	-0.07924095
42	0xbd5f0c0d	-0.054454852
43	0x3d716239	0.058931563
44	0x3d645b15	0.055750925
45	0x3c6ed459	0.014576995
46	0xbd58a747	-0.052893903
47	0x3da816e6	0.082074925
48	0x3e18281b	0.14859049
49	0x3da8c629	0.08240921
50	0x3e7429c3	0.23844056
51	0x3dacd79f	0.08439564
52	0x3d19438a	0.037417926
53	0x3d9ab042	0.0755315
54	0x3d27c13f	0.04095578
55	0x3ec9a88d	0.39386407
56	0x3d12645c	0.03574024
57	0x3d84b64c	0.06480083
58	0x3dd246e5	0.10267428
59	0xbdbbaecb	-0.091641985
60	0x3e001924	0.1250959
61	0x3d6f574c	0.058432862
62	0x3e13172c	0.14364308
63	0x3e393586	0.18086824

net_list.0.cell_list.2.conv2d.weight f4 [64, 32, 3, 3]
0	0xbe486d3c	-0.1957292
1	0xbdf8760b	-0.1213189
2	0xbccfed84	-0.025381811
3	0xbd8a18f0	-0.06743038
4	0xbd892992	-0.06697382
5	0xbdda6975	-0.106646456
6	0xbe0a359e	-0.13497016
7	0x3b8b1e4c	0.004245555
8	0xbc3ff87f	-0.011716961
9	0xbd4718e6	-0.04860773
10	0x3c871f91	0.016494544
11	0x3cd5d158	0.0261008
12	0xbd2b34e6	-0.041798495
13	0xbd4742d1	-0.048647705
14	0xbd9989d1	-0.074969895
15	0xbdd610ed	-0.10452447
16	0xbde27c66	-0.11058883
17	0xbd8b0e89	-0.06789882
18	0x3ddd60cd	0.10809479
19	0xbc0d866b	-0.008638005
20	0xbc8be4f1	-0.017076941
21	0x3d99564b	0.07487162
22	0x3d0899c8	0.033349782
23	0xbda8a236	-0.08234064
24	0x3d5bd795	0.053672392
25	0xbd67c8cd	-0.056587983
26	0x3bb74d40	0.0055939257
27	0xbdb94d98	-0.09048003
28	0xbd437f87	-0.04772904
29	0xbd9c1ef8	-0.07623094
30	0xbdad134a	-0.08450945
31	0x3c48677a	0.012231702
32	0x3c09642d	0.0083857
33	0xbd3b3abe	-0.045710318
34	0xbd9ec304	-0.0775204
35	0xbc8cc541	-0.017183902
36	0xbd939848	-0.0720678
37	0xbd0ba353	-0.034091305
38	0xbd8cbd13	-0.068720005
39	0xbd7f26de	-0.062292926
40	0xbdf12cba	-0.11776109
41	0xbd9dba20	-0.07701516
42	0xbc9c127b	-0.01905178
43	0xbd84b41c	-0.06479666
44	0xbdf7a274	-0.12091532
45	0xbda52977	-0.080645494
46	0xbc6a6c6c	-0.014308076
47	0xbd6af1ba	-0.057359435
48	0xbd975069	-0.07388384
49	0x3caa0d57	0.020758314
50	0xbbf862bb	-0.007580129
51	0xbd893ced	-0.06701074
52	0xbd7c374b	-0.06157617
53	0xbd647f40	-0.055785418
54	0xbcc8da33	-0.024518108
55	0xbbd9808e	-0.0066376394
56	0x3dde12af	0.10843407
57	0xbe12a4bd	-0.14320655
58	0xbc697819	-0.014249825
59	0x3b3cf3f7	0.0028831938
60	0xbe45e1fb	-0.19324486
61	0xbde9d516	-0.11417596
62	0xbd2e7aa8	-0.042597443
63	0xbe0b5772	-0.13607576
64	0xbea5c255	-0.32374826
65	0xbe128221	-0.14307453
66	0xbe0ef699	-0.13961257
67	0xbe60742c	-0.21919316
68	0xbdffb46a	-0.12485583
69	0x3d3df641	0.046377424
70	0xbdfba9aa	-0.1228822
71	0xbdc202a0	-0.09473157
72	0x3c1d4d14	0.009600896
73	0x3d88cb3c	0.06679389
74	0x3cc36266	0.023850631
75	0xbd667c4d	-0.056270886
76	0x3d677197	0.056504812
77	0x3d1e3e7a	0.0386338
78	0xbd929761	-0.071577795
79	0xbd1bab5f	-0.03800523
80	0x3d2d87af	0.042365726
81	0x3ded6c44	0.11592916
82	0x3d56bb14	0.052424505
83	0x3d4c89f6	0.049936257
84	0x3d020e01	0.031751636
85	0x3bcf02c3	0.006317468
86	0xbc4f764b	-0.012662481
87	0x3e2a0ac9	0.16605677
88	0x3c9a1b38	0.018811807
89	0x3df9cc15	0.12197129
90	0xbb8260f2	-0.003978842
91	0xbd9b9f1e	-0.075987086
92	0x3b635ad9	0.00346916
93	0xbd9ae6a3	-0.07563522
94	0xbd2b301c	-0.041793928
95	0x3d7a7ae0	0.06115234
96	0xbc85fd15	-0.01635603
97	0xbd176b3e	-0.03696751
98	0xbc27a804	-0.010232929
99	0x3e3294f4	0.17439634
100	0x3df83448	0.12119347
101	0xbbf80f48	-0.007570181
102	0x3d9e3eb5	0.07726804
103	0x3c87fa02	0.016598705
104	0xbcdc54d6	-0.026895922
105	0x3b5e97e0	0.0033965036
106	0x3c6c4c11	0.0144224325
107	0x3c9e6237	0.019333942
108	0x3d62d4d0	0.055378735
109	0x3d278bf3	0.04090495
110	0x3d008221	0.0313741
111	0x3ccbf8f6	0.024898987
112	0x3da46b1e	0.080282435
113	0x3d8a1388	0.067420065
114	0x3da15d67	0.07879143
115	0x3d952cfc	0.07283971
116	0x3d3eb843	0.046562444
117	0x3d0ccf30	0.034377277
118	0x3ca8a547	0.020586623
119	0xbe0fae60	-0.14031363
120	0xbd1c4945	-0.038155813
121	0xbe0eac5a	-0.13932934
122	0xbe6e26e3	-0.23257022
123	0xbdc85635	-0.09782068
124	0xbe19257d	-0.14955707
125	0xbe619fa2	-0.22033551
126	0x3d4fa74a	0.05069665
127	0xbcfb8d61	-0.030707063
128	0x3cb7d097	0.02243833
129	0x3e276df2	0.16350535
130	0x3db8c7e4	0.09022501
131	0x3e4eb47f	0.20186041
132	0x3d20b469	0.039234553
133	0x3d917132	0.071016684
134	0x3e283e24	0.16429955
135	0x3d225051	0.039627377
136	0x3c79f28d	0.0152555825
137	0xbd935a6a	-0.071949795
138	0xbc82bf45	-0.015960345
139	0xbdc134d3	-0.094339035
140	0xbded161b	-0.11576482
141	0x3d32e179	0.04367206
142	0xbdb1e7e9	-0.086868115
143	0x3c589990	0.013220206
144	0x3b90187b	0.0043974495
145	0x3d772423	0.060337197
146	0x3cb2d4a6	0.021829914
147	0x3d912576	0.07087223
148	0xbca11d79	-0.019667374
149	0x3d84bb3c	0.064810246
150	0xbd0f5452	-0.034992523
151	0xbb902728	-0.004399199
152	0xbcc62f0c	-0.024192356
153	0xbdbe2041	-0.09283496
154	0xbdd2e232	-0.102970496
155	0xbd3f1f37	-0.04666063
156	0xbe06bd58	-0.13158166
157	0xbe2e743c	-0.17036527
158	0xbe7cf2d3	-0.24702005
159	0xbca27b12	-0.019834075
160	0xbe36dc92	-0.17857578
161	0xbe0b644d	-0.1361248
162	0x3dea1fd2	0.114318505
163	0x3dd20070	0.1025399
164	0x3d92b719	0.07163829
165	0xbd41a343	-0.04727484
166	0x3d8bad0b	0.06820115
167	0x3d389234	0.045061305
168	0xbddea721	-0.10871721
169	0x3cc2aa62	0.023762885
170	0x3d0eedea	0.03489486
171	0xbd70cf3d	-0.058791388
172	0x3d294010	0.04132086
173	0x3d655535	0.055989463
174	0xbc79f305	-0.015255694
175	0x3d58098d	0.052743483
176	0xbc52e215	-0.012871285
177	0x3d27e008	0.040985137
178	0x3d09bb66	0.033625983
179	0x3b1899af	0.0023284962
180	0xbd8ef155	-0.06979624
181	0x3d756b89	0.059917007
182	0x3de0e694	0.10981479
183	0x3c515899	0.012777471
184	0x3d3dcecb	0.04633979
185	0x3c8f4724	0.017489977
186	0xbd001a86	-0.031275295
187	0x3d5046dd	0.05084883
188	0x3c78ee76	0.015193572
189	0x3d62f764	0.05541171
190	0x3d857b68	0.065176785
191	0xbca82343	-0.020524627
192	0xbc7bd5f8	-0.015370838
193	0x3a6fe0d0	0.0009150626
194	0xbd6dbb81	-0.058040146
195	0x3cc4506d	0.023964131
196	0x3d5a56ee	0.05330556
197	0xbc2965e1	-0.010339231
198	0xbd7f7457	-0.06236681
199	0xbca559b2	-0.020184372
200	0x3b949d0f	0.0045353244
201	0xbda9bf10	-0.082883954
202	0x3c8edfdd	0.01744073
203	0x3c47ee09	0.012202748
204	0xbd99a9c6	-0.07503085
205	0xbd1d79bb	-0.03844617
206	0x3d188b0f	0.03724199
207	0x3d8a29f0	0.0674628
208	0x3debb192	0.11508478
209	0x3b86ba76	0.0041115833
210	0x3d7194ab	0.05897967
211	0x3db84138	0.089968145
212	0x3bd0007e	0.006347715
213	0x3da621e3	0.08111932
214	0x3dd1ac83	0.10237982
215	0x3dc25c89	0.09490306
216	0x3c2deb75	0.010615219
217	0xbc8fa796	-0.017535966
218	0xbbea5edf	-0.007152423
219	0xbd2dee7a	-0.042463757
220	0x3c9979f6	0.018734913
221	0x3c31e607	0.010858065
222	0x3b134554	0.0022471743
223	0x3d591b0a	0.053004302
224	0x3d9a0573	0.075205706
225	0x3c0a5158	0.008442245
226	0xbd36284a	-0.044472016
227	0x3c9df5ec	0.019282304
228	0xbd0d8e40	-0.03455949
229	0xbd2ce263	-0.042208087
230	0xbd202333	-0.03909607
231	0x3d980e7b	0.07424637
232	0x3d70b4a0	0.058766007
233	0x3cb13042	0.021629456
234	0xbd7399dc	-0.059472904
235	0xbd9848cb	-0.07435759
236	0xbd458427	-0.048221733
237	0xbd3b40a8	-0.045715958
238	0xbcc026e7	-0.02345605
239	0xbd37dfc6	-0.04489114
240	0xbb13b139	-0.0022536053
241	0x3da512fe	0.08060263
242	0x3c91adda	0.017783094
243	0xbc952af3	-0.018208956
244	0xbd407f13	-0.046996187
245	0xbdb496e5	-0.08817843
246	0xbd67cf41	-0.056594137
247	0xbd60a5d0	-0.05484563
248	0x3cdba17d	0.026810402
249	0xbc2d2fe4	-0.0105705
250	0xbcf0ea75	-0.029408673
251	0xbd50fe53	-0.051023792
252	0x3d090406	0.033451103
253	0x3c8dc96d	0.017307961
254	0xbc1e04d7	-0.009644709
255	0x3d67523a	0.0564749

net_list.0.cell_list.2.conv2d.bias f4 [64]
0	0x3c178da3	0.009250077
1	0xbdb58cca	-0.08864744
2	0xbd52088f	-0.051277693
3	0x3c865054	0.016395725
4	0xbd2decca	-0.042462148
5	0xbd9dee6b	-0.0771149
6	0xbd93f03c	-0.072235554
7	0xbcf810cb	-0.030281445
8	0x3be7739a	0.0070633413
9	0x3cfac670	0.0306122
10	0xbd0a828f	-0.033815917
11	0x3d6c5be5	0.057704825
12	0x3d43b33c	0.047778353
13	0xbd9438d0	-0.072373986
14	0xbe0fbef2	-0.14037684
15	0x3e451ceb	0.19249313
16	0x3d0cdc30	0.034389675
17	0x3dcb48ef	0.0992602
18	0x3de6ff27	0.11279135
19	0x3d90b84b	0.07066401
20	0x3c32a348	0.010903187
21	0x3d21b5ac	0.039479896
22	0x3e2486f7	0.1606711
23	0x3cfe6b09	0.031056898
24	0x3dd1771d	0.10227797
25	0xbd809707	-0.06278806
26	0x3dd2a704	0.10285762
27	0x3da04251	0.07825149
28	0x3e02a714	0.12759048
29	0x3de47235	0.11154596
30	0xba85b372	-0.0010200574
31	0x3e7e9429	0.24861206
32	0xbd05918e	-0.032609515
33	0xbc45f6dc	-0.012082782
34	0x3de74041	0.11291552
35	0x3b193546	0.00233777
36	0x3d9c6d31	0.07638014
37	0xbc83abde	-0.016073164
38	0x3d0bd7ed	0.03414147
39	0x3cb1140c	0.021616004
40	0xbcb545fa	-0.022128094
41	0x3cc03e02	0.023467068
42	0xbcafa7d3	-0.02144233
43	0x3da9b66e	0.08286749
44	0x3d978e96	0.07400243
45	0xbda6de49	-0.08147866
46	0x3d5b5af4	0.053553537
47	0x3e047a3b	0.12937252
48	0xbc7b1128	-0.015323915
49	0x3e5e62fd	0.21717449
50	0x3e5258f8	0.20541751
51	0xbd20fb84	-0.039302364
52	0xbc44a03f	-0.012001096
53	0xbc9f78aa	-0.019466717
54	0x3e14ec67	0.14543305
55	0x3e27f5d2	0.16402367
56	0x3e0ac1b8	0.1355046
57	0x3cd790c6	0.02631415
58	0x3daf083e	0.08546494
59	0x3d8b815b	0.06811782
60	0x3d05f046	0.032699846
61	0xbcae018f	-0.021240978
62	0x3d03e3f1	0.032199804
63	0x3e8babf5	0.2727963

net_list.2.weight f4 [16, 16, 3, 3]
0	0x3bcc568e	0.006235904
1	0x3db07748	0.08616501
2	0x3e09cabd	0.13456245
3	0x3dbf54ac	0.09342322
4	0x3da93dab	0.08263715
5	0x3c0f6ed5	0.008754452
6	0x3d989557	0.07450359
7	0x3d21b673	0.039480638
8	0x3c53f85e	0.012937633
9	0xbdfdd0dd	-0.12393353
10	0xbd011bf9	-0.031520817
11	0xbe031682	-0.12801555
12	0x3c849505	0.01618434
13	0xbdc6a9c2	-0.097003475
14	0xbd1d6a5d	-0.038431514
15	0xbdaaf69d	-0.08347819
16	0x3cf6818a	0.030091066
17	0xbd2a2d96	-0.04154738
18	0xbd2f6c65	-0.042827982
19	0xbdea76bf	-0.1144843
20	0x3d926cfe	0.07149695
21	0xbd0f2b32	-0.034953304
22	0xbdca37c4	-0.09873918
23	0xbd15e7cc	-0.03659801
24	0xbd9832d4	-0.0743157
25	0xbdabf262	-0.0839584
26	0xbd8f4cee	-0.06997095
27	0xbd5cf4d8	-0.05394444
28	0x3de67276	0.112523004
29	0x3bf1d14a	0.0073796855
30	0x3dc983e9	0.09839613
31	0x3dd5cf91	0.10439981
32	0xbcfbe4fa	-0.030748833
33	0x3d22cc0f	0.039745387
34	0xbd159808	-0.03652194
35	0x3ba06aa6	0.004895526
36	0x3d8226b1	0.06355036
37	0xbb00b881	-0.0019641223
38	0xbc9b58d0	-0.018963248
39	0xbda6f263	-0.081517
40	0xbdabe1cc	-0.08392677
41	0xbceebf1b	-0.02914386
42	0xbd4da38c	-0.0502048
43	0xbdadca92	-0.08485903
44	0x3d233659	0.03984675
45	0xbd2a5b6a	-0.041591085
46	0x3de94b76	0.11391346
47	0x3b191064	0.0023355717
48	0x3cd48b42	0.02594531
49	0x3e00d261	0.12580253
50	0x3bc5beea	0.0060347216
51	0x3d6dd34d	0.05806284
52	0x3d38364b	0.044973653
53	0x3d74a5f0	0.059728563
54	0x3a106a34	0.00055089896
55	0x3c570683	0.013124111
56	0x3d949f76	0.07256977
57	0xbd185ec6	-0.037199758
58	0x3d955b29	0.07292778
59	0x3d72b880	0.059257984
60	0x3d461661	0.048361186
61	0x3aaa3bd7	0.0012987804
62	0x3c8b08f3	0.01697204
63	0xbd3d6fe0	-0.04624927
64	0xbd8634d2	-0.065530434
65	0xbcea0029	-0.02856453
66	0xbd54262e	-0.051794223
67	0x3d48b589	0.04900125
68	0x3d6fa10a	0.05850319
69	0x3cf2f960	0.029659927
70	0xbd074f87	-0.033034828
71	0x3d6710fc	0.056412682
72	0x3dc4e755	0.096144356
73	0xbd1fe7dc	-0.039039478
74	0x3dc9bd4e	0.0985056
75	0xbbfd43f0	-0.007729046
76	0x3bec9426	0.007219809
77	0x3e09d092	0.1345847
78	0x3d88bf52	0.066771165
79	0xbd0d2009	-0.03445438
80	0xbd454b6d	-0.048167635
81	0x3c8637fd	0.01638412
82	0xbddbaee9	-0.10726721
83	0xbd04ec85	-0.032452125
84	0xbd3ce58b	-0.046117347
85	0xbd804b75	-0.06264392
86	0xbd877423	-0.06613948
87	0xbcd987e0	-0.026554048
88	0xbe040255	-0.12891515
89	0xbe1a1250	-0.15046048
90	0xbc3336b7	-0.010938338
91	0x3beac0f1	0.0071641137
92	0xbd72486f	-0.05915111
93	0x3d5bda82	0.053675182
94	0xbd8776e2	-0.06614472
95	0xbe149ac0	-0.14512157
96	0xbd086270	-0.033297002
97	0xbde83751	-0.11338676
98	0xbe0af949	-0.13571657
99	0x3d616e9d	0.05503713
100	0xbdc4af6b	-0.09603771
101	0xbdd1d097	-0.102448635
102	0x3d2a0840	0.041511774
103	0xbddf114c	-0.10891971
104	0xbd6e3e18	-0.058164686
105	0x3c9cbed3	0.01913396
106	0xbce3445e	-0.027742561
107	0xbd2dc170	-0.042420805
108	0x3de1a2a3	0.110173486
109	0xbc8ee4e5	-0.01744313
110	0x3de679b4	0.11253682
111	0x3d98bdbb	0.07458063
112	0x3dd895ed	0.10575471
113	0xb9ee2449	-0.00045421932
114	0x3d7e5dcc	0.06210117
115	0x3d677044	0.05650355
116	0x3d38e4c8	0.045140058
117	0xbd054318	-0.03253469
118	0xbe124620	-0.14284563
119	0xbdab5863	-0.08366468
120	0xbdd75af4	-0.10515395
121	0xbd911db0	-0.070857406
122	0x3bd0c4d3	0.0063711195
123	0xbd8f9034	-0.070099264
124	0xbdbe4be0	-0.09291816
125	0xbd9007aa	-0.07032712
126	0xbd9ea15c	-0.077456206
127	0x3d1afcc6	0.03783872
128	0x3d68500a	0.056716956
129	0x3cdecf58	0.027198479
130	0xbd3df13f	-0.04637265
131	0xbc368aa2	-0.011141451
132	0x3d7ea46d	0.062168527
133	0xbbe00a46	-0.006837162
134	0xbc1511c7	-0.009098477
135	0x3c87167e	0.016490217
136	0x3b3db993	0.0028949722
137	0x3d83ad07	0.06429487
138	0x3db302ec	0.08740792
139	0x3d2abd7a	0.041684605
140	0x3e20d263	0.15705256
141	0xbc84b634	-0.016200162
142	0x3d62a692	0.055334635
143	0x3e74926f	0.23883985
144	0x3d0b6ae5	0.03403749
145	0xbd286c30	-0.0411188
146	0xbc9b43d6	-0.018953245
147	0xbbf282d5	-0.0074008503
148	0xbda13341	-0.07871104
149	0x3d2a4ce8	0.04157725
150	0xbd8d6e80	-0.06905842
151	0xbd7d5c04	-0.06185533
152	0x3ce59301	0.028024198
153	0x3aa3ef08	0.001250715
154	0xbc19ceaf	-0.009387656
155	0xbd96d5ea	-0.073650196
156	0xbd442d77	-0.04789492
157	0xbd693e22	-0.05694402
158	0x3db8ecb9	0.09029526
159	0x3d52d12d	0.051469017
160	0x3dc9554a	0.09830721
161	0x3e557bc7	0.20847999
162	0x3d8633fb	0.06552883
163	0x3df2bf54	0.11852899
164	0x3d3b0f47	0.045668866
165	0xbe01ff6c	-0.12695092
166	0xbd89a92e	-0.067217216
167	0xbdb62068	-0.088929
168	0xbd9dc25b	-0.07703086
169	0x3d75d33a	0.060015894
170	0x3c90f153	0.017693197
171	0x3df3dd8f	0.11907493
172	0x3e00d0b7	0.12579618
173	0x3cdbdd20	0.026838839
174	0x3dd5fc53	0.10448518
175	0x3dcb5fdf	0.09930395
176	0xbd7c3861	-0.061577205
177	0x3e07152a	0.13191667
178	0xbc44235d	-0.011971322
179	0x3d7b4a69	0.06135026
180	0x3d9e54d4	0.077310234
181	0x3e793221	0.24335529
182	0x3e17486e	0.14773723
183	0xbcffce49	-0.031226294
184	0x3e47a58a	0.19496742
185	0x3da356d4	0.079755455
186	0x3d81f74f	0.063459985
187	0x3d7dab94	0.061931208
188	0x3df0d270	0.11758888
189	0xbd82e1b8	-0.06390709
190	0xbd6cba0e	-0.057794623
191	0xbdd0e58c	-0.102000326
192	0xbda9e042	-0.08294727
193	0x3d5902ba	0.052981116
194	0x3d1f096c	0.038827345
195	0xbe135185	-0.14386566
196	0xbe9ba92d	-0.30402508
197	0xbe608925	-0.21927316
198	0xbdd44537	-0.10364764
199	0xbcc75938	-0.024334535
200	0xbce73675	-0.02822421
201	0xbe54f571	-0.20796753
202	0xbcf1d5bb	-0.02952086
203	0xbda49d5c	-0.080378264
204	0x3cd761ab	0.026291689
205	0x3dc84f5c	0.097807616
206	0xbd337b7b	-0.043818932
207	0xbdabfbfe	-0.08397673
208	0x3d198a55	0.03748544
209	0x3e1260bf	0.14294718
210	0xbe9443f4	-0.28958094
211	0xbe3bcddb	-0.18340246
212	0xbd6ed1be	-0.058305494
213	0xbeab8869	-0.3350251
214	0xbd2deb28	-0.04246059
215	0x3d167e7b	0.036741715
216	0xbd4ea58f	-0.050450858
217	0xbd43ccd9	-0.04780278
218	0xbd71f6db	-0.05907331
219	0xbd06b187	-0.032884147
220	0xbca8bf97	-0.02059917
221	0xbd41c9a1	-0.04731143
222	0xbe09fa44	-0.13474375
223	0xbe686f71	-0.22698762
224	0xbe12e286	-0.14344224
225	0x3e20ca28	0.15702116
226	0xbcf2ca7b	-0.029637566
227	0xbdbd8ea4	-0.09255722
228	0x3da1be0a	0.07897575
229	0x3da7df6e	0.08196913
230	0x3d9e0550	0.07715857
231	0x3e649c28	0.22325194
232	0x3dc7f25b	0.097630225
233	0x3df79a94	0.1209003
234	0x3ccedcb7	0.02525173
235	0xbdd5d8bd	-0.1044173
236	0xbb05b7d1	-0.0020403753
237	0xbd318e8a	-0.043348826
238	0xbdb493b7	-0.08817237
239	0xbdb80d08	-0.089868605
240	0x3dad7598	0.08469695
241	0x3c85b717	0.016322656
242	0x3d9a3909	0.0753041
243	0xbc2e32e6	-0.010632252
244	0xbccf517d	-0.025307411
245	0x3dd1f3da	0.10251589
246	0xbc13d9a9	-0.009024062
247	0x3d4f6503	0.05063344
248	0x3dc7ef80	0.09762478
249	0x3da02218	0.07819003
250	0x3deb987a	0.11503692
251	0x3e0c17dc	0.13680977
252	0x3d360367	0.04443684
253	0x3d323af1	0.043513242
254	0x3dec1532	0.1152748
255	0x3d909fc2	0.070617214

net_list.2.bias f4 [16]
0	0x3da80b5c	0.08205292
1	0x3d2e5ae2	0.04256714
2	0xbd745980	-0.059655666
3	0x3def1ad5	0.1167504
4	0xbdb5cca4	-0.08876923
5	0xbd4f7e25	-0.05065741
6	0xbe299a68	-0.16562808
7	0x3d112918	0.03543958
8	0x3df5d219	0.120029636
9	0x3d7fd00d	0.062454272
10	0xbdb19f0a	-0.086729124
11	0xbc0d2988	-0.008615859
12	0x3da097a5	0.07841424
13	0xbced3a98	-0.028958604
14	0x3d203933	0.03911705
15	0xbdc1e006	-0.09466557

net_list.4.weight f4 [8, 16, 3, 3]
0	0xbc53a293	-0.012917179
1	0xbcb7d066	-0.02243824
2	0xbd9a693e	-0.075396046
3	0x3da18df7	0.07888406
4	0x3d51bf65	0.05120792
5	0x3d04e5bb	0.03244565
6	0x3dcc03c8	0.09961659
7	0xbd5cdc04	-0.05392076
8	0xbb61bc6e	-0.0034444588
9	0xbaa6d6a8	-0.0012728767
10	0x3de25e1c	0.11053106
11	0x3dde553f	0.10856103
12	0xbde64b47	-0.11244827
13	0xbc49214c	-0.012276005
14	0x3d848a9b	0.064717494
15	0xbe0085a3	-0.12550978
16	0x3c9eb2b6	0.019372325
17	0x3bb34707	0.0054711136
18	0xbefb6cb0	-0.4910636
19	0xbe15853a	-0.14601603
20	0x3e85ab58	0.26107287
21	0xbef9ced8	-0.48790622
22	0x3e156063	0.1458755
23	0x3e6a8a5f	0.22904347
24	0xbdec7d5c	-0.11547348
25	0x3e55d975	0.20883735
26	0xbde5b0ab	-0.11215337
27	0xbd3e77cb	-0.046500962
28	0x3d277dc9	0.040891442
29	0xbc6306dd	-0.013856617
30	0xbd1f7b75	-0.038936097
31	0xbd7c81ea	-0.061647333
32	0xbc734a18	-0.014849208
33	0xbd24bb2d	-0.040217567
34	0xbb243eb2	-0.0025061783
35	0x3d5be5ee	0.053686075
36	0xbe1f0458	-0.15529001
37	0xbef64a81	-0.48103717
38	0x3cd5e769	0.026111322
39	0xbd29887e	-0.041389935
40	0xbee7e4da	-0.45291787
41	0x3e88f432	0.26748806
42	0xbd0c68b8	-0.034279555
43	0x3d9718c4	0.073777705
44	0x3e700569	0.23439564
45	0xbe547eeb	-0.2075154
46	0x3d9d2cd7	0.07674568
47	0xbdf1868a	-0.117932394
48	0xbddb43b1	-0.107062705
49	0xbe0da0fa	-0.13830939
50	0xbca0dbc9	-0.019636052
51	0xbe023f29	-0.12719406
52	0xbc5e3b65	-0.013563965
53	0xbe481fe5	-0.19543417
54	0x3f056d56	0.5211996
55	0xbd23d753	-0.04000027
56	0x3e7ce25f	0.24695729
57	0x3f0ef08b	0.5583579
58	0x3e2ae5c0	0.16689205
59	0x3dddc5ce	0.10828744
60	0x3f252f08	0.6452489
61	0x3e9efc84	0.3105203
62	0xbdddadfc	-0.108242005
63	0xbd04ef85	-0.032454986
64	0xbd9d384c	-0.076767534
65	0x3db8fa0c	0.09032068
66	0xbe5fca37	-0.21854483
67	0xbf1396bf	-0.57651895
68	0x3d9d546d	0.076821186
69	0xbea598e8	-0.3234322
70	0xbf360843	-0.71106356
71	0xbe58536e	-0.21125576
72	0x3dd2d99c	0.10295412
73	0x3d871cd0	0.065972924
74	0x3df2a003	0.11846926
75	0xbde14d95	-0.11001126
76	0x3c31791d	0.010832098
77	0xbcfdf644	-0.031001218
78	0xbe0185c0	-0.12648678
79	0xbd1177fe	-0.035514824
80	0x3dbe177a	0.092818215
81	0x3e668057	0.22509895
82	0x3e1c08bb	0.15237705
83	0x3e7bb23b	0.24579708
84	0x3e20aac1	0.15690137
85	0x3debdd16	0.11516778
86	0x3cae1972	0.021252368
87	0x3ca82dd0	0.020529658
88	0x3e8a26d9	0.26982763
89	0x3e905b9c	0.28194892
90	0xbcdda389	-0.027055519
91	0xbe1bcea0	-0.1521554
92	0xbdfa7360	-0.12229037
93	0xbda89861	-0.08232189
94	0xbd02779e	-0.031852357
95	0xbe298042	-0.16552833
96	0x3d98f2a2	0.074681535
97	0x3e6d9858	0.23202646
98	0x3e0061b5	0.12537272
99	0x3daa86ab	0.08326467
100	0x3bc12f74	0.0058955494
101	0x3dd9ff43	0.106443904
102	0x3d4232ff	0.047411915
103	0x3df1ee12	0.118129864
104	0x3e156e2f	0.14592813
105	0xbe04890c	-0.12942904
106	0xbdae4097	-0.08508413
107	0x3de9e775	0.114211
108	0x3c8acda8	0.016943768
109	0xbce497b2	-0.027904365
110	0x3ddf3328	0.10898429
111	0xbeafdc51	-0.34347776
112	0xbec3ea96	-0.38264912
113	0xbb58359e	-0.0032990943
114	0xbea568cd	-0.3230652
115	0xbeb2936c	-0.348781
116	0xbe0f904f	-0.14019893
117	0x3de0d56e	0.109782085
118	0x3d3520fe	0.044220917
119	0xbe0939a3	-0.13400893
120	0x3d9f2866	0.07771377
121	0x3d253474	0.040333226
122	0xbe2ef362	-0.1708503
123	0x3d471687	0.048605468
124	0xbcc74ad7	-0.024327679
125	0xbe172b86	-0.14762697
126	0xbd752ef9	-0.05985925
127	0xbdf2fa8e	-0.11864196
128	0x3e46886d	0.1938798
129	0xbe8369b2	-0.25666577
130	0x3d846df3	0.06466284
131	0x3e26df08	0.16296017
132	0xbef5ec73	-0.4803196
133	0xbdb4ddec	-0.08831391
134	0x3e033176	0.12811837
135	0x3e7d22a9	0.24720253
136	0x3e126a26	0.14298305
137	0x3debd744	0.11515668
138	0x3eaf7325	0.34267536
139	0xbba70965	-0.0050975555
140	0xbc94c521	-0.018160405
141	0x3e870d3f	0.26377293
142	0x3d529b76	0.05141779
143	0x3d2a7353	0.041613888
144	0xbd346c17	-0.044048395
145	0xbd1e3e05	-0.038633365
146	0xbdccd080	-0.10000706
147	0x3bb4c454	0.005516568
148	0xbdd43536	-0.10361712
149	0xbd7e5420	-0.062091947
150	0xbd9e37a1	-0.07725454
151	0x3b042498	0.0020163413
152	0xb85dfcd6	-5.2925978e-05
153	0x3cc997d9	0.02460854
154	0xbc272bbc	-0.010203298
155	0xbd9ea036	-0.077454016
156	0xbddb8fd6	-0.10720794
157	0x3c2b5c3b	0.010459001
158	0xbcd29249	-0.02570452
159	0x3d16a253	0.0367759
160	0xbc1fd4dd	-0.00975534
161	0xbd519e7b	-0.05117653
162	0x3b6a0ee9	0.0035714454
163	0x3bb8091f	0.0056163217
164	0xbbaa36fc	-0.005194543
165	0x3c99f059	0.018791365
166	0xbd206fd2	-0.03916914
167	0x3d3b314b	0.045701306
168	0x3c20b90b	0.009809743
169	0xbd8cf546	-0.0688272
170	0xbdda8515	-0.10669915
171	0x3caed661	0.021342458
172	0xbdcce78a	-0.100051
173	0xbd87de4a	-0.06634195
174	0xbd30cedb	-0.043166023
175	0x3af128c4	0.001839899
176	0x3cb609b1	0.022221418
177	0xbc9aa086	-0.018875372
178	0x3ccfe146	0.025375973
179	0xbde10359	-0.10986967
180	0x3b9066cc	0.0044067856
181	0x3db0a190	0.086245656
182	0x3d976f77	0.07394307
183	0xbdb29784	-0.087203056
184	0x3c03524c	0.008015227
185	0xbd9a003a	-0.075195745
186	0xbd4bd35b	-0.04976211
187	0x3c2ed918	0.010671876
188	0xbd1f179d	-0.03884088
189	0xbd302afd	-0.043009747
190	0x3d48500e	0.04890447
191	0xbd9e588b	-0.07731732
192	0xbd8b70e6	-0.06808643
193	0x3d19af70	0.037520826
194	0x3d2ef863	0.04271735
195	0xbd498723	-0.049201142
196	0x3cab08a1	0.020878138
197	0xbd8b9247	-0.068150096
198	0x3cc02278	0.023453936
199	0x3d284162	0.04107798
200	0x3cec91e9	0.02887817
201	0x3d16beed	0.036803175
202	0xbddf6e13	-0.10909667
203	0xbd519ff1	-0.051177923
204	0x3bb8f44b	0.0056443564
205	0x3b6513a2	0.003495433
206	0xbd0b6419	-0.034031007
207	0xbd3ede5f	-0.04659879
208	0x3d0910b8	0.03346321
209	0xbad7ab86	-0.0016454316
210	0xbd88906d	-0.06668172
211	0xbcd997ed	-0.026561702
212	0xbd1f9cf8	-0.038968056
213	0xbda232b1	-0.07919825
214	0xbdc2165b	-0.0947692
215	0xbd5254bd	-0.051350344
216	0xbbd2cbba	-0.0064329775
217	0x3d5e7188	0.05430749
218	0xbd86ab2f	-0.065756194
219	0x3be6724c	0.007032668
220	0xbd516bd8	-0.05112824
221	0xbd5672bb	-0.05235551
222	0xbd86583f	-0.065598
223	0x3c98a3bd	0.018632764
224	0xbd30ec08	-0.043193847
225	0x3d26ca5c	0.04072033
226	0xbc88d929	-0.016705113
227	0x3b01043a	0.0019686357
228	0xbdbc892f	-0.09205853
229	0x3c4fc7dc	0.0126819275
230	0x3cdc0a5f	0.026860414
231	0xbd859f4f	-0.06524526
232	0x3d1f4319	0.03888235
233	0x3ca8167c	0.020518534
234	0xbd5e6883	-0.05429889
235	0x3da6b0b9	0.08139176
236	0x3d762fa0	0.060104012
237	0x3bc3124e	0.00595311
238	0x3c88fe27	0.016722752
239	0x3da912f6	0.0825557
240	0x3d629c19	0.055324648
241	0xbd818f2c	-0.06326136
242	0x3da9233c	0.082586735
243	0x3d13d22e	0.036089115
244	0xbbf2d518	-0.0074106567
245	0xbda582d9	-0.08081598
246	0xbd476048	-0.048675805
247	0xbdb6510f	-0.089021794
248	0xbb4413bc	-0.002991899
249	0xbdb5bea5	-0.08874253
250	0xbcb95d30	-0.022627443
251	0xbdb2de3b	-0.08733793
252	0x3d32c6b6	0.043646537
253	0xbd7156cf	-0.058920678
254	0xbd1a42b4	-0.03766127
255	0x3aac3590	0.0013138521

net_list.4.bias f4 [8]
0	0xbd98f4df	-0.074685805
1	0xbc8fad22	-0.01753861
2	0x3de95527	0.11393195
3	0x3d5022c0	0.05081439
4	0xbc995f1a	-0.018722106
5	0x3da577a8	0.08079463
6	0x3df63885	0.12022499
7	0xbdcfd2c6	-0.10147624

net_list.6.weight f4 [1, 8, 3, 3]
0	0xbec0c380	-0.37649155
1	0x3e10af50	0.14129376
2	0xbe832d12	-0.25620323
3	0x3e39b420	0.18135118
4	0xbea54df9	-0.3228605
5	0xbe20668f	-0.15664123
6	0x3eba17d3	0.363463
7	0xbecdda52	-0.40205628
8	0x3ca41c47	0.020033015
9	0xbd9ec0e9	-0.077516384
10	0x3d01f733	0.03172989
11	0x3d31bd3e	0.043393366
12	0x3de49e1d	0.1116297
13	0xbd6b56c3	-0.05745579
14	0xbad0ad03	-0.0015920702
15	0x3dbad898	0.09123343
16	0xbb26727b	-0.0025397826
17	0x3d9ac35a	0.075567916
18	0x3e279d24	0.16368538
19	0xbca0ec5a	-0.019643951
20	0x3dd596b6	0.104291365
21	0x3e23f4b0	0.1601131
22	0x3df73ff3	0.12072744
23	0x3df6f84a	0.12059076
24	0x3d6ee166	0.058320425
25	0x3e53338b	0.20625131
26	0x3c57e8e9	0.013178089
27	0xbe152f49	-0.14568819
28	0xbcb7c4ec	-0.022432767
29	0x3e4190fd	0.18902965
30	0xbcff012c	-0.031128488
31	0xbe15019e	-0.14551398
32	0xbdd5bb7b	-0.1043615
33	0x3d87f17a	0.06637855
34	0xbe1390ad	-0.14410658
35	0x3db567ff	0.08857726
36	0x3c741f78	0.014900081
37	0xbd9ad1f4	-0.07559577
38	0x3dc444b8	0.095834196
39	0xbcf11ada	-0.02943175
40	0xbca08336	-0.019593816
41	0x3c04be38	0.008101992
42	0x3dec65c8	0.11542851
43	0xbca0c410	-0.01962474
44	0xbda0dc84	-0.0785456
45	0x3dc5f7b7	0.096663885
46	0x3d290fee	0.041274957
47	0x3dcd22cd	0.10016403
48	0x3d389c48	0.045070916
49	0x3e37e32d	0.17957754
50	0x3dedf1ac	0.11618361
51	0xbd1d8d37	-0.03846475
52	0x3e1083b1	0.14112736
53	0x3d8da610	0.069164395
54	0xbc5d12ac	-0.013493221
55	0x3d805d0b	0.062677465
56	0x3b0b98a0	0.0021300688
57	0xbe11fc48	-0.14256394
58	0xbc3e96a1	-0.011632592
59	0xbe08bdc7	-0.13353644
60	0xbe22d673	-0.15902118
61	0x3d3bbd74	0.045834973
62	0xbe1bbf46	-0.15209684
63	0x3da520a3	0.080628656
64	0x3d6a3190	0.057176173
65	0xbee9874c	-0.45611036
66	0xbe2aea41	-0.16690923
67	0xbee0906c	-0.43860185
68	0x3d4a0c94	0.0493284
69	0x3dcd2175	0.10016147
70	0x3ea57327	0.32314417
71	0xbeb331c4	-0.34998906
